Model/both/fold4.ckpt (torch, 140607 bytes, 15 tensors)

input_block.0.weight f4 [438]
000000 99 a2 82 3f 36 a1 81 3f b8 01 74 3f 11 1f 7b 3f
       1.0205871 1.0127323 0.9531512 0.9809428
000010 3b ae 7b 3f b3 30 81 3f d0 31 7c 3f b1 d4 80 3f
       0.9831273 1.0092987 0.9851351 1.0064908
000020 4e a0 81 3f 79 02 7a 3f 60 d7 7e 3f 69 e2 87 3f
       1.0127046 0.9766002 0.99547386 1.061597
000030 00 f9 72 3f 8f 4b 7f 3f 7d 26 7a 3f c5 8c 75 3f
       0.94911194 0.9972467 0.9771498 0.9591792
000040 eb 1c 7c 3f 86 b7 77 3f fc c8 81 3f f2 a9 7a 3f
       0.98481625 0.9676441 1.013946 0.97915566
000050 75 d6 7e 3f 62 cc 74 3f bb 76 86 3f ed d3 84 3f
       0.99545985 0.95624363 1.0504984 1.0377175
000060 87 d1 81 3f b0 a4 80 3f 2d cf 85 3f fe de 74 3f
       1.0142068 1.0050259 1.045385 0.9565276
000070 8c fe 81 3f e7 6b 7f 3f 0c 36 78 3f 5f f7 7e 3f
       1.0155807 0.9977402 0.9695747 0.9959621
000080 3d 00 7b 3f f8 09 7c 3f 19 c1 73 3f c4 4f 80 3f
       0.9804724 0.9845271 0.9521652 1.0024343
000090 f8 44 83 3f ea ff 81 3f e0 38 7e 3f 90 02 80 3f
       1.0255423 1.0156224 0.99305534 1.0000782
0000a0 4a 71 78 3f 21 3a 83 3f 7a ca 82 3f cb 9d 86 3f
       0.97047865 1.0252115 1.0218041 1.0516905
0000b0 ef dc 75 3f 73 5a 7b 3f 06 b5 7a 3f 32 3d 73 3f
       0.9604024 0.9818489 0.9793247 0.9501525
0000c0 23 cc 7e 3f c6 03 7b 3f 80 b5 7d 3f 90 ac 7f 3f
       0.9953024 0.9805263 0.9910507 0.99872684
0000d0 e8 ce 7d 3f 7c bd 7d 3f 75 06 79 3f 16 aa 80 3f
       0.9914384 0.99117255 0.9727548 1.0051906
0000e0 9e cd 80 3f b8 13 81 3f 39 01 80 3f 2c c1 79 3f
       1.0062749 1.0084143 1.0000373 0.9756038
0000f0 b3 cd 7a 3f a4 39 80 3f 77 0b 82 3f 1e 88 77 3f
       0.9797012 1.001759 1.0159749 0.96692073
000100 16 fb 78 3f 3c e6 7f 3f 9e 14 7f 3f 1e 53 71 3f
       0.97258127 0.99960685 0.99640834 0.9426745
000110 a3 7f 81 3f a2 af 7a 3f 91 f7 73 3f 09 ff 75 3f
       1.0117077 0.97924244 0.9529963 0.9609228
000120 6b 75 79 3f 4f 0d 7a 3f 76 ff 79 3f 41 f1 76 3f
       0.9744479 0.9767656 0.9765543 0.96461874
000130 9b e1 7d 3f a4 af 70 3f dc 5e 7b 3f ac 11 7b 3f
       0.9917237 0.94018006 0.9819162 0.9807384
000140 1f 1d 77 3f 35 6d 7f 3f 2e 1b 81 3f fa e7 7c 3f
       0.9652881 0.9977601 1.008642 0.9879147
000150 cb af 7f 3f b1 2e 7b 3f 3a b9 7f 3f 9e 06 76 3f
       0.99877614 0.9811812 0.9989201 0.9610385
000160 d9 81 81 3f 19 0e 76 3f 0f 3c 78 3f 5e 57 7c 3f
       1.0117751 0.9611526 0.9696664 0.9857081
000170 95 d8 73 3f b7 f9 7f 3f 75 02 80 3f b7 fc 84 3f
       0.9525235 0.9999041 1.000075 1.0389622
000180 7d e9 7c 3f 66 99 7f 3f 8c cb 77 3f 39 b8 78 3f
       0.98793775 0.9984344 0.9679496 0.971561
000190 9f 7f 82 3f f5 33 7b 3f 53 c6 73 3f f4 3c 85 3f
       1.0195197 0.98126155 0.95224494 1.0409226
0001a0 e2 c7 81 3f 86 3c 77 3f a6 bc 71 3f 76 c4 80 3f
       1.0139124 0.96576726 0.9442848 1.0059955
0001b0 38 87 7e 3f df 6b 7c 3f 39 9f 7f 3f 03 3c 81 3f
       0.9942508 0.986021 0.9985233 1.0096439
0001c0 21 ae 7c 3f c3 88 6c 3f cf 6b 79 3f b4 54 77 3f
       0.987032 0.9239618 0.9743013 0.9661362
0001d0 df bc 7d 3f b3 91 7d 3f 38 ba 74 3f e9 e4 81 3f
       0.9911632 0.99050444 0.9559665 1.0147983
0001e0 9f e0 7d 3f 7b 0c 7f 3f 29 54 79 3f bc f5 7c 3f
       0.9917087 0.9962842 0.97394043 0.9881246
0001f0 a3 b7 81 3f 14 9b 7e 3f e8 40 81 3f b1 75 79 3f
       1.0134166 0.9945538 1.0097933 0.9744521
000200 56 b9 84 3f 06 eb 74 3f b7 18 7c 3f 2b 16 85 3f
       1.036906 0.9567112 0.9847521 1.039739
000210 71 c3 7f 3f 76 45 80 3f 3f 49 80 3f 88 c8 73 3f
       0.99907595 1.0021198 1.0022353 0.9522786
000220 1e 40 83 3f cd 05 84 3f 9b 54 75 3f c2 0d 81 3f
       1.0253942 1.031427 0.9583222 1.0082324
000230 a7 6d 7c 3f 0f e0 7b 3f 58 49 79 3f 20 90 7f 3f
       0.98604816 0.9838876 0.9737754 0.9982929
000240 de 73 74 3f 44 4b 7c 3f 23 f9 75 3f 7c 40 81 3f
       0.954893 0.98552346 0.9608328 1.0097804
000250 0f 58 80 3f 4f 22 83 3f 1c 80 7e 3f e6 72 7b 3f
       1.0026873 1.0244845 0.9941423 0.98222196
000260 73 a5 76 3f 32 fd 7e 3f 37 cd 7d 3f b3 47 87 3f
       0.96346205 0.99605095 0.9914126 1.0568756
000270 8b 05 83 3f e2 b4 6f 3f b4 ad 82 3f 58 dd 81 3f
       1.0236067 0.9363538 1.020926 1.0145674
000280 a9 65 71 3f b9 58 78 3f 69 a6 77 3f 59 8b 7e 3f
       0.94295746 0.9701038 0.96738297 0.9943138
000290 d0 1d 7b 3f 67 b8 82 3f e0 05 7a 3f 00 f9 84 3f
       0.98092365 1.0212525 0.97665215 1.0388489
0002a0 e5 35 78 3f d9 5a 7c 3f 8f b3 80 3f d7 11 7d 3f
       0.96957237 0.9857612 1.0054797 0.98855346
0002b0 7b f0 80 3f 17 42 88 3f 2d 56 80 3f de 20 85 3f
       1.0073389 1.0645169 1.0026299 1.0400655
0002c0 4d 8c 77 3f d6 fd 76 3f f7 ee 77 3f 24 5d 7d 3f
       0.96698457 0.9648107 0.96849006 0.98970246
0002d0 09 2c 78 3f 8a 69 77 3f 4f 2d 79 3f 28 47 71 3f
       0.9694219 0.96645415 0.9733476 0.942492
0002e0 50 11 72 3f 9d 32 88 3f fd 3a 84 3f 00 7c 75 3f
       0.94557667 1.0640446 1.0330502 0.95892334
0002f0 a8 a2 83 3f a7 47 7d 3f 7b 54 81 3f ca 11 83 3f
       1.0284014 0.9893746 1.0103906 1.0239804
000300 17 f3 81 3f c4 ae 7f 3f f0 01 77 3f e1 61 80 3f
       1.015231 0.99876046 0.9648733 1.002987
000310 d0 6b 76 3f 5a 54 7e 3f 5f 4f 73 3f 29 41 7c 3f
       0.9625826 0.9934746 0.95042986 0.98536927
000320 8d 82 81 3f eb 92 7b 3f a8 db 84 3f ed b8 74 3f
       1.0117966 0.98271054 1.0379534 0.95594674
000330 41 d4 7d 3f 21 9e 84 3f 08 fd 84 3f 55 d4 74 3f
       0.99152 1.0360757 1.0389719 0.9563649
000340 2a b6 7b 3f ec 9c 77 3f 4a 6b 7f 3f 13 c7 79 3f
       0.98324835 0.9672382 0.99773085 0.9756939
000350 2e 91 81 3f ce e3 79 3f 26 db 7f 3f 73 b4 80 3f
       1.012243 0.9761323 0.9994377 1.0055069
000360 df 4b 74 3f 66 b6 7b 3f 4b f7 79 3f b4 d3 77 3f
       0.9542827 0.9832519 0.97642964 0.9680741
000370 b3 0f 82 3f 4c 4b 81 3f 76 0d 7c 3f ad 3f 85 3f
       1.0161041 1.0101104 0.9845804 1.0410057
000380 e4 fc 79 3f 71 10 77 3f 1d 66 76 3f 52 ca 78 3f
       0.97651505 0.9650946 0.9624956 0.97183716
000390 83 db 7c 3f 69 5f 7a 3f 78 3e 7f 3f d1 37 78 3f
       0.9877245 0.97801834 0.99704695 0.9696017
0003a0 4a 60 81 3f 9e c3 7d 3f 09 b8 75 3f 93 2e 7e 3f
       1.010751 0.99126613 0.9598394 0.99289817
0003b0 58 2b 7e 3f ed 9d 78 3f b9 7c 7c 3f 15 4b 77 3f
       0.9928489 0.97115976 0.9862781 0.9659894
0003c0 93 d8 7c 3f 44 15 80 3f dc 59 83 3f 88 d9 74 3f
       0.98767966 1.000649 1.0261798 0.95644426
0003d0 5a 71 78 3f d6 c8 79 3f 09 75 84 3f 3c 62 7e 3f
       0.9704796 0.97572076 1.0348216 0.99368644
0003e0 6b 0a 79 3f 47 94 7d 3f e8 a3 7c 3f 9e ee 77 3f
       0.9728152 0.9905438 0.986876 0.96848476
0003f0 87 5b 7d 3f fa f1 84 3f ac b2 7d 3f 97 d0 7b 3f
       0.98967785 1.0386345 0.99100757 0.9836516

input_block.0.bias f4 [438]
000000 08 a8 08 bc 39 fd 1e bb 78 01 7e bc 4c 23 02 38
       -0.008340843 -0.002425982 -0.01550328 3.1027288e-05
000010 84 45 11 bc ac bd 2d bb ec a4 8b bc 9c 9e 9f bb
       -0.0088666715 -0.0026510758 -0.017046414 -0.0048712026
000020 de 32 1f bb e1 24 27 3c 24 65 0d bb 6b 9c 17 bc
       -0.0024291794 0.010201664 -0.0021575177 -0.009253602
000030 53 18 5e bc 30 50 24 bc 8c 0a cf 3b d9 0a 8e bc
       -0.013555604 -0.010028884 0.006318396 -0.017339157
000040 c0 aa 11 3c d4 6f 84 3c b2 d4 88 bb 13 12 a9 bc
       0.008890808 0.016166605 -0.004175746 -0.020638501
000050 95 44 ab 3b 2c c7 96 3c ac f8 a4 ba 2d e5 e4 bb
       0.0052266815 0.01840552 -0.0012586317 -0.0069853277
000060 dd 42 3d bc d0 33 a9 bb dd 83 f0 ba 22 47 8d 3c
       -0.011551586 -0.0051636472 -0.0018349845 0.017245833
000070 8b 1b fc 3b 7b f6 2d 3c 89 36 6b bc 18 20 42 3c
       0.007693713 0.010617848 -0.014356264 0.011848472
000080 6c 5d 40 3b 47 01 7a bc 3d a9 76 bc 37 d9 58 ba
       0.0029352559 -0.015259094 -0.015054998 -0.00082721136
000090 3a e4 42 ba a1 84 aa ba c8 fc 42 bc 70 4d 3b bc
       -0.0007434521 -0.0013009497 -0.011901088 -0.011432037
0000a0 8b de f2 bb 25 66 cf 3b 09 7c 40 3b 6a 84 f8 bb
       -0.007411783 0.0063293152 0.0029370806 -0.0075841444
0000b0 9a 79 12 bc 46 3d 45 bc c8 c9 eb bc 57 af f1 bc
       -0.008940125 -0.0120385345 -0.02878274 -0.029502554
0000c0 7d 2f ed bb 30 ca bf bb ed a5 1b 3b 78 7c 7b bb
       -0.007238327 -0.00585296 0.0023750023 -0.003837375
0000d0 72 c8 e7 3a df a4 b2 3b 8a 23 0e bb 5f df c4 bb
       0.0017683639 0.005451783 -0.0021688663 -0.006008073
0000e0 d9 59 40 bc be e3 3e bc 3a d3 8d b9 0e 19 57 ba
       -0.011740171 -0.011650978 -0.00027050992 -0.00082053326
0000f0 72 42 9b 3c 90 1a ca 3a ca 50 55 3a ff 0a e7 3a
       0.018952582 0.0015419293 0.00081373437 0.0017627178
000100 53 8d cb bb 94 37 47 3c df 48 2f 39 30 1c 06 3a
       -0.0062119155 0.012159247 0.00016716447 0.00051158946
000110 c1 a4 e2 3b b3 cb e1 bb 4d 25 97 bc f7 2f 8c bb
       0.006916613 -0.006890738 -0.018450404 -0.004278179
000120 2a 74 99 bb 50 f4 83 3c 32 c2 53 bc 9a fb b6 3b
       -0.0046830373 0.016107708 -0.012924718 0.0055841925
000130 78 ef 93 3b 9c 66 d7 3b dc 70 9c 3c 24 31 7a 3c
       0.004514631 0.0065735113 0.019096784 0.015270505
000140 6f 48 89 3c fa 95 3a bb fc fa a9 3b 1b 28 17 bb
       0.016758172 -0.002847074 0.0051873904 -0.0023064676
000150 76 b5 fb 3b f2 63 40 3c 51 93 11 3a bd 3b 86 bc
       0.007681544 0.011742579 0.0005553263 -0.016385907
000160 b7 69 25 bc 97 3a bb 3a 57 7f c7 3b 17 0d 09 bb
       -0.010096005 0.0014284429 0.006088178 -0.0020912343
000170 a2 68 fe bc 62 bc 0b bc cb 08 fb 39 e9 b8 d2 bb
       -0.031055752 -0.008528801 0.00047881002 -0.0064307344
000180 92 dc 52 bc 47 20 0e 3c 28 bb cf 3a 9f ca e7 ba
       -0.012869971 0.008674688 0.0015848624 -0.0017684287
000190 de f6 95 bb 50 49 b6 3a c5 cc a5 3c de 12 cd bb
       -0.004576548 0.0013907347 0.020239243 -0.0062583527
0001a0 c6 0e 80 ba 83 ef 8c bc 3c b8 c0 bb 7b 84 8a bb
       -0.0009770028 -0.017204052 -0.0058813374 -0.0042272187
0001b0 7c 9d 87 3b 5a ba 43 3c 4c 6b 94 bb 48 8a b8 3b
       0.0041386466 0.011946285 -0.0045293923 0.005631719
0001c0 f7 22 62 3c 34 cf 0b bd 07 67 80 bb 40 12 39 3c
       0.013802282 -0.03413315 -0.003918532 0.011295855
0001d0 d7 3b 21 3c a0 03 ef bb 51 5a 92 bc 64 1b 82 3b
       0.009840927 -0.0072941333 -0.017865332 0.0039705504
0001e0 aa 60 22 3c 7d cc 2e bc 8f 0c 9a bc 8d 69 fa bb
       0.009910742 -0.010668871 -0.018804817 -0.007641977
0001f0 30 bf 01 bc e1 1c 63 3b 30 af af 3b 3e ec 07 3d
       -0.007919118 0.0034654664 0.00536146 0.033184282
000200 7f 13 fe ba 13 4f cc bc 22 08 80 bc 17 b6 5b ba
       -0.0019384472 -0.02494005 -0.015628878 -0.00083813205
000210 8f e3 82 3c 35 37 f2 b9 92 0a f2 bb 74 68 23 bd
       0.015977649 -0.0004619897 -0.007386514 -0.039894536
000220 a1 0b 89 bb 2a a1 03 3b 02 7f 4c 3c 75 9e 00 bc
       -0.0041822945 0.0020085075 0.012481453 -0.007850279
000230 e9 ed 62 bc ec 4e 8c bc 30 b3 b0 3c f0 db de 39
       -0.0138506675 -0.017127477 0.021569818 0.00042507006
000240 9d 97 fb 3c 80 d3 83 bc 70 19 bb 3c 18 35 e0 3b
       0.030711943 -0.016092062 0.022839278 0.006842267
000250 0d fc 7f bb ca 74 32 3b de 30 a6 bb ad 20 73 bc
       -0.0039060146 0.0027230256 -0.0050717434 -0.0148393335
000260 b2 a0 b7 bc a5 bf 15 bc d9 68 ad 3b 15 4e 0a bc
       -0.022415493 -0.00913993 0.00529204 -0.008441468
000270 cd 23 90 bb 41 e1 23 bd 2d 62 f8 bb 0b 55 1a 3b
       -0.004398799 -0.04000974 -0.007580063 0.0023549225
000280 b7 55 c0 3c 6d 45 a3 bc a3 13 4e bc f1 04 a0 bb
       0.023478372 -0.019930566 -0.012577924 -0.0048834016
000290 2e bd 4b 3b 54 23 91 3a 27 c1 4d 3b 37 c5 8d ba
       0.0031088102 0.0011073151 0.0031395645 -0.0010816221
0002a0 cc 7f ae bc 56 ce 88 bb e9 9f 42 3a 64 1f a0 bb
       -0.021301173 -0.004174988 0.0007424341 -0.0048865546
0002b0 d5 62 ab bb 15 dc eb ba 61 9c 63 3c 51 7d 19 b8
       -0.0052302876 -0.0017994667 0.013892264 -3.6594753e-05
0002c0 c0 c2 9c 3c 8f f7 50 bc ca d2 0d 3a 68 89 f5 3b
       0.019135833 -0.012754335 0.0005410133 0.0074931867
0002d0 90 62 f2 bb 9d ff c9 bb e3 a9 1a bc 9e 8d 9e 3c
       -0.0073970035 -0.0061645047 -0.009439918 0.019354638
0002e0 aa 68 d4 3c ed 50 84 3a bf 11 98 3b c1 aa 47 3b
       0.025928814 0.0010094919 0.0046407874 0.0030466767
0002f0 7b eb 96 3b 8f 48 18 bc d6 21 8a bb 21 75 21 bb
       0.004605708 -0.009294643 -0.0042154593 -0.0024636465
000300 3d 51 fd b9 b6 f5 25 bb 17 77 1f bc 9a 3e 98 3a
       -0.00048316448 -0.0025323457 -0.009732983 0.0011615336
000310 7d c4 11 3c f8 ce 22 3c e6 92 fe 3a 87 10 d7 3b
       0.008896944 0.0099370405 0.0019422441 0.0065632495
000320 7c 15 c4 3a f2 86 14 3b ce 27 32 3b 19 7b 4a 3c
       0.0014960016 0.0022663441 0.002718437 0.01235845
000330 11 96 25 bb 77 43 ed ba 00 34 2d bb 58 2e 8c bc
       -0.0025266449 -0.0018101771 -0.00264287 -0.017111942
000340 d0 19 0b 3b 6d 50 9c 3b 22 ee b4 3b 63 2f b0 3c
       0.0021225102 0.0047703297 0.0055215517 0.02150697
000350 3b 33 66 3b e8 a7 2c bc 01 65 bb 3b 6e 1a 0e bc
       0.003512575 -0.010538079 0.0057188277 -0.0086732935
000360 d1 a7 5f bc 46 52 a1 bc a2 45 6b 3c ab 34 2e bc
       -0.01365085 -0.019692551 0.0143598635 -0.010632674
000370 fb 9b b7 3b 72 96 d3 39 57 78 91 bb 70 db ae bb
       0.005603311 0.00040357147 -0.0044393945 -0.0053362176
000380 d7 4a bb bb 8c 22 14 bc 14 c8 89 3c 92 c2 eb 3c
       -0.0057157087 -0.00904144 0.016819037 0.028779302
000390 08 66 c6 b8 61 39 b6 ba c5 88 fc 3b 22 0d 5a bc
       -9.4603805e-05 -0.0013902598 0.007706734 -0.013308795
0003a0 7e a0 36 3c f0 3e 4e bc 86 d3 7a bc 2d 67 1f bc
       0.011146663 -0.012588248 -0.01530922 -0.009729189
0003b0 e4 9d 22 3c f3 68 80 bb 09 b3 2e bb 11 f1 f0 bb
       0.009925339 -0.003918761 -0.0026657006 -0.007352956
0003c0 fb 81 4f bc 2d f1 90 ba 7c d1 a4 ba 0a dd b5 3c
       -0.012665267 -0.0011058204 -0.0012574638 0.022200126
0003d0 40 db 48 3c e6 8e 00 bc a3 0d 94 3b 54 06 cd bb
       0.0122593045 -0.00784657 0.004518227 -0.006256858
0003e0 83 ae ad bb f9 13 56 3b 6b 75 56 bb 35 8c db 3a
       -0.0053003444 0.0032665713 -0.0032723795 0.0016750159
0003f0 53 63 19 ba f4 95 09 3a 4a f3 22 bc 69 73 ed ba
       -0.0005851287 0.000524848 -0.0099457 -0.001811606

input_block.1.weight f4 [64, 438]
000000 54 29 8b 3b 09 e1 3d 3d 50 4b d8 3c 4b a1 83 3c
       0.00424687 0.04635719 0.0264031 0.016068121
000010 2e f8 b2 bc a1 a2 41 bc 10 e0 ae bc b4 b0 d2 bc
       -0.021846857 -0.011818559 -0.021347076 -0.025719024
000020 a5 d7 8f 3d b4 52 96 3b 8b f1 b6 bc 43 24 8a bc
       0.07023553 0.0045874957 -0.022331974 -0.016862994
000030 19 64 35 3d 35 56 27 3c b2 b4 5e 3c 0b b4 cf 3c
       0.044284914 0.010213424 0.013592886 0.025354406
000040 f2 81 17 bd c7 b0 dd 39 cc 48 26 bd 49 0a be bb
       -0.03698916 0.00042284114 -0.04059677 -0.005799566
000050 37 62 38 bd e7 ee 80 bd c6 c0 79 bc 9e f6 72 bd
       -0.04501554 -0.06295567 -0.015243715 -0.059317224
000060 c6 37 c9 bc dd 0f 33 3d 56 46 f1 ba ab ac 08 3d
       -0.024562728 0.0437163 -0.0018407803 0.033367794
000070 a6 3e fe 3c 44 4d 26 3d 9a 30 94 bc 37 80 4d 3c
       0.031035732 0.04060103 -0.018089581 0.012542776
000080 6c ae c7 bb ca ce 0b 3c 35 8e 81 3c fe cd 04 bb
       -0.0060937908 0.008533189 0.01581488 -0.0020264382
000090 ae 8f bf 39 ea 2c 6a 3d 1f f2 18 3c a9 3c 31 3c
       0.0003653741 0.05717174 0.00933507 0.010817685
0000a0 d2 77 d5 3c 18 5f 02 3d 82 03 84 3d b3 be 30 bd
       0.026058111 0.03182897 0.064459816 -0.043150615
0000b0 5d 41 21 bc 7a e5 76 bc 72 4c 3b bd 6f be 5a bd
       -0.009842244 -0.01506936 -0.0457272 -0.053404268
0000c0 cb 2a 92 bc a2 17 30 bd 1b d3 b6 bc e0 89 93 3d
       -0.01784267 -0.042991288 -0.02231746 0.07204032
0000d0 83 c9 1e 3d 03 ef 59 3c f7 93 5e 3c 4b 52 0e 3c
       0.038766395 0.013301614 0.013585082 0.008686612
0000e0 b4 2b 6f 3c ec f4 a1 3b 0a b1 60 bc 70 38 87 bc
       0.014597822 0.004942527 -0.013714084 -0.016506404
0000f0 2e c0 e2 bc d7 73 e7 bc 31 69 54 bc c4 38 eb 3b
       -0.027679529 -0.028253479 -0.012964533 0.007178398
000100 39 89 d8 3b 23 66 41 3d c8 a2 f7 3c 58 ae f2 bc
       0.006608155 0.047216546 0.030228987 -0.02962415
000110 b9 c5 6e bb 82 ec d6 bc 75 4e 87 bd 57 fd 38 3c
       -0.003643377 -0.026235823 -0.06606761 0.01129087
000120 09 a6 dd bb a5 2a 41 bd 86 94 fc 3b b1 3a a8 bc
       -0.0067641777 -0.04715981 0.007708135 -0.020535799
000130 ad d9 a2 3b 17 d4 04 39 e8 ce d5 3c 6f 9d 3d bd
       0.0049697966 0.0001266751 0.026099637 -0.04629272
000140 df 8a 5d ba 68 5b f7 bb 5d b4 8f 3d 16 f3 0b bc
       -0.00084511744 -0.0075487383 0.070168234 -0.008541843
000150 a4 69 6a bc bb 44 5c 3c 52 10 92 bc ce e6 51 3c
       -0.014307413 0.013444121 -0.017830048 0.012811376
000160 96 a5 39 bd 59 da 7a 3c 4a 49 4a bc c1 04 70 3c
       -0.04532393 0.015310847 -0.012346575 0.014649571
000170 69 c7 bf 3c 19 42 9d 3c 7f d3 5b 3b a1 6f 10 bd
       0.023410516 0.019196557 0.003354281 -0.035262708
000180 a7 3f a4 bc 5e 2a f6 bc 1c 9b 78 3c 29 21 3d bd
       -0.020049883 -0.0300495 0.0151737 -0.046174202
000190 ec 57 52 bc b9 50 16 bd 7e bf f2 bc d2 e5 49 bd
       -0.012838345 -0.036698077 -0.029632326 -0.04929144
0001a0 7c 5a 21 3d 16 34 91 3c c2 89 64 bb cf ee 08 3d
       0.039392933 0.017725032 -0.003487215 0.03343087
0001b0 90 cd 84 3c e3 49 66 3c 3c 1c 8e 39 ad 49 bf 3b
       0.016211301 0.014055702 0.00027105387 0.0058376403
0001c0 6d 03 f1 3c d6 ce df 3c 9e ac 88 bc 55 db ae 3c
       0.029420579 0.027320307 -0.016683873 0.02134482
0001d0 2e 55 58 3d a5 d3 16 bd 70 f4 d4 3c a7 63 78 3d
       0.05281561 -0.036822934 0.025995463 0.06064191
0001e0 da 2c 3b bd d3 55 00 3d d9 80 8a 3c 8f 85 f4 bc
       -0.04569707 0.03133185 0.016907142 -0.029848842
0001f0 1a f9 e1 3a 95 a8 29 bb 98 4d 30 3d 40 59 ba bc
       0.0017240376 -0.0025887836 0.04304275 -0.022747636
000200 e3 13 b8 bc 1d 4c 3d 3d de 66 03 bd 67 03 5b 3c
       -0.02247042 0.046215165 -0.032080524 0.01336751
000210 88 bd 8c 3c 7a 81 c5 3b 6f be 17 bd 36 42 33 bb
       0.01718022 0.0060273977 -0.037046846 -0.0027352697
000220 ca 09 44 bd b4 85 21 bd 79 79 6c bc a3 9d 6e bc
       -0.047860898 -0.03943415 -0.014433258 -0.014563951
000230 2a 1e 4c bd db 55 07 3b 05 48 b0 bc 63 ce a5 bb
       -0.049833454 0.002065054 -0.021518717 -0.0050600036
000240 d9 4a c3 ba fa bc 57 bb 42 04 c0 3c 1d 3d 79 bc
       -0.0014899626 -0.0032919035 0.02343953 -0.015212324
000250 c4 ce 1a 3d ae 47 20 3c 01 83 59 3d d6 de 6a bc
       0.037794843 0.009782715 0.05310345 -0.014335355
000260 76 db bf 3c 5f 5f 8d bd 50 cc 3c 3d c6 95 65 bd
       0.023420077 -0.06902956 0.046093285 -0.05605104
000270 9f c4 19 bd df c1 94 ba d8 54 b4 3c 8b 37 0b 3c
       -0.037541028 -0.0011349282 0.022013113 0.008497129
000280 91 21 84 3c f0 06 21 bd af 2c 50 3d 8b cf 32 bc
       0.016129287 -0.039313257 0.050823864 -0.01091374
000290 c2 4f 12 bd 83 50 39 3b 1f 31 24 3d 06 41 28 bc
       -0.035720594 0.0028276748 0.040085908 -0.010269409
0002a0 27 01 c5 3c 37 2d f8 3b b1 5a 23 3d 6b 59 4c 3d
       0.024048401 0.0075737494 0.039881412 0.049889963
0002b0 8a 7f 1e bd 72 56 3a b9 08 68 99 b8 83 17 c4 bd
       -0.03869585 -0.00017770546 -7.314986e-05 -0.09574797
0002c0 0d 16 f9 3c bc cf a6 bc 32 d6 32 3d 1d 98 a4 3c
       0.030406022 -0.020362727 0.043661304 0.020092065
0002d0 d2 28 de bc 1c 46 88 3c 18 3b 8b bc 3e b4 ef bb
       -0.027119074 0.016634993 -0.016995952 -0.0073151877
0002e0 7b d9 53 3d d5 39 2f 3c e5 90 bd bc dd 80 0e ba
       0.051721077 0.010694941 -0.02314038 -0.0005436072
0002f0 cd 37 57 bc fc 03 15 3c 6d 37 11 bd 58 d1 6f bc
       -0.013135863 0.009095188 -0.03545325 -0.014637314
000300 28 b7 5a bd 3a 64 5a 3c d8 de bc 3c 20 35 50 3c
       -0.053397328 0.01332956 0.023055479 0.0127079785
000310 e7 a6 d8 3c 5d 1f 69 bc 93 a8 1b 3d 11 b1 8f bb
       0.026446773 -0.014228669 0.03800256 -0.0043851216
000320 fd de 1e bd a3 c4 9c 3c e3 f9 92 bd 3e 4a 57 3d
       -0.038786877 0.019136732 -0.07176568 0.052561037
000330 2b a3 b2 bc 6f b8 1e 3d 7f d1 00 bd 0e e7 aa bb
       -0.02180632 0.03875011 -0.03144979 -0.005215532
000340 45 5f 9e 3a d7 69 e6 3b 2a 01 20 3c 2f 42 24 bc
       0.0012082836 0.00703166 0.0097659025 -0.010025545
000350 f4 47 c2 3c f8 62 3e 3d 35 a2 c0 ba fe fa 1f 3c
       0.02371595 0.046481103 -0.0014696779 0.009764431
000360 c3 90 7b 3d ee 3e bb 3a 19 16 21 3d ee 93 b5 bc
       0.061417352 0.0014285722 0.039327715 -0.022165265
000370 04 5b 80 3c 93 1c 1d bb 72 d5 b7 3c f7 5b cb bc
       0.0156684 -0.002397333 0.022440646 -0.024824126
000380 d1 a6 0b 3d 80 da b2 bb 41 4a a3 3c ed 5f 1d 3d
       0.034094635 -0.005458176 0.019932868 0.03842156
000390 e4 0e 89 bc 9a 8e eb bb ec a1 d7 3c 08 44 57 bc
       -0.016730733 -0.0071886303 0.026322328 -0.0131387785
0003a0 52 3c 1f 3b f0 06 1e bd 2e 08 48 bc b0 23 e5 bc
       0.0024297428 -0.038580835 -0.012208981 -0.027971119
0003b0 2c 75 23 bc 54 7f 5f 3b 81 30 d0 bc b2 1a 7a bc
       -0.009976666 0.0034102993 -0.025413753 -0.015265154
0003c0 9e dd 1c bd cc 0f 6a 3d 22 7c 3a 3c be cf 34 3d
       -0.038297288 0.05714397 0.011382135 0.04414343
0003d0 61 e5 9d 3c b3 94 7d 3d 51 e7 02 bd bf 92 d2 bc
       0.019274415 0.06190939 -0.03195888 -0.02570474
0003e0 2c 89 a9 bc ae 8c 86 bb b9 55 fa 3b b6 db 03 3d
       -0.020695291 -0.004106126 0.0076396135 0.032191955
0003f0 6d 3b 05 bd bf d6 22 bd ed 40 83 bb 63 30 2d bd
       -0.032527376 -0.03975558 -0.0040055425 -0.042282473

input_block.1.bias f4 [64]
000000 7a e2 5b 3c 50 73 92 bc 64 bc b2 bb 0a af 40 bd
       0.013420695 -0.01787725 -0.005454587 -0.04704193
000010 b7 56 5c bd 26 6e 0a bd 87 26 1e 3d e4 81 42 bd
       -0.053793635 -0.033796452 0.03861096 -0.047487155
000020 d8 9d f3 3b 52 d0 d4 3c 08 be 8c bc ef f4 b4 bb
       0.007434588 0.025978241 -0.017180458 -0.0055223624
000030 3d e5 4e 3d 3c 74 20 bd e0 56 bc 3b d9 66 a9 3c
       0.050511587 -0.03917335 0.005747661 0.020678924
000040 45 2d bf bb bd 82 83 bc 62 09 44 bd cf 73 68 bd
       -0.005834254 -0.016053552 -0.04786051 -0.05675107
000050 66 c9 e4 bb 09 bc 35 bc 57 6c af bc c7 7f 08 bd
       -0.0069820164 -0.011092194 -0.021413965 -0.033324983
000060 fe 8c 96 ba 50 33 ce bc f9 de d9 3c 55 7b dc 3c
       -0.0011486111 -0.025170952 0.02659558 0.026914278
000070 9b dc 20 3d d0 23 f3 ba 9b 74 7a 3c 44 cf 04 bd
       0.039272886 -0.0018550102 0.01528659 -0.032424226
000080 48 45 4a bd 55 29 18 bd 3d e2 0f bd 15 85 3f bd
       -0.049382478 -0.037148792 -0.035127867 -0.046757776
000090 56 09 45 bd 27 59 90 bc 77 e4 80 bd 96 c4 ed 3c
       -0.048104607 -0.017620636 -0.06293576 0.029024404
0000a0 c4 6d 10 bb 23 ae 62 bd 3d 59 ad 3c 11 d1 00 3d
       -0.0022038082 -0.05534185 0.021160716 0.03144938
0000b0 fb 42 ed bc 65 a4 cd bc ea cd b4 3c 13 ad 11 3d
       -0.028962603 -0.025102803 0.022070844 0.035565447
0000c0 48 72 d1 3c dc 95 04 bc 13 6e 64 bb ee 81 97 bc
       0.025567189 -0.00809237 -0.0034855648 -0.018494572
0000d0 78 41 1c ba 32 2a 04 3c 02 2b d2 bc 0f 3c 4d 3c
       -0.00059606833 0.008066701 -0.025655273 0.012526526
0000e0 8d d8 3c bc ac 7e 62 3c c8 55 7d bc ee 0b 75 bc
       -0.011526239 0.013824146 -0.015462346 -0.014956458
0000f0 d2 c3 5e 3a b7 f5 ca bb ef de 93 3c 83 08 f8 3c
       0.00084978074 -0.0061938423 0.018050639 0.030277496

hidden_block.0.weight f4 [64]
000000 0c b6 74 3f 20 c1 7c 3f 91 9a 81 3f 8b 5a 81 3f
       0.9559028 0.98732185 1.0125295 1.0105757
000010 a3 cc 80 3f e4 37 7a 3f 77 72 80 3f 4c 84 80 3f
       1.006245 0.9774153 1.0034932 1.0040374
000020 5a 7c 73 3f e1 2e 6b 3f fb 6e 77 3f 77 64 84 3f
       0.9511162 0.91868407 0.9665372 1.034316
000030 02 24 7f 3f 27 2f 87 3f 85 76 74 3f 9a 4c 7b 3f
       0.9966432 1.0561265 0.95493346 0.9816376
000040 7c 15 80 3f 7e 2f 79 3f b3 f8 7a 3f 32 db 7d 3f
       1.0006557 0.9733809 0.98035735 0.9916259
000050 12 36 6f 3f 72 18 81 3f e2 70 7c 3f b4 9a 85 3f
       0.9344188 1.0085585 0.98609746 1.0437837
000060 44 ec 79 3f 07 54 84 3f 61 cc 79 3f de 3a 7d 3f
       0.9762614 1.0338143 0.9757748 0.9891795
000070 40 d4 78 3f 6a 5c 84 3f 78 ed 85 3f d9 ca 82 3f
       0.9719887 1.0340703 1.0463095 1.0218154
000080 24 d8 80 3f 94 f3 7f 3f 8f ac 7c 3f 53 16 7e 3f
       1.0065961 0.99981046 0.98700804 0.99252814
000090 77 18 73 3f f2 e8 7d 3f 04 47 8a 3f 4f 59 7b 3f
       0.94959205 0.9918357 1.0802922 0.9818315
0000a0 22 70 85 3f a2 65 81 3f c8 db 73 3f f8 7e 7e 3f
       1.0424845 1.0109141 0.95257235 0.9941249
0000b0 4b 4a 80 3f 18 8f 6d 3f 42 3a 7c 3f d6 92 81 3f
       1.0022672 0.9279647 0.98526394 1.0122936
0000c0 6c e7 81 3f f5 70 74 3f c3 89 77 3f 52 ba 83 3f
       1.0148749 0.9548486 0.9669458 1.0291235
0000d0 26 2f 7f 3f 60 20 83 3f 51 74 80 3f 7c 0b 7b 3f
       0.9968132 1.0244255 1.0035497 0.980644
0000e0 32 d0 78 3f dc 69 7d 3f 7a b5 80 3f 39 46 78 3f
       0.9719268 0.98989654 1.0055382 0.9698215
0000f0 db d1 7b 3f 63 a7 7e 3f b9 f7 80 3f 3b 0b 7f 3f
       0.9836709 0.9947416 1.0075599 0.9962651

hidden_block.0.bias f4 [64]
000000 53 cc 38 bd 79 6c 91 3c d8 a6 b7 38 a6 92 c2 bc
       -0.045116734 0.01775192 8.757197e-05 -0.023751568
000010 6b fd c8 3b 6b 90 18 3c 37 5b 8a b8 a2 e7 d4 bb
       0.0061337254 0.009311776 -6.597343e-05 -0.0064973393
000020 47 db 00 3d b6 62 66 3d 29 7b 99 3c 3a 7c bf bc
       0.03145912 0.05624648 0.018735485 -0.023374666
000030 44 e7 9c 3c 6e f0 64 bd 6f 2a 41 39 ba df 9f bb
       0.019153245 -0.055893354 0.00018421722 -0.004878965
000040 9d 73 65 3c 0f d6 b8 b9 f1 3d 25 bc 76 d1 26 3c
       0.014004615 -0.000352547 -0.010085569 0.010181775
000050 d0 fc 3d 3c 94 d2 31 bb d3 45 82 3c 98 5d 7e 3b
       0.01159592 -0.002713357 0.015902435 0.003881311
000060 3b eb 22 bb ad bc 0a bd 1d 52 b5 3c 84 41 8e 3b
       -0.0024859447 -0.03387134 0.022133881 0.004341306
000070 2e d6 08 3c d1 ef a0 bc 45 11 1e bd 3c a9 30 3c
       0.008351846 -0.019645603 -0.03859069 0.010782536
000080 b6 51 62 3b e6 92 bd bb b2 2f d2 b8 40 b5 27 3c
       0.0034533567 -0.005785334 -0.00010022464 0.010236084
000090 52 55 19 3d 06 ec 4d bb 0d 05 ad bd 01 72 a2 3c
       0.037434883 -0.0031421199 -0.08448229 0.019829752
0000a0 b6 8f ba bc 7f 4a 9a 3b aa 01 38 bb b3 f3 82 3a
       -0.022773605 0.0047085877 -0.0028077164 0.0009990841
0000b0 a3 37 d4 bc 9a f4 40 3c a9 b3 9c 3b f2 38 7a bc
       -0.025905436 0.011777068 0.0047821593 -0.015272366
0000c0 59 78 2a bd ee c2 5a 3c 16 da 03 3d b5 db 81 bc
       -0.04161868 0.013352139 0.032190405 -0.015851835
0000d0 51 34 ec 3b 31 eb 82 bb 36 61 54 bb da be bf 3c
       0.007208385 -0.003995322 -0.0032406575 0.023406435
0000e0 65 57 ed 3c 76 96 d6 bb c9 c7 9c 3b 06 e3 d5 3b
       0.028972337 -0.006548698 0.0047845584 0.0065273074
0000f0 58 1f 06 3b e9 40 04 3d d5 8c b1 3a 43 1c 27 3c
       0.002046546 0.032288466 0.0013546 0.010199609

hidden_block.2.weight f4 [64, 64]
000000 2b 26 a0 bd 87 69 19 3e 11 86 5c 3d ef 76 53 bd
       -0.0781978 0.14981662 0.053838793 -0.051627096
000010 94 89 d2 3c 9d 21 a9 3d f1 b7 45 bd 72 4b 6d 3d
       0.025700368 0.08258364 -0.048271123 0.05793328
000020 06 b2 b0 3d cd b4 e1 bd 12 cc 3c bd 75 7c c0 3a
       0.08627705 -0.11020813 -0.046093054 0.0014685529
000030 84 ab 52 3d df f4 ab 3d a7 fc 00 3e 92 b6 4e 3d
       0.0514331 0.08396315 0.12596379 0.05046708
000040 d5 e3 04 3d 5a bb a0 bd f0 fe 91 3c 14 d3 09 3d
       0.03244384 -0.078482345 0.017821759 0.033648565
000050 e6 83 57 bd 1f 86 c1 3c 11 ed 26 3d 3a 54 dc 3b
       -0.052616023 0.023623524 0.040753428 0.006723908
000060 4b aa 80 3d 2f 1c 38 bd ce 4f c7 3c 72 3d aa bd
       0.06282481 -0.044948753 0.024330046 -0.08312501
000070 31 23 8b 3c 03 ff dc ba 2a 25 b4 3d 09 29 e0 3d
       0.016984554 -0.0016860667 0.08796151 0.10945327
000080 4c e6 24 bd 2e 73 99 bd 80 43 5a bb 57 dc ad bd
       -0.04025869 -0.07492672 -0.0033304393 -0.08489292
000090 45 ca a0 ba 35 32 3e bd 58 5c 8c bd ce f4 06 3d
       -0.0012267312 -0.0464346 -0.06853551 0.032948308
0000a0 17 ca d9 3d 86 10 9f 3d 5d dc fc bd d2 1a 19 3b
       0.10634249 0.077668235 -0.123467185 0.0023361933
0000b0 9e 22 d9 3d 7a 21 d3 3d d8 8b 07 bd b8 99 32 3d
       0.10602306 0.103091195 -0.03309235 0.04360363
0000c0 8f 95 a0 bb a8 29 91 bd 70 7c 28 bd df ac 28 3c
       -0.0049006413 -0.070880234 -0.041134298 0.010295122
0000d0 60 25 23 be 6a 38 4f b8 db 2a 06 3d 5b fb 98 bd
       -0.15932226 -4.9405186e-05 0.032755714 -0.07469817
0000e0 a1 e0 0c 3e 2d ee 65 bd 66 f5 80 3c 9a 94 41 bc
       0.13757564 -0.056135345 0.015742015 -0.0118152145
0000f0 fb 6e 88 bd 22 9d ae bd ca cf 50 bd 9f 66 bb 3d
       -0.06661793 -0.085260645 -0.050979413 0.09150433
000100 29 d9 84 3d 8d ba a6 bd 4f 4a 68 bd ec e8 af bd
       0.064867325 -0.081410505 -0.05671149 -0.08589348
000110 f9 b3 dc bd 17 2f 62 bd f4 5c d7 bd e3 16 bd 3d
       -0.107765146 -0.05522069 -0.10515776 0.09232881
000120 4e a7 9e bb e0 8e 0c bd d4 a9 91 bd b7 0e da ba
       -0.0048417216 -0.034315944 -0.0711247 -0.0016636465
000130 2f 88 c8 3d 5c 80 83 bd 46 a8 f3 bd 71 24 df bd
       0.097916 -0.06420967 -0.1189733 -0.108956225
000140 c3 12 cd 3d 83 41 e8 ba 48 cb 58 3d e9 1a 3f 3d
       0.10013344 -0.0017719719 0.05292824 0.046656523
000150 7f 24 9b bd 99 2f e1 bd 53 b9 dd bd 38 5c 40 3e
       -0.075753205 -0.10995407 -0.108263634 0.18785179
000160 b6 04 ab 3d 18 b9 89 bd 63 d7 b9 3d 22 df 75 bd
       0.08350508 -0.06724757 0.09074285 -0.06002725
000170 e9 99 fd bc ad e4 f4 bc 0e 2b 10 3c 16 fa 79 3d
       -0.03095718 -0.029894197 0.008799328 0.061029516
000180 0a 70 90 3c de a2 e2 3b 5c 6b 8a 3d 3a f4 a8 bd
       0.01763155 0.006916388 0.067587584 -0.082497075
000190 fb 39 90 3d 2b 6c c6 ba 79 36 ef bd b8 3c 04 bc
       0.07042309 -0.0015138438 -0.11680312 -0.008071117
0001a0 45 86 28 bd 61 40 e9 bd c1 25 b4 bc fe 0d 85 3c
       -0.041143674 -0.113892324 -0.021990659 0.016242024
0001b0 45 c1 f8 bc 6b d8 7f bd 5c da f6 3d 32 6e d5 3d
       -0.030365596 -0.06246225 0.120533675 0.10421409
0001c0 2a cd 87 3d 2f d6 b2 3d ec e1 66 bd 3e 87 a5 3d
       0.06630929 0.087322585 -0.0563678 0.08082436
0001d0 01 76 a1 3d d8 79 0b be be a7 79 bd 28 56 15 3d
       0.078838356 -0.13620698 -0.060950987 0.036459118
0001e0 72 71 b6 bd d9 f0 4f be fb c6 33 3d ea 80 03 be
       -0.08908357 -0.2030672 0.043890934 -0.12842146
0001f0 cd f8 1a 3d 6e 59 f3 3d 85 71 d3 3d 58 0b 67 3d
       0.03783493 0.11882292 0.103243865 0.056407303
000200 bd 31 c7 bd 90 a4 00 bd dd e2 48 3d 08 ab ec bd
       -0.09726284 -0.03140694 0.04904448 -0.11556059
000210 6a 1b a8 3c 4b 5a eb 3d 58 7f b1 3c 88 fd b6 bd
       0.020520885 0.114918314 0.021667168 -0.08935076
000220 39 d9 06 3d 00 cd 88 3d 7f c6 44 bd cc e3 e3 3c
       0.032922003 0.06679726 -0.048040863 0.027818583
000230 f0 d9 c8 3d c7 ed 82 3d 02 03 c1 3d 12 98 a1 3c
       0.09807193 0.06393009 0.09424402 0.019725833
000240 b1 3e 90 bd 60 53 a1 3d 7e 73 3f 3d b4 e4 d9 3d
       -0.070432074 0.07877231 0.046741 0.10639325
000250 74 15 a3 bc fc 89 ab bd 4a 8c 01 3e 7e 91 a0 3c
       -0.01990769 -0.08375928 0.12651172 0.019600626
000260 34 12 45 3d b4 40 35 bd a9 62 9a bd 0d bd 30 bd
       0.048113063 -0.04425116 -0.07538349 -0.043149043
000270 00 af b2 bd 93 c2 e3 3d 75 28 d2 bd 02 60 8e 3c
       -0.08724785 0.111210965 -0.10261623 0.017379764
000280 b1 a0 c4 bc b6 61 99 3d 15 ac 25 bd ae b2 b4 3d
       -0.024002405 0.0748934 -0.040447313 0.08823143
000290 ba 75 94 3d fd 71 9b bd 96 65 af 3d d2 4e c7 bd
       0.07249017 -0.07590101 0.08564298 -0.09731831
0002a0 4f b4 5f bd df a0 05 bd 65 81 be bd 5d c1 d9 3d
       -0.054615315 -0.03262412 -0.09302024 0.10632584
0002b0 28 b7 c2 3d ea 1e 99 bd a8 00 19 bd ed d7 11 3d
       0.095075905 -0.074765995 -0.03735414 0.035606313
0002c0 30 a8 f2 bc e7 44 6b bd fe 74 9e 3d 46 0f 51 3d
       -0.029621214 -0.057438757 0.07737158 0.051039957
0002d0 b3 a2 56 bd 60 5d 14 bc 23 53 d1 bd 79 d3 89 3d
       -0.052401256 -0.009055465 -0.10220935 0.06729788
0002e0 f4 64 59 3d 73 63 18 bd 96 aa 98 bd eb 22 e1 3d
       0.053074792 -0.037204217 -0.07454412 0.10992988
0002f0 85 3c 14 bd c9 5f 85 3c c8 1c 3e 3d d0 ad a1 bd
       -0.03619053 0.016281025 0.046414167 -0.0789448
000300 5d b6 a7 bd c5 52 e3 3c 86 bf bf bc 1d 95 b9 bc
       -0.0818908 0.027749429 -0.023406755 -0.02265411
000310 7e 84 b5 3c 72 97 24 3c 43 0d 08 bc 10 c1 7f bd
       0.022157904 0.010045873 -0.008303943 -0.062439978
000320 2a 4b 1d 3e 85 af 21 3d 37 8e 8d 3d fe 8d 81 bc
       0.15360704 0.03947403 0.06911891 -0.015814777
000330 4b d4 0f 3e 1e 9d 52 be fc f8 94 3d 43 61 62 3c
       0.14045827 -0.20567748 0.072740525 0.013817134
000340 66 66 e4 3c 96 9b c8 3d 91 1a 49 3d 27 0f eb 3c
       0.027880859 0.09795301 0.0490976 0.028693749
000350 6d ba a1 bb 7c 9c c6 bc 51 83 9e 3b 77 f1 b9 3c
       -0.0049355538 -0.02424454 0.0048374315 0.022698147
000360 e7 8d a9 3d 65 f7 6c be 61 7c c1 3d 63 cb 94 3d
       0.08279019 -0.23141249 0.094475515 0.072653554
000370 d8 67 28 bd fb a5 25 be 63 c2 25 be dc f8 0e be
       -0.041114658 -0.16176598 -0.16187434 -0.1396212
000380 c5 3b b1 bd fb 14 97 bb 5b a3 ce 3d 13 50 56 3b
       -0.08653978 -0.0046106554 0.10089751 0.0032701537
000390 b0 f1 46 be 6c f6 30 bd 01 9e 0f be 3f d4 a4 bd
       -0.19428134 -0.043203756 -0.14025117 -0.08048295
0003a0 8e 11 3b be 29 dc 7b 3d f1 71 31 3e af 17 0e be
       -0.18268415 0.061489258 0.17328621 -0.13876222
0003b0 37 ed 0a be 07 3e 73 3d e9 de 84 bd 7f 67 85 3d
       -0.13567053 0.059385326 -0.06487829 0.06513881
0003c0 70 58 e9 bd e1 b3 d1 3d 06 9a cd bd 9c 3d ae bd
       -0.11393821 0.10239387 -0.10039143 -0.08507845
0003d0 56 5d ce bd 87 c4 23 3c 9d 4c 88 3d 73 c7 fc bd
       -0.10076396 0.009995586 0.06655238 -0.123427294
0003e0 c6 ff 2d 3e 77 96 8e bd 5f 8e de bd b9 fd 14 bd
       0.16992101 -0.06962293 -0.10866999 -0.03637478
0003f0 86 ad 26 be 91 4d e5 bb c3 05 b3 3d 8c ad 2b be
       -0.16277131 -0.006997772 0.08741333 -0.16765422

hidden_block.2.bias f4 [64]
000000 b1 64 8b bd 35 73 2d 3c 5e a5 de bd 3d 0a 9b 3e
       -0.06806315 0.0105865495 -0.10871385 0.3028125
000010 be c8 18 3d 15 34 0f be 01 54 d4 3c 55 23 1f 3d
       0.037300818 -0.13984711 0.025918962 0.038852055
000020 35 12 a1 3d 6e d5 dd bc cf 67 1e be 61 49 94 3c
       0.07864801 -0.02707931 -0.15469287 0.018101396
000030 f7 55 b7 bd 16 8f ef 3c 13 94 5e bd 77 80 37 3e
       -0.08951943 0.029243033 -0.054340433 0.17920099
000040 e2 37 b8 3d 96 2a 33 bd 86 8c 60 bd 1a 0e 81 bd
       0.08995034 -0.043741785 -0.054821514 -0.06301518
000050 51 95 9b ba da e6 b4 3d cd 19 95 3e 8a 9f 45 bd
       -0.0011870061 0.08833094 0.29121247 -0.04824785
000060 42 ba b7 bd 1a ba 0d bc e9 46 c9 bd 46 13 2b be
       -0.08971073 -0.008650327 -0.09827978 -0.16706571
000070 6a c9 e8 bb bf cf 20 be c8 f3 d8 3c 69 e3 71 bd
       -0.0071040886 -0.15704249 0.026483431 -0.059054766
000080 b8 4b a2 bd 3e 38 96 bc c8 47 b9 3d 43 b5 38 be
       -0.079245985 -0.018337365 0.09046894 -0.18037896
000090 79 58 37 be 7e b7 17 bd de e4 10 3d 38 c0 d1 bd
       -0.17904843 -0.037040226 0.035374515 -0.10241741
0000a0 83 2b 16 be 2f aa 24 be c4 93 74 3d ac c6 c7 3d
       -0.14665036 -0.16080545 0.059711233 0.097546905
0000b0 80 34 8e bd 4a f8 a6 bd 7b b4 d8 bd 8f c9 d7 bd
       -0.06943607 -0.08152826 -0.10581299 -0.10536491
0000c0 23 ca a4 3d c7 b3 42 bd 40 67 eb bc 6d 06 a7 bd
       0.08046367 -0.04753473 -0.028735757 -0.081555225
0000d0 56 1a 9c bc 89 62 83 3e b7 2c 1e be db 43 3f be
       -0.019055527 0.25661114 -0.15446745 -0.18678229
0000e0 04 8f 7e bd 44 81 1d bc f1 bf 36 3b ca 17 b3 3d
       -0.06214811 -0.009613339 0.0027885402 0.08744772
0000f0 52 46 00 3d dc 82 35 bd 69 e4 63 bd 29 6c e6 bd
       0.031317063 -0.04431425 -0.05563775 -0.11251099

hidden_block.4.weight f4 [64]
000000 86 e6 70 3f 59 de 74 3f 77 e8 83 3f 49 9d 69 3f
       0.9410175 0.95651776 1.0305318 0.91255623
000010 a0 2e 76 3f 2c 24 81 3f 10 08 76 3f 92 51 77 3f
       0.96164894 1.0089164 0.9610605 0.9660884
000020 69 49 79 3f 69 4c 79 3f da 69 6d 3f ea d9 78 3f
       0.9737764 0.9738222 0.9273964 0.9720751
000030 51 a3 7e 3f 1f 54 78 3f 82 f9 7a 3f 72 c7 6f 3f
       0.9946795 0.9700336 0.9803697 0.93663704
000040 7c 4a 70 3f f8 15 73 3f f9 de 6e 3f 1a ef 7a 3f
       0.93863654 0.94955397 0.9330898 0.9802109
000050 a0 6b 6b 3f 73 92 6b 3f 33 5c 74 3f f4 4e 68 3f
       0.919611 0.9202034 0.95453185 0.9074547
000060 0e fe 74 3f 69 ef 6c 3f 69 6a 70 3f 80 e7 78 3f
       0.95700157 0.9255281 0.9391237 0.9722824
000070 21 4c 79 3f ff 8b 7f 3f c1 e9 6b 3f 82 64 77 3f
       0.9738179 0.9982299 0.92153555 0.9663774
000080 ad 9a 7c 3f eb 84 65 3f 1a 71 76 3f 75 eb 75 3f
       0.98673517 0.8965594 0.9626633 0.96062404
000090 41 4f 76 3f e9 df 6d 3f ad b7 7f 3f 96 62 7a 3f
       0.9621468 0.92919785 0.9988964 0.9780668
0000a0 d6 df 7f 3f 3e 07 76 3f cc 16 7f 3f 9f 7c 7d 3f
       0.9995092 0.961048 0.9964416 0.9901828
0000b0 34 46 69 3f 70 99 8a 3f 3e 69 76 3f 97 c2 69 3f
       0.91122746 1.0828075 0.96254337 0.91312546
0000c0 21 4d 5c 3f 25 a1 71 3f a0 9b 74 3f 58 6e 77 3f
       0.8605519 0.9438651 0.95549965 0.96652746
0000d0 ab cb 64 3f c5 5f 69 3f 86 95 7d 3f a4 f3 70 3f
       0.8937327 0.9116176 0.9905628 0.94121766
0000e0 49 a4 63 3f b2 d9 64 3f 61 58 66 3f c9 d3 84 3f
       0.88922554 0.89394677 0.89978606 1.0377132
0000f0 b7 24 7f 3f 83 07 78 3f dd 46 70 3f 08 24 7d 3f
       0.996654 0.9688646 0.9385813 0.98883104

hidden_block.4.bias f4 [64]
000000 0b 8a 54 3b 6d cc b9 3c 01 d6 94 bb 34 73 c2 ba
       0.0032430913 0.022680486 -0.004542113 -0.0014835359
000010 85 ca c2 bc 28 29 7d bc 2f 90 a8 bd d4 4b f0 3b
       -0.02377821 -0.015451707 -0.08230626 0.007333258
000020 ab b5 02 bd b1 ea 80 bc 31 74 ed bc d8 32 4d bc
       -0.031911533 -0.01573691 -0.028986068 -0.012524329
000030 91 a8 9b bb 7f 01 26 bb 15 44 35 bc 30 78 29 bd
       -0.0047503193 -0.0025330482 -0.011063595 -0.041374385
000040 f7 e0 a9 3b 59 be c0 3c 99 e8 67 3c f9 9a ee bb
       0.0051842886 0.023528265 0.014154577 -0.007281658
000050 60 c6 2b 3c 5e 63 ed 3b 41 22 08 bd 88 36 bb 3b
       0.010484308 0.0072445115 -0.033235792 0.0057132877
000060 a2 da 8c 3c bf d4 1c 3c 99 e8 b8 3c d4 3d f1 bb
       0.017194096 0.009572207 0.022571849 -0.007362107
000070 4b ae 97 bb 15 e6 2d bc 5e f3 fb bb 7b 0d a9 bc
       -0.0046289316 -0.010613938 -0.0076889237 -0.02063631
000080 c7 fb 90 3b 05 c0 ad 3c d9 4c 56 3c 25 5a b7 39
       0.0044245454 0.021209726 0.013079845 0.00034971643
000090 a7 9a 52 bc 1a 27 c7 bb 30 b4 d8 3c 11 d2 b7 bb
       -0.012854255 -0.0060776593 0.026453108 -0.0056097587
0000a0 81 d6 14 bc 79 c0 a3 3b cb d3 62 bc 7e d5 c0 3c
       -0.009084345 0.0049973098 -0.013844441 0.023539301
0000b0 4b 1d 83 3c 9a 58 9f bd af f2 f1 3b 41 68 1a 3c
       0.016005179 -0.07780571 0.0073836665 0.00942427
0000c0 4b 86 82 3d 87 6e 84 bc f2 4f 5b 3d 7a 16 cd 39
       0.063732706 -0.016165985 0.05354304 0.00039117393
0000d0 5f 8b 7d bc 0a 62 0f 3c 49 e3 f0 bb d7 46 c0 3c
       -0.015475123 0.008751402 -0.0073513133 0.02347128
0000e0 10 13 8b 3b ea 1b 93 bc e7 f3 3d 3d 8c 96 42 3d
       0.004244216 -0.017957646 0.04637518 0.047506854
0000f0 71 c0 c7 3c 77 44 e0 3b 3d be 6b 3c 13 62 8e 3a
       0.024383755 0.006844099 0.014388618 0.0010862969

layers.0.ln.weight f4 [64]
000000 67 35 5e 3f 48 9e 68 3f 9c 1a 82 3f d1 6e 22 3f
       0.86800236 0.9086652 1.016437 0.6345034
000010 75 f0 54 3f 71 4d 78 3f 4b e3 45 3f 31 71 73 3f
       0.8317941 0.96993166 0.77299947 0.9509459
000020 92 60 72 3f 10 22 3b 3f 38 a5 59 3f 8c 7c 5f 3f
       0.94678605 0.7309885 0.8501773 0.8729942
000030 ee b7 76 3f a8 57 73 3f 53 32 6c 3f eb 87 34 3f
       0.96374404 0.9505563 0.9226429 0.70519894
000040 71 8d 73 3f 1a 67 6e 3f ce 76 89 3f 8a b5 68 3f
       0.951377 0.9312607 1.0739381 0.90902007
000050 96 d4 7b 3f c2 e7 70 3f ec 0a 61 3f 69 3d 5d 3f
       0.98371255 0.94103634 0.8790729 0.8642183
000060 2f 14 65 3f 86 da 80 3f 83 11 75 3f 5b 8f 6a 3f
       0.8948392 1.0066688 0.95729846 0.91624993
000070 1e 48 83 3f 51 00 79 3f 04 b8 63 3f b3 31 71 3f
       1.0256383 0.9726611 0.8895266 0.9421646
000080 3c f0 60 3f 42 6e 6d 3f 68 7a 6c 3f d0 6e 48 3f
       0.8786657 0.92746365 0.9237428 0.78294086
000090 b3 5a 68 3f 11 bc 6c 3f 50 98 80 3f 3d b2 77 3f
       0.90763396 0.92474467 1.0046482 0.96756345
0000a0 c1 5e 72 3f 22 3e 6f 3f 8f a4 72 3f ed a7 8b 3f
       0.94675833 0.9345418 0.94782346 1.0910622
0000b0 9e b0 78 3f 3c 6b 5c 3f 42 36 7a 3f 0a 10 7d 3f
       0.97144496 0.86101127 0.9773904 0.988526
0000c0 12 95 38 3f 8e 8f 87 3f 02 83 93 3f 38 43 8f 3f
       0.72102463 1.0590684 1.1524355 1.1192389
0000d0 5a ff 4e 3f 7c 2f 37 3f 8a cf 78 3f a1 8c 75 3f
       0.80858386 0.7155683 0.9719168 0.9591771
0000e0 82 e4 76 3f f1 57 74 3f a3 51 45 3f 34 a9 8c 3f
       0.96442425 0.9544669 0.7707769 1.0989137
0000f0 fa 55 82 3f 0f 4c 71 3f 43 d8 59 3f 0a c5 77 3f
       1.0182488 0.9425668 0.85095614 0.9678503

layers.0.ln.bias f4 [64]
000000 7b 8a b3 3d 54 a6 3b 3c 2d 73 a1 3c 6a e5 8c be
       0.087666474 0.01145323 0.01970824 -0.2751878
000010 db e8 ca 3d 68 c9 c9 3c 48 61 2c be 35 ae 13 bd
       0.09907695 0.02463217 -0.16833985 -0.03605481
000020 c7 dc 94 bd 6e 76 5a 3e a2 80 03 3d 92 a6 b2 3d
       -0.072686724 0.2133424 0.032105096 0.08723177
000030 4a 85 13 3d 0f af 1a bd 49 4c 2b 3d f7 17 e4 bd
       0.036015786 -0.037764605 0.041820798 -0.111373834
000040 65 25 b2 3c 4f 67 19 3d 68 01 ac 3c 97 41 59 3d
       0.021746347 0.03745204 0.020996764 0.053041067
000050 2a 22 ad 3c ae 10 eb 3c a9 71 17 be 87 a7 88 3c
       0.021134455 0.028694477 -0.14789452 0.016681446
000060 bd a9 b4 3d d2 af ef 3b d0 a4 f7 3c e9 8a 56 3d
       0.088214375 0.0073146606 0.030229956 0.05237857
000070 bd 40 49 bc 57 40 c4 3c db f3 cf bc 09 ef 83 bd
       -0.012283501 0.02395646 -0.025384834 -0.06442077
000080 89 0b ba bc 1c d8 2e ba 48 32 fd 3c ea 5a 52 3e
       -0.022710579 -0.0006669776 0.030907765 0.20542493
000090 02 7a 73 3d f0 3b 42 bd 63 29 2f 3c b7 a8 10 3d
       0.059442528 -0.047420442 0.01069102 0.03531715
0000a0 69 07 4a 3d 4e fd 67 3d f4 bc 2e 3d bf 0f 3c ba
       0.049323473 0.056638055 0.04266067 -0.0007173977
0000b0 e0 6a 1c 3b 0d 12 e3 3d c8 e6 01 bd 63 f7 f1 3c
       0.0023867413 0.11087427 -0.03171423 0.029536908
0000c0 8e 2b 64 3e dd ff cc bc 8d 0c 44 3d bb 45 40 bb
       0.2228224 -0.025024349 0.04786353 -0.0029338438
0000d0 85 e4 b2 3d fe ca 5b be c2 3c a9 3c 78 42 35 3d
       0.08734993 -0.21464154 0.020658854 0.044252843
0000e0 f3 45 bd 3c d0 85 16 bd aa 47 48 3e d0 c5 a6 3c
       0.023104643 -0.036748707 0.19558588 0.020357996
0000f0 f8 f9 b2 bc 67 f8 34 3d 40 5e ee 3d b3 f2 01 3d
       -0.02184771 0.044182207 0.116390705 0.031725597

layers.1.ln.weight f4 [64]
000000 dc bb 85 3f 18 1e 8b 3f d2 e6 8a 3f 06 3d 83 3f
       1.0447955 1.0868559 1.0851691 1.0252998
000010 a1 73 81 3f d5 0b 83 3f 16 a0 6d 3f ac 87 8f 3f
       1.0113412 1.0237986 0.92822397 1.1213279
000020 13 e4 7e 3f ea bd 6b 3f ff 93 7f 3f b0 e6 81 3f
       0.99566764 0.9208666 0.998352 1.0148525
000030 e6 04 84 3f 6d d7 8e 3f bc d3 81 3f 89 d3 87 3f
       1.0313995 1.1159493 1.0142741 1.061143
000040 28 60 87 3f d7 27 84 3f 86 c4 a0 3f c2 ca 82 3f
       1.057622 1.0324658 1.2559974 1.0218127
000050 cb 77 8e 3f 42 0f 89 3f 80 1e 7d 3f 27 87 88 3f
       1.1130308 1.0707781 0.98874664 1.0666245
000060 16 45 83 3f 70 b2 93 3f 99 13 83 3f fb 6c 82 3f
       1.0255458 1.153883 1.0240356 1.0189508
000070 1a 49 98 3f 0b 13 84 3f af 1b 8e 3f c7 1a 7f 3f
       1.1897309 1.0318311 1.1102198 0.99650234
000080 77 0a 91 3f 9a 7d 93 3f af a3 7f 3f c1 4d 6a 3f
       1.1331319 1.1522706 0.99859136 0.91524893
000090 69 8e 83 3f aa 44 8c 3f 50 11 82 3f ba 96 86 3f
       1.0277835 1.0958455 1.0161533 1.0514748
0000a0 89 4c 83 3f 4d 66 85 3f 39 ac 82 3f 4b 88 99 3f
       1.0257732 1.0421845 1.0208808 1.1994718
0000b0 3f e7 91 3f eb 77 7e 3f d2 7d 91 3f c5 5b 8e 3f
       1.1398696 0.9940173 1.1366522 1.1121756
0000c0 d8 20 60 3f a8 96 a0 3f e5 30 a1 3f 6e 7f a7 3f
       0.87550116 1.2545977 1.2593046 1.3085763
0000d0 6a 03 7c 3f 87 4c 82 3f c0 2d 84 3f ac 46 8b 3f
       0.9844271 1.0179604 1.0326462 1.0880942
0000e0 62 38 8c 3f eb 7f 9c 3f 38 71 6d 3f 55 ff 8f 3f
       1.0954707 1.2226537 0.92750883 1.1249796
0000f0 6e c7 88 3f c3 b3 83 3f 44 f1 80 3f cd 3d 85 3f
       1.0685861 1.0289234 1.0073628 1.0409485

layers.1.ln.bias f4 [64]
000000 d0 fa db bc c9 2c aa 3c c9 f2 b3 bc a6 05 b4 3c
       -0.026852995 0.020773308 -0.021966355 0.02197535
000010 fe ed b5 bc 37 65 aa bc a7 43 a8 3c c4 4b b6 3c
       -0.02220821 -0.020800216 0.020540072 0.022252925
000020 7e e3 84 bc d3 54 0d bb b5 3e ab bc 7c 7a ad bc
       -0.016221758 -0.0021565452 -0.020903924 -0.02117657
000030 c3 9d aa bc 0c 02 af 3c 36 dd a7 bc 7f aa bc 3c
       -0.02082718 0.02136328 -0.020491224 0.023030518
000040 c9 53 a9 bc 64 04 a9 3c 51 f7 bc bc 9c a6 ad bc
       -0.020669835 0.020631976 -0.023067148 -0.02119761
000050 fd af b3 bc 4e a3 b7 bc 21 a5 8a 3c 0e 3c b8 3c
       -0.021934504 -0.022416737 0.016924443 0.022489574
000060 ff a1 ae bc 17 39 b2 3c e1 60 aa 3c 6d 82 ac bc
       -0.02131748 0.021755738 0.020798149 -0.021058286
000070 fb ab b2 3c 6d c7 aa bc 77 34 b2 3c 09 c8 b7 bc
       0.021810522 -0.020847047 0.021753533 -0.022434251
000080 f2 84 b5 3c b4 71 ab 3c 8c 3f b0 3c 2f 55 98 3b
       0.02215812 0.020928241 0.021514677 0.0046488266
000090 a1 fc ab bc b2 2e ad 3c e4 12 15 bc 0b 2b ad bc
       -0.020994486 0.02114043 -0.009098742 -0.021138689
0000a0 86 c4 aa bc 80 3f af bc 9e 6f a7 bc 48 af b1 3c
       -0.020845663 -0.021392584 -0.020438965 0.021690026
0000b0 91 e9 b3 3c fa 96 8f bc 13 56 b1 3c 36 0c ae bc
       0.02196196 -0.017528046 0.021647489 -0.021246057
0000c0 7f b0 a6 3c bc 2e b2 3c d8 ab b4 bc 29 dc b5 3c
       0.020347832 0.0217508 -0.022054598 0.022199707
0000d0 ca 85 b8 3c be f3 a8 3c 20 f0 a8 bc da 62 b2 bc
       0.022524733 0.020624038 -0.020622313 -0.021775652
0000e0 e2 1e b6 3c fe b4 b3 3c 1f ad 48 3b 22 50 be bc
       0.022231523 0.02193689 0.0030620766 -0.02323157
0000f0 06 99 c6 bc b2 93 a7 bc 47 40 9d bc 57 0e ab bc
       -0.02424289 -0.020456169 -0.019195689 -0.020880861

logit.weight f4 [1, 64]
000000 5e a4 6c 3d d5 65 39 be ca 9c 0a 3e ad 9d 67 bd
       0.05777394 -0.18105252 0.13536373 -0.056546856
000010 55 12 3a 3d f4 76 fd 3d e5 38 56 bc 40 e9 36 be
       0.04542764 0.12376204 -0.013075088 -0.17862415
000020 6b df 9a 3c 35 16 89 3c 33 f1 3e 3d 47 46 60 3d
       0.018905362 0.016734222 0.046616744 0.05475452
000030 3c 17 e6 3d f4 93 63 be 66 2e b9 3d 81 ed b3 bd
       0.112349 -0.22224408 0.09042053 -0.08785535
000040 84 8c 24 3e 59 f3 21 be ca c6 96 3e e0 9c 8b 3d
       0.16069227 -0.15815486 0.2944854 0.06817031
000050 08 1f 22 3e 3a aa de 3d d9 e7 b1 bc 6b 9b 0b be
       0.1583215 0.10872312 -0.021716999 -0.13633506
000060 72 01 83 3d 17 9f 84 be 82 65 1a be 6f 75 93 3d
       0.0639676 -0.25902626 -0.15077785 0.07200133
000070 32 1e 99 be 71 3d 0d 3e 2a e3 54 be 12 ca f0 3c
       -0.2990585 0.1379297 -0.20789781 0.02939323
000080 23 98 3c be c0 6c 6c be 4d f8 77 bd 70 a5 a9 3c
       -0.1841741 -0.2308836 -0.060539532 0.02070877
000090 1f 7e 91 3d 2f 8a 5c be fa b8 22 3d 85 69 f3 3d
       0.07104134 -0.21537088 0.03972719 0.11885361
0000a0 de 9e b2 3d 5d 88 b4 3d 72 00 c1 3d c5 5b 83 be
       0.08721708 0.08815072 0.09423913 -0.25655952
0000b0 fa 0f 51 be fc 9e 2e 3d 77 88 69 be a1 ef 29 3e
       -0.20416251 0.042632088 -0.22805963 0.16595317
0000c0 b5 f0 07 ba e3 2c bb be 9e 21 ae 3e 16 13 d7 be
       -0.00051857095 -0.36557683 0.34010023 -0.4200675
0000d0 73 6c f2 bc ee a0 cf bd 79 73 21 3e 0d 01 0e 3e
       -0.029592728 -0.10138117 0.15766706 0.13867588
0000e0 f8 b6 52 be cf 7b 99 be d9 5a f2 3c 83 87 24 3e
       -0.2057761 -0.2997727 0.029584335 0.16067319
0000f0 10 49 d1 3d d3 d2 e1 3d 5f 86 5c 3d fa d4 0a 3e
       0.10219014 0.1102654 0.053839084 0.13557807
