Model/both/fold2.ckpt (torch, 140607 bytes, 15 tensors)

input_block.0.weight f4 [438]
000000 9a ff 82 3f 9b 7a 81 3f e8 0f 7f 3f 0e 56 77 3f
       1.0234253 1.0115541 0.99633646 0.96615684
000010 10 93 81 3f bf 51 7e 3f f1 ac 7f 3f a0 3d 7d 3f
       1.0123005 0.99343485 0.9987326 0.9892216
000020 b2 8b 83 3f e2 b9 7d 3f 74 23 7c 3f 6b 2d 85 3f
       1.0277007 0.9911176 0.984916 1.0404485
000030 de 00 79 3f d6 6f 80 3f d5 d5 79 3f 41 fc 7e 3f
       0.9726695 1.003413 0.97591907 0.9960366
000040 93 38 78 3f de 86 77 3f e2 d5 82 3f fd a0 74 3f
       0.96961325 0.96690166 1.0221522 0.9555815
000050 ec 7a 7f 3f e3 f3 7c 3f 66 2c 83 3f 87 1f 83 3f
       0.9979694 0.9880964 1.0247924 1.0243996
000060 f4 da 7d 3f 6e 80 82 3f ed 01 84 3f 48 1a 79 3f
       0.9916222 1.0195444 1.0313088 0.97305727
000070 e8 c3 80 3f 87 44 7e 3f 10 73 79 3f 50 43 7d 3f
       1.0059786 0.99323314 0.97441196 0.98930836
000080 2d 63 80 3f ef 41 80 3f 47 35 81 3f d0 0e 80 3f
       1.0030266 1.0020121 1.0094384 1.000452
000090 a0 3a 85 3f 34 46 80 3f 47 5b 7e 3f 85 9d 81 3f
       1.0408516 1.0021424 0.9935803 1.0126196
0000a0 a7 21 76 3f bf d6 83 3f 61 0e 81 3f 28 5e 85 3f
       0.961451 1.029991 1.0082513 1.0419359
0000b0 b7 54 78 3f 20 cf 7b 3f 9d ad 79 3f 77 aa 75 3f
       0.97004265 0.9836292 0.9753054 0.95963234
0000c0 8e b0 7b 3f a3 4a 7b 3f e6 eb 78 3f be 88 81 3f
       0.98316276 0.9816076 0.9723495 1.0119855
0000d0 8b 5a 74 3f b6 2c 81 3f d3 d7 7c 3f a8 8a 86 3f
       0.9545066 1.009177 0.9876682 1.0511065
0000e0 31 20 81 3f 13 43 80 3f 0b fc 7c 3f b6 d0 82 3f
       1.0087949 1.002047 0.9882209 1.0219944
0000f0 e6 c9 7f 3f fa 77 80 3f fc d2 7f 3f 49 52 7d 3f
       0.9991745 1.0036614 0.9993131 0.9895368
000100 83 0b 7a 3f c2 9a 7e 3f 4f 91 79 3f 9d 1c 81 3f
       0.97673815 0.9945489 0.9748735 1.0086857
000110 42 6e 80 3f 4c 55 79 3f b4 07 78 3f 2a 42 77 3f
       1.0033648 0.9739578 0.96886754 0.96585333
000120 6f 1d 81 3f 3b 4a 69 3f 29 5a 7a 3f 5f 61 73 3f
       1.0087107 0.9112889 0.97793823 0.9507045
000130 5c e0 81 3f 57 cf 79 3f cd a2 75 3f 85 1a 73 3f
       1.0146594 0.97582 0.9595154 0.9496234
000140 aa 70 7b 3f 13 50 7d 3f 63 3b 7b 3f 0f 39 79 3f
       0.98218787 0.9895031 0.9813749 0.9735269
000150 90 f9 80 3f d4 60 7d 3f ec 94 80 3f a2 05 73 3f
       1.007616 0.98975873 1.0045447 0.9493047
000160 67 8a 7e 3f fb 68 79 3f a6 7e 7a 3f 23 8b 7c 3f
       0.99429935 0.9742581 0.978495 0.98649806
000170 0d 95 73 3f 83 bb 7c 3f 64 e6 79 3f b8 1a 82 3f
       0.9514931 0.9872362 0.97617173 1.0164404
000180 a4 d5 7b 3f d8 61 82 3f fc 51 73 3f ea 15 7d 3f
       0.98372865 1.018611 0.95046973 0.98861563
000190 f8 7b 7e 3f ec c0 74 3f f9 44 7d 3f 48 1f 83 3f
       0.9940791 0.95606875 0.9893337 1.0243921
0001a0 25 ea 7d 3f 69 f3 7b 3f 66 01 6d 3f 58 b5 81 3f
       0.991854 0.9841829 0.9258026 1.0133467
0001b0 a4 49 79 3f 29 64 7f 3f 98 46 77 3f 04 a0 80 3f
       0.9737799 0.9976221 0.9659209 1.0048833
0001c0 39 a4 80 3f 50 93 7a 3f 44 a0 80 3f a9 74 75 3f
       1.0050117 0.9788103 1.0048909 0.95881134
0001d0 7f bb 7b 3f 28 64 7a 3f 72 53 79 3f 1b 2b 81 3f
       0.9833297 0.97809076 0.9739295 1.009128
0001e0 ff 9a 7e 3f 58 99 7d 3f 32 42 79 3f 5d 48 7e 3f
       0.99455255 0.9906211 0.9736663 0.9932917
0001f0 9d a4 80 3f 7f 32 7c 3f 4e 33 84 3f 34 aa 7c 3f
       1.0050236 0.9851455 1.0328157 0.9869721
000200 8d 56 7c 3f 95 bc 75 3f 6f 60 73 3f 88 bc 83 3f
       0.98569566 0.9599088 0.9506902 1.029191
000210 6e a1 71 3f 3d e5 80 3f f9 42 83 3f ed 1a 7f 3f
       0.9438695 1.0069958 1.0254813 0.9965046
000220 af e9 80 3f 17 8f 85 3f bd 35 80 3f ef c6 77 3f
       1.0071315 1.0434293 1.00164 0.96787924
000230 a6 ba 76 3f 7b d6 75 3f 2a cf 7c 3f 5f e0 7c 3f
       0.9637855 0.96030396 0.9875361 0.98779863
000240 79 08 75 3f 15 45 7e 3f 9f ba 75 3f 35 e5 7f 3f
       0.95716053 0.9932416 0.95987886 0.9995912
000250 b5 69 7f 3f 7b 65 84 3f b1 5b 81 3f f3 2c 77 3f
       0.9977067 1.0343469 1.0106107 0.9655296
000260 dc b5 78 3f 34 8d 82 3f de 9f 7f 3f 45 d4 88 3f
       0.97152495 1.0199342 0.9985331 1.068978
000270 84 48 84 3f 68 d4 7d 3f b0 98 7e 3f 9a f3 80 3f
       1.033463 0.9915223 0.9945173 1.0074341
000280 fa f7 7c 3f 32 98 7b 3f 05 11 81 3f a1 5a 7d 3f
       0.9881588 0.98279107 1.0083319 0.98966414
000290 01 3c 80 3f 3a c3 78 3f 4f b6 7f 3f c4 cc 81 3f
       1.0018312 0.9717289 0.99887556 1.0140615
0002a0 1e 79 7f 3f 26 ca 79 3f 82 38 7b 3f 7f b8 74 3f
       0.99794185 0.9757408 0.981331 0.9559402
0002b0 8f be 7f 3f 63 58 86 3f df 6f 7e 3f 38 d4 84 3f
       0.99900144 1.0495723 0.9938945 1.0377264
0002c0 52 e2 76 3f 2e c7 74 3f f3 11 7e 3f 29 40 76 3f
       0.9643909 0.95616424 0.9924614 0.9619165
0002d0 23 8a 7d 3f 47 f5 6d 3f 67 4a 7e 3f f3 e3 71 3f
       0.99038905 0.9295239 0.9933228 0.9448845
0002e0 c4 59 6e 3f 13 3f 88 3f 18 a7 83 3f 63 bd 7a 3f
       0.9310572 1.0644249 1.0285368 0.9794523
0002f0 d6 dc 82 3f 82 bb 7a 3f e6 30 7f 3f 8d ba 80 3f
       1.0223644 0.97942364 0.9968399 1.0056931
000300 97 37 7f 3f 07 48 7d 3f 0d 6d 76 3f d1 41 72 3f
       0.996942 0.9893803 0.9626015 0.9463168
000310 9e 6b 7a 3f 3e be 80 3f 09 9d 7b 3f fd dc 81 3f
       0.9782046 1.0058057 0.9828649 1.0145565
000320 18 51 82 3f 49 75 80 3f 60 c8 88 3f e2 19 80 3f
       1.0180998 1.0035793 1.068615 1.0007899
000330 9f fb 77 3f eb 1f 85 3f 68 6d 82 3f c7 2f 74 3f
       0.9686832 1.0400366 1.0189638 0.953854
000340 b5 cc 7e 3f 37 62 7c 3f 54 02 7f 3f 4a 5f 7f 3f
       0.9953111 0.98587364 0.9961293 0.99754775
000350 3c a1 7c 3f ec e2 7d 3f e8 e5 7d 3f 2e 85 74 3f
       0.98683524 0.9917438 0.99178934 0.95515716
000360 33 51 78 3f 97 2b 7e 3f 89 9a 7f 3f 51 fb 78 3f
       0.969989 0.9928526 0.99845177 0.9725848
000370 a0 b9 84 3f 37 8f 7b 3f 13 2c 7a 3f 3a 63 84 3f
       1.0369148 0.98265404 0.977235 1.0342782
000380 39 3c 79 3f 58 e1 7f 3f b5 e8 78 3f 48 6c 81 3f
       0.9735752 0.9995322 0.9723008 1.011117
000390 26 0c 75 3f b0 a8 7b 3f 20 c5 7a 3f 18 6f 77 3f
       0.9572166 0.9830427 0.9795704 0.9665389
0003a0 46 23 81 3f a6 b6 80 3f aa 61 75 3f 5a 8f 77 3f
       1.008889 1.005574 0.9585215 0.9670311
0003b0 73 a3 72 3f d0 a6 78 3f f6 45 74 3f 22 01 81 3f
       0.94780654 0.97129536 0.9541925 1.0078471
0003c0 a8 af 7c 3f e5 b2 82 3f f9 64 80 3f 8a fa 74 3f
       0.9870553 1.0210844 1.0030814 0.9569479
0003d0 a5 7d 80 3f cf 04 82 3f 08 20 82 3f be c4 79 3f
       1.0038344 1.0157717 1.0166025 0.9756583
0003e0 99 06 7d 3f 89 67 84 3f ea 21 7a 3f 04 8f 7a 3f
       0.9883819 1.0344096 0.97708 0.97874475
0003f0 45 ca 7d 3f ca 14 83 3f 22 a3 80 3f 7f fd 80 3f
       0.99136764 1.0240719 1.0049784 1.0077361

input_block.0.bias f4 [438]
000000 e1 9d a0 bb c7 b1 17 bc 6a 27 e0 bb 06 0c 10 3b
       -0.004901633 -0.009258694 -0.006840636 0.0021979823
000010 fc bf b1 bb 8a 68 ff 3b a1 05 24 bc be f3 9c bb
       -0.0054244976 0.0077944444 -0.010011108 -0.0047897985
000020 62 f9 10 3c 5a 56 d6 ba 3d 34 44 3c ff f8 0d bb
       0.00884852 -0.0016352639 0.011975345 -0.0021663306
000030 4e 30 78 b9 31 6b ba ba 14 fe 90 3b 84 01 2f bb
       -0.00023669118 -0.0014222619 0.0044248197 -0.0026703784
000040 94 50 cc 3c 5e eb d3 3c 3c 1f 79 3b b4 f3 3c bc
       0.024940766 0.025869068 0.0038013002 -0.011532713
000050 c4 7a 81 3b f3 8b 0a 3c cb ef 44 3b 5d 3d 15 bb
       0.0039514024 0.008456218 0.0030050154 -0.002277217
000060 38 a4 57 bc ee b9 81 3b 37 88 8a 3b cf c6 0d 3c
       -0.013161711 0.003958932 0.004227664 0.008653357
000070 da 04 0f 3c d7 02 ee 3b bb eb 19 bc e3 1c 50 3c
       0.008729184 0.007263522 -0.009394581 0.0127022
000080 ce a5 dc bb 6d 9a 52 bc bb 50 99 bb 15 b2 ef bb
       -0.0067336326 -0.012854201 -0.0046788133 -0.00731493
000090 e5 8d ce 3b 97 83 71 3b 35 2e 14 bc d1 b0 b6 39
       0.0063035362 0.0036852115 -0.00904422 0.00034845484
0000a0 83 be 1c 3b 8a e8 2d 3b 11 d3 4f bb bf 00 c1 bb
       0.0023917265 0.002653631 -0.0031711499 -0.0058899815
0000b0 f6 73 9e 3a e9 06 75 bc 13 45 ff bc b0 b4 40 bc
       0.0012089002 -0.014955261 -0.031160867 -0.011761829
0000c0 b2 61 44 bc b0 90 f9 3b 3f 63 6e bb 34 a0 76 ba
       -0.011986183 0.007616125 -0.0036375073 -0.00094080274
0000d0 34 72 fb bb f9 35 07 3c 8b b2 5b 3b 71 62 ad b9
       -0.007673526 0.008252614 0.0033523168 -0.00033070476
0000e0 6b 76 6e bc f9 a8 05 bc d8 70 9b bb 03 9d 48 3c
       -0.0145546 -0.008157962 -0.0047436766 0.012244466
0000f0 6b 29 09 3d 46 22 2a 3b f0 d4 87 ba a1 f7 1c 3c
       0.033486765 0.002596037 -0.0010363143 0.009580524
000100 7a 33 da 3b 0c ad c2 3c da b8 7b bc 04 98 e4 3a
       0.0066589685 0.023764156 -0.015363896 0.0017440324
000110 38 3d e7 3b 9c c6 bf 39 e4 a6 41 3b e3 97 5a 3c
       0.0070568584 0.00036578334 0.0029548937 0.013341877
000120 6c 1b 3e 3c 4c 89 13 3d f4 c1 14 3b d2 c7 a3 bb
       0.011603218 0.03601961 0.0022698613 -0.0049981857
000130 df 47 b3 bb 4e 3c fe bb dc a5 b7 3c e7 25 c5 3c
       -0.005471214 -0.0077586537 0.022417955 0.024065925
000140 cc 94 bf 3b a4 b4 35 bc e3 21 c1 3c f1 66 05 3b
       0.0058465954 -0.011090431 0.023575729 0.0020355547
000150 7e 51 15 3c 29 a7 fa 3b 81 7a 76 3b 2f e1 0e bd
       0.0091136675 0.0076493216 0.003760964 -0.03488272
000160 44 fd e0 bb 5c aa 78 3a d5 fd 25 3b e1 a9 9c 3c
       -0.006866129 0.0009485835 0.0025328298 0.019123973
000170 9e c5 99 bc 49 9c ca bb 49 c5 14 3c cd d2 01 ba
       -0.018770989 -0.0061831814 0.00908024 -0.0004952371
000180 85 53 73 bc 86 6a 86 3b 5f 47 eb bb 2b ca ad 3a
       -0.014851456 0.004102054 -0.007180139 0.0013259103
000190 b3 51 20 3b 7f 85 05 3d 24 99 43 3b e0 4e 2b bc
       0.002446276 0.032598015 0.0029845918 -0.010455817
0001a0 80 72 75 bc 85 0f 8c bc c4 7b 24 bc 4c df d0 3b
       -0.014980912 -0.017097244 -0.010039274 0.0063742753
0001b0 cc 54 92 3c 6c fa 7e 3b 0b 08 b6 bb 97 38 48 bb
       0.0178627 0.0038906587 -0.005555158 -0.0030551308
0001c0 60 52 92 3c d5 72 75 bc ab d1 86 bc 43 61 75 3b
       0.017861545 -0.014980991 -0.0164574 0.0037442006
0001d0 68 a2 73 3c 9e cb 7b bc 64 cb 82 ba 48 b0 ce 3b
       0.014870264 -0.01536837 -0.0009978828 0.0063076355
0001e0 21 2d 57 ba 87 56 4e bc 23 59 8b bc 31 ae ec ba
       -0.0008208324 -0.012593872 -0.017010277 -0.0018057284
0001f0 54 ef 97 3a bf 27 bd ba 53 51 bf 3b 2f 32 5f 3c
       0.0011591711 -0.0014431401 0.005838552 0.013622805
000200 85 37 18 bb 69 84 4f bc b8 c1 f6 bc e8 14 c8 bb
       -0.0023226452 -0.012665846 -0.03012167 -0.006106008
000210 ce b9 da 3c a7 5f 4e 3b 36 19 2a 3c e0 5a c5 bc
       0.026699927 0.0031490119 0.010381987 -0.024091184
000220 dc 1e 15 3c ee f3 29 3a 3f 48 68 3c ae 78 6d bc
       0.009101596 0.0006483187 0.014177381 -0.014494104
000230 19 d6 99 bc d4 ba f5 3b e8 fc 2c 3c 26 e4 a5 ba
       -0.018778848 0.0074990783 0.010558344 -0.0012656495
000240 f6 51 5a 3c af e8 51 bc 11 e7 71 3c 09 7b e8 3b
       0.013325205 -0.012811824 0.014764563 0.007094745
000250 b5 71 59 b9 83 25 b6 39 ad 48 88 bb 18 a7 2c bc
       -0.00020737092 0.00034741694 -0.0041590543 -0.010537885
000260 9e bc d2 bb 53 dc 15 bc 96 c0 e9 3b 90 dc 87 bb
       -0.0064311763 -0.009146768 0.0071335537 -0.004146166
000270 50 1d 95 3b 76 aa f6 bb 28 3b 7e bc 32 c4 37 b9
       0.0045506135 -0.0075276447 -0.015517034 -0.00017525328
000280 b2 98 bf 3b 39 7d 94 bc da 37 88 bc e0 6a ca bb
       0.00584706 -0.018126117 -0.016628195 -0.0061772913
000290 e9 4a 46 ba 69 18 24 3b c2 2a d0 3b a5 a0 08 bc
       -0.0007564263 0.0025038964 0.0063527534 -0.008339082
0002a0 ab 75 88 39 39 df ca 3c 9d 54 2a bb 25 2d 9f bc
       0.0002602761 0.024764644 -0.0025990375 -0.019430706
0002b0 73 b0 16 bc 5f 1a 46 bb 4b 0b b7 3b e7 ec d4 bb
       -0.009197342 -0.003022812 0.005586063 -0.0064979675
0002c0 d1 2e 65 3c 22 e2 89 bc f4 fc ef 3a e8 ca 38 3c
       0.013988213 -0.016831461 0.0018309639 0.011278845
0002d0 76 a2 3a 3c 6a a0 7a 3c c9 25 bf bb e5 48 6c bb
       0.011391273 0.015297035 -0.0058333618 -0.003605419
0002e0 ea 87 c0 3c 9b b8 b8 bb 64 00 6e bb e6 f9 3d 39
       0.023502309 -0.005637241 -0.003631615 0.00018117539
0002f0 70 1d 79 3b 42 bf 9d bb 32 27 c5 bb 74 47 93 3b
       0.003801193 -0.0048140595 -0.0060166353 0.004494602
000300 f0 c1 19 3c 8b a4 de 3a 16 90 6a bc d4 04 f6 3b
       0.009384617 0.0016986293 -0.014316579 0.0075079
000310 9e ba f5 3c 0f 70 19 3c 3c 90 56 ba bf e2 04 3c
       0.029996213 0.009365096 -0.0008184945 0.008110701
000320 1f c8 01 3c ed 74 b1 3a 66 32 a7 bb f5 c5 81 3b
       0.007921248 0.0013538875 -0.0051024435 0.003960366
000330 5e 8a 3a bc fe b9 22 3c 14 70 5b 3b 19 22 a7 3b
       -0.011385528 0.009932039 0.0033483552 0.0051005003
000340 09 34 8d 3b 33 0c 0c 3c 78 43 62 3c 5a 07 41 3c
       0.0043091816 0.00854783 0.013810031 0.011781538
000350 09 1a 87 bb 08 2d 08 3b 4d 86 98 3b 31 73 a4 3b
       -0.0041229767 0.0020778794 0.004654682 0.0050186147
000360 03 3e 19 bb 28 cb 35 bc c0 94 69 3c e8 9b 11 bc
       -0.002338291 -0.0110957995 0.014256656 -0.008887269
000370 21 3c 9b 3b b5 80 67 3b 32 65 77 bb 72 7e 05 ba
       0.0047373925 0.0035324518 -0.0037749526 -0.0005092389
000380 ca 8d eb ba 3f 8b f6 bb 25 c5 59 bb 56 bf 0f 3c
       -0.0017971334 -0.0075239236 -0.003322908 0.008773645
000390 f1 5f a7 3a ba 77 c5 3b cf 90 ec 3c a3 5b 3a bb
       0.0012769682 0.0060262354 0.028877644 -0.0028435967
0003a0 43 d9 2c 3b 14 4f eb bb aa 81 b1 3b 55 23 4a bc
       0.0026374615 -0.0071810577 0.0054170685 -0.012337525
0003b0 cc 52 86 3b 3c 47 c0 bb 58 51 17 ba 87 e9 17 3b
       0.0040992256 -0.005867867 -0.0005772314 0.0023179965
0003c0 10 1e 4e bc ea 3b 23 3c b1 db 17 3c 34 28 97 3c
       -0.01258041 0.009963015 0.009268687 0.018451788
0003d0 f6 5c 1d 3c 8e b2 84 3b d2 da 99 bc b3 cf 63 bb
       0.009604683 0.0040496057 -0.0187811 -0.003476125
0003e0 2f e1 90 3b 3f 73 84 3b eb fa 01 bc 53 aa e0 ba
       0.004421375 0.0040420587 -0.007933359 -0.0017140604
0003f0 6a 94 9c 3b 03 37 29 3c e7 80 1b bc 7b 70 4f 3a
       0.0047784345 0.010328057 -0.009491182 0.0007913184

input_block.1.weight f4 [64, 438]
000000 ae 7a 37 bd 60 ed 38 bd bd 25 07 3d bd b3 8f bb
       -0.04479473 -0.045148253 0.032994974 -0.00438544
000010 ce b1 0e 3b 15 aa 17 bd 73 7f 89 bc 78 4f ef bb
       0.002177346 -0.037027437 -0.016784405 -0.0073031746
000020 33 6e f2 3c 7a ee 33 bd 97 77 59 3d 11 40 5c bd
       0.029593563 -0.0439286 0.053092565 -0.053772036
000030 82 fd 1b bc 87 46 68 bd c2 90 23 bc af c2 7d bc
       -0.00952089 -0.056707885 -0.009983243 -0.015488311
000040 4e 6c 54 bd 8c 85 57 bc ef 20 74 bd 5a 25 20 bb
       -0.0518611 -0.013154399 -0.05960172 -0.0024436326
000050 9f 4e e1 3c 09 9e ea bc 4b 3a 0c bd 0d 20 95 3c
       0.02750331 -0.02863981 -0.03423528 0.01820376
000060 2b e8 20 bc 85 43 17 bc 70 94 c5 3a 93 7e 09 3c
       -0.009820978 -0.0092324065 0.0015074145 0.008391994
000070 fa 99 77 3d 53 20 97 3c 97 e7 af 38 07 64 15 bc
       0.060449578 0.01844803 8.387787e-05 -0.009118087
000080 b4 ab 12 3d 52 9e 17 bd 0e 5a a3 3b ad ed 17 bd
       0.03580828 -0.03701622 0.0049851006 -0.0370919
000090 32 8b bb 3c 40 93 09 3d e9 c3 1b bd 2c fc 87 3c
       0.022893522 0.033587694 -0.03802863 0.016599737
0000a0 97 ff 11 bc f6 64 85 3d 2b 05 a9 bc 99 5e 6e 3d
       -0.008911035 0.065133974 -0.020632347 0.058195684
0000b0 b8 a6 10 3c 6e ff 77 bd 58 8c d1 39 51 bd b1 b9
       0.008828811 -0.06054633 0.0003996815 -0.00033901123
0000c0 27 05 7e bc 64 d4 ea bc 3d a2 fe bc ea e3 ad bc
       -0.015504158 -0.028665729 -0.03108322 -0.021226842
0000d0 ab aa ac 3c 35 34 1e bb df fa 66 bc 43 81 0a 3d
       0.021077475 -0.0024140005 -0.014097898 0.03381468
0000e0 6e d8 07 3c 5d 91 1c bd d2 0e ab bb 92 b8 31 bc
       0.008291347 -0.038224567 -0.0052202726 -0.010847228
0000f0 ba e9 87 3c 9a 06 15 3c 50 4c 9a bc 08 5d 29 bb
       0.016590942 0.009095812 -0.018835217 -0.0025842804
000100 d4 86 61 3c 40 77 34 3d f3 a1 a7 3c 00 68 6b 3d
       0.013765056 0.04405904 0.020462966 0.05747223
000110 d9 09 82 bd 8b 33 72 3b c3 f4 01 3c 4e d6 41 bc
       -0.063495345 0.0036956992 0.007931891 -0.011830879
000120 5e f7 f6 3c 02 b8 63 bc 6f 36 79 bc 95 98 80 3b
       0.03014725 -0.013898851 -0.015210732 0.003924439
000130 e0 5c 1d 3d 10 4f 18 bd 8f 37 42 3c 07 fe b7 bb
       0.03841865 -0.037184775 0.0118540665 -0.005614999
000140 63 6c 2b 3c 39 5f d5 bc a9 b2 be 3c ee 5c 9e 3c
       0.010462853 -0.026046382 0.023278551 0.019331422
000150 5d da 4d 3c 6c 21 ef 3c 8c 15 e8 3c e7 1f b4 bc
       0.012564269 0.029190741 0.028330587 -0.021987868
000160 fd 1b 65 3a 2c b9 8a 3c b8 f1 61 3d 7b 78 f5 3a
       0.00087398273 0.016934 0.05516216 0.0018727923
000170 aa 64 20 bb c5 2e 67 bc 4c bd 26 3d cf 31 9f 3c
       -0.0024474063 -0.014110272 0.04070787 0.01943293
000180 e8 57 24 3a b2 20 18 bd 03 b0 05 3c 73 60 b9 3c
       0.00062692026 -0.037140556 0.00815964 0.022628998
000190 9b a9 07 bd 8e 77 e8 3c 76 3b ee 3c 93 90 d8 3c
       -0.033120733 0.02837732 0.029081088 0.026436126
0001a0 81 b8 53 3d f1 bd 16 bc 8a 27 77 38 ad 05 31 bd
       0.05168963 -0.009200559 5.8926213e-05 -0.043218303
0001b0 72 4d 29 3c bd 83 26 3c 76 49 31 bd ed e0 0c 3d
       0.010333406 0.010163245 -0.04328295 0.034394193
0001c0 fe fa 3d 3d 86 2f 43 3d bc ab 6d bd cc 6e 26 3c
       0.046381943 0.047652744 -0.058025107 0.010158252
0001d0 33 6e 36 3d b3 1c e5 bc 56 9c e1 3b 62 51 3c bd
       0.044538688 -0.027967786 0.006885092 -0.04597605
0001e0 1a 32 9e 3c 42 8e 83 3c 64 71 24 3d b5 24 35 bd
       0.019311 0.016059045 0.0401472 -0.04422446
0001f0 af 58 01 3d 1a b6 65 3b 99 ca f3 3c dd ed d5 3c
       0.031578716 0.0035051168 0.029759692 0.026114399
000200 a3 14 70 3d 97 58 91 bc 58 82 a4 bc 1a 48 d0 3c
       0.05861343 -0.017742438 -0.020081684 0.025425006
000210 14 4b 0b bb 29 99 57 bd e9 32 de 3c 9d df e6 3c
       -0.0021254467 -0.0526363 0.027123885 0.028182799
000220 e8 ab 14 3d d1 cf 3c bc 95 9e a5 3c 67 77 01 3d
       0.036296755 -0.011524157 0.02021722 0.03160801
000230 17 ec 0f bd f1 b8 05 bd b5 5e 26 bd 48 8e b1 3d
       -0.035137262 -0.032647077 -0.040617663 0.08669716
000240 a8 80 f2 3c ec d3 a3 bc bb c5 18 bc 7c 92 8c bc
       0.029602364 -0.019998513 -0.009324486 -0.017159693
000250 ee ce d3 bc 3e 19 b8 bb f8 68 eb 3c b3 4b 89 bc
       -0.025855508 -0.0056182435 0.028736576 -0.016759729
000260 b0 76 10 3c 86 fd 14 bd 13 d0 c6 3c bd 36 1e 3d
       0.00881736 -0.03637459 0.02426914 0.03862642
000270 6f de 27 bd a5 ec cc 3c 55 04 23 3c 76 e5 28 3d
       -0.040983614 0.025015185 0.009949763 0.041234456
000280 3e 96 7e 3c 6d 64 21 bd 19 7a f6 3c a4 1f 23 3d
       0.01553875 -0.039402414 0.030087518 0.039825097
000290 60 a2 f3 3b f1 8c e5 bc a4 aa cf 3b f3 2f 93 3b
       0.007435128 -0.028021308 0.0063374806 0.0044918
0002a0 00 dd a7 bc a3 d3 d6 3b c0 ab 21 bd cf c3 e1 ba
       -0.020491123 0.006555991 -0.039470434 -0.0017224493
0002b0 f3 40 e5 bc a1 bf 8a bd 3f 5a 60 3a ed 47 ee bc
       -0.027985072 -0.067748316 0.00085583696 -0.029087031
0002c0 ac b4 15 bd 31 a1 28 bd f9 c4 7c bd e1 b6 26 bd
       -0.036549255 -0.04116935 -0.061711285 -0.04070175
0002d0 8b 26 9a bc 56 d0 23 3d 38 c2 5c 3b 5e 42 55 3c
       -0.018817207 0.039993607 0.00336851 0.013016311
0002e0 26 c3 12 3d fa e5 34 bd bd cc 1d 3d 27 34 d8 bc
       0.03583064 -0.044164635 0.03852533 -0.026392056
0002f0 0b c6 a8 3c 81 a2 f8 3b 62 f5 31 bd 0a 2b 43 bd
       0.020602247 0.0075877314 -0.043446906 -0.047648467
000300 1a cd 73 bc 29 27 c1 bc d7 77 93 3d 5d 39 64 3d
       -0.014880443 -0.023578243 0.07200592 0.05571877
000310 21 8d 5e bb 95 57 1b 3d 9b 48 2c 3d ef 85 a2 3a
       -0.003395863 0.03792532 0.04206143 0.0012399534
000320 83 58 b0 3c 49 15 02 3d ed 3c 92 bd fc d0 99 3b
       0.02152658 0.03175858 -0.07140527 0.0046941023
000330 72 f5 0a 3c 1d 36 ad bc ce 4a 11 bd 4d 89 83 3c
       0.00848137 -0.021143967 -0.03547173 0.016056681
000340 0f 4d d3 3c cf cc f4 3c 35 f6 fa 3c b5 90 95 ba
       0.02579358 0.029882817 0.030634979 -0.0011410924
000350 c8 10 23 3d fb 75 90 bb 16 e3 af bc 13 19 b0 3c
       0.039810926 -0.0044085956 -0.021470588 0.021496331
000360 bf 9b eb bb 63 cc f9 bb c3 3d 20 3d 31 2d 5e bd
       -0.0071901972 -0.0076232417 0.0391214 -0.054242317
000370 74 33 06 bd be 44 0b bd 3c 4a 0a bd 64 72 05 bc
       -0.032763913 -0.034001105 -0.0337622 -0.008144949
000380 41 ce f4 bb d8 0a 4f bc 8b 12 e2 bb 19 1e 34 bb
       -0.0074708764 -0.012636863 -0.006899183 -0.002748376
000390 ec 5b a2 3c c3 a7 6c b8 0b ac ec 3c 9b 9c e9 3c
       0.019819222 -5.6423025e-05 0.02889063 0.028517058
0003a0 fd bf 60 bd 1e cf 4c 3c 8e 4f 09 3b cb 81 ba 3b
       -0.054870594 0.012500552 0.002095196 0.005691742
0003b0 fc cc 08 3c 28 41 f2 bc 8b 06 3a bb 89 e1 70 bd
       0.008349653 -0.029572085 -0.0028385248 -0.058808837
0003c0 18 2d 08 3d 35 a7 20 3d 12 7c da bb 75 1c 9d bc
       0.03324613 0.03922196 -0.0066676224 -0.019178608
0003d0 7f f1 9f 3c 48 7e 0e bb d3 0e c0 3b 56 11 d9 bb
       0.019524334 -0.002174275 0.005861142 -0.006624381
0003e0 bd 65 61 3c b9 73 9a bd 40 f3 01 bc c1 41 2a 3a
       0.013757166 -0.075416036 -0.0079315305 0.00064947834
0003f0 12 b0 ae 3b 96 10 2b bd ab 6d 86 bc c6 44 1e bd
       0.005331048 -0.041763864 -0.016409716 -0.038639806

input_block.1.bias f4 [64]
000000 73 c9 25 bd ad d8 3a bd d3 a7 42 ba 63 d2 a8 3c
       -0.04047532 -0.045616794 -0.00074255205 0.020608133
000010 8b 3d 17 3d 53 1a 03 3d 24 8f 6c bc 6d 3f 45 3a
       0.036923926 0.032007527 -0.014438424 0.0007524405
000020 41 06 21 bd 0a 06 b5 3c 8d 75 da 3a 36 a8 47 3d
       -0.039312605 0.022097606 0.0016667113 0.048744403
000030 9a aa 2b bd b7 5c 40 bd 55 b2 4b bb 27 a2 1d 3d
       -0.041910745 -0.04696342 -0.0031081636 0.03848472
000040 0e 5d f8 bc 32 7e c0 bc ed be 25 bd d4 67 e6 ba
       -0.03031781 -0.023497675 -0.040465284 -0.0017578551
000050 a9 d4 81 bc 44 8a ff 3b af 6a c1 3b 7e 55 44 3d
       -0.015848475 0.007798465 0.0059026103 0.047933094
000060 0f 16 27 bd 3c 7f 02 3d a6 06 33 3d 6f 43 01 3d
       -0.04079252 0.03185962 0.043707512 0.03155845
000070 9c fb 28 bd 72 3d 88 bb 18 ff db 3c c4 20 df bc
       -0.04125558 -0.0041577155 0.026855037 -0.027237304
000080 ad 86 25 3c f2 25 94 3c 36 47 99 3c 4e d5 88 3b
       0.01010291 0.0180845 0.018710714 0.0041758185
000090 4e 9f 1d bd 5c 88 ec bc 03 94 13 bd 54 db d6 bb
       -0.038482003 -0.028873615 -0.036029827 -0.0065569077
0000a0 04 bf 05 3d 41 58 2d bd 43 a1 45 bd c0 56 b4 3c
       0.03265287 -0.042320494 -0.048249494 0.022014022
0000b0 9f 74 8f bc b9 93 47 bd 32 d6 47 bd 2a f0 c8 3c
       -0.017511664 -0.048724864 -0.048788257 0.024528582
0000c0 2e fc 86 bc 5b b2 2c 3d 44 17 5c bc e9 ce 0a bd
       -0.01647767 0.04216228 -0.013433281 -0.03388873
0000d0 c2 f2 bf bb 1a 82 85 3c c1 68 15 3c 79 e1 91 bc
       -0.0058577964 0.016297389 0.009119214 -0.017807709
0000e0 86 07 e2 3c 84 c0 95 bc 67 81 3b bd b6 b6 00 bd
       0.027591478 -0.018280275 -0.045777705 -0.031424247
0000f0 a0 00 20 bd 21 74 e7 bc c9 d6 6a bc 80 51 fa bc
       -0.039063096 -0.028253617 -0.014333435 -0.03055644

hidden_block.0.weight f4 [64]
000000 e1 9a 76 3f 9f 1e 85 3f 98 6e 79 3f db 67 8e 3f
       0.96330076 1.039997 0.9743438 1.1125444
000010 44 37 7d 3f 87 62 72 3f b5 1b 87 3f 82 85 82 3f
       0.98912454 0.9468159 1.055533 1.0196993
000020 8b 98 79 3f 52 38 75 3f 87 5b 84 3f ce c2 80 3f
       0.9749839 0.9578906 1.0340432 1.005945
000030 c6 97 74 3f b4 28 7c 3f 5c d5 79 3f f8 81 83 3f
       0.9554409 0.9849961 0.97591186 1.0274038
000040 f1 f4 79 3f 8d 21 85 3f 1a 3e 7b 3f 36 0b 7a 3f
       0.97639376 1.0400864 0.98141634 0.97673357
000050 04 75 6e 3f 89 9e 83 3f 8f 61 6a 3f 80 bd 81 3f
       0.931473 1.0282756 0.9155511 1.0135956
000060 a2 8b 7b 3f d8 5a 7a 3f 8f 05 84 3f a6 9a 82 3f
       0.9825994 0.97794867 1.0314196 1.0203445
000070 cf 30 82 3f d7 09 80 3f d8 05 6b 3f ff 89 79 3f
       1.0171145 1.0003003 0.9180579 0.9747619
000080 48 ba 77 3f cf f6 81 3f f6 08 77 3f bf bb 81 3f
       0.9676862 1.0153445 0.9649805 1.013542
000090 55 d0 75 3f 00 0a 85 3f 5b ed 7e 3f 62 27 76 3f
       0.96021014 1.0393677 0.99580926 0.96153843
0000a0 51 a9 6d 3f b4 5b 78 3f bc 6f 79 3f 45 e8 6f 3f
       0.9283648 0.9701493 0.9743612 0.9371379
0000b0 2c 38 80 3f c7 87 8d 3f 2b e6 7f 3f fb 92 70 3f
       1.0017142 1.1057061 0.99960583 0.93974274
0000c0 19 d6 6c 3f 0a 27 7e 3f 10 b1 84 3f 00 60 79 3f
       0.9251419 0.9927832 1.0366535 0.9741211
0000d0 45 66 77 3f de bc 88 3f cc 17 88 3f 80 a5 86 3f
       0.96640426 1.0682638 1.0632262 1.0519257
0000e0 96 55 80 3f c8 54 7f 3f 2b 95 7e 3f 03 33 78 3f
       1.0026119 0.9973874 0.9944636 0.9695284
0000f0 41 2f 7b 3f 90 6d 82 3f 26 e9 81 3f 41 2a 82 3f
       0.9811898 1.0189686 1.0149276 1.0169145

hidden_block.0.bias f4 [64]
000000 be d2 0d 3c 39 39 31 bc d6 1c 94 bd c1 9c cd bd
       0.008656202 -0.010816866 -0.072320625 -0.10039664
000010 1a 3f 40 3b ce 0e 0f 3d 9d 60 15 bd 25 4a 16 bc
       0.0029334486 0.03492623 -0.03646909 -0.009172951
000020 f8 1f e1 3b d2 2b 2f bb 02 d2 d2 bb 16 01 67 3c
       0.006870266 -0.0026729 -0.0064337263 0.01409938
000030 4d 4a f3 3c ec de 82 bc 89 50 62 3c 14 b8 28 bc
       0.029698515 -0.015975438 0.013813146 -0.010297794
000040 ce f5 1b 3c 7f a0 30 bc 64 e6 cb 3c 01 be c9 3b
       0.009519054 -0.010780453 0.024890132 0.0061566834
000050 9a d0 80 3c 8e d1 02 bd 83 d8 96 3d a7 46 82 bb
       0.015724469 -0.03193813 0.07365515 -0.0039757076
000060 0f 6d 0d 3b 24 93 35 bc 26 0f cd bb 34 1a fc bc
       0.0021579897 -0.011082444 -0.0062579094 -0.030774213
000070 c1 a1 c7 bc 2b ec 49 3a 24 71 c4 3c e9 d2 aa 3a
       -0.024369122 0.0007702733 0.02397973 0.0013032827
000080 67 5c b9 3b 59 33 9a bc 97 6b 23 3c 76 81 14 bc
       0.005656767 -0.018823313 0.009974382 -0.009064069
000090 a8 75 8c 3c 8f 8b 06 bd ad af 00 3c 9a 7e a0 3c
       0.017145947 -0.032847937 0.007854384 0.019591618
0000a0 86 15 2d bc 11 d7 3d 3c e0 18 29 3c 93 29 ee 3b
       -0.010564214 0.01158692 0.010320872 0.0072681396
0000b0 a7 3b 83 bc 17 83 6d bd 7a 39 66 b9 35 ab be 3c
       -0.016019655 -0.057986345 -0.00021955921 0.023274997
0000c0 aa 89 ad 3c 63 9c 49 3c 70 cd e4 bc cb 1b 34 3d
       0.021183807 0.012305352 -0.027929991 0.043971818
0000d0 c5 f1 85 3d 59 50 4b bd 6c d8 fb bc f6 9c 2d bc
       0.065402545 -0.049637172 -0.030742846 -0.010596504
0000e0 95 89 0f 3b 28 56 09 3b 4f fe 54 3c 3b 83 24 bc
       0.0021902074 0.0020955894 0.013000085 -0.010041053
0000f0 50 0a f5 3c 46 78 3e bc ca 73 bc bb 12 98 04 3c
       0.029912144 -0.011625355 -0.005751108 0.008092897

hidden_block.2.weight f4 [64, 64]
000000 e7 8f b9 3d 2f 19 cd bd 82 06 6a 3d 31 bc 3b 3d
       0.0906065 -0.10014569 0.057135113 0.04583377
000010 e0 1a 55 3d 06 b8 27 bd 36 2d b6 bd 1d f3 f1 3c
       0.052027583 -0.040946983 -0.08895342 0.02953487
000020 83 17 fc bd 9b 25 b2 3c 81 0f df 3c bd 16 b4 3c
       -0.12309172 0.021746447 0.027229073 0.021983499
000030 5a f3 6d 3d 67 2f 05 be e5 81 82 bd 9d 78 73 3d
       0.058093406 -0.13006364 -0.06372432 0.059441198
000040 f7 a2 fe 3d 84 85 c8 3d f4 b0 87 bc ed 59 2f bd
       0.12433427 0.09791091 -0.01656387 -0.04281037
000050 d0 1d 5b 3d 98 a1 27 3d 41 b0 ac bc 1a 81 e7 3c
       0.05349523 0.040925592 -0.021080138 0.028259803
000060 17 49 b4 bd d2 ab 56 bd 2e e1 ef 3d 97 2f 24 bb
       -0.08803003 -0.052409954 0.117128715 -0.002505278
000070 f8 11 ad 3d 55 68 63 bd 8c 68 21 3d bf a6 80 bd
       0.08450693 -0.05551942 0.039406344 -0.06281804
000080 b7 96 03 bd ea 0f a9 bc 5b 1b 87 bd a8 e2 e1 bd
       -0.032126155 -0.020637471 -0.065970145 -0.110295594
000090 0f 28 12 be 6b 04 72 bd 28 62 d4 bb e8 3e 57 3d
       -0.14273094 -0.059086245 -0.0064814277 0.052550226
0000a0 e4 3b 5c bd ea 9a 3a bc a4 4c 2b be c0 e6 ab 3d
       -0.053768054 -0.011389473 -0.16728455 0.083936214
0000b0 4a 45 ef bd bd 20 00 bc 48 47 43 3c 2a b0 76 3c
       -0.11683138 -0.007820305 0.01191885 0.015056649
0000c0 5b 7e 62 3c a8 bc bd bd a8 db 41 bd 8c 8a 4a 3d
       0.013824071 -0.09264499 -0.04732862 0.049448535
0000d0 10 ab f3 bd a2 bb 00 3e ed f8 74 3d a8 01 a1 3d
       -0.11897862 0.12571576 0.059807707 0.07861644
0000e0 8a fd 79 ba c0 58 f0 3a 2c e4 a4 3d 0b c3 77 3d
       -0.00095363765 0.0018336996 0.08051333 0.06048874
0000f0 ee 3e d7 bd c9 23 59 3d fd 00 19 3e b0 e4 37 bd
       -0.1051005 0.053012643 0.14941783 -0.044895828
000100 16 43 ce 3d 78 02 f5 3b 63 9e 26 bd 05 9f 2b bd
       0.100713894 0.007477101 -0.040678393 -0.0418997
000110 a0 f7 c9 bd 08 b6 bb 3d 25 9f ae bd dd ea 5b 3c
       -0.09861684 0.09165579 -0.08526448 0.013422695
000120 3d 69 f8 3c 8e 1a b0 bd 28 e9 91 bd 3b 6c 06 bd
       0.030323619 -0.08598815 -0.07124549 -0.03281806
000130 1f 63 61 3d f8 11 cb bb 18 fc c1 3d 67 f8 8e bd
       0.05502617 -0.0061972104 0.09471911 -0.06980973
000140 72 35 d9 3d c6 06 49 bc f6 6d 59 bc b0 82 ab 3d
       0.10605897 -0.012269681 -0.013270846 0.08374536
000150 d9 5a 1c bd df ad 8d 3d 85 6f 75 bd db 03 52 bd
       -0.038172577 0.06917929 -0.059920806 -0.051273208
000160 d2 e1 fc bd e0 d5 94 bd a7 88 c5 3d 52 01 b0 bd
       -0.12347759 -0.07267356 0.09645205 -0.08594002
000170 8b 92 bf 3c b3 16 c5 bc 7c e7 cc bd 12 a9 e4 bd
       0.023385307 -0.024058675 -0.1000509 -0.1116506
000180 8f 60 31 bd 4e f6 d7 bd 99 e0 36 bd 4d 57 c9 bc
       -0.043304976 -0.10545026 -0.044647787 -0.024577761
000190 44 df a7 3d f4 f1 b8 3d c2 48 2c 3c 48 67 b2 3d
       0.081968814 0.09030524 0.010515394 0.087111056
0001a0 76 80 21 3d 16 45 98 3d e0 6e 4d bd 15 be 0d bd
       0.03942915 0.07435052 -0.050154567 -0.034605104
0001b0 17 43 00 be e2 78 82 3d d3 98 ca bd cf d7 9c 3d
       -0.12525593 0.06370713 -0.0989243 0.0765835
0001c0 24 6b 41 bd 15 95 07 be 30 0d 8d 3c 10 38 01 be
       -0.047221318 -0.13240464 0.017218202 -0.12619042
0001d0 30 a0 81 3d 95 99 fc 3d 7a 97 82 3d 92 62 3a bd
       0.063293815 0.12333981 0.06376548 -0.04550416
0001e0 32 9a 82 bd 59 e2 b0 bc 63 8a a8 3d c9 fd c8 3c
       -0.06377067 -0.021592306 0.0822952 0.024535077
0001f0 2f fe d5 3c ac f1 b4 bd 52 67 27 3e 9a 78 77 bc
       0.02612218 -0.08835158 0.16348007 -0.015104437
000200 e1 90 53 bd 71 28 7a 3d b8 bd 46 bc e8 67 b4 3d
       -0.05165184 0.061073724 -0.012130193 0.08808881
000210 2d 38 53 3d 04 1b 61 bd 13 77 d4 bc 8e 93 bc 3d
       0.051567245 -0.054957405 -0.025935685 0.09207831
000220 db ce 8c bc 6c 90 8f bd 43 3d 1d 3d c7 44 3b bc
       -0.01718848 -0.07009968 0.0383885 -0.011429972
000230 8b 1b b9 bc e3 af dc bd f6 00 98 3b 6e 8e 14 3d
       -0.022596141 -0.10775735 0.0046387864 0.036268644
000240 4e f8 20 bd 8d f9 4f bd 24 71 5b 3b 04 53 e6 bd
       -0.0392993 -0.0507751 0.0033484185 -0.11246303
000250 60 ba 1f be 75 8f b9 3d 87 0d 76 3d 14 60 84 bd
       -0.1559844 0.090605654 0.060071494 -0.06463638
000260 38 29 4e bd b7 cc e6 bd a3 43 ab 3c a3 aa 43 3d
       -0.050332278 -0.11269515 0.020906275 0.047770154
000270 90 06 55 bd 85 5c 06 3d a9 e1 99 bd b1 01 30 3c
       -0.05200821 0.032803077 -0.075137444 0.010742591
000280 b1 00 03 bb 19 5f 2f bd b3 32 e6 3c a8 4a 0e 3d
       -0.0019989426 -0.0428153 0.028100347 0.034739166
000290 b9 36 4b 3c 41 88 18 3d 09 cc 10 bd 09 5d 08 be
       0.012403184 0.037239317 -0.035350833 -0.1331674
0002a0 aa 4a 71 3c eb ac 23 3c 2e 3b 7f 3d b1 5a c9 bd
       0.014727274 0.009989957 0.062312298 -0.09831751
0002b0 b3 a6 36 bd 69 8f 18 bd 40 34 94 bc 08 2c 89 bc
       -0.04459257 -0.03724614 -0.018091321 -0.016744629
0002c0 ba b5 b9 bd 82 c4 19 3d 56 77 55 3d d1 34 e2 3b
       -0.09067865 0.03754092 0.05211576 0.006903269
0002d0 3d 7a 10 3e ee 41 c2 3d b2 d3 2e 3d 75 f8 6d 3c
       0.1410913 0.09485231 0.042682357 0.014524569
0002e0 e0 54 01 3e 0a 88 46 3d b2 10 0f 3d b9 b4 36 bc
       0.12630033 0.04846958 0.03492803 -0.011151486
0002f0 61 b4 0d 3c 8c bc 82 3d 40 ca bd 3c 4a b4 d6 bc
       0.008648963 0.06383619 0.02316773 -0.026209015
000300 e4 12 a3 bd e6 f7 fd 3c e3 9e 08 3d 48 4f 81 bd
       -0.079625875 0.031001996 0.03335465 -0.0631395
000310 32 bd 82 bd 71 e1 6e 3d a1 7a 9b 3d c0 a7 26 3d
       -0.063837424 0.058320466 0.07591749 0.040687323
000320 1a 1e 16 3d b4 02 d4 bc d4 03 c1 3d 0e 12 d5 3d
       0.0366498 -0.025880195 0.09424558 0.10403834
000330 e3 73 bd bc c3 05 f6 bd dc f9 97 3d f0 25 be 3c
       -0.023126548 -0.12012818 0.07420704 0.02321145
000340 78 3f be 3d 23 b3 b7 3d fc 3b ee 3a 17 e5 96 3d
       0.092894495 0.089697145 0.0018175836 0.07367914
000350 b0 ca ad bc 9a 07 37 bd 99 4b bb 3d 84 08 71 bd
       -0.021214813 -0.044684984 0.091452785 -0.05884601
000360 1c 74 91 bd 4e 8e 4c 3d 22 3b c1 bd 53 d9 02 3d
       -0.07102224 0.0499404 -0.09435107 0.031945538
000370 ea 7f 56 bd 38 59 07 3e 06 24 2c bd fe cd 1a be
       -0.052368082 0.13217628 -0.042026542 -0.15117642
000380 cf 74 24 3d f5 f8 87 bd 6e ee 67 bc 80 5d 03 3c
       0.04015046 -0.06639282 -0.014155967 0.008017898
000390 a5 c7 af bd 71 3c e8 bd 93 8d fd bc e0 94 ff bc
       -0.08583001 -0.11339653 -0.030951297 -0.031198919
0003a0 9c 19 7e 3d 06 8b 86 bc 22 5e 7f bd b7 82 38 3d
       0.06203614 -0.016423713 -0.06234563 0.045046534
0003b0 3a 20 2f bd 74 6a f1 bc 4d 22 58 3d 81 d4 d1 bd
       -0.042755343 -0.029469706 0.052767087 -0.1024561
0003c0 38 ca dd bd 37 07 b6 bd aa 4d e5 bd 3a e3 2f bd
       -0.10829586 -0.08888095 -0.11196454 -0.04294131
0003d0 32 e2 b4 3d 91 0f 88 bc 9e f6 93 3d b4 36 94 bb
       0.08832206 -0.016608985 0.07224773 -0.0045231227
0003e0 32 1b ad 3d 80 6e 0a 3d 03 65 11 3d 1b ae 8d bb
       0.08452453 0.033796787 0.035496723 -0.0043237335
0003f0 63 58 9d bd ae 02 a6 3d a3 1b 12 3e ac 26 d3 3c
       -0.07682874 0.0810598 0.14268355 0.025775276

hidden_block.2.bias f4 [64]
000000 9d d4 11 bd cf fc a2 bd 6c ee 69 bc 4b 19 e0 bd
       -0.035603154 -0.07958376 -0.014278036 -0.10942324
000010 f3 84 1e be bd c0 36 be 02 fe 02 be 6f ac 9c bd
       -0.15480404 -0.17846961 -0.12792209 -0.076500766
000020 69 c5 a0 bd 21 05 a2 bd c8 07 9f bd 50 93 50 bd
       -0.07850153 -0.079111345 -0.07765156 -0.05092174
000030 09 72 92 bc c3 f9 b4 3d f9 5f 0d be a4 bd 68 3e
       -0.017876642 0.08836701 -0.13806142 0.22728592
000040 c7 ad 1b 3e 1f 43 5c 3e a4 67 a2 3d fb c9 08 3e
       0.1520301 0.2150998 0.07929924 0.133583
000050 d0 23 ec bc 64 75 9d 3d b2 91 06 3d 68 c6 04 be
       -0.02882567 0.07688406 0.03285379 -0.12966311
000060 7c 1c a0 3c 1b ed 2a 3c 6d 51 57 3e c2 fe 01 3e
       0.019544832 0.010432507 0.21027155 0.12694839
000070 17 91 9a 3c 72 65 5e 3d 8f 5c 9d bd c4 6b 8e bb
       0.018868012 0.054295965 -0.0768367 -0.0043463428
000080 5a 66 b0 bd 1c 7e 06 be f3 e3 b8 bc 4c ab f7 bd
       -0.08613272 -0.13134044 -0.022569632 -0.12093219
000090 1f 24 c0 3d bc 61 04 bd af ba 0d 3e b9 8d a5 3d
       0.093818896 -0.03231977 0.13840745 0.08083672
0000a0 45 9c 9c 3b f3 d6 ae bd b9 d0 f2 bd 38 46 83 bd
       0.004779371 -0.08537092 -0.11856217 -0.064098775
0000b0 ac fd 62 bd ef 13 b2 bd 97 1a 3d 3d 26 6d ea 3d
       -0.0554177 -0.08695208 0.046167936 0.114466
0000c0 03 51 17 be a1 17 19 be c5 89 36 be 37 dd 6b 35
       -0.14776997 -0.1495042 -0.17825992 8.786623e-07
0000d0 0b 61 f9 3c 5b 2c db bd db 9d 8b 3d 6a 7b 87 3d
       0.030441782 -0.107018195 0.06817218 0.06615336
0000e0 ba 1e 9d 3c f0 09 cb 3c 97 86 c8 bd 31 4a 10 bd
       0.01917969 0.024785012 -0.09791296 -0.035227004
0000f0 f7 ec 4d bd 5c 45 ab bd 28 40 1e be 63 30 04 be
       -0.050274815 -0.083628386 -0.15454161 -0.12909083

hidden_block.4.weight f4 [64]
000000 a2 39 76 3f 84 6e 68 3f 05 65 82 3f 95 c4 73 3f
       0.9618169 0.90793633 1.0187079 0.95221835
000010 21 a8 84 3f 37 9b 82 3f d3 96 81 3f d6 fb 72 3f
       1.0363809 1.0203618 1.0124153 0.9491552
000020 8e b7 80 3f 83 ba 6d 3f 29 84 61 3f b2 46 81 3f
       1.0056016 0.9286272 0.88092285 1.00997
000030 93 6a 82 3f 88 e8 6c 3f 47 07 83 3f 18 79 71 3f
       1.0188774 0.92542315 1.0236596 0.943254
000040 21 23 82 3f 12 d1 6f 3f f7 7a 73 3f e3 11 6c 3f
       1.016697 0.9367839 0.95109504 0.9221479
000050 88 7d 81 3f 4b e7 6f 3f b4 0a 76 3f 6c b7 7f 3f
       1.0116434 0.937123 0.9611008 0.99889255
000060 f0 b3 77 3f 73 98 81 3f 53 2c 69 3f e2 a2 7b 3f
       0.9675894 1.0124649 0.9108326 0.98295414
000070 5a 92 72 3f 84 ec 7d 3f 69 e9 79 3f ee 7e 77 3f
       0.94754565 0.9918902 0.9762178 0.96678054
000080 e6 b6 7a 3f 3d f3 80 3f 5e cc 7a 3f e6 40 7f 3f
       0.9793533 1.007423 0.9796809 0.997084
000090 68 d7 7a 3f 9e d8 7a 3f 37 00 6b 3f 84 29 83 3f
       0.97984934 0.9798678 0.917972 1.0247045
0000a0 47 d5 6f 3f cc 02 74 3f 72 e0 82 3f 9e 9b 6a 3f
       0.9368481 0.9531677 1.0224745 0.91643703
0000b0 52 83 6d 3f 07 56 79 3f 0c 4f 64 3f 34 89 64 3f
       0.92778504 0.9739689 0.89183116 0.89271855
0000c0 46 5e 7c 3f ef 8f 71 3f 6f 9d 7f 3f 6d 18 72 3f
       0.9858135 0.9436025 0.998496 0.9456852
0000d0 5a 56 69 3f b4 00 56 3f a1 34 59 3f d0 90 82 3f
       0.9114739 0.8359482 0.8484593 1.0200443
0000e0 ad df 63 3f a1 dd 6f 3f eb 79 80 3f 15 75 6d 3f
       0.8901318 0.93697554 1.0037206 0.9275678
0000f0 d3 fa 6b 3f f0 bc 6e 3f 6c 94 7a 3f bb 65 7b 3f
       0.921796 0.93257046 0.97882724 0.98202103

hidden_block.4.bias f4 [64]
000000 7d 97 4b 3c 1f 9f 1c 3c 91 94 4f bd d7 d8 8b 3c
       0.012426254 0.009559422 -0.050678793 0.01707117
000010 f7 97 85 bd d3 8b df bc 48 2e 2b bd e6 b0 fd 3b
       -0.065231256 -0.027288353 -0.041792184 0.007742035
000020 e3 fc 8b bd f7 c0 24 3d 6b b6 a9 3c 5f d2 f8 bc
       -0.06835344 0.040223088 0.020716866 -0.03037375
000030 53 ec fa bc 39 d8 68 3c e8 9c 03 bd 2c 94 c2 3d
       -0.030630266 0.014211708 -0.03213206 0.09500918
000040 8c b6 b4 3c 62 09 96 bc a6 3f 79 bc 3d b2 a3 bc
       0.022059701 -0.018315021 -0.015212929 -0.019982452
000050 ff 83 dc bc a6 8f 0b bc 84 1d 4f bd 24 f1 fd bc
       -0.02691841 -0.008518135 -0.050565258 -0.030998774
000060 5e 26 a0 bd 09 7e 06 bd 1c dc ad bc 43 79 1b bb
       -0.07819818 -0.03283504 -0.02122312 -0.00237234
000070 89 1e 79 bd 45 df 10 3c 2f 27 4c 3c f7 8e 21 bd
       -0.060820136 0.008842294 0.012460514 -0.039442983
000080 8b bb 89 bc 19 6a 10 be 79 4a 07 bb 3a be 89 bc
       -0.01681306 -0.14102973 -0.0020643754 -0.01681434
000090 70 f3 08 ba 5d 6b b1 bc 12 64 14 bc c5 16 34 bb
       -0.00052242633 -0.02165764 -0.009057062 -0.0027479392
0000a0 a9 d9 11 3c 6f 1f b0 bc 81 a3 e2 bc 13 55 bb bc
       0.008901992 -0.021499364 -0.027665855 -0.022867715
0000b0 5a 51 38 bc ec 12 13 bc 5b 32 9b bc bb c3 33 bd
       -0.0112498645 -0.008976679 -0.01894491 -0.043887835
0000c0 66 79 39 bc 2e f6 93 bc 7e 61 80 bc e7 ab 70 bc
       -0.011320448 -0.018061724 -0.015671488 -0.014689422
0000d0 61 23 f2 3c 70 c8 94 bb 89 35 9a ba c9 45 1c 3d
       0.029557886 -0.0045404956 -0.0011765222 0.03815249
0000e0 29 83 42 3d 86 8d e2 bc 9f ad b6 bc 6b 3d f3 bc
       0.047488365 -0.027655374 -0.022299586 -0.029692372
0000f0 51 3a 63 bc 84 e4 d6 3b 73 97 c5 3a 33 2a 01 bd
       -0.013868884 0.006558003 0.0015075043 -0.031534385

layers.0.ln.weight f4 [64]
000000 dc fc 7a 3f 0e fe 81 3f 21 7e 4b 3f c3 ef 90 3f
       0.9804208 1.0155656 0.7948933 1.132317
000010 b5 28 42 3f ef 86 79 3f 65 44 7b 3f 67 a5 77 3f
       0.75843364 0.9747152 0.98151237 0.9673676
000020 2e 68 40 3f 23 78 8c 3f 97 77 82 3f 61 63 73 3f
       0.75158966 1.0974163 1.0192746 0.95073515
000030 b5 a9 72 3f a8 85 8c 3f 15 a7 7a 3f 92 af 62 3f
       0.947902 1.0978289 0.97911197 0.8854915
000040 d8 8e 7f 3f b0 a3 18 3f 9a 67 34 3f 59 2c 0a 3f
       0.9982734 0.5962477 0.70470583 0.5397392
000050 e4 3a 79 3f 22 1e 52 3f 4c 9c 54 3f 4e 0b 75 3f
       0.97355485 0.8207723 0.8305099 0.95720375
000060 e1 66 37 3f 72 67 71 3f 4a 89 47 3f 33 8f 54 3f
       0.71641356 0.9429847 0.7794386 0.83031005
000070 3d b1 4e 3f 82 2e 60 3f b9 6a 51 3f 09 5c 66 3f
       0.80739194 0.87570965 0.8180347 0.89984185
000080 f1 31 61 3f 00 9a 43 3f 88 cb 7f 3f e3 68 70 3f
       0.8796683 0.7640686 0.9991994 0.93910044
000090 ca 52 74 3f 6d fa 6d 3f e0 c9 61 3f 9b 61 83 3f
       0.95438826 0.92960244 0.8819866 1.0264162
0000a0 3a 88 6b 3f 82 90 52 3f fc d9 7a 3f 97 0c 3d 3f
       0.9200474 0.8225175 0.9798887 0.73847336
0000b0 c6 60 5b 3f b3 4b 67 3f 8a a0 54 3f 28 bd 46 3f
       0.8569454 0.9034988 0.83057463 0.7763238
0000c0 cf aa 71 3f 71 32 67 3f e6 57 79 3f f6 90 8a 3f
       0.9440126 0.9031134 0.9739975 1.0825489
0000d0 e2 28 83 3f f1 f7 69 3f fd 2c 6e 3f ed 49 8a 3f
       1.0246851 0.91393954 0.93037397 1.080381
0000e0 4a 65 7f 3f 0b 28 62 3f fb 84 7c 3f bb 5d 51 3f
       0.9976393 0.8834235 0.9864041 0.81783646
0000f0 c9 9b 85 3f 24 b5 43 3f 22 04 76 3f 0a 62 62 3f
       1.0438167 0.76448274 0.96100056 0.88430846

layers.0.ln.bias f4 [64]
000000 87 93 e0 3c 02 0a 50 3c 4f b9 43 3e dc 6b 7e 3c
       0.027414097 0.012697699 0.19113658 0.015528645
000010 4f bf 5b 3e 1a 59 a6 3c 7e 8d 3f 3c 03 c9 bc 3c
       0.21459697 0.020306159 0.011691449 0.023045069
000020 c4 ba 5b 3e 81 30 0b 3d 60 42 b9 3c 83 b5 ee 3c
       0.21457964 0.033981804 0.022614658 0.029139286
000030 67 67 36 3d 9f f2 46 3c 7a 25 65 3c ad 1c 8a bd
       0.044532206 0.012142806 0.013985986 -0.06743751
000040 e6 12 82 3a 9d a7 82 be 86 be 40 be 55 ca a9 be
       0.0009923845 -0.25518504 -0.18822679 -0.3316218
000050 35 79 19 3c 24 6c 6f bd 7e 52 0e 3d d7 37 72 3c
       0.009367277 -0.05845274 0.03474664 0.014783821
000060 b3 0a 52 3e ed 0c b8 39 0c 51 f8 bd 3b 39 87 bd
       0.20511894 0.00035104845 -0.121248335 -0.06602713
000070 a2 b5 35 3d f1 9a 39 bc 54 ad a5 3d 38 64 3c 3d
       0.04436267 -0.011328445 0.080897 0.045994014
000080 6f 44 a7 3d 09 d1 3d 3d a4 a2 f3 bb eb a5 1e 3d
       0.081673495 0.04634193 -0.0074351598 0.03873245
000090 38 40 02 bc 19 54 80 3c f6 0f 77 bc d7 7f 67 3b
       -0.007949881 0.0156651 -0.015079489 0.0035324001
0000a0 ca ff 58 bb 23 98 aa 3c dd c8 8b 3c 79 12 04 bd
       -0.0033111447 0.020824498 0.017063553 -0.03224418
0000b0 4e a3 34 bd d5 d5 59 bc de e2 1c bd 2f d6 4b bd
       -0.044101052 -0.01329561 -0.038302295 -0.04976481
0000c0 07 96 30 3d 95 7e 6d 3d b7 fb 98 3c ee fc f0 bb
       0.043111827 0.057982046 0.018674714 -0.0073543703
0000d0 c4 7b 07 3d 86 ce a8 3c 5e 1b 32 3b fc 26 1a 3c
       0.033077016 0.02060629 0.0027176957 0.009408709
0000e0 b1 ce fc 3c 88 d6 54 3d bd f1 1b 3c 9b bc 00 3e
       0.030860277 0.051962405 0.009518084 0.12571947
0000f0 ce 8b cc bb 79 22 3a 3e aa 49 2c 3d 0e f1 b3 3d
       -0.006242252 0.18177213 0.04206244 0.08786212

layers.1.ln.weight f4 [64]
000000 05 05 91 3f 2f 84 a1 3f 10 a3 72 3f 6e b2 ad 3f
       1.1329657 1.2618464 0.94780064 1.3570077
000010 8a e8 62 3f 55 f8 83 3f 16 60 84 3f c2 9b 8a 3f
       0.88636076 1.031016 1.0341823 1.0828784
000020 04 2a 63 3f a9 d4 a0 3f cf f5 9a 3f 9b b2 82 3f
       0.88735986 1.2564899 1.2106265 1.0210756
000030 71 98 83 3f cd 64 9f 3f c9 5e 84 3f a2 61 82 3f
       1.0280896 1.2452637 1.0341426 1.0186045
000040 7b 52 8a 3f 9b cf 84 3f 4f e5 85 3f a9 b2 85 3f
       1.0806421 1.0375856 1.0460604 1.0445148
000050 4c 02 83 3f 58 dd 83 3f f4 b3 80 3f b1 cb 82 3f
       1.0235076 1.0301924 1.0054917 1.0218412
000060 52 cd 67 3f be 72 84 3f f2 59 87 3f 24 11 85 3f
       0.9054767 1.0347517 1.0574324 1.0395856
000070 2a 92 5b 3f fa 92 85 3f 24 90 6d 3f 12 54 81 3f
       0.85769904 1.0435479 0.92798066 1.0103781
000080 b8 74 83 3f ad 09 73 3f ec 5e 87 3f 7f 28 84 3f
       1.0269995 0.9493664 1.0575843 1.0324858
000090 44 13 83 3f 2c 92 82 3f 63 63 8a 3f f6 b0 8a 3f
       1.0240254 1.0200858 1.081158 1.0835254
0000a0 ce d4 89 3f 41 60 7e 3f d7 63 84 3f 3d 60 86 3f
       1.0768068 0.9936562 1.0342969 1.049812
0000b0 3f 81 8b 3f cd 05 8a 3f bf cb 85 3f c4 ce 82 3f
       1.0898818 1.078302 1.0452803 1.021935
0000c0 79 9e 85 3f e6 9a 80 3f 50 21 86 3f ce 7d a7 3f
       1.0438987 1.0047271 1.0478916 1.3085268
0000d0 b0 dd a1 3f a4 a5 83 3f ca 62 8d 3f 17 b8 90 3f
       1.2645779 1.0284925 1.1045773 1.130618
0000e0 43 66 8d 3f 4e 1e 7f 3f 44 34 86 3f 4e 10 78 3f
       1.1046833 0.99655616 1.04847 0.9689988
0000f0 78 8e 9b 3f cf 5d 58 3f 31 74 8a 3f 57 26 82 3f
       1.2152853 0.8451814 1.0816709 1.016795

layers.1.ln.bias f4 [64]
000000 5c e0 cc 3c b3 89 d2 3c 56 e4 12 bc dd b9 d3 3c
       0.025009327 0.025700426 -0.008965572 0.025845462
000010 71 57 8f b9 f8 ec c6 bc a6 1b c7 bc be 28 cf 3c
       -0.00027340234 -0.024282917 -0.024305176 0.025287982
000020 0f dc c4 3c 41 88 d6 bc fd c1 cf 3c c4 bc c3 bc
       0.024030713 -0.026188018 0.025361056 -0.023893721
000030 82 8d c6 bc 17 2a d1 bc a1 51 c7 bc 16 62 c4 3c
       -0.024237398 -0.025532765 -0.024330916 0.023972552
000040 bb 9c c9 3c b8 72 c6 3c ed 10 c8 3c 32 7f c9 3c
       0.024610868 0.024224624 0.024422133 0.024596784
000050 7b de c5 bc 5e 15 d8 3c 4c 2a cb bc c5 95 c6 bc
       -0.024153939 0.026377376 -0.024800442 -0.024241338
000060 3f aa 99 bc 7b ed ca bc 85 79 c9 3c 3c 73 c6 3c
       -0.018757937 -0.024771443 0.024594078 0.02422487
000070 e4 42 b3 3c 1d cd c3 3c 5d 41 c3 3c 1f c4 c4 bc
       0.021882482 0.023901517 0.023834879 -0.0240193
000080 75 fb d8 bc 59 56 ae bc 36 e0 ce bc 60 4b c5 bc
       -0.026487092 -0.021281408 -0.025253396 -0.024083793
000090 58 9c c2 bc 91 97 c5 bc 02 dc ca 3c 35 58 cf bc
       -0.023756191 -0.024120124 0.024763111 -0.025310615
0000a0 bf f9 c8 3c d9 c1 bd bc b4 46 c7 bc 32 a9 c8 3c
       0.02453315 -0.023163723 -0.024325706 0.024494741
0000b0 03 1f cd 3c c6 3e cb 3c 84 b6 c8 3c c4 09 c7 3c
       0.025039202 0.024810206 0.024501093 0.024296649
0000c0 66 1a c8 bc 4b 0b d4 3c d2 84 c7 bc 0b ea d6 3c
       -0.02442665 0.025884291 -0.024355326 0.026234647
0000d0 e6 71 d1 bc 55 14 cc 3c c7 3c d5 3c f7 da d4 bc
       -0.025567006 0.024912039 0.026029957 -0.025983317
0000e0 a5 41 dd bc 98 6d d1 3c 49 ad c7 bc 7f 39 d8 3c
       -0.02700884 0.025564954 -0.024374621 0.026394604
0000f0 0a 63 d2 3c 7b 35 aa 3b 42 d0 cb bc 50 99 c0 bc
       0.025681991 0.0051943636 -0.024879579 -0.023510605

logit.weight f4 [1, 64]
000000 ea 74 87 be 7e 4b b1 be de 6e f4 3c 8a 90 e5 be
       -0.26456386 -0.34627908 0.029838022 -0.44836837
000010 9c 8b a3 3c 8c 99 ff 3d bc 4e fd 3d db 8a 36 be
       0.019964032 0.124804586 0.12368533 -0.17826407
000020 03 5f 3f bb 9b ee 96 3e 8c f9 9d be e2 f1 d5 3d
       -0.0029200919 0.29478917 -0.30854452 0.10446526
000030 b8 1c b4 3d 17 e7 b0 3e 04 80 08 3e e9 6a b0 bd
       0.0879454 0.34551308 0.13330084 -0.086141415
000040 78 3c 24 be 1a f3 9a bd fa 12 d1 bd 0d ca 97 bd
       -0.16038692 -0.07565899 -0.102086976 -0.07411585
000050 f0 14 0d 3e 50 66 87 bd 38 d5 60 3d 45 ce ea 3d
       0.13777518 -0.066113114 0.05489084 0.11465124
000060 d6 d4 a5 3c 29 e4 d5 3d f6 36 23 be 72 75 e6 bd
       0.02024309 0.10443909 -0.15938935 -0.1125287
000070 16 1b a8 bc af 52 cf bd 6e 17 cb bc 36 f5 92 3d
       -0.020520728 -0.101231925 -0.024791446 0.071756765
000080 99 6c 65 3d 77 7b e7 3c 56 dc 23 3e fb de c9 3d
       0.05601177 0.028257115 0.1600202 0.09856983
000090 6d ed 10 3d 32 88 e0 3d 1d d8 1e be 95 5a 34 3e
       0.035382677 0.10963477 -0.15512128 0.1761268
0000a0 bb 66 44 be 8c 7f 7f 3d 81 93 01 3e 79 bf 29 be
       -0.19179814 0.062377498 0.12653925 -0.16576947
0000b0 ff a7 12 be 99 b0 2f be b2 91 1c be 9c c5 bf bd
       -0.14321898 -0.1715721 -0.15289953 -0.09363863
0000c0 c2 55 d4 3d 1f e3 4d bd 76 e2 1d 3e 0b a9 be be
       0.103679195 -0.050265428 0.15418419 -0.37238345
0000d0 1d d4 b0 3e 89 cc c7 bd 02 d9 1a be e7 66 5a 3e
       0.3453683 -0.09755809 -0.15121844 0.21328317
0000e0 37 64 fe 3d e8 f5 46 bd f4 12 32 3e 94 82 a4 bc
       0.12421458 -0.04857436 0.17390043 -0.020081796
0000f0 df 7f 93 be 77 09 50 3c b3 c1 0b 3e fd 7f 74 3d
       -0.28808495 0.012697569 0.13648109 0.05969237
