Model/both/fold1.ckpt (torch, 140607 bytes, 15 tensors)

input_block.0.weight f4 [438]
000000 af fe 83 3f 51 ae 85 3f ed 9b 80 3f 35 34 70 3f
       1.0312098 1.0443822 1.0047585 0.9382966
000010 73 82 7f 3f 3a d3 80 3f dc 73 7b 3f 68 ab 83 3f
       0.99808425 1.0064461 0.9822366 1.0286684
000020 71 6b 84 3f 91 47 80 3f 86 6d 80 3f 4a f3 86 3f
       1.0345289 1.002184 1.0033424 1.0542996
000030 1e 1a 78 3f ba 19 7d 3f e8 73 70 3f e1 19 80 3f
       0.9691485 0.9886738 0.9392686 1.0007898
000040 1a 71 76 3f 1b 33 7d 3f 2a 48 84 3f 66 36 81 3f
       0.9626633 0.98906106 1.0334523 1.0094726
000050 44 e0 7d 3f 00 27 6f 3f e9 f5 82 3f b7 d6 82 3f
       0.9917033 0.93418884 1.0231296 1.0221776
000060 14 0f 82 3f 38 55 82 3f 89 8f 85 3f 43 1c 70 3f
       1.0160851 1.0182257 1.0434428 0.93793124
000070 cf 2c 80 3f 96 32 7f 3f 83 cd 68 3f d7 6d 72 3f
       1.0013674 0.99686563 0.90938586 0.9469885
000080 26 69 7c 3f d8 80 7f 3f a3 c3 78 3f 8c 44 7f 3f
       0.98597944 0.99805975 0.9717352 0.9971397
000090 11 84 7f 3f 84 c3 80 3f 49 cb 7f 3f 6b e5 80 3f
       0.9981089 1.0059667 0.99919564 1.0070013
0000a0 a8 65 7b 3f 1b c8 80 3f db 76 7e 3f ed 44 85 3f
       0.9820199 1.0061067 0.9940011 1.041166
0000b0 85 97 75 3f e2 a4 80 3f 41 37 7a 3f 0a ae 7d 3f
       0.95934325 1.0050318 0.9774056 0.9909369
0000c0 c0 37 82 3f 0f c5 76 3f 68 53 7a 3f 37 fc 7f 3f
       1.0173264 0.9639444 0.9778352 0.99994224
0000d0 bb 4b 79 3f 5a 9d 80 3f 94 78 75 3f a9 81 83 3f
       0.9738118 1.004802 0.9588711 1.0273944
0000e0 19 b5 80 3f 21 9a 7e 3f ee d1 7d 3f a1 59 83 3f
       1.0055267 0.9945393 0.9914845 1.0261728
0000f0 64 11 77 3f de 1b 80 3f 62 44 80 3f a2 68 82 3f
       0.9651091 1.0008504 1.0020869 1.0188181
000100 09 72 81 3f 46 cb 77 3f 69 08 7e 3f 65 0f 75 3f
       1.0112926 0.96794546 0.9923158 0.95726615
000110 c2 47 7e 3f dc 5e 77 3f 01 b8 6e 3f 3c 0a 74 3f
       0.99328244 0.9662912 0.9324952 0.95328116
000120 f7 6b 7f 3f 11 8e 6b 3f 00 dc 78 3f b8 af 6d 3f
       0.99774116 0.9201365 0.97210693 0.9284625
000130 ab 2b 74 3f 09 d0 78 3f ac ee 76 3f 1f 63 7b 3f
       0.9537913 0.97192436 0.96457934 0.9819812
000140 07 78 76 3f 53 bb 78 3f 4d 14 7d 3f 81 88 7d 3f
       0.962769 0.97160834 0.988591 0.99036413
000150 64 3f 7c 3f 90 77 7d 3f a0 c0 82 3f 69 a4 79 3f
       0.98534226 0.9901056 1.0215034 0.97516495
000160 13 aa 7e 3f 30 00 76 3f cf 30 7d 3f b2 73 7a 3f
       0.9947826 0.96094036 0.989026 0.9783279
000170 8f ba 72 3f 74 a8 7c 3f d5 25 81 3f 12 8a 83 3f
       0.94815916 0.9869454 1.008967 1.0276511
000180 5d 94 72 3f 64 52 7f 3f 3b a8 74 3f 3f 29 7b 3f
       0.94757634 0.99735093 0.955692 0.9810981
000190 31 4e 76 3f 4c 58 74 3f 65 61 80 3f 23 d5 83 3f
       0.9621306 0.9544723 1.0029722 1.0299419
0001a0 75 b6 82 3f 3e bc 7d 3f 62 03 78 3f e8 f3 81 3f
       1.0211931 0.9911536 0.9688016 1.0152559
0001b0 7d e9 77 3f 4e 6a 7b 3f cf f6 77 3f d0 93 81 3f
       0.9684065 0.98209083 0.96860975 1.0123234
0001c0 98 25 81 3f 30 7e 76 3f fc 89 80 3f c5 de 78 3f
       1.0089598 0.96286297 1.004211 0.9721492
0001d0 25 ce 76 3f 56 42 80 3f 5e 36 75 3f 28 d5 7d 3f
       0.964083 1.0020244 0.9578608 0.99153376
0001e0 a7 a2 80 3f a7 44 80 3f cd d0 7a 3f de 3f 77 3f
       1.0049638 1.0020951 0.97974855 0.9658183
0001f0 66 73 84 3f 18 10 81 3f 32 79 82 3f b8 c0 76 3f
       1.0347717 1.0083036 1.0193236 0.96387815
000200 21 52 81 3f 61 10 81 3f 50 ed 77 3f ea e0 83 3f
       1.0103189 1.0083123 0.96846485 1.0303013
000210 d8 0f 7d 3f 02 fd 80 3f f9 d1 82 3f 1a 28 6c 3f
       0.988523 1.0077212 1.0220329 0.9224869
000220 b7 96 82 3f 9a 08 84 3f 06 28 82 3f 69 e7 78 3f
       1.0202245 1.0315125 1.0168464 0.97228104
000230 3f b9 70 3f d3 a6 7c 3f 07 10 73 3f 25 4b 76 3f
       0.94032663 0.98692054 0.9494633 0.9620841
000240 de 12 70 3f b4 93 7c 3f 7c c6 7c 3f 11 47 7a 3f
       0.9377879 0.9866288 0.98740363 0.9776469
000250 26 87 80 3f 87 a2 84 3f e0 1e 7d 3f ae 3b 7b 3f
       1.0041244 1.03621 0.98875237 0.9813794
000260 62 5a 75 3f 53 a6 82 3f e1 c7 83 3f 4b 38 88 3f
       0.9584104 1.0207008 1.0295373 1.0642179
000270 0e a6 84 3f 34 ff 76 3f ff 46 78 3f 50 9f 7e 3f
       1.0363176 0.9648316 0.9698333 0.9946184
000280 89 c7 7b 3f 65 27 7f 3f 7a 40 78 3f 66 8e 7b 3f
       0.9835134 0.99669486 0.96973383 0.9826416
000290 07 c5 80 3f 89 81 82 3f 9f 44 7a 3f fa 3e 82 3f
       1.0060128 1.0195781 0.9776096 1.0175469
0002a0 a1 db 7a 3f 2e 69 7a 3f e0 13 82 3f 6a 6b 78 3f
       0.9799138 0.9781674 1.0162315 0.970389
0002b0 34 e1 81 3f 0c ec 85 3f 25 0a 7d 3f 34 ec 86 3f
       1.0146852 1.0462661 0.98843604 1.0540833
0002c0 66 f3 7b 3f eb b3 79 3f 4d 47 75 3f 06 3a 78 3f
       0.9841827 0.9754016 0.9581192 0.96963537
0002d0 b9 da 76 3f 79 d5 73 3f 38 78 75 3f e6 47 7d 3f
       0.96427494 0.9524761 0.95886564 0.98937833
0002e0 e5 74 69 3f ec 0e 8b 3f b5 e6 84 3f 3f 8f 81 3f
       0.9119399 1.0863929 1.0382906 1.012184
0002f0 cc 9e 82 3f 86 e0 79 3f 14 55 82 3f 94 3b 7e 3f
       1.0204711 0.9760822 1.0182214 0.9930966
000300 17 24 7d 3f ec 96 83 3f 23 2d 82 3f c2 97 7f 3f
       0.98883194 1.0280433 1.0170025 0.9984094
000310 90 ff 78 3f d4 d3 79 3f 66 43 7e 3f 3f 78 81 3f
       0.9726496 0.9758885 0.9932159 1.0114821
000320 99 d9 7b 3f bf 5f 78 3f dc 35 86 3f 27 9c 7e 3f
       0.983789 0.97021097 1.0485187 0.9945702
000330 70 e0 7a 3f 42 29 82 3f 8a 0c 88 3f f9 c2 7c 3f
       0.97998714 1.0168841 1.0628827 0.98735005
000340 d0 83 80 3f 30 79 78 3f 77 de 7b 3f 91 cd 76 3f
       1.0040226 0.9705992 0.9838633 0.9640742
000350 78 c0 82 3f 1e ef 7c 3f e6 26 83 3f 46 a5 81 3f
       1.0214987 0.98802364 1.0246246 1.0128562
000360 28 9e 79 3f 90 21 78 3f 37 f1 7f 3f be b3 80 3f
       0.9750695 0.9692621 0.9997744 1.0054853
000370 32 f1 83 3f 35 f7 7c 3f ea 60 7c 3f d3 06 85 3f
       1.0307982 0.9881471 0.9858538 1.0392708
000380 ad 67 80 3f 4c df 7d 3f c7 dd 78 3f f1 1b 7b 3f
       1.0031639 0.9916885 0.97213405 0.9808951
000390 4e 9d 78 3f fe 8f 7f 3f 2a ac 74 3f 2c d2 79 3f
       0.9711503 0.9982909 0.955752 0.9758632
0003a0 0e 6e 81 3f ff 9e 7f 3f b0 52 6d 3f a1 77 7d 3f
       1.0111711 0.99851984 0.92704296 0.99010664
0003b0 fe 59 72 3f 27 fd 7b 3f 34 da 77 3f 9c 3b 7a 3f
       0.9466857 0.98433155 0.96817327 0.97747207
0003c0 5e d7 7b 3f 90 45 81 3f f2 a7 82 3f 50 fa 6c 3f
       0.983755 1.0099354 1.0207503 0.92569447
0003d0 f7 14 7f 3f 82 fa 80 3f 7b a9 81 3f 60 92 7d 3f
       0.99641365 1.0076449 1.0129846 0.99051476
0003e0 8b 47 7e 3f 25 6a 7a 3f 63 42 74 3f c7 39 79 3f
       0.99327916 0.97818214 0.954138 0.97353786
0003f0 20 20 7f 3f b4 31 83 3f b2 05 7a 3f 67 b5 7f 3f
       0.99658394 1.0249543 0.9766494 0.99886173

input_block.0.bias f4 [438]
000000 b7 4a 8a bb a7 cf 04 3c d1 80 39 bc c5 70 10 bc
       -0.0042203325 0.008106149 -0.011322216 -0.008815949
000010 d8 b6 55 bb 6d 4b 63 bb 48 f7 1b bb 27 ed 97 bb
       -0.0032610204 -0.0034682408 -0.0023798514 -0.004636425
000020 83 c4 d5 b9 aa 23 1f bc 7d 47 c8 b9 11 0c b7 bb
       -0.00040772939 -0.009713093 -0.00038200236 -0.005586155
000030 e0 89 d0 bb d6 47 08 bc ad 34 5f bd 0d c6 b1 bb
       -0.006364092 -0.008317908 -0.054493595 -0.005425221
000040 1d 5c 0f 3c d4 59 aa 3c 29 0d a0 bb 76 93 5c bb
       0.008749989 0.020794787 -0.0048843813 -0.003365723
000050 f7 94 5d 3c 42 59 06 3d a6 af ba bb 07 56 6b bb
       0.0135242855 0.032799967 -0.0056972085 -0.003590943
000060 bd 27 02 bc 98 a1 8f 3b ca cb 9b 3b fe f0 c8 3b
       -0.007944045 0.004383277 0.004754518 0.006132244
000070 d1 dc ca ba 74 de 0b 3c 50 af b4 bc 73 00 ff 3c
       -0.0015477185 0.008536924 -0.022056252 0.031128144
000080 5b b4 d8 bb 0a 40 78 bc d1 bf 82 bc 0c 39 34 3b
       -0.006613297 -0.015151987 -0.015960606 0.0027499823
000090 d7 0a 84 3a 2d 8e 31 3b fd 38 d3 3a fd 50 6a bc
       0.0010074031 0.00270928 0.0016115006 -0.014301536
0000a0 d0 0f 25 bc a3 80 a4 ba 80 7c 07 bb 8a eb 92 bb
       -0.010074571 -0.0012550544 -0.0020673573 -0.004483645
0000b0 36 de 6f bc 4d e6 ec ba 0e ca 92 bc fe 4c 0d bc
       -0.014640382 -0.0018074006 -0.017918613 -0.008624313
0000c0 05 e6 2a ba 65 c5 b8 3a df 07 c9 ba 9a bd ff 3b
       -0.0006519261 0.0014096914 -0.0015337429 0.0078045847
0000d0 3a 6f e1 3b ac ad bb 3c 96 e6 df 3b af a3 be 3b
       0.0068797143 0.022909962 0.006832908 0.0058178524
0000e0 45 02 66 bb 54 36 10 bc 52 1a 72 b9 90 cf 49 3c
       -0.0035096568 -0.008802015 -0.00023088724 0.012317553
0000f0 e1 b3 79 3c 74 6b f5 b9 8c a3 f9 3a 31 72 5c 3b
       0.01524064 -0.000468101 0.0019045933 0.00336374
000100 bf 62 14 ba db 76 c3 3c 5a 01 26 3a ab 1a 9a 3b
       -0.0005660466 0.023860386 0.0006332599 0.004702886
000110 d1 2e 64 3a b3 e6 96 bb 2f 2f a5 bc 71 f7 52 3c
       0.0008704486 -0.004605138 -0.0201641 0.012876377
000120 7f ea 20 3c 21 0d 3e 3d 24 e3 9a 3b a3 c3 70 bc
       0.009821533 0.04639924 0.0047267843 -0.014695081
000130 b4 38 a0 bc f6 9d a0 bc fd db c2 3c 96 9e d9 3c
       -0.019558288 -0.019606572 0.02378654 0.026564877
000140 a7 e8 e5 3c 6e 9d 8b bc 37 f5 6f 3c 8d 05 cf 3b
       0.028065039 -0.017042842 0.014645866 0.0063178004
000150 67 81 27 3b fb bd e7 3b 79 1a ea 3b 00 2f b7 bc
       0.0025559308 0.007072208 0.007144269 -0.022361279
000160 63 84 65 bb d5 b5 87 bb 5d 98 cb 3a e3 bb 90 3c
       -0.0035021536 -0.004141549 0.0015533079 0.017667716
000170 f5 a7 88 bc a5 72 8e bb 56 9b 61 bb ec b0 91 bc
       -0.01668165 -0.004347163 -0.0034424863 -0.017784558
000180 70 94 b6 bc 27 06 86 3b ac 41 44 3b c4 45 9b bb
       -0.022287577 0.004090089 0.002994637 -0.0047385413
000190 0c 1f 81 3c ec 6b 2b 3c 48 9c 84 3b 98 69 fc b9
       0.015761875 0.010462742 0.0040469505 -0.0004814386
0001a0 04 53 0f bc 87 7c 0c bc 9e 6a 70 bc 38 f6 1e 3c
       -0.00874782 -0.0085746115 -0.014673857 0.009702258
0001b0 82 f1 7c 3c 62 76 9c 3c 7d 2b 20 bc 17 64 6a bb
       0.015438439 0.019099418 -0.009775993 -0.0035765225
0001c0 6f 63 6a 3b 90 5a d2 bc 9c ea 34 bc 55 b2 85 3c
       0.0035764833 -0.02567795 -0.011042263 0.016320387
0001d0 19 e0 04 3d ca a8 bc bc e5 84 86 bb 07 1a b1 bb
       0.03244028 -0.023029704 -0.0041051977 -0.005404714
0001e0 ad fc 86 3b 1d 5b 36 bc cf 47 2b bc 70 82 c3 bc
       0.004119477 -0.011130122 -0.010454132 -0.023865908
0001f0 06 12 1e bc fd bb a2 3a ce 2d 3f 3b 1f fc 53 3c
       -0.009647852 0.0012415644 0.0029171589 0.012938528
000200 7c 50 64 bb 93 1e 38 bc f7 a1 9b bc 7e 9c 0e bc
       -0.0034838011 -0.011237758 -0.01899813 -0.008704303
000210 b9 ec a6 3c a1 63 11 3c e6 14 57 bb 42 37 46 bd
       0.02037655 0.008873851 -0.0032818853 -0.04839254
000220 28 63 1a bb 7e 6c de bb 45 d6 c9 ba b5 1a d5 bb
       -0.0023557637 -0.0067878356 -0.001539894 -0.006503428
000230 29 15 91 bc 7f a5 54 3a 56 1c 16 3b b7 68 57 bc
       -0.017710285 0.0008111819 0.0022905073 -0.013147525
000240 c2 c4 1a 3c 87 9a 19 bc 5b df 08 3c 82 9c a5 bc
       0.009446325 -0.009375221 0.008354033 -0.02021623
000250 19 b1 06 3b fd 13 cb bb f3 6c 56 bc 58 00 99 b9
       0.0020552336 -0.006197451 -0.013087499 -0.0002918269
000260 32 0e 40 bc a5 c8 34 bc c8 d1 b4 3b 17 e2 03 bb
       -0.011722134 -0.0110341655 0.005518172 -0.0020123774
000270 eb 95 7a 3a b4 04 b6 bc 06 cc dc bc 2b 80 94 bb
       0.00095590827 -0.02221904 -0.026952755 -0.0045318804
000280 42 47 9f 3b 74 10 eb bb 35 33 e9 bb 0f c6 71 bc
       0.0048607895 -0.007173592 -0.0071167 -0.0147566935
000290 22 7a 6d 3b e0 c9 c3 3b 9b f4 13 bc 82 83 a3 bb
       0.0036236127 0.005974993 -0.009030486 -0.004990042
0002a0 35 07 40 bc 1d f0 ae 3c e9 85 e5 bb cd d6 98 bc
       -0.011720468 0.02135473 -0.0070044887 -0.018657112
0002b0 e4 c9 15 bb 0a b0 06 bc 8e 04 bb 3c bf 31 20 bc
       -0.0022855932 -0.008220682 0.02282932 -0.009777485
0002c0 c7 1f 2e 3c 60 72 59 bc 86 1c 3b 3c d4 e8 17 3c
       0.0106276935 -0.013271898 0.011420375 0.009271819
0002d0 04 51 90 3b 25 bc bb 3c 6e a7 ea 3c 0b 8b 3c 3b
       0.004404189 0.022916863 0.02864429 0.00287694
0002e0 e9 0e 33 3d 34 5a 0c bc 00 e6 aa 3b 0f d3 62 3b
       0.04371539 -0.008566428 0.0052154064 0.0034610664
0002f0 11 a8 d4 ba d3 5d ad bc 58 90 4e bc 11 5e 10 bc
       -0.0016224404 -0.021162903 -0.012607656 -0.00881149
000300 d8 20 14 3c 73 11 03 3c e7 bf 52 bc 44 a9 dd ba
       0.009041034 0.007999766 -0.012863136 -0.0016911407
000310 d8 a9 bc 3c 7c 04 d0 3c ce fa 8f 3b 93 91 b0 3c
       0.023030207 0.025392763 0.004393912 0.02155379
000320 3d b8 45 bb c7 1a 2a 3b c7 8e 38 bb a4 9e 0a 37
       -0.003016963 0.0025955902 -0.0028161274 8.262377e-06
000330 14 39 a2 3a 55 c2 b7 3b a6 52 e6 3b 31 cb ab bb
       0.001237663 0.005607883 0.0070288954 -0.005242728
000340 1f 37 fe 3b 28 37 e1 3c 1d b8 c5 3b ad fb 99 3c
       0.007758036 0.02749212 0.006033911 0.018796766
000350 5b 20 d4 3a d1 e6 16 bc 0c 06 00 bc 0c 98 a1 3b
       0.0016183959 -0.009210304 -0.007813942 0.0049314555
000360 bc 42 b4 bb 3c 68 14 bc a9 b3 a8 3c 47 b0 15 bc
       -0.0055011194 -0.009058055 0.020593481 -0.009136266
000370 b1 5e bd 3b cc 6c 8d bb 8b 33 95 bc 3a a7 a6 bb
       0.0057791104 -0.004315948 -0.018213054 -0.005085853
000380 79 8a 1c bc 72 29 63 bc 9a ab 14 bd 57 59 3a 3c
       -0.009554499 -0.013864862 -0.036296465 0.011373839
000390 77 e5 29 3c 20 78 b7 ba 86 04 50 3d 72 ab 9a bc
       0.01036965 -0.0013997592 0.050785564 -0.01888058
0003a0 bb 02 2d 3c 99 d8 1b 3a 47 c1 3f 39 30 00 84 ba
       0.010559733 0.00059450563 0.00018287181 -0.0010070857
0003b0 59 23 73 3c f0 a1 ad bb dc 76 43 bc d4 e1 d3 3b
       0.0148399705 -0.0052988455 -0.011930194 0.00646613
0003c0 ef 62 4a bc 28 22 7e 3b 25 2e ac 3b d0 91 0a 3d
       -0.012352689 0.0038777683 0.0052545243 0.033830464
0003d0 64 f4 07 bc b5 59 1c bc 2d 4b f7 3b 02 f1 38 ba
       -0.008298013 -0.009542872 0.0075468034 -0.0007054956
0003e0 03 9e 1e bc 71 eb 80 bb 7a 93 f0 bc f1 b3 4b 3a
       -0.009681228 -0.003934317 -0.029367197 0.0007770649
0003f0 f4 77 77 3a 73 bd 18 3c 7a 60 22 bc da 46 17 bc
       0.00094401767 0.009322512 -0.009910697 -0.009233201

input_block.1.weight f4 [64, 438]
000000 26 d5 9c bb 9e ec 72 bd e1 e7 79 3c 92 ca 87 bd
       -0.0047861515 -0.059307687 0.015253038 -0.06630434
000010 f2 6f 84 3d 2d 5e 83 3c 5f 27 2a bd df 37 18 bb
       0.064666644 0.016036117 -0.041541453 -0.002322666
000020 dc 35 d8 bc e5 8d 7e bd bd 8a b9 bb ac 0e 91 bc
       -0.02639287 -0.06214704 -0.005662291 -0.017707191
000030 dd c4 09 3d d6 63 29 bd cd 16 07 3d 29 ee 4e 3c
       0.03363501 -0.041354977 0.03298073 0.012630024
000040 61 98 c2 3c df 13 1b 3c 54 e7 24 3d 7b 92 06 3d
       0.0237543 0.009465187 0.040259674 0.03285454
000050 6a bb e2 3c 69 0e 10 3d e0 97 47 bd 96 64 5e ba
       0.027677257 0.035169993 -0.048728824 -0.00084836164
000060 a0 9f 8f bd 05 16 b8 bb 40 c6 ca 3c f2 f8 f1 bc
       -0.07012868 -0.0056178593 0.024752736 -0.029537652
000070 dc d7 3e bd cc 6a 16 bc f7 c8 8b 3c 28 f4 29 bd
       -0.04659258 -0.009180736 0.017063601 -0.04149261
000080 9b c2 ce bc 18 f2 05 3b 2c e3 99 bc b7 8c 9a bc
       -0.02523928 0.0020438489 -0.018785082 -0.018865926
000090 00 e6 6d 3c 38 f3 a8 bb d5 45 0a bd ca 9e 3d bd
       0.014520168 -0.005155947 -0.033758003 -0.04629401
0000a0 3d 68 f0 bc e7 fd 8a bd 61 1f f0 bd 0f fa 1c bd
       -0.02934658 -0.06786709 -0.11724735 -0.038324412
0000b0 dd d5 9c bb c9 94 72 3d 1c f9 e9 bc fa 25 85 3c
       -0.0047862367 0.059223924 -0.028561167 0.01625346
0000c0 bd e0 0d 3d ae 4e 80 3d 97 9c 89 bd c9 73 c1 bc
       0.034638155 0.06265007 -0.0671932 -0.023614781
0000d0 b3 d2 4e 3b 68 0a 02 bd 13 12 d3 3c 74 4d 1c 3d
       0.0031558692 -0.031748205 0.025765454 0.038159803
0000e0 eb 88 b5 3c 2a eb cc 3d 5a dd 41 3d 1a 5a d0 bc
       0.022160014 0.100057915 0.047330238 -0.025433589
0000f0 21 c8 b2 3c 94 53 65 3c 0b d1 a2 bc bb 3d 95 3c
       0.021823945 0.013996977 -0.01987507 0.018217912
000100 9b 3a 83 3d 7a a1 ad 3c 54 a1 0d bd 44 43 85 bc
       0.064076625 0.021195162 -0.034577683 -0.016267426
000110 ca 77 9c 3d 38 9e 65 bc 0c 64 ce 3c 2a d1 01 3d
       0.076400355 -0.014014773 0.02519419 0.031693615
000120 ae 8d 3c 3d df c0 e7 bc e5 f7 83 bd 87 77 06 3d
       0.046033554 -0.02829021 -0.064437665 0.032828834
000130 81 ab 2a bd 6b 12 5b bb e2 ca 23 3c 25 c8 c6 bc
       -0.041667465 -0.0033427726 0.0099971015 -0.024265358
000140 39 92 35 3d 38 88 59 bc d3 51 83 bd ac fe 0b 3c
       0.044328902 -0.013277106 -0.06412091 0.008544605
000150 28 a5 ab bc 82 b7 e5 bc 23 6b 2a bd d5 73 13 bc
       -0.020952776 -0.028041605 -0.04160608 -0.0089997845
000160 07 09 2a 3d bb 51 60 bb 6c c7 ec 3b a0 80 90 bd
       0.041512515 -0.0034228403 0.0072259214 -0.07055783
000170 c6 f0 ec bb d5 3c 0c 3c 0a 63 42 3c 81 83 09 bb
       -0.007230851 0.008559425 0.011864433 -0.0020982923
000180 a3 87 5c bc 7d bf c6 3b c2 b2 05 bd 25 a6 ad 3c
       -0.013460073 0.0060653077 -0.03264118 0.021197388
000190 38 16 96 3c c1 70 a0 bc ee ed ec 3c 73 f7 0a 3d
       0.018321142 -0.019585015 0.028922047 0.033927392
0001a0 c0 3a 24 3c ab d2 f2 b9 80 f1 7c 3c c7 77 d3 3a
       0.010023773 -0.00046314797 0.015438437 0.0016133719
0001b0 a4 fb 43 bc df 86 22 bc b7 5d 3e 3d 89 62 14 3d
       -0.011961851 -0.009919851 0.046476092 0.036226783
0001c0 01 d6 ac 3c cc 9c 25 3d 28 31 e0 3c ee b4 09 3d
       0.021098139 0.040432736 0.02736719 0.033619814
0001d0 bf 96 e8 ba a3 aa 24 3d bc 37 e3 bc 5f a9 3a bd
       -0.0017745121 0.040201794 -0.027736537 -0.04557168
0001e0 60 0c 7e 3d df e5 40 bb bc da 81 3a 83 68 e3 3b
       0.06202352 -0.002943389 0.0009907107 0.006939949
0001f0 19 ec 81 3d 71 11 04 3d dd 2c 9b bd 42 83 96 3b
       0.0634386 0.032243196 -0.07576916 0.004593284
000200 d3 00 7b 3c cf 0c 08 3d 86 59 31 3c 72 42 99 bc
       0.015320021 0.03321534 0.010824567 -0.018708441
000210 5e c6 e3 bc 3c 6c fa 3c e7 eb 0c 3d 73 b1 ed bc
       -0.02780455 0.030569188 0.03440466 -0.029015278
000220 83 af d6 3c 63 4e 80 3d 94 0a 22 bd 3c d3 89 3c
       0.026206737 0.06264951 -0.03956087 0.016824357
000230 0c e5 44 bd 5f b7 7c bd 87 8f 91 3c 09 fd 3e 3c
       -0.04807 -0.061698314 0.017768634 0.011657008
000240 f7 11 31 bd 7c 58 6b 3d d5 34 16 3b 27 aa 05 3d
       -0.043230023 0.057457432 0.0022919674 0.032632973
000250 e2 ff a8 ba e4 cd f4 bc b9 48 9f bc 8f 56 1f 3c
       -0.0012893642 -0.029883333 -0.019443857 0.009725227
000260 f1 81 a5 3b a6 00 87 bd c0 3c a4 bb cf db 7a 3d
       0.0050508906 -0.065919206 -0.005012125 0.061244782
000270 c4 7f 05 bd 8e 62 2b bc 65 33 80 3c 33 fa 0e 3d
       -0.03259255 -0.010460509 0.015649507 0.034906577
000280 df 7d 8a 3d 08 60 48 bd 00 99 8e bd 40 eb d2 3c
       0.06762289 -0.048919708 -0.06962776 0.025746942
000290 3e a0 fd 3b 68 e5 9c bc 00 8b 37 3d d5 54 47 3d
       0.0077400496 -0.019152358 0.044810295 0.048664887
0002a0 37 8a 03 bd 2f 54 3d bd dc 35 10 ba 20 6f b0 bc
       -0.032114234 -0.04622286 -0.000550119 -0.021537364
0002b0 78 34 25 bd 31 56 b8 3c 00 0d 11 3d b9 53 42 3c
       -0.04033324 0.022502037 0.03541279 0.011860781
0002c0 73 12 32 bc b3 43 f7 bb cd a9 1b bd 6e a1 77 bd
       -0.010868656 -0.007545912 -0.03800373 -0.060456686
0002d0 f9 15 69 bc 52 c9 08 3d c3 0c bd 3c 2c 99 87 bc
       -0.01422643 0.03339512 0.023077374 -0.01655253
0002e0 3e a2 21 3d 4e 16 76 3d 15 68 89 bc f9 57 27 bc
       0.039461367 0.060079865 -0.016773263 -0.010213845
0002f0 28 e7 8e bd 8c a9 1e bb c8 10 a6 bd df 84 6f bd
       -0.06977683 -0.0024209945 -0.081086695 -0.058476325
000300 d5 cd 4d 3d a3 1a 82 3c 23 a9 40 3d bf 7b 55 bd
       0.050245125 0.015881842 0.0470363 -0.052119967
000310 ce cd 26 bd 55 43 79 bc 8f 69 0e bd 6c da 40 3c
       -0.040723614 -0.015213807 -0.034768637 0.011770826
000320 1b 49 80 3b 7c aa 86 bc 96 cd 07 3d 94 9d 17 3d
       0.003914965 -0.016438715 0.033155046 0.037015513
000330 c8 63 91 3c 63 e2 8c bc a1 03 05 bd e4 c4 9e bc
       0.017747775 -0.017197793 -0.032474164 -0.019380994
000340 13 7c 00 3b 96 83 cb 3b 05 e3 0a bc 9a ff d2 3c
       0.0019605204 0.0062107546 -0.008476977 0.025756646
000350 76 f5 bf bd ed f0 92 bc 7f d2 7a 3c 92 29 b3 bc
       -0.0937299 -0.017937148 0.015308975 -0.021870408
000360 74 8f 7a bd 0f 11 e8 3c dd 85 57 bd ba 90 74 3d
       -0.061171964 0.028328447 -0.052617896 0.059708335
000370 4d 17 2b bd 99 50 a1 3c 5a 15 e8 3c 60 b1 34 3d
       -0.04177027 0.019691752 0.028330494 0.04411447
000380 a2 ff 26 bd 45 7a 72 bd ec 62 16 bb d0 71 a6 3c
       -0.040771134 -0.059198637 -0.0022947146 0.020317942
000390 ec d4 8f bc 53 a7 c6 bb 38 77 4d 3a db eb d0 3b
       -0.017557584 -0.006062427 0.00078378944 0.0063757724
0003a0 a8 2a 2b bc 26 7c 1a 3d b3 8e 94 bc ed 6a 22 3d
       -0.010447182 0.037716053 -0.01813445 0.039652754
0003b0 47 7f 57 bd 6f c9 ac 3b de 58 7d ba 3a 44 c2 3b
       -0.052611616 0.005273036 -0.00096644263 0.0059285434
0003c0 2f a2 b5 3c f6 e7 af bc 44 89 67 bd 5d 90 37 bd
       0.022172062 -0.021472912 -0.05652739 -0.04481541
0003d0 cf 31 62 bc 10 97 24 3d 34 15 7f bc 8d e3 d3 bc
       -0.013805821 0.040183127 -0.01556902 -0.02586534
0003e0 0b 66 90 bb 93 83 4e bc 98 f8 f3 3b be 41 fc 3b
       -0.0044066957 -0.012604612 0.007445406 0.0076982668
0003f0 09 a8 97 3c 94 e1 07 bc 11 5f 27 bd 55 67 a8 3b
       0.018512743 -0.008293528 -0.040862147 0.0051392713

input_block.1.bias f4 [64]
000000 af 24 5d bd 62 26 0e 3d 97 b0 20 3d c7 7f b0 bc
       -0.053990062 0.034704573 0.03923091 -0.021545304
000010 b2 d2 65 bc 3c a7 71 bd 81 38 a2 bc 44 a3 09 3d
       -0.014027284 -0.058997378 -0.019802334 0.033602968
000020 18 aa 2c bd 14 cd 44 bd 45 22 30 bd 35 c3 30 3d
       -0.0421544 -0.04804714 -0.043001432 0.043154914
000030 d0 0c 00 3d 5c e4 95 3c f4 d0 2c 3d 66 4f 0b bd
       0.03126222 0.018297367 0.04219146 -0.034011267
000040 57 7a 03 bd 08 dc 3a 3d 50 79 a8 bc 8b 9b 4b 3a
       -0.032099094 0.045619994 -0.020565659 0.0007767013
000050 21 02 4e 3b 3c 87 31 3c 5b 1c 05 3c 0f f8 2d 3c
       0.0031434374 0.010835465 0.008124436 0.010618224
000060 f9 12 04 bc eb d1 af 3b 8c 44 78 ba 88 61 0f 3c
       -0.008061164 0.0053656003 -0.00094706635 0.008751281
000070 f2 b7 ca bc 48 f9 65 3c f4 9c e9 bc a5 a8 4b 3c
       -0.024745915 0.014036484 -0.028517224 0.012430345
000080 86 7b f3 bb 65 c7 59 bc ce b2 fc 3c 30 ec f9 bc
       -0.0074304966 -0.013292168 0.03084698 -0.03050813
000090 96 7b 20 3d f3 6d 81 3c 52 8c 39 bd 76 f2 44 3d
       0.03918036 0.015799498 -0.045299836 0.04808279
0000a0 db 46 e6 3c 9b d9 63 3b a9 43 49 3d 72 d4 00 3d
       0.028109958 0.0034767154 0.04913679 0.031452604
0000b0 55 8a 23 bd 03 e1 81 3c 15 27 21 3d 6d 69 43 bd
       -0.039926846 0.015854364 0.039343912 -0.047707964
0000c0 63 64 4c bc 4f ea 4c bc fd 5a f9 3b b5 15 12 3c
       -0.012475106 -0.012507035 0.0076097236 0.008916308
0000d0 f7 58 f8 3c ca bf 00 3d 1d 69 e2 3c 77 6d db bc
       0.03031586 0.031432904 0.027638013 -0.026785595
0000e0 8c 22 c4 3c 68 be c3 bc 28 e4 9f bc 21 7a 38 bd
       0.023942254 -0.023894504 -0.019517973 -0.045038346
0000f0 47 d0 3f bc e4 c2 24 3d ee 5c 2d 3a e9 eb 47 3c
       -0.011707372 0.040224925 0.0006613274 0.012202241

hidden_block.0.weight f4 [64]
000000 94 5e 82 3f d8 79 73 3f 3e ab 82 3f fc aa 7e 3f
       1.0185113 0.95107794 1.0208509 0.9947965
000010 81 c1 6f 3f 11 a5 7c 3f 86 cd 89 3f 61 2e 7c 3f
       0.9365464 0.9868937 1.0765846 0.9850827
000020 62 45 83 3f 0e 75 81 3f 94 04 86 3f 48 1e 82 3f
       1.0255549 1.0113847 1.0470147 1.0165491
000030 fe e9 6d 3f fa 69 79 3f d1 67 7f 3f b7 e4 7e 3f
       0.9293517 0.9742733 0.99767786 0.9956774
000040 a1 13 8a 3f d3 2d 6f 3f a4 f8 7f 3f 25 fa 79 3f
       1.078724 0.934293 0.9998877 0.97647315
000050 67 87 81 3f 09 ba 6b 3f ec e9 80 3f 33 46 77 3f
       1.0119447 0.9208074 1.0071387 0.9659149
000060 3e dd 81 3f 0a 2e 7e 3f e7 1e 86 3f 6c 2c 87 3f
       1.0145643 0.99289 1.0478181 1.0560431
000070 82 ac 87 3f 62 b8 6c 3f 47 fd 7a 3f 34 ec 86 3f
       1.059952 0.92468846 0.9804272 1.0540833
000080 7a 0a 81 3f 25 a6 80 3f 6b 91 80 3f 6a ed 73 3f
       1.0081322 1.0050703 1.0044378 0.9528414
000090 1e 72 78 3f 20 0f 7c 3f b1 e4 72 3f b6 54 69 3f
       0.9704913 0.9846058 0.94880205 0.91144884
0000a0 c3 a2 76 3f 27 e6 75 3f fe d4 78 3f e3 bd 79 3f
       0.96342105 0.9605431 0.972 0.9755537
0000b0 6b 7b 6e 3f cd e6 75 3f d5 f9 81 3f 9b 71 7c 3f
       0.9315707 0.960553 1.0154368 0.9861085
0000c0 7f 90 84 3f 1a 11 77 3f 86 99 7c 3f 65 b1 81 3f
       1.0356597 0.9651047 0.9867176 1.0132262
0000d0 42 6a 82 3f 86 a2 8f 3f 0f 1c 74 3f d0 53 84 3f
       1.0188677 1.1221473 0.95355314 1.0338078
0000e0 e0 60 81 3f 79 83 7b 3f 1d 7f 85 3f 23 23 80 3f
       1.0107689 0.98247486 1.0429417 1.0010723
0000f0 d0 65 86 3f 4c 7d 80 3f 1b 8f 83 3f d7 f8 7d 3f
       1.0499821 1.0038238 1.0278047 0.99207824

hidden_block.0.bias f4 [64]
000000 6b f9 1f 3b a5 ce 0d bc 81 d3 75 3a 4b 49 93 bb
       0.002441014 -0.008655225 0.0009377525 -0.004494821
000010 c4 46 b1 bb f4 6c c5 3c 84 ef 89 bd 2f df 10 3b
       -0.0054100472 0.024099804 -0.06735137 0.0022105684
000020 13 c3 93 bc fa 83 29 bc b3 60 22 bd b1 be 5f bb
       -0.018037355 -0.010346407 -0.039643 -0.003414076
000030 44 0f 1d 3c 40 f2 d7 3b 62 c6 82 b8 3b 39 58 3c
       0.009586159 0.0065901577 -6.235835e-05 0.013197239
000040 50 7a 0a bd 57 f7 0f bd 93 2c 10 3d 61 a6 2c 3c
       -0.033808053 -0.03514799 0.03519876 0.010537715
000050 14 16 89 ba 33 d4 12 3d 1e ef ad bc 8a 91 a6 bc
       -0.001045885 0.0358469 -0.021232184 -0.02033307
000060 1f ef 07 ba d5 c6 fe bb 7b dd 24 bc e4 6e 91 bc
       -0.0005185473 -0.0077751675 -0.010062571 -0.017753072
000070 ee 2d a2 bc f4 ed 0f 3d 46 b0 07 3b 58 fe 4e bc
       -0.019797292 0.03513904 0.0020704432 -0.012633882
000080 f0 d5 c3 bb 95 23 7f 3d 24 f7 9e 3a ec b7 ac 3b
       -0.005976431 0.062289793 0.0012128097 0.0052709486
000090 78 02 de ba b7 c0 6b 3b 82 07 62 3c bc e4 41 bc
       -0.0016937992 0.0035973021 0.013795735 -0.01183432
0000a0 ac 23 06 bd 64 87 11 3c 48 92 c4 3b 2f a2 4e 3d
       -0.032748863 0.008882377 0.0059988834 0.05044764
0000b0 f9 3c 85 3d 4c 10 6e bd 54 72 cf bb 9e 04 96 3c
       0.0650577 -0.05812101 -0.0063307676 0.018312749
0000c0 10 cb ad bc f5 ce 86 3c a0 02 28 3c 37 59 86 3b
       -0.021214992 0.016456107 0.010254532 0.0040999907
0000d0 6a c0 1a bb 6e a9 9a bc 9b 3c 69 3c 79 dd a8 bc
       -0.0023613223 -0.018879618 0.014235641 -0.020613419
0000e0 e4 99 a7 bd 10 86 01 bd 6a 78 d1 bb 80 60 92 3b
       -0.08183649 -0.031621993 -0.0063925283 0.00446707
0000f0 4b eb 40 bd 6b 26 ce 3b 28 e8 ce 3b 2d 1b 51 3c
       -0.047099393 0.006291201 0.0063142963 0.012762827

hidden_block.2.weight f4 [64, 64]
000000 b0 62 e8 3d 49 e1 9e bd 66 3c 59 bd 4e 01 6a bc
       0.11346948 -0.077578135 -0.053036116 -0.014282538
000010 76 f0 22 bd 2b 01 b1 3d ad 7a b5 3d 5d c8 6c 3d
       -0.039780103 0.08642801 0.08861289 0.05780827
000020 57 a7 01 3c 85 21 e9 3d 20 9f ca 3c c3 83 d2 bd
       0.007913432 0.113833465 0.02473408 -0.10279038
000030 d7 5e 0d 3d a4 2b f5 bc d4 49 be bd ca 67 b5 bd
       0.034514274 -0.029928036 -0.09291425 -0.08857687
000040 c2 87 09 3c 40 a8 a2 bd 7d 6a 4a 3d 84 f3 86 bb
       0.008394184 -0.079422474 0.04941796 -0.004118385
000050 7e 53 a1 bc dd 18 1e bd f5 af 32 3c b3 bd 3f bd
       -0.019693132 -0.03859793 0.010906209 -0.04681177
000060 ef f3 81 b9 09 1e 4f bd 58 73 d1 3d 0d 15 a6 3d
       -0.00024786542 -0.050565753 0.10227078 0.08109484
000070 bd 82 ed 3c e7 09 a0 3c 08 d2 6f 3c 61 73 9c bc
       0.028993005 0.019535972 0.014637478 -0.019097986
000080 99 bc 99 3d 06 3d 26 3e 93 27 2f bd 8e d8 9f 3d
       0.07506675 0.16234216 -0.04276235 0.078049764
000090 72 f5 7d 3c 87 08 22 bd 6b 91 31 bd 5c 1e 9b bd
       0.015500413 -0.039558914 -0.043351572 -0.0757415
0000a0 06 ef f1 bc 03 95 17 3d b8 8b 15 bd 3d 10 13 be
       -0.02953292 0.037007343 -0.0365102 -0.14361663
0000b0 b1 4e 8e 3d bf 9a 77 3c 50 fb e1 3d ab 7b c1 3d
       0.06948603 0.015112578 0.11034262 0.09447416
0000c0 88 1a a1 bc ab ee 9f 3d 22 1c 66 bc 4f 31 2b 3d
       -0.019665971 0.07809194 -0.014044793 0.04179507
0000d0 15 ee 1d bd 0c 09 c7 bc 58 ac 74 bd db e6 bc 3d
       -0.03855713 -0.024296306 -0.059734672 0.0922372
0000e0 06 d6 48 bd e3 a8 d9 3c 50 58 38 3d 19 6d 9f 3d
       -0.049032234 0.02656979 0.045006096 0.077844806
0000f0 76 b9 fd bc 22 99 dd 3d 7c d7 fe 3d 5d 53 ca 3d
       -0.030972224 0.108202234 0.12443444 0.098791815
000100 97 fd 9f bc d2 ae ab bd 93 29 c3 bc 86 17 84 3d
       -0.0195301 -0.08382954 -0.023823535 0.06449799
000110 da f2 a2 3d 74 eb 63 3d 0d 7e 6f 3c fc 9c ec 3d
       0.079564765 0.055644467 0.014617455 0.1155338
000120 4e 02 87 bd df 39 d5 3d 2f 62 14 3d 37 17 a3 3d
       -0.065922365 0.10411429 0.036226448 0.07963412
000130 89 e0 0e bd 65 1c b2 3d 23 1c d4 bc 59 6a 0f 3d
       -0.034882102 0.08696822 -0.025892323 0.03501353
000140 3a 37 a1 3c 80 0b 32 bd d9 35 16 3e 0b ce a6 bd
       0.019679654 -0.043468 0.14668979 -0.08144768
000150 8b 8b b8 3c 89 4b fd bc 0d 31 1e 3d 21 2e 77 3d
       0.022527477 -0.030919807 0.038620997 0.060346726
000160 19 36 1a bd 6e 0a 1a bd 76 b5 fa bd 02 55 91 bd
       -0.037649248 -0.037607603 -0.12241642 -0.07096292
000170 cb 05 e8 b8 17 8d 94 bd 9c 77 51 bd fc 83 19 3c
       -0.00011063701 -0.07253473 -0.05113946 0.009369846
000180 2b 68 5b bd 4d f4 c8 3d 2d de be bd 20 82 5d bb
       -0.05356614 0.09812222 -0.093197204 -0.0033799484
000190 9b 8f 29 bd a3 51 94 bc b9 90 09 bd d5 50 db bd
       -0.04139672 -0.018105334 -0.033585284 -0.10708777
0001a0 55 25 55 3d 7e 2e d1 3d db 44 56 bc 81 82 86 bd
       0.052037556 0.10213946 -0.01307794 -0.065678604
0001b0 b1 f2 1f 3d c6 c2 b6 3d 82 b0 15 3c e0 74 5b bd
       0.039049808 0.08923869 0.009136321 -0.053578258
0001c0 69 1c 71 3d c3 bb f5 3d 63 0e 0d 3d 09 4b 64 bd
       0.058864985 0.11998703 0.03443755 -0.05573562
0001d0 bb b0 49 bd 42 0c 94 bd b0 94 fa bc ee 07 c0 3d
       -0.04924081 -0.072289005 -0.030588478 0.093765125
0001e0 30 df 68 3d 48 a3 41 3d fa 3d 72 3d 4f 65 b9 bc
       0.056853473 0.047274858 0.059141137 -0.022631316
0001f0 df 64 6d 3d bf ad 79 3d 74 67 ec 3d 82 da 25 3e
       0.057957526 0.060956713 0.115431696 0.16196635
000200 60 d3 35 3d e2 ba 37 bc f7 27 35 3d 71 1d d2 bd
       0.044391036 -0.01121399 0.044227567 -0.10259522
000210 0d a5 cd bd 25 1f 18 3d 2a be eb 3d c6 9c 8e 3d
       -0.100412466 0.037139077 0.1151088 0.06963496
000220 50 5f a5 bd 5c 7c 29 bd f0 c7 bd 3d f3 2f db 3d
       -0.0807482 -0.041378364 0.09266651 0.10702505
000230 a8 30 80 3d 57 7b 21 3d 25 4e c3 bc cf ce 07 3c
       0.062592804 0.039424267 -0.023840973 0.008289053
000240 69 18 80 bc 96 44 1c bc 4a 28 d9 3c 79 15 c0 bd
       -0.01563664 -0.009537837 0.02650847 -0.093790956
000250 f5 43 10 3e b3 dc b5 3d 8b e2 84 3d 06 d9 de 3c
       0.14088424 0.08879986 0.06488522 0.027203094
000260 99 31 a1 bd 29 03 1f ba b9 49 ee bd 57 98 05 3d
       -0.07870788 -0.00060658396 -0.11635155 0.032615986
000270 70 cd 18 bd a1 e0 90 3d 5f 11 c1 bd dc fe 8c bc
       -0.037305295 0.070740946 -0.094271414 -0.01721137
000280 81 07 7c 3c 7b ed a3 3d 50 f7 f7 bd 1a 2b 3d 3d
       0.015382648 0.0800428 -0.12107718 0.046183683
000290 81 e2 05 bc 8c 1c 6a bd 67 b6 22 bd 20 84 2b be
       -0.0081716785 -0.05715613 -0.039724734 -0.1674962
0002a0 0c 81 ae 3d cd 48 90 bc aa f6 d2 3d 98 87 2b 3d
       0.085207075 -0.01761284 0.10300954 0.04187736
0002b0 93 1a 52 bd 97 63 87 3d b6 c1 a5 3c ea cb 5c bd
       -0.051294874 0.06610792 0.02023397 -0.053905405
0002c0 dc d8 3b 3c a4 26 06 bd c0 c3 20 3d 48 b8 25 3d
       0.0114652775 -0.032751694 0.03924918 0.040458947
0002d0 04 03 e1 3c 1c 22 5e bc d4 94 28 3d 2d 83 8e bd
       0.027467258 -0.013557937 0.04115756 -0.069586135
0002e0 f1 c0 9b bd f7 8d 4b 3d c9 88 41 bd d7 94 61 bc
       -0.0760516 0.049695935 -0.04724959 -0.013768396
0002f0 1c f9 8e 3d ae 3d e6 bc 2c 29 b3 3d 9d 97 ba 3d
       0.069811076 -0.028105583 0.08748087 0.09110949
000300 84 30 c6 3c 90 7f ca bd d1 65 c6 bd f3 a8 c2 3c
       0.024193056 -0.09887612 -0.09687389 0.023762202
000310 9d 83 0f bd 5c f3 5b 3c d5 c2 e3 3d 4e f2 65 bc
       -0.035037626 0.013424721 0.11121146 -0.014034821
000320 95 35 22 3d f9 dd b5 3d bd c1 47 3d 6c 28 ed 3d
       0.03960188 0.088802285 0.048768748 0.115799755
000330 71 49 92 3d 94 30 67 3d e5 ba a6 bd 51 c7 ec bc
       0.07142914 0.056442812 -0.08141116 -0.028903635
000340 30 e9 06 3d c5 06 3a 3b c0 bf 96 3d c0 4e c8 3c
       0.03293723 0.0028385383 0.07360792 0.024451613
000350 9f b4 82 3d e5 b1 46 bd 3a 98 df bc 8f 19 ac bd
       0.06382107 -0.048509497 -0.027294267 -0.084033124
000360 f6 f6 14 3d e0 30 a5 bd d4 ca f6 bc 2c a5 52 3d
       0.036368333 -0.08065963 -0.030126013 0.05142705
000370 0d d8 43 bc 38 d2 44 bc 6e 36 0f 3a d3 43 d6 3d
       -0.011953366 -0.012013011 0.0005463128 0.10462155
000380 ce 1f c7 bc bb e6 0e 3d 7d 2b eb bd 52 aa 51 bc
       -0.024307158 0.03488801 -0.11482904 -0.012796955
000390 79 d5 fe 3c c3 c5 db bd 2d 54 c7 bd a4 f2 00 be
       0.031107651 -0.107310794 -0.09732852 -0.1259256
0003a0 3b 60 41 bb 63 b2 ae bd 70 cd 24 bd 4b 5b b9 bd
       -0.002950682 -0.08530118 -0.040234983 -0.09050616
0003b0 5e 43 82 bd 6a 40 22 bd d2 89 ff bb c2 85 8d 3c
       -0.063605055 -0.03961221 -0.007798412 0.017275695
0003c0 3d 8d 10 3d fe fe e0 3b d5 00 9c b8 3f 73 88 3d
       0.035290945 0.006866335 -7.438815e-05 0.066626064
0003d0 b1 01 96 3c 19 c8 e4 3c 30 82 ae 3c 86 8d c0 3c
       0.018311353 0.027927445 0.021302313 0.023504984
0003e0 90 d8 3d 3d c5 0e 1f bd 2c b3 d2 3d 52 6e 85 3c
       0.04634911 -0.038832445 0.102880806 0.016287956
0003f0 10 37 1e 3d 7e dc 1c 3d 35 30 87 3d 7d 9e 67 3d
       0.03862673 0.038296215 0.06600992 0.05654763

hidden_block.2.bias f4 [64]
000000 ec 1a 25 bb 0b 5d 1f be 1d 62 9e bd fe 53 0b bd
       -0.0025193049 -0.15562837 -0.077335574 -0.034015648
000010 d5 6e 54 3d e7 26 ea bd 86 20 3b be 75 17 ed bb
       0.05186351 -0.11433201 -0.18274125 -0.0072354623
000020 50 d3 84 3d ec 5d e8 3c 7e 98 03 bd 46 db 22 be
       0.06485617 0.028365098 -0.03212785 -0.15903959
000030 09 fd 50 bd 43 fa 82 bd e8 f9 85 bc c7 e5 af 3d
       -0.051022563 -0.0639539 -0.016354516 0.085887484
000040 c7 c0 07 bc 0f a1 1a be 48 96 de 3c af 29 16 be
       -0.008285708 -0.15100501 0.027171269 -0.14664339
000050 5e 7c 04 be 40 25 1a bd 67 08 19 be 0c fe ca bd
       -0.12938067 -0.03763318 -0.14944611 -0.09911737
000060 62 32 92 bd 93 32 61 3c 91 25 19 3c f7 b1 f7 bd
       -0.07138516 0.013744968 0.009347335 -0.12094491
000070 bd 4b d5 bd 90 c5 c6 bd c6 c7 b7 bd f0 e2 13 3d
       -0.104148366 -0.09705651 -0.08973651 0.036105096
000080 5c a9 ee bc ee ab 2d ba f0 1e 5b bd 81 8c 62 bd
       -0.029133491 -0.0006625046 -0.0534963 -0.055309776
000090 f7 86 1a bd 39 ca 88 bd 96 30 b1 3d 8a 1f a0 bd
       -0.03772637 -0.06679196 0.08651845 -0.078185156
0000a0 bb 10 27 be 52 6c 1a 3c 5f 1f 72 bd 09 87 e9 bd
       -0.16314976 0.00942524 -0.05911195 -0.11402709
0000b0 51 1d 30 be ee b7 e8 bd 8e be f8 bd cc 5b 94 bd
       -0.17198683 -0.11363207 -0.121457204 -0.07244071
0000c0 ad 8a 8a 3d 7b e5 1c 3e 64 ed ba 3a 7c 6b 19 3d
       0.067647316 0.15321915 0.0014261422 0.03745602
0000d0 2d 60 0b 3e d4 0b 5b 3d ec cd ce 3d fd 44 0c bc
       0.13610907 0.053478077 0.1009787 -0.00856137
0000e0 4a 8d 27 3e c5 6a eb bd a8 6c 5b 3c ad f8 0d be
       0.16362491 -0.11494974 0.013392605 -0.13864394
0000f0 1b 1d 5a 3e 11 84 90 bd 0d 79 f8 bd a8 3f d0 bc
       0.21300165 -0.0705644 -0.121324636 -0.025420979

hidden_block.4.weight f4 [64]
000000 71 58 7c 3f 61 ff 7d 3f 48 19 70 3f 9a f6 73 3f
       0.9857245 0.992178 0.93788576 0.9529816
000010 f9 0d 6e 3f 56 18 80 3f a0 b4 71 3f 9c b3 6c 3f
       0.9299007 1.0007427 0.94416237 0.9246156
000020 59 9f 6f 3f a2 00 7b 3f 1c 3b 72 3f 05 76 71 3f
       0.9360252 0.9804784 0.94621444 0.9432071
000030 2c 56 75 3f 6e 01 73 3f ad 09 80 3f 9a 9a 67 3f
       0.9583461 0.94924057 1.0002953 0.9047028
000040 b7 1e 5b 3f 36 43 73 3f 32 47 76 3f 05 bb 77 3f
       0.8559374 0.9502443 0.96202385 0.96769744
000050 d2 de 77 3f d7 da 78 3f f3 ff 85 3f c4 28 80 3f
       0.9682437 0.97208923 1.0468735 1.0012441
000060 23 39 74 3f fc aa 74 3f 52 ca 79 3f a9 b4 84 3f
       0.95399684 0.955734 0.9757434 1.0367633
000070 c3 c0 78 3f a7 27 7e 3f ad 66 6b 3f 20 87 69 3f
       0.9716913 0.99279255 0.91953546 0.9122181
000080 ec 8a 76 3f 53 e0 72 3f 18 81 6d 3f b5 b3 6a 3f
       0.9630573 0.9487354 0.92775106 0.9168046
000090 01 92 5c 3f 88 cd 6e 3f 34 1d 75 3f 28 59 80 3f
       0.86160284 0.93282366 0.95747685 1.0027208
0000a0 4f 17 77 3f c6 74 58 3f 5a d5 6d 3f 8e a5 67 3f
       0.9651994 0.8455318 0.92903674 0.9048699
0000b0 78 07 7e 3f 4a 60 73 3f 7a e8 7c 3f e8 43 6f 3f
       0.99230146 0.950688 0.9879223 0.9346299
0000c0 85 19 80 3f 2e 21 69 3f b3 c5 77 3f 08 d8 8c 3f
       1.0007788 0.91066253 0.9678604 1.1003428
0000d0 80 b0 5c 3f 24 1d 53 3f e3 33 89 3f e9 4a 81 3f
       0.8620682 0.8246634 1.071896 1.0100986
0000e0 5b 60 7e 3f 34 64 8c 3f 96 60 84 3f fc 3c 8b 3f
       0.99365777 1.096808 1.0341976 1.0877986
0000f0 c0 22 68 3f cd 90 7c 3f e7 e3 87 3f 1e 7a 6e 3f
       0.90678024 0.9865845 1.0616425 0.93155086

hidden_block.4.bias f4 [64]
000000 e4 2e be bc 59 1d d9 bc 4d f1 9e 3c ef 43 8d bd
       -0.023215719 -0.026503252 0.01940217 -0.06897723
000010 83 e1 a2 3c 6c 30 ce bc ed da 6e 3c 88 93 61 3c
       0.019882923 -0.025169574 0.014578563 0.013768084
000020 bc 13 cc 3c 70 c6 5b 3d 94 d1 08 3d fe a0 1b bd
       0.024911754 0.05365604 0.033402994 -0.03799533
000030 fa aa cc bc d1 08 35 3a 33 7b ab bc 42 20 8f 3c
       -0.024983872 0.0006905916 -0.02093277 0.017471436
000040 ed 85 12 bc cd 3e ff bc 47 56 69 3d 0c b3 31 bc
       -0.008943063 -0.031157875 0.056967046 -0.010845911
000050 99 c5 47 bc d7 e6 37 3d 2c 70 a2 bd e7 cd 95 bc
       -0.012193107 0.04489788 -0.07931551 -0.018286658
000060 cd 6d 5e 3c fe f5 a9 3a 16 03 d2 bc 8a 45 13 be
       0.013575983 0.0012966988 -0.025636237 -0.14381996
000070 f1 92 2c bc b9 a8 84 bc 28 2e 65 3d 0e 31 1b 3c
       -0.01053308 -0.016193734 0.05595222 0.009472145
000080 2b 9b 48 bc f4 d6 5a bc dc 5a 12 bd 9d 29 e8 bc
       -0.012244026 -0.013356913 -0.03573118 -0.028340155
000090 52 8b 34 3d 83 1d 58 3d 79 d8 12 3e 0f 43 e3 bc
       0.04407818 0.05276252 0.1434039 -0.027741937
0000a0 d6 84 e4 ba 7f 66 1c 3b 1a 5b 8d 3d 5d 15 64 bc
       -0.0017434608 0.0023864803 0.06902142 -0.013921109
0000b0 94 4e 3e bc 8e 7a 38 bc ae 4e c9 bb 23 7b d8 ba
       -0.011615414 -0.011259688 -0.0061434126 -0.001651619
0000c0 be c5 2f bd 74 e1 1f be bf da 1c bd b8 1d 9c bc
       -0.04291319 -0.15613347 -0.03829455 -0.01905714
0000d0 35 b5 86 bd 94 1e bc bd 89 8a 0f bd 28 27 fb bc
       -0.06577531 -0.0918552 -0.035044227 -0.03065832
0000e0 33 d7 1a bd 60 33 19 be b5 52 04 bd 42 cb e3 bc
       -0.037802886 -0.14961004 -0.032305438 -0.027806882
0000f0 5c 21 59 bd 26 3d 0f be 9a 77 4a bd 75 06 ce bc
       -0.05301033 -0.1398817 -0.049430467 -0.025149563

layers.0.ln.weight f4 [64]
000000 19 d2 6f 3f 6f 72 6b 3f f7 32 67 3f 5c ff 35 3f
       0.9367996 0.91971487 0.9031214 0.7109277
000010 d5 cd 8d 3f 45 74 79 3f a0 64 57 3f 9b 02 81 3f
       1.107844 0.9744304 0.84137917 1.007892
000020 80 06 87 3f 51 6d 73 3f 38 1c 7f 3f 71 99 35 3f
       1.0548859 0.9508868 0.99652433 0.7093726
000030 e4 bf 68 3f 58 82 75 3f d8 84 76 3f c6 aa 7a 3f
       0.909178 0.95902014 0.96296453 0.9791683
000040 39 29 64 3f cc 3f 74 3f ed e0 86 3f 7f 12 6b 3f
       0.891254 0.95409846 1.0537392 0.918251
000050 3d c7 6c 3f 6c 74 87 3f 8a 7d 5b 3f 8a c3 75 3f
       0.92491513 1.0582404 0.8573843 0.96001494
000060 5e 52 79 3f 29 b0 6c 3f c2 68 6d 3f 12 39 58 3f
       0.9739131 0.924563 0.9273797 0.8446208
000070 3c 5f 81 3f 1d df 76 3f 01 33 83 3f 74 59 86 3f
       1.0107188 0.96434194 1.024994 1.0496049
000080 dc 80 69 3f 9d ee 64 3f 8e 0f 45 3f 43 be 34 3f
       0.9121225 0.89426595 0.7697686 0.70602816
000090 cd 1a 84 3f a7 bb 83 3f 4c e5 6a 3f 97 0d 74 3f
       1.0320679 1.0291642 0.9175613 0.95333236
0000a0 16 f1 67 3f 9b 9d 7e 3f cc 63 91 3f cb 70 84 3f
       0.9060224 0.99459237 1.135858 1.0346922
0000b0 5b 7a 75 3f 82 b9 6c 3f 9d c3 79 3f c7 f7 92 3f
       0.95889825 0.9247056 0.9756411 1.1481866
0000c0 3a aa 4b 3f 81 66 49 3f 08 bf 4e 3f de 75 66 3f
       0.7955662 0.78672034 0.8076024 0.900236
0000d0 85 96 4e 3f 9a 92 14 3f 84 fa 3d 3f 52 98 61 3f
       0.80698425 0.58036196 0.7421038 0.8812305
0000e0 7b 67 4f 3f 73 9b 3b 3f 2e 94 77 3f 21 34 80 3f
       0.81017274 0.7328407 0.9671048 1.0015908
0000f0 29 55 3a 3f 06 8c 4f 3f d9 e3 6b 3f b9 78 56 3f
       0.72786194 0.81073034 0.9214454 0.8377796

layers.0.ln.bias f4 [64]
000000 2a 0d 2a 3d 5e 9f 7c 3d 9b 78 7a 3d ed ca 5e 3e
       0.04151646 0.061675422 0.061150175 0.21757098
000010 ad 73 f0 3b 79 d9 85 3c ca 99 e7 3d d8 cc c5 3c
       0.0073380084 0.01633905 0.1130863 0.024145529
000020 c2 52 ca 3b 48 fe 6c bd 77 64 a9 3b fc f3 5d 3e
       0.0061744163 -0.05785969 0.005169447 0.21675104
000030 49 e7 44 3d 5c 3a 1e 3d ef 64 06 3d 51 81 a7 3c
       0.048072133 0.038629875 0.0328111 0.020447405
000040 4b 87 5b 3b 62 64 12 3c 7c 1d 38 3d 1a 7d 03 3d
       0.003349739 0.008935066 0.044949993 0.032101728
000050 38 4b 2f 3d 68 c1 0c 3d 2b 0f 56 3d c2 c9 dd 3c
       0.042796344 0.034364134 0.05226056 0.027073745
000060 50 d6 12 3d 6f be 37 3d 6a 32 2a 3d 8f 27 98 3d
       0.035848916 0.044859346 0.041551985 0.0742942
000070 8a bf f5 bb eb 8b c3 3c 4f 81 82 3d dc 2c 2c 3c
       -0.00749964 0.023870429 0.0637232 0.010508742
000080 e6 7d 64 3d 95 45 7e 3d c0 33 42 3e 1e 35 65 3e
       0.05578413 0.062078077 0.18965054 0.22383544
000090 8f 6d 42 3d ea 8e fb 3c b0 da 2c bd 8d 09 01 3d
       0.047467764 0.030707795 -0.042200744 0.03150325
0000a0 c1 91 91 3d f0 88 2a 3c 43 2c 82 3d f8 42 95 bc
       0.071078785 0.010408625 0.063560985 -0.01822041
0000b0 61 a1 0b 3d 54 79 34 3d 82 8d ce 3c 79 5d 14 bc
       0.03408945 0.04406102 0.02521396 -0.009055489
0000c0 3d fc 5c bd 3a 77 6f be d3 4c 82 bd 6f df c8 3d
       -0.05395149 -0.23385325 -0.06362309 0.098082416
0000d0 02 b0 eb bd 85 70 3e be 43 f6 24 3d 32 e5 35 3d
       -0.1150818 -0.1859761 0.040273916 0.04440803
0000e0 ab 40 c5 bd 07 05 63 3e 3f fb 3c 3c e6 52 01 bb
       -0.09631475 0.22169887 0.011534511 -0.001973325
0000f0 02 65 f2 bd 9f ba 12 be ee 2d 0a 3d 5a 54 c4 bc
       -0.11835672 -0.14329003 0.03373521 -0.023966003

layers.1.ln.weight f4 [64]
000000 d5 55 81 3f d2 73 83 3f 95 7a 7a 3f 63 b6 4d 3f
       1.0104319 1.026972 0.97843295 0.80356425
000010 b5 b2 a7 3f 03 4a 83 3f 82 9a 70 3f 1c 41 9c 3f
       1.3101412 1.0256962 0.9398576 1.220737
000020 2e 21 a0 3f 05 3e 81 3f 3a 36 96 3f f3 a7 59 3f
       1.2510126 1.0097052 1.1735299 0.85021895
000030 7c 06 77 3f 08 c0 85 3f e6 fb 83 3f 8b b0 94 3f
       0.9649427 1.0449228 1.0311248 1.1616377
000040 22 c7 88 3f 19 62 8a 3f 45 cf 92 3f 0d e4 80 3f
       1.068577 1.0811187 1.1469504 1.0069596
000050 0f d5 82 3f 1c a6 8c 3f 6d 10 59 3f 19 35 83 3f
       1.022127 1.0988193 0.8479069 1.0250579
000060 0a d0 8d 3f a5 16 87 3f 69 b1 81 3f 06 94 43 3f
       1.1079113 1.0553786 1.0132266 0.7639774
000070 7f 45 9e 3f dc 10 84 3f fa 40 9d 3f fa b3 a1 3f
       1.2364959 1.0317645 1.2285454 1.263305
000080 c3 db 81 3f 40 b1 81 3f b0 70 7c 3f 33 3b 6d 3f
       1.0145191 1.0132217 0.9860945 0.92668456
000090 46 b4 9b 3f 8f 0a 8b 3f 16 6a 77 3f a2 62 82 3f
       1.216439 1.0862597 0.9664625 1.018635
0000a0 ce 60 83 3f 4d 9d 95 3f 81 91 a3 3f 6d df 9c 3f
       1.0263917 1.1688629 1.2778779 1.2255684
0000b0 b2 1a 84 3f 90 83 83 3f 85 63 86 3f 2d 1d b5 3f
       1.0320647 1.0274525 1.0499121 1.4149529
0000c0 03 fb 86 3f 5c 8b 6c 3f cf c8 87 3f 9d c6 81 3f
       1.0545353 0.92400146 1.0608157 1.0138737
0000d0 72 5b 84 3f 67 32 86 3f 91 68 53 3f 21 4f 80 3f
       1.0340407 1.0484132 0.8258143 1.0024148
0000e0 ce 8b 63 3f 82 6e 75 3f fd 4b 83 3f 03 11 83 3f
       0.888852 0.95871747 1.0257565 1.0239567
0000f0 08 58 86 3f 45 b1 3f 3f 2f 5f 83 3f 2e c7 82 3f
       1.0495615 0.74879867 1.0263423 1.0217035

layers.1.ln.bias f4 [64]
000000 98 e0 aa bc 4e 2a ad bc b2 cc b0 3c 80 46 16 3c
       -0.020859048 -0.021138337 0.021581981 0.009172082
000010 a6 07 b7 3c af 44 ad bc 5f 1f af 3c 84 66 b5 3c
       0.022342514 -0.021150915 0.021377264 0.02214361
000020 c6 ed b5 3c 2b bf c1 bc 75 67 b4 3c dd 03 b0 3c
       0.022208106 -0.023650726 0.022021988 0.021486217
000030 f2 c2 b9 3c b6 60 ae bc e4 18 ad bc ed a3 b1 3c
       0.022675965 -0.02128635 -0.021130033 0.021684611
000040 ba c0 b4 3c 25 4d be 3c 3c f7 b9 bc 39 dc b1 3c
       0.022064555 0.023230145 -0.022700898 0.021711456
000050 e3 d5 ab bc de ef b4 bc 08 b3 af 3c 27 e5 ad bc
       -0.020976013 -0.022087034 0.021447673 -0.021227432
000060 e4 f9 b1 bc 9c 2d af bc a9 3c ab bc 86 06 81 3c
       -0.021725602 -0.021384053 -0.020902948 0.01575018
000070 d3 be b8 3c b4 c8 ad bc 1b 99 b6 bc ea 7b b9 3c
       0.02255193 -0.021213867 -0.022289803 0.022642095
000080 ef ba aa bc 4b 99 aa bc d9 ca a9 bc e1 30 1e bc
       -0.02084109 -0.020825049 -0.020726608 -0.009655208
000090 22 42 b6 bc 41 a4 b6 bc 18 dd 98 3c 8e 8d ab bc
       -0.022248331 -0.02229512 0.018660113 -0.020941522
0000a0 b7 59 ad bc c6 0e bd 3c d9 ea c0 bc 9b 3e b7 3c
       -0.021160943 0.023078334 -0.023549484 0.02236872
0000b0 67 10 ae bc 2b 07 ac bc b2 df af bc 82 55 b8 3c
       -0.021248056 -0.020999512 -0.02146897 0.02250171
0000c0 46 c4 b0 3c b9 94 26 3c 05 0b b2 3c ce 34 ac bc
       0.021577965 0.010167294 0.02173377 -0.021021273
0000d0 c6 c4 ae 3c c6 54 ad 3c 0c 18 92 bc 3a 6d ac bc
       0.021334063 0.021158587 -0.017833732 -0.021048177
0000e0 5a bf 8f bb 75 74 9d bc 2e 73 ad bc e6 3f b2 bc
       -0.0043868246 -0.01922057 -0.021173086 -0.021758985
0000f0 ab 17 af 3c 6c a0 c3 ba 8e b1 b7 bc 6c 12 ab 3c
       0.02137359 -0.0014925129 -0.022423532 0.020882808

logit.weight f4 [1, 64]
000000 a9 7a e1 3d 7d 1e c5 3d d0 d9 87 bd 70 db 4e 3c
       0.11009724 0.09624956 -0.06633341 0.01262556
000010 58 ab be be 08 57 21 3e 82 ac 28 bd 14 9c 94 be
       -0.372401 0.15755856 -0.04118014 -0.29025328
000020 4f 1f b2 be 96 2f 28 3d 0a b3 88 be f7 1e 4c bb
       -0.34789512 0.041061006 -0.26699096 -0.0031146386
000030 14 45 e5 bc 45 e7 04 3e ed 76 07 3e a7 e5 80 be
       -0.02798704 0.12978847 0.1322896 -0.2517521
000040 77 ee 1c be e4 63 01 be 33 eb 53 3e df 8b ad bd
       -0.15325342 -0.12635761 0.2069519 -0.08473944
000050 bc 83 f5 3d c2 ac 49 3e 9f c9 90 bb 6b 98 10 3e
       0.11988017 0.19694808 -0.0044185664 0.14120643
000060 76 e0 59 3e cb 4c 12 3e bb bd e5 3d 25 43 8a 3b
       0.21277031 0.14287107 0.11217829 0.00421943
000070 a8 35 b2 be a5 ad 25 3e 97 bd 99 3e f5 50 af be
       -0.3480656 0.16179521 0.30027458 -0.34241453
000080 d5 80 d8 3d bf f6 c6 3d 12 2e 49 3d 73 8f 05 3d
       0.10571448 0.09715032 0.0491162 0.032607507
000090 08 8d a2 3e 0d b6 2b 3e 1d 3c 02 bd 54 15 07 3e
       0.31748223 0.16768666 -0.03179561 0.1319173
0000a0 b5 d2 c9 3d 5a 06 63 be 38 e1 a6 3e d5 62 9a be
       0.09854642 -0.22170392 0.32593703 -0.30153528
0000b0 3f 28 11 3e aa a0 fa 3d d3 ec 31 3e 98 b2 02 bf
       0.14175509 0.122376755 0.17375498 -0.5105376
0000c0 9d 1a 37 be 07 1c 27 bc d5 dd 07 be 75 bf 9e 3d
       -0.17881246 -0.010199553 -0.13268216 0.07751361
0000d0 cd ef 22 be 24 2c eb bd f5 fd ea 3b ca e0 ab 3d
       -0.15911789 -0.114830285 0.0071713873 0.083924845
0000e0 d7 b4 53 bc 5e 98 0b 3d f6 e3 0b 3e 74 80 26 3e
       -0.012921534 0.034080856 0.13661179 0.16259938
0000f0 5e 55 09 be 22 a2 6e 3c ce c9 ac 3d 4d 7e dd bd
       -0.13411471 0.014565023 0.08436929 -0.108151056
