Model/both/fold3.ckpt (torch, 140607 bytes, 15 tensors)

input_block.0.weight f4 [438]
00000000: e6db 823f 1dfe 813f fda3 783f 74e9 793f
00000010: 0dbb 7c3f 6e20 793f 68f4 803f 4c77 833f
00000020: b33c 843f 9b4d 7e3f 0dcd 823f d021 843f
00000030: 2ac8 723f e887 7c3f 09a7 733f d940 7a3f
00000040: c8bd 7d3f 6c16 7d3f 8a01 843f 565f 7a3f
00000050: efb5 803f a4cc 743f 1b4f 853f 9357 853f
00000060: da93 7c3f 2c32 823f 38b3 843f b120 7d3f
00000070: 2905 833f 280f 7a3f 34b5 823f eedd 773f
00000080: 2ded 7e3f e74a 7c3f aff5 743f 77ad 7e3f
00000090: ff05 853f facb 823f 3aca 803f 729c 7d3f
000000a0: 3f3f 783f 4f9d 7e3f 69a2 823f 20d4 843f
000000b0: 0b19 743f f26d 753f e2b5 763f 35b6 773f
000000c0: 0c04 7e3f 9e18 6a3f 3210 7b3f cc46 7a3f
000000d0: 37ab 7f3f ed03 823f 2201 6b3f d50e 833f
000000e0: 9361 813f 03d5 803f dff5 803f ed3a 753f
000000f0: 9920 783f 7bba 7c3f 8a28 813f 4d95 783f
00000100: 9e64 7f3f c05b 7d3f bd5a 793f 2eb1 7b3f
00000110: 35dd 823f cb60 743f 223d 703f 83ab 663f
00000120: cc52 803f ade4 743f 8cc6 6f3f 20cb 703f
00000130: b767 793f 30fc 6e3f ea9d 7a3f 219a 7a3f
00000140: 7fad 6f3f f452 713f e5b6 7d3f 0f1b 7b3f
00000150: 9aa9 7b3f e0c6 7b3f 4ed9 823f 0af6 7a3f
00000160: fc50 813f 9884 7d3f fc36 803f 6aec 7b3f
00000170: 8207 7d3f e74d 7f3f a1ca 743f 9cf6 813f
00000180: 5371 803f 9f0b 7c3f ca02 723f 0f11 6f3f
00000190: a0bb 783f 9d14 7d3f 6a94 783f 1b06 843f
000001a0: 6d7f 823f 1e3e 773f 14dc 783f 5133 803f
000001b0: b352 773f 685b 813f 8b8f 7f3f 12c9 803f
000001c0: 2902 7b3f 1873 763f 9043 763f 8282 7e3f
000001d0: 64fb 7c3f 7fc7 813f 595a 793f 1a48 803f
000001e0: 9e0a 803f 70de 7f3f 0897 783f d279 783f
000001f0: 8eeb 803f d711 823f c2e7 823f f288 723f
00000200: 885c 833f d6f5 763f f16a 783f 85cc 843f
00000210: a121 803f 97d0 833f 0b28 803f 6dbb 763f
00000220: 22e7 853f a5b8 863f 00dd 7b3f 8279 803f
00000230: 6b26 773f 3dc8 7b3f f222 7d3f ecc4 763f
00000240: a312 773f 2598 703f c2fc 763f d7c7 823f
00000250: 385e 7e3f ce32 853f bb6f 7c3f 52ca 783f
00000260: 9737 6d3f 74a4 7e3f 04b5 823f 0fcd 893f
00000270: 3b3c 853f 92ee 773f e50f 783f 8fd4 7f3f
00000280: b4a1 7c3f da24 7e3f f86a 7b3f dbee 7f3f
00000290: 976d 803f 7175 733f a95d 763f 3476 823f
000002a0: ce21 7b3f f125 763f aebc 7e3f 1314 793f
000002b0: a78d 803f 3336 863f e175 7d3f b3a4 853f
000002c0: fafa 763f 979d 783f e801 753f 8a4f 7b3f
000002d0: 1c27 7a3f 74c3 6a3f 3bcc 773f 5892 723f
000002e0: b375 783f a0ce 873f b656 823f c209 803f
000002f0: 89dd 813f 65c4 793f 899f 813f 4099 813f
00000300: e24d 823f 3621 803f 3fc4 853f 6255 783f
00000310: f4e4 793f 74d4 823f 4c25 7e3f 98c0 7d3f
00000320: 4572 823f 6e86 6d3f f74b 843f e87b 7d3f
00000330: 0c0b 7b3f 2b05 813f 647a 863f aa6c 7d3f
00000340: baa5 7a3f ca82 793f e453 6f3f aea1 7b3f
00000350: 6fa4 7b3f 6564 723f f9f8 813f fa1a 803f
00000360: 9e18 7d3f a6e6 773f 6c50 7e3f 140c 783f
00000370: 85ca 823f 3ce6 7f3f 72f9 7e3f f605 843f
00000380: 7df1 773f eb52 733f dd25 733f 3f7e 813f
00000390: 7da1 783f d4a1 803f d6f1 723f 8d81 703f
000003a0: 026a 7d3f d275 803f 8b8a 763f 0170 783f
000003b0: 0fd8 793f fcef 7a3f 76c3 6e3f 5887 803f
000003c0: fab6 783f 8a49 803f 59bc 823f 2c91 783f
000003d0: 489c 7a3f 8f5b 823f ed4c 803f 9fa4 803f
000003e0: e499 7c3f 41cc 773f e58f 793f 6d28 783f
000003f0: ce47 7f3f ea7d 823f 05d1 7e3f 9b23 7c3f
1.0223358 1.0155674 0.97125226 0.97621846 0.98722917 0.9731511 1.0074587 1.0270782
1.0331024 0.99337167 1.0218827 1.0322819 0.94836676 0.98644876 0.9517675 0.977552
0.9911771 0.9886234 1.031297 0.9780172 1.0055522 0.95624757 1.0414766 1.041735
0.98663104 1.0171561 1.0367193 0.9887801 1.023595 0.97679377 1.0211549 0.9682301
0.9958065 0.9855179 0.95687383 0.99483436 1.0392455 1.0218499 1.0061715 0.9906684
0.96971506 0.99458784 1.0205814 1.0377235 0.9535071 0.9587089 0.9637128 0.967624
0.99224925 0.9144381 0.9807159 0.9776428 0.9987063 1.0157448 0.91798604 1.0238901
1.0107902 1.0065006 1.0075034 0.9579304 0.9692474 0.98722047 1.0090497 0.97102815
0.99762905 0.98968124 0.9740408 0.9831723 1.0223757 0.95460194 0.9384328 0.90105456
1.0025268 0.9566143 0.93662333 0.94059944 0.9742388 0.9335356 0.9789721 0.9789143
0.9362411 0.942672 0.991072 0.98088163 0.98305666 0.98350334 1.0222566 0.98031676
1.010284 0.99030447 1.001678 0.98407614 0.9883958 0.99728245 0.9562169 1.0153384
1.0034584 0.9845523 0.94535506 0.93385404 0.97161293 0.9885958 0.9710146 1.0314363
1.0195137 0.9657916 0.9721081 1.001566 0.96610564 1.010602 0.99828404 1.0061362
0.9805017 0.9626937 0.9619684 0.9941789 0.9882109 1.0139006 0.97403485 1.0022004
1.000324 0.9994879 0.97105455 0.97060883 1.0071886 1.0161694 1.0226977 0.9474021
1.0262613 0.96468866 0.9703818 1.0374914 1.0010263 1.0298032 1.001222 0.9637974
1.0461161 1.0525099 0.98384094 1.0037081 0.96542996 0.98352414 0.9888145 0.9639423
0.9651281 0.93982154 0.9647943 1.0217236 0.99362516 1.0406129 0.9860799 0.97183716
0.9266295 0.99469686 1.0211492 1.0765704 1.0409006 0.96848404 0.96899253 0.99933714
0.9868424 0.9927498 0.98210096 0.9997384 1.0033444 0.95101076 0.96236664 1.0192323
0.98098457 0.96151644 0.9950665 0.97296256 1.0043229 1.048529 0.99007994 1.0440887
0.9647671 0.97115463 0.95706034 0.9816824 0.97715926 0.9170449 0.96796006 0.9475455
0.97054595 1.0609932 1.0182712 1.0002978 1.0145732 0.975653 1.0126811 1.0124893
1.0180018 1.0010135 1.0450515 0.97005284 0.9761498 1.0221086 0.9927566 0.99122
1.0191122 0.9278325 1.0335683 0.9901719 0.9806373 1.0079702 1.0506101 0.98993933
0.9790913 0.97465193 0.9348738 0.9829358 0.9829778 0.9468444 1.0154105 1.0008233
0.9886569 0.96836317 0.99341464 0.9689343 1.0218054 0.99960685 0.99599373 1.0314319
0.96852857 0.950484 0.9497965 1.0116652 0.9712141 1.0049386 0.9490026 0.9394768
0.9898988 1.0035956 0.9630515 0.97045904 0.97595304 0.9802244 0.93267 1.0041304
0.971542 1.0022442 1.0213729 0.97096515 0.97894716 1.0184191 1.0023476 1.0050238
0.9867232 0.9679604 0.9748519 0.96936685 0.9971894 1.0194676 0.9953769 0.9849183

input_block.0.bias f4 [438]
00000000: c8ae 0cbc 5cec 7a3a 1bf0 b0bb eef0 0cbc
00000010: 44f8 97bc 5e02 263c c145 4abc 4d17 98bb
00000020: 6c20 d03b 1f86 283b f7a9 3b3c 7fcb cdbb
00000030: 12ab aebc 1a64 da38 1e17 d2bc 715e 84bc
00000040: c098 5b3c d608 dc3c df92 24bb f95c 8ebc
00000050: fa18 b5b9 6099 b63c 8f39 83bb 9099 9a3b
00000060: 5c50 3fbc d0ea 2cbb c019 073c 5886 1d3c
00000070: 4aaa 56ba 818d 8a3c a3ed c739 6604 713c
00000080: ae0a a93b 17ff 9fbb 1258 a7bc cd4a 023c
00000090: de5d 133c 9bd5 8e3b c14e 2bbb 40ac 02bc
000000a0: 0f12 8cbb 8395 b6bb 4215 0b3b e369 8d39
000000b0: fd5e c9bb 4d4e 07bc cef2 fabc 297d 8dbc
000000c0: 2bba b9bb e5c5 ba3a 5aaf 263b b3e5 7b3b
000000d0: e2e6 61bc 2a56 6b3b 4eb9 4e3b 2187 b43a
000000e0: 3941 6fbc a3b5 c4bc 916b b3bb 4ec6 39ba
000000f0: 53ff 8c3c cafc 393c 5684 a63a 035b a73b
00000100: c2e5 103c d9eb 2b3c 4df4 8d39 e5f9 2bbb
00000110: 1b11 5f3b e962 08bc 907e 84bc d31f b33c
00000120: 8528 703b 4454 c33c bb16 2bbc 85e6 8dbc
00000130: 0975 3fbc d38d 72bc 4c8d 823c 4ff7 aa3c
00000140: 9a70 343d 43eb 01bd 1ad4 d33b f5be 583b
00000150: 72fe 2a3b 4b3f c23b 17aa 11bb 8cc0 12bc
00000160: b7c9 23bc f0f4 11bc 5ffb 073a 4fb9 773c
00000170: e184 45bc f4ff 11bc 440c ff3c ca4b 36bc
00000180: dc88 3cbc 1117 4a3a fe35 e2bc 4131 22bb
00000190: 6ccc 5c3c b068 113b 1434 113d 1192 e73a
000001a0: 227d a43a 3f76 c7bc 6113 babc d112 ccbb
000001b0: e139 163d e4fc 5f3c e9c9 fabb 62b2 da3b
000001c0: 8e7c 8b3c 65c0 07bd d2db 58bc b57e dbba
000001d0: dffe 2a3c 819a 9fbb 9927 e1bc 8e48 d03b
000001e0: 7d7a 5b39 6171 4ebc a02f 78bc c95e 2ebc
000001f0: f22d 9bb9 9c9f 02bc 820a 523b 6cb5 923c
00000200: 417f 8ebb 7e74 06bd 5ffe c3bb 76bd 16bc
00000210: 35a4 4a3c 2b00 c83b c7b8 073c 75b7 03bd
00000220: ffb4 913b e421 9f3b e37f 8c3c b891 d0bb
00000230: e8fc 74bc 57ff 153c 63ac b83c cebe 0fbc
00000240: a6b4 293c 5c24 05bd 0561 8e3c 56be 42bb
00000250: 348b 91bc 5c9d ee39 4d20 8ebc 7680 81bc
00000260: 2a5f d5bc fe0c 99bc 85e7 a43b a6f5 afbb
00000270: e5f8 e43a 02e5 58bc 6acf 0dbc 0de0 43bc
00000280: b7e2 9cbb ddc8 63bc 7b90 abbc a93c 2ebb
00000290: c081 37bb 5ed5 13bc 2e18 923b 379e 7fbb
000002a0: 105b 81bc 7c64 893c ed1f 123c c600 56bb
000002b0: e100 47bc 97f9 a6bb 8093 c739 c4d6 febb
000002c0: 0a6a 823c a536 f6bc d4c7 eb3b 6817 cd3c
000002d0: 8aac 063c a6c9 fb3c 49bc 093c da01 6f3c
000002e0: 48ce 273c 69b3 dfbb d4cf 9d3b 7d4c bdbb
000002f0: 4e97 79ba 495c 91bc f261 6fbb 1ee8 c1bb
00000300: 49b2 c6bb 48a3 5a3c a462 2dbc bb95 ab3a
00000310: cee2 083d 8bb8 1c3c 6d87 6e3a 8ec9 8b3c
00000320: d303 2fbb eaa0 38bc f7f6 07bb f6f9 423c
00000330: cf70 a8bc c575 bb3b 8098 063c 50bd 0ebc
00000340: 77af 573c f26a fc3c 6037 7d3c 1790 8f3c
00000350: aaf6 19bc 4fb9 63bc 5f55 bdbb 5d3e 333b
00000360: f900 8ebc 7a9c cdbb ea58 c03b e2d6 e6bb
00000370: fe95 233b f934 0d3b 2a4c cfbc 5f43 79bb
00000380: 7357 f2bb 37d6 d5bc 5749 bb3b 5bb8 363c
00000390: 6778 003c 6b81 003b 76d7 b43c cc2b 9ebc
000003a0: d719 d23c e17c 1cbc 8d5d 34bc 247a 93bc
000003b0: 761a bd3c 87c3 043c 72f4 90bc 1299 f43b
000003c0: 3624 cebb 3c46 d03b c50a 363c 30c4 a83c
000003d0: 8a53 973c 12b0 fcba 5c7b 23bb 5f56 b63b
000003e0: 7784 81bc 0948 853a 121e e2bb 0b84 b33b
000003f0: d3a0 323c a39d 2b3c 8915 e3bb e644 79bb
-0.008586593 0.00095719635 -0.0053997166 -0.008602364 -0.018551 0.0101324 -0.012345732 -0.0046414495
0.0063515212 0.0025714708 0.011454097 -0.006280362 -0.021321807 0.000104136954 -0.025645789 -0.016158314
0.013403118 0.026859682 -0.0025111956 -0.017378317 -0.0003454162 0.022289932 -0.0040046643 0.004718013
-0.011676874 -0.0026385076 0.008245885 0.00961455 -0.0008188827 0.016913177 0.0003813329 0.014710521
0.005158744 -0.004882704 -0.020427737 0.007952404 0.008994548 0.00435896 -0.002613947 -0.007975638
-0.0042746137 -0.0055720224 0.0021222387 0.00026972507 -0.0061453567 -0.008258414 -0.030633356 -0.017271595
-0.005667945 0.0014249651 0.0025434108 0.0038436472 -0.013787957 0.0035909512 0.0031543556 0.0013773182
-0.014602953 -0.024012392 -0.0054754694 -0.00070867396 0.017211592 0.0113517735 0.0012704234 0.005107285
0.008843841 0.010493242 0.00027075634 -0.0026241478 0.0034037295 -0.008324363 -0.016173631 0.02186576
0.0036645245 0.023843892 -0.010442431 -0.017321834 -0.011685618 -0.014804321 0.015936516 0.020869879
0.044052698 -0.031718504 0.0064644935 0.0033072804 0.0026091603 0.0059279553 -0.0022226626 -0.00895704
-0.009996823 -0.008908495 0.00051872985 0.015119865 -0.012055607 -0.008911122 0.031133778 -0.011126468
-0.011507239 0.00077091256 -0.027613636 -0.0024748596 0.013476472 0.0022187643 0.035450056 0.0017667433
0.00125495 -0.024348376 -0.022714319 -0.006227829 0.03667629 0.013671134 -0.007653464 0.006674097
0.017027166 -0.033142466 -0.013236003 -0.0016746136 0.010436743 -0.004870713 -0.027484702 0.0063563054
0.00020931098 -0.012600274 -0.015148073 -0.010642716 -0.00029598136 -0.007972624 0.003204972 0.017908774
-0.004348666 -0.03282594 -0.005981251 -0.009200444 0.012368252 0.0061035356 0.0082838 -0.03215738
0.0044466252 0.004856335 0.017150825 -0.0063650273 -0.014952876 0.009155116 0.022543138 -0.008773519
0.010358011 -0.032505378 0.017380247 -0.00297155 -0.017766573 0.0004551214 -0.017349387 -0.015808325
-0.026046354 -0.018682953 0.005032482 -0.0053698597 0.0017469196 -0.0132381935 -0.008655408 -0.011955273
-0.0047877687 -0.01390287 -0.020942917 -0.002658645 -0.002800092 -0.009023039 0.004458449 -0.0039004216
-0.015790492 0.016771547 0.0089187445 -0.003265427 -0.012146206 -0.0050956714 0.00038066134 -0.007777067
0.015919704 -0.030055353 0.007195452 0.025035575 0.008219847 0.030735802 0.008406707 0.014587844
0.010242052 -0.0068268073 0.004816035 -0.0057769404 -0.00095211423 -0.0177442 -0.0036526886 -0.005917563
-0.0060637337 0.013344593 -0.0105826 0.0013090888 0.033419423 0.009565483 0.00090991595 0.017063882
-0.002670516 -0.011268834 -0.0020746568 0.011900416 -0.020561604 0.0057208263 0.00821507 -0.008712128
0.013164393 0.030812714 0.015455097 0.017524762 -0.009397188 -0.0138991615 -0.0057779993 0.0027350404
-0.017334448 -0.006274757 0.0058699744 -0.007044659 0.0024961228 0.0021546467 -0.025304873 -0.003803454
-0.0073956787 -0.026103122 0.00571553 0.011152352 0.007841206 0.001960839 0.022075396 -0.019307993
0.025647087 -0.009551258 -0.011008632 -0.018002577 0.023083907 0.008103258 -0.017694686 0.0074645365
-0.006290938 0.006356029 0.011110966 0.020601362 0.018472452 -0.0019278547 -0.0024945354 0.0055644955
-0.015810234 0.0010168563 -0.0069005573 0.0054783872 0.010902601 0.010474595 -0.0069300574 -0.0038035451

input_block.1.weight f4 [64, 438]
00000000: bddf 523d 3b71 40bd 09f1 f73c c6dc a5bb
00000010: 4196 6b3d 1d34 a33b 5708 bf3c 64e9 933d
00000020: 4e37 59bc ba78 623c 9342 ec3c 1c35 183d
00000030: 6897 c7bc ff52 263c 9077 073c d295 48ba
00000040: 596a ef3c 4a9f 63bb 292e 883d 62d8 45bc
00000050: bb90 463d 7a17 9cbc 5c81 843d eacc b73c
00000060: b323 8b3c 44ae 19bd b992 46bb bcd9 8abd
00000070: 3b5b 48bd 5595 b73c a202 ebbc f7f9 d3bb
00000080: b8c7 a3bc ba6f 863c 40da 823c 7c82 003d
00000090: bbfa d3bc a6ae 60bc a247 4dbd 33aa e0bb
000000a0: 531a 773c 8222 803c 27bc 79bd 9d7e ed3c
000000b0: c9e9 6f3c 4b42 47bc 755a ee3c 976d 033d
000000c0: 90fa 723c 35f3 ddbb a373 b83c da4f 4e3d
000000d0: e14c 363d e9b5 2dbd c13a 33bd b441 42bd
000000e0: 58ee 323c ffdb 613c da7e 033d f624 9dbc
000000f0: 99db 0c3c 7e0e 8e3c 14d8 32bc 7296 64bd
00000100: 3172 c43c ad17 a0bc bcd5 aebc eacd 9a3b
00000110: 27a8 b1bd cb35 b5bc 7b66 b1bc 31c6 1cbd
00000120: 8a6f 6abc d7f0 06bc 1d52 163d 04ea 1dbd
00000130: 82c3 d6bb 008d bc3c 6262 14bd 4269 91bc
00000140: 4f3b a5bc 0c08 f63c 9f19 d03c 185b 0fbc
00000150: 7d55 4839 ba84 463c a9a3 39bd d98c 8dbc
00000160: 5715 403d 7be9 31bd 4032 d1bc 492c 3ebd
00000170: 5219 73bd cda6 8c3c ca99 493c 8efe 7e3d
00000180: 7c5d 0dbc 635c c9bb 4397 483d 2333 123d
00000190: a79a 7f3c 7979 493d 62a3 a6bc d523 7f3d
000001a0: e48a 87bd d275 c23b cf0d 533b 9acb 1c3c
000001b0: 6ecc cabc 6580 afba 8045 613d 3c9d a2bc
000001c0: 287b 153c 1f1b 373b 87df d5bc 0915 8abc
000001d0: e72f 273d a9a6 683d 69ca 683c ba67 32bc
000001e0: 86bf 61bc 42bb 02bd 2030 ba3c 328c 6abc
000001f0: 6c8f 003d 3b24 2dbc 2b31 78bd 35ae 233d
00000200: 7748 29bd 7838 093d f209 dcbc 26d2 503d
00000210: 457f 8cba 50d4 70bd 1591 f43b eb7a adba
00000220: 72c9 463d 6c1a 013d 8293 2e3d e979 0f3d
00000230: 7011 37bc b05d 03bd 248d 1bbc 1254 4a3a
00000240: 2da6 493b b8c3 3d3d c96e 02bd de68 293c
00000250: 3bbd 8aba 7acc 4ebc ea30 51bd 61fd 133c
00000260: ac11 3a3d 9200 153d df0b 2fbd 8821 7b3d
00000270: 4766 62bd 9699 763d 4a55 1d3d e79f b8bb
00000280: d66b 3d3d 688a 5dbc b301 7b3b cb29 623d
00000290: e2aa 793c 5a7c a8bc 018c 48bb fe23 ca3b
000002a0: eb41 fabc 1dbd 82bc 087a e83a 4681 173c
000002b0: 8469 483d fd98 ae3d 7c9e ff3a 7e47 943d
000002c0: 0434 2f3d 90ed 27bc 8915 603c a1d3 4bbd
000002d0: 2cb3 99bc e09d 863c 6d9b 253c 172b 203b
000002e0: 0447 ddbc 03d6 aa3d 14ed 5ebd b81d 813c
000002f0: f30c 273d 1e45 8d3d 0e2c 9c3c 0903 363c
00000300: c316 593d e137 243c 7ba1 9abd 6553 43bd
00000310: 0457 46bc 8944 e4bc 75c7 e3bb 9473 6dbc
00000320: 1d9c 203d 400e b93c 8648 c83d b52b 9d3c
00000330: b4d2 fa3c 1576 263d 8a29 e3bd 6946 17bc
00000340: 7012 dc3c 813e 4bbc 30b4 64bc 6953 0abd
00000350: d8a0 cabc 31b1 163c d2cf 3f3d 3f7b f3bc
00000360: ecb8 243b d7fd e8bc ffed 873d 54fe 2fbc
00000370: b252 c9bc 7dfa 0bbc 3d69 4dbd 7c95 593d
00000380: ab02 ca3a 1c6b 0a3d 8871 903c 183d 1cbc
00000390: f4dd b63b ec0a 4fbc df08 d3bc e6a9 0bbb
000003a0: 7304 ae3c 5e9c 4d3d 366d 053d f605 14bd
000003b0: 714f 5bbd a215 09bd 9f83 b53c ac3a 703c
000003c0: cc3c 16bd 9e66 f8ba b8bc 34bd d39b e13c
000003d0: 783f 293d 5b77 5abd ec1f adbc 8bde 113c
000003e0: 990c 02bc eb43 b3bc f7ca bcbb c2b6 043d
000003f0: b643 7abb 5008 b5bc 8ebc 123d 884b fbbb
0.051482905 -0.046982985 0.030266302 -0.0050617186 0.05751634 0.0049805776 0.023319406 0.0722225
-0.013257815 0.013822729 0.028840339 0.037160024 -0.024364188 0.010151624 0.008268252 -0.00076517195
0.029225515 -0.0034732395 0.06649429 -0.012075515 0.04847787 -0.019054163 0.06469986 0.022436578
0.016984796 -0.03751971 -0.0030299856 -0.06779811 -0.04891513 0.022410074 -0.028687779 -0.006469007
-0.019992694 0.016410697 0.01597321 0.03137444 -0.025876394 -0.013713514 -0.050117142 -0.006856227
0.01508196 0.015641455 -0.06097045 0.028991038 0.014643141 -0.012161802 0.029095868 0.032086935
0.014830247 -0.0067733773 0.022516077 0.05036912 0.04450691 -0.04240981 -0.043757204 -0.04742594
0.010921083 0.013785361 0.032103397 -0.019182663 0.008597278 0.017340895 -0.010915775 -0.05580754
0.023980232 -0.01954254 -0.02134215 0.004724254 -0.08674651 -0.022120377 -0.021655312 -0.038274948
-0.01430882 -0.008236132 0.036699403 -0.038553253 -0.006554068 0.023016453 -0.036226638 -0.017750386
-0.020169882 0.030033134 0.025402842 -0.008749746 0.00019105333 0.012116605 -0.045322094 -0.017279075
0.04689535 -0.043435555 -0.025536656 -0.046428952 -0.05935032 0.01716938 0.012304733 0.06225448
-0.008628245 -0.0061450466 0.04897238 0.0356933 0.015600837 0.04918811 -0.020341579 0.06229003
-0.06618288 0.0059344554 0.0032204275 0.009570027 -0.024755683 -0.0013389705 0.05499792 -0.019850366
0.009123601 0.002793975 -0.026107563 -0.016855733 0.040817168 0.056799565 0.014208415 -0.010888988
-0.013778573 -0.031916864 0.022728026 -0.014315652 0.031386778 -0.01056772 -0.060593765 0.03996106
-0.041328873 0.03350112 -0.026860211 0.050981663 -0.0010719082 -0.058796227 0.007463584 -0.0013235485
0.048531957 0.03151934 0.042621143 0.035028372 -0.011173591 -0.03207177 -0.0094941 0.0007718216
0.0030769214 0.04632923 -0.031843934 0.010339944 -0.001058496 -0.012621993 -0.05107204 0.009032578
0.04542701 0.036377497 -0.04273593 0.061311275 -0.05527332 0.060205065 0.038411416 -0.005634296
0.04624542 -0.013521768 0.0038300573 0.055215638 0.015238496 -0.020567108 -0.0030601027 0.0061688414
-0.03054901 -0.015959317 0.0017736563 0.00924713 0.048928753 0.08525274 0.0019502188 0.072401986
0.042774215 -0.01024951 0.013677009 -0.049762372 -0.018762194 0.016432703 0.010107857 0.0024439746
-0.027011402 0.08341601 -0.054425314 0.015761241 0.040783834 0.06897949 0.019063976 0.011109122
0.053000223 0.010023088 -0.07550331 -0.047686953 -0.012105707 -0.027864711 -0.0069512674 -0.014492888
0.03921138 0.022589803 0.09779458 0.01918588 0.03061805 0.040639956 -0.11091907 -0.009233096
0.02686426 -0.012405039 -0.013958976 -0.033770952 -0.0247349 0.009197519 0.046829052 -0.029721854
0.0025134636 -0.028441353 0.06637191 -0.010741789 -0.024575565 -0.008543608 -0.05014919 0.053121075
0.0015412172 0.033793554 0.01763226 -0.00953605 0.005580658 -0.012636881 -0.025761066 -0.0021310984
0.021242356 0.05019795 0.032574855 -0.036138497 -0.053542558 -0.033467896 0.022157488 0.014662426
-0.036679074 -0.0018951481 -0.04412529 0.027540123 0.041320294 -0.053336482 -0.021133386 0.008903156
-0.007937574 -0.021882972 -0.0057615 0.032400854 -0.0038187332 -0.02209869 0.03582435 -0.007668916

input_block.1.bias f4 [64]
00000000: b3f7 583c 2905 4bbc 57fc 1d3d db6f 923c
00000010: 8e3b 553d b81b 5bbd 5dfe 3b39 c271 f73c
00000020: fc15 31bd 87ff 1a3c b92b 19bd dd71 37bd
00000030: 1b02 62bd 1aa4 023d 6c3c 8abc b2af 2abd
00000040: bd58 eabc 8f9c a2bb 9b35 9c3c 3286 343d
00000050: a7e8 393d f10e e2bc 4166 cebc 83a2 2d3d
00000060: ec3b bf3c 0de8 c43c e6e2 c13c 4663 16bd
00000070: 6096 583d 2b78 fbbc 4414 9b3c b368 343d
00000080: 0616 283d f903 1c3d 0929 f53b 6a79 27bd
00000090: 8f48 d7bc 1476 3cbc d8da 44bc 5366 8f3a
000000a0: 9d3f 7d3c dc8b 243c 15db 89bc 9f38 ae3b
000000b0: b6e7 c9bc 8698 87bc b368 f33c 5cf4 593b
000000c0: c4ee a13c 17c3 b239 a794 b83c 64ed 56bc
000000d0: dfe3 cc3c 79af 1bbc 75ab 22bd 915f 6abd
000000e0: 6a4c 343d ece8 543c 415e d53c 6f03 54bd
000000f0: 9a6c 0fbd 7e39 0dbd c88d b6bc b4b1 153d
0.01324265 -0.012391367 0.03857073 0.017875602 0.05205875 -0.05349323 0.00017928467 0.030205611
-0.043233857 0.0094603365 -0.037395213 -0.044786323 -0.05517779 0.03189478 -0.016874515 -0.041671462
-0.028606767 -0.004962511 0.01906853 0.04407329 0.04538789 -0.027595015 -0.025195243 0.04239131
0.023344003 0.024036432 0.023667764 -0.03671577 0.052877784 -0.030696949 0.018930562 0.04404516
0.04103663 0.038089726 0.0074816984 -0.040887274 -0.026279716 -0.011502761 -0.012015067 0.0010940529
0.015457061 0.010043111 -0.0168281 0.0053168084 -0.024646621 -0.016552221 0.02971301 0.0033257222
0.019767173 0.0003409616 0.02253182 -0.013118122 0.025011001 -0.009502285 -0.039714295 -0.057220045
0.044018187 0.012994986 0.02604592 -0.051761087 -0.03501568 -0.034478657 -0.022284403 0.036546424

hidden_block.0.weight f4 [64]
00000000: dfcf 753f 9370 913f b45c 7f3f f879 823f
00000010: 049c 803f 63f3 863f e3fb 803f 7653 783f
00000020: 943b 8b3f 469e 853f 794c 753f dd08 8a3f
00000030: 99cb 783f 9694 773f 7f81 7e3f 6da3 793f
00000040: c358 813f 7481 803f cc88 833f a6ea 6f3f
00000050: b1dd 7e3f 5fa7 823f 41c7 793f 22be 7a3f
00000060: 363c 7d3f 4d1a 833f 2dc9 7f3f 17eb 6a3f
00000070: e2f5 773f 05d7 7f3f 6a41 7b3f d8f5 773f
00000080: b2a0 743f eb00 733f 358b 813f c18c 863f
00000090: b522 783f 3833 853f fe04 813f 142d 703f
000000a0: d020 813f 67c5 793f 4779 803f d51e 883f
000000b0: a4ee 7f3f 53d4 803f afbb 733f 1459 733f
000000c0: 7b3b 6a3f afc5 753f 6a45 823f 9650 893f
000000d0: 63f6 753f 942c 6e3f 4437 853f 1af6 843f
000000e0: ec81 6e3f f385 7a3f e811 783f 5757 8e3f
000000f0: e8a4 843f 1537 763f 0701 7a3f 421a 713f
0.9602031 1.136248 0.9975083 1.0193472 1.0047612 1.0543026 1.007687 0.9700235
1.0877557 1.0438926 0.95819813 1.0783955 0.97185665 0.967111 0.99416345 0.9751499
1.0105213 1.0039506 1.0276122 0.9371742 0.99557024 1.0207328 0.9756966 0.9794637
0.9892 1.0242401 0.99916345 0.9176497 0.9685956 0.9993747 0.9814669 0.968595
0.955577 0.94923276 1.0120608 1.0511705 0.9692796 1.0406256 1.0079648 0.93818784
1.0088139 0.9756684 1.0037011 1.0634409 0.9997351 1.0064796 0.9520826 0.950578
0.9149701 0.96004766 1.0177433 1.0727718 0.9607908 0.9303677 1.0407491 1.0387604
0.93166995 0.9786064 0.9690232 1.1120404 1.0362825 0.961778 0.9765782 0.9418069

hidden_block.0.bias f4 [64]
00000000: 0db7 35bc b0fc 85bc cb5c a63c e80f a53c
00000010: b22e 0e3d 16e2 f5ba 0c76 5e3c 460b 1e3d
00000020: 7e99 67bd 39a6 043c cab7 003d 6b3b 3fbd
00000030: 110c 313d daed f8bb 8399 9dbb 119e 5b3c
00000040: 7dc2 6d3c abc4 d03b 5022 d6bb 1342 373d
00000050: 4157 c23b 06dd 7cb9 4aec c63c 7c97 803c
00000060: 8ded 503d 52aa 843b 18e5 053d 74cc 833d
00000070: 0a6b 273c 7cd1 a73c 9822 adba e06a 013c
00000080: c68c 8b3b 4397 b63c 9c04 cdbb 3cc3 01bd
00000090: 67dc 453a 2c08 8bbc dcec 18bd 0b2b f33a
000000a0: 0f62 113b 5c6d a53c 0cfa 89bc a0c8 a03a
000000b0: df4d 09bb c8ec a2bb 44bc d93c 003e d43b
000000c0: 15a8 503d f98c 103d 46b5 76bb 8124 93bc
000000d0: fcf2 c73c 8ee0 583c a0a9 43bd 3bd7 d0bc
000000e0: 055d 3c3d a6d1 5a3c 055e 563d 9eaf 7ebd
000000f0: e402 d6bc 5b84 103c a614 9c3c c338 4b3c
-0.011091006 -0.016355842 0.020307919 0.020149186 0.0347125 -0.0018759395 0.013577949 0.03858497
-0.056542866 0.008096271 0.031425275 -0.046687525 0.043224398 -0.0075967135 -0.00480956 0.013404385
0.014511702 0.006371101 -0.006534852 0.044740748 0.0059308116 -0.0002411493 0.024282593 0.015697233
0.051007796 0.004048624 0.032689184 0.06435481 0.010218391 0.020485632 -0.0013209162 0.007899016
0.004258725 0.022288924 -0.006256653 -0.03168033 0.0007547796 -0.01697167 -0.03733526 0.0018552257
0.0022183692 0.020193748 -0.016842864 0.0012266822 -0.0020950956 -0.004972074 0.02657903 0.0064771175
0.050941546 0.035290692 -0.0037644668 -0.017961742 0.024407856 0.013237132 -0.04776919 -0.025493255
0.045987148 0.013355648 0.052335758 -0.0621792 -0.026124425 0.0088206185 0.019052815 0.01240367

hidden_block.2.weight f4 [64, 64]
00000000: a30b 03be 02e1 70bc 0232 c9bd 7d56 a6bd
00000010: 6544 1c3e cdfb 89bd 2fdd eebc 4bc4 24bc
00000020: b1a7 54bd b4b6 f9bc ff5e 223e 2d04 efbc
00000030: 2f79 aa3d e82b a63d 52c9 733d 0eca 02bd
00000040: 10d7 d23d de38 063d 0ca0 283d 89e2 4ebd
00000050: d099 1a3b cf0a cebd 8f3c e7bc f546 ce3c
00000060: 0d11 1dbd b3f3 0e3d 1620 ebbd 816f 5ebd
00000070: 6d41 553d 4241 4d3e 0cf5 3d3d f5ea e1bd
00000080: 934a e63d 4be1 9abd e342 003c 4cbf efbc
00000090: 461a 6ebd d6ad d3bd 8d68 82bd 3822 18be
000000a0: 7278 18bc c6f1 11be 67f9 b43d 67e0 073d
000000b0: 09b5 58bd f381 b13d 4baa 9e3c 9b58 d63c
000000c0: 00d4 9e3d 6439 bcbd f49f 2e3d 825e 633d
000000d0: 7c99 8e3d 21de 47bc 59da 10bd a289 3a3d
000000e0: 43c5 1ebd ac4f debd 9d39 37be bcec eabd
000000f0: c2f5 5a3e eded cabd 5bbb 65bd a9cf 77bd
00000100: ccd6 1dbd 22ff 943c bc87 be3d 929e 0a3d
00000110: af87 b1bd 8359 743d 6daf babc 774f 5a3d
00000120: e30f c03d ed54 7cbc 1c6d a7bc 52f7 c43d
00000130: e4af e03d ed4f 90bd 8f16 b73d 90ac 51bd
00000140: 2a44 24bd 253d 7b3d 5f1b 8ebd a778 b3bd
00000150: 6b68 3f3d c01d 91bd 39e5 90bc 39b8 00bd
00000160: a693 aebc 5894 0c3c 2a31 3d3d a0ec 753b
00000170: 8868 18bc 8cf1 3cbb 8948 d43d e213 1a3d
00000180: 30a6 c6bd 6382 113d 33a7 cebd 8611 cc3d
00000190: 57c7 d53d 61c3 313d f2e2 c3bb 7c13 223d
000001a0: 01b0 0fbd 9130 a6bd e489 a13d 5cf2 bb3c
000001b0: 8701 38bd 49c6 3fbd cef5 96bd 55e7 13bd
000001c0: 5d54 20be 931c db3c eaed 273d 9d0b a4bd
000001d0: 1de4 033e 7f95 c539 b766 073d 17ff 073e
000001e0: 048c cfbd 5c86 503c 19b7 6dbd 8a46 1d3d
000001f0: a2e4 873d 0069 38bd e564 a339 1ab2 29bd
00000200: bfe1 9abd d8a3 503d 7498 933d fbd5 3a3c
00000210: d9e1 1cbd ea42 d43d 1b8c 5e3d 7a38 903b
00000220: 07fb 1ebb 70c3 e73d 09c2 1fbd e412 ceba
00000230: 87c7 5c3c c8d5 2b3b 0fe1 823d 50b7 bbbd
00000240: 89bd 64bd 02c5 48bc 53e5 173a 4270 a7bd
00000250: fc3b bc3d b669 b0bd 838b cebc b637 983c
00000260: 38f1 4bbd 6a3d 4c3b eba0 a0bd 6ceb bc3d
00000270: 9dd0 b0bd cc7e 84bd e762 edbd 27ce 743d
00000280: e685 28bd feb7 0bbd aa04 e2bc bbd0 2a3d
00000290: 7813 ac3d 9707 aabc 355c 90bd fea5 5cbd
000002a0: 6e49 a03d d361 acbd de8b 41bd de4e 06bd
000002b0: bb09 85bd 104d a63d 368c b6bc 717c d63c
000002c0: a41e cf3b 99f6 5d3d 4dc6 65b8 829b acbc
000002d0: 844a 1d3e d0b9 083d 842f dc3d 438e 0a3e
000002e0: 82bd d5bd 22b0 db3c 354b 293d dc3b a53d
000002f0: d687 5d3d ac3b 9a3d 4e02 073e 8a1f c9bd
00000300: 59a4 493d 1e2f 08be f23f bcbd d28f c1bd
00000310: 9912 553e ab12 b6bd bb88 0abe a5d8 3e3e
00000320: 0967 e13d ba6e d93d ba0d 12bd ca40 b7bd
00000330: 04e5 98bc ddb9 4ebd 5556 c53c 46eb 153d
00000340: 23a3 64bc c150 57be b2e3 68be ce7f 4d3e
00000350: 0e77 0c3e a20d 5a3e 78dd 0a3e c561 08be
00000360: 6431 74bd 7cc9 c7bd 6d56 d83d 3cbd 0d3e
00000370: c7d8 82bd 05bb 993e 7034 7abd 0ef7 55be
00000380: 3b6f ff3c 128b 723d bdc4 39be 5c07 c2bd
00000390: 1010 d4bc 24c9 803d 9e63 14bd 4007 d7bd
000003a0: 0406 24be 72ed ddbd 88b7 613d 06d5 7fbd
000003b0: 9d4f ebbc 16f5 00bd 5963 213d 7c08 11be
000003c0: 7003 f23d 86e5 94bd 7b32 d03b b44e 2cbe
000003d0: 7c5e 80ba 71f4 013d bd3c 32be 4b1a 993c
000003e0: 95ce 613d 4b79 533d 7252 b9bd ab73 03bd
000003f0: b0f1 223e 590d 93bd 4379 9a3d e257 fabd
-0.12797408 -0.014702084 -0.09823991 -0.08121965 0.15260465 -0.0673748 -0.029158203 -0.0100565655
-0.051917735 -0.030482627 0.1585655 -0.029176796 0.08323895 0.08113843 0.059518166 -0.031930976
0.10294926 0.032769077 0.041168258 -0.05050901 0.0023590215 -0.10060655 -0.028227119 0.02518032
-0.03834634 0.03490038 -0.11480729 -0.054305557 0.052064348 0.20044425 0.046376273 -0.110311426
0.11244693 -0.075625025 0.007828447 -0.029266022 -0.058130525 -0.10335891 -0.06367598 -0.14856803
-0.00930606 -0.14252385 0.08836632 0.03317299 -0.052907024 0.08667364 0.019368311 0.026165297
0.077552795 -0.09190634 0.042633012 0.05551005 0.069628686 -0.012198956 -0.035364483 0.045541413
-0.038762342 -0.1085504 -0.17893071 -0.11470935 0.21382812 -0.09908662 -0.05608688 -0.060500775
-0.038534924 0.018188063 0.09303233 0.03384263 -0.08668458 0.059655678 -0.022788728 0.05329844
0.0937803 -0.015401107 -0.02043777 0.09617485 0.109710485 -0.07046495 0.089398496 -0.05118996
-0.04010407 0.06133761 -0.06938814 -0.08763247 0.04673044 -0.070857525 -0.017687427 -0.03142569
-0.021310639 0.00858029 0.046189465 0.0037525073 -0.009302266 -0.0028830497 0.103653975 0.037616618
-0.096996665 0.035524737 -0.100904845 0.0996428 0.10438412 0.04339922 -0.0059779817 0.039569363
-0.03507996 -0.08114732 0.07887629 0.022942714 -0.04492333 -0.04681996 -0.07371102 -0.036109287
-0.15657182 0.026747024 0.040998377 -0.080100276 0.12879987 0.0003768615 0.03305694 0.13280903
-0.10134128 0.012727346 -0.058035944 0.03839735 0.06635405 -0.04502201 0.00031164955 -0.041429617
-0.07562589 0.050937504 0.072068125 0.011403556 -0.038301323 0.10364325 0.054332834 0.004401264
-0.002425851 0.113165736 -0.039003406 -0.0015722183 0.013475305 0.0026219953 0.06390583 -0.091658235
-0.055844817 -0.012254002 0.0005794365 -0.08175708 0.091911286 -0.08613913 -0.025213009 0.018581253
-0.04979059 0.0031164535 -0.07843193 0.09224591 -0.0863354 -0.06469497 -0.1159113 0.059766915
-0.04114332 -0.034111015 -0.027590115 0.041702967 0.08402151 -0.020755572 -0.07048837 -0.05386924
0.078265056 -0.08417096 -0.04725253 -0.032790057 -0.064959966 0.08120167 -0.022283655 0.026182385
0.0063207913 0.054190252 -5.4782537e-05 -0.021070246 0.15360457 0.03338033 0.107512504 0.13530831
-0.10436536 0.026817385 0.04133149 0.08068058 0.05408462 0.07530913 0.13184473 -0.09820469
0.049229 -0.13299224 -0.09191884 -0.0945126 0.20807876 -0.088902794 -0.13528721 0.18637331
0.110059805 0.106168225 -0.035657622 -0.089479044 -0.01866389 -0.05047022 0.024089018 0.036601327
-0.01395491 -0.21026899 -0.22743109 0.20068285 0.13717291 0.21294263 0.13561046 -0.13318546
-0.059617415 -0.09755227 0.105633594 0.13841718 -0.06389003 0.30025497 -0.061085165 -0.20895025
0.031180969 0.05921466 -0.18141456 -0.0947406 -0.025886565 0.062883645 -0.036227815 -0.1049943
-0.1601792 -0.10836305 0.05510667 -0.062459014 -0.028724486 -0.031483732 0.039401386 -0.14163393
0.11817062 -0.072703406 0.006353674 -0.16826898 -0.0009793784 0.031727258 -0.17405982 0.018689295
0.055128653 0.051629346 -0.09048928 -0.03209273 0.15912509 -0.0718028 0.0754266 -0.122237936

hidden_block.2.bias f4 [64]
00000000: aad8 51bd 262e f2bd c9d2 fd3c 2fb2 163d
00000010: bedf 7fbd 8d26 35be 268c a03e 4317 53bd
00000020: 9024 d3bd 963f 17be a068 863e f194 633d
00000030: 22f6 81bc c49a 4fbd 68b2 debd 3b56 2d3e
00000040: c769 88bd ee9a b73c 03b8 a1bd 898a bd3d
00000050: ee51 00be f0e0 3abe 8198 95bd 5aad 35bd
00000060: 550f 97bd 7e46 acbd d6cd 18be 5b4d 5bbe
00000070: ad12 1fbe 6f25 013e f8f5 e0bd bee7 b6bd
00000080: c334 553d 49e9 d7bd fc29 0bbe c308 32bd
00000090: 7435 27bd d37c 743d 06c2 8e3d 6aea 1fbd
000000a0: 2c08 bebc e4c6 4ebe 3215 93bb c58b 1a3c
000000b0: e816 d8bd 3570 45be 3295 95bd e3c0 e23d
000000c0: 0bae 21bd 3642 563d 7753 6d3d 91c3 95bc
000000d0: 0deb 533a bec8 5abd 6c64 f6bd 554e 37bc
000000e0: d0e7 4dbc 46bd 0f3e 2192 82bd 6874 2cbd
000000f0: 0ad9 84bd 9662 febc dbc6 203e 603e c43d
-0.051232018 -0.11825208 0.0309843 0.036791023 -0.062469237 -0.17690487 0.31356925 -0.051535856
-0.10309708 -0.1477035 0.26251698 0.055561963 -0.015864436 -0.050684705 -0.10873872 0.16927426
-0.066608004 0.022412743 -0.078964256 0.09254939 -0.12531254 -0.1824987 -0.073044784 -0.044354774
-0.07375971 -0.08411883 -0.1492227 -0.21416228 -0.15534468 0.12611936 -0.10984415 -0.0893092
0.05205227 -0.105425425 -0.13590235 -0.043465387 -0.04082246 0.059689354 0.06970601 -0.039041914
-0.023197256 -0.20193058 -0.0044886107 0.009432738 -0.10551244 -0.19281085 -0.073038474 0.110719465
-0.03947262 0.052309237 0.057940926 -0.01828173 0.00080840365 -0.0534141 -0.12030873 -0.011188109
-0.012567475 0.14037046 -0.06375528 -0.0421032 -0.064867094 -0.031052869 0.15700857 0.095822096

hidden_block.4.weight f4 [64]
00000000: a081 7e3f d318 813f 1446 703f 6c99 733f
00000010: 1aab 7d3f a62d 833f 2b3b 6d3f 4e40 823f
00000020: b610 6e3f a6af 823f e4d0 6b3f ddea 753f
00000030: 34a6 6f3f d7e7 823f 0689 763f 1c82 7f3f
00000040: 61ce 813f 3620 6e3f 75be 813f e73e 6b3f
00000050: cee1 813f 3b24 823f a385 653f 0761 813f
00000060: b7c8 703f e3bc 7e3f 6fb2 7f3f f344 7e3f
00000070: 3c64 853f a287 6d3f b5bb 703f 06a1 7c3f
00000080: a170 6d3f ec12 673f 1be7 7a3f ff3d 8e3f
00000090: c376 633f 4007 793f 5f19 6c3f 343c 5b3f
000000a0: 0016 6d3f 22d5 813f 3961 723f 69e5 6a3f
000000b0: abd4 7c3f 8372 763f 8321 663f dc1e 723f
000000c0: 9380 773f 3c49 7f3f 5613 6e3f afce 5b3f
000000d0: d3dd 7f3f 4445 703f 4f92 7c3f 062c 763f
000000e0: 0aa1 6f3f a9fd 723f 5e36 693f bb5e 733f
000000f0: 5419 733f 7112 753f 6cca 763f 0193 5f3f
0.9941654 1.0085701 0.9385693 0.9515598 0.99089205 1.0248306 0.9266841 1.0175874
0.9299425 1.0209854 0.92115617 0.960615 0.9361298 1.0227002 0.9630283 0.99807906
1.0141107 0.930179 1.0136248 0.91892856 1.0147035 1.0167307 0.8965704 1.0107735
0.94056267 0.9950697 0.99881643 0.9932396 1.0421214 0.92785084 0.9403642 0.986832
0.92749983 0.9026325 0.9800889 1.111267 0.8885309 0.9727669 0.92226213 0.8563874
0.92611694 1.0143168 0.946796 0.917563 0.98762006 0.9626848 0.89894885 0.9457834
0.96680564 0.9972112 0.92998254 0.8586225 0.9994785 0.9385569 0.9866075 0.96160924
0.936051 0.94918305 0.9109858 0.9506642 0.9496052 0.95731264 0.9640262 0.87333685

hidden_block.4.bias f4 [64]
00000000: b230 9a3c 7400 6abd f584 63bd 2d44 2cbd
00000010: 3f68 62bd 93a5 29bd f1b4 c8bc 6670 2dbd
00000020: d6c6 eabd 0099 28bd 907f 94bc cfda 32bd
00000030: 0b2c d53c ded2 27bd a75b 94bd fe5a 6c3b
00000040: 3c19 78bd 3612 293c b45a 1dbd 0bff dd3b
00000050: 5904 a0bd 5776 5fbd 9d3b 103c 4dc2 813d
00000060: 9e66 c9ba 33a2 debd ef44 75bd 330b d3bc
00000070: 7754 1ebe fa59 0a3d 585b 443d f1e4 50bd
00000080: f191 673c aa81 673c 095c eabb 204c f3bd
00000090: f484 343d e3fa 173d 4636 073c 7a5a b93b
000000a0: e5b1 b9bc 2016 8dbd e2eb 8c3b edce fe3b
000000b0: 801e 99bd f871 d5bc ba57 d8bc 69c6 243c
000000c0: 6de8 2e3b 2592 aa3c 75f9 aa3b 96e6 61bc
000000d0: d42f 19bd 3a01 133c 70b4 adbd 88e2 44bd
000000e0: 21d3 bfbd b5c8 ac3c d51c be3c 35cf 00bd
000000f0: c807 3b3c f0db 113b ffd9 503c 194b 4b3c
0.018822048 -0.05712934 -0.05554672 -0.042057205 -0.055275198 -0.04141767 -0.024500342 -0.04234352
-0.11463706 -0.041161537 -0.018127233 -0.043665703 0.026021978 -0.040972583 -0.07244044 0.0036064978
-0.06057094 0.010319283 -0.03841658 0.0067747883 -0.07813329 -0.054556217 0.008803275 0.06335888
-0.0015365665 -0.10870781 -0.059880193 -0.025762176 -0.15461908 0.033777215 0.047938675 -0.050999586
0.014133916 0.014130035 -0.0071520847 -0.11879754 0.044072106 0.0371045 0.008252686 0.0056565376
-0.022667835 -0.06888986 0.0043005804 0.0077761323 -0.074765205 -0.026055321 -0.026409019 0.01005707
0.002668883 0.02082164 0.005217726 -0.013787886 -0.037399128 0.00897246 -0.08481681 -0.0480676
-0.093664415 0.021091798 0.023207108 -0.031447608 0.011415429 0.0022256337 0.012747287 0.012408041

layers.0.ln.weight f4 [64]
00000000: 186a 7e3f 65b6 543f 0b43 393f 1386 333f
00000010: bce1 7c3f 3811 7d3f 20bb 253f aa6d 7b3f
00000020: 502c 3d3f c8a9 793f 468d 463f 844c 803f
00000030: 4151 6d3f ad69 7e3f 656a 503f d358 543f
00000040: 5c30 5f3f b8c6 7e3f b5a6 753f 50f2 833f
00000050: 2c46 6c3f fd48 773f d2c3 883f b1de 8a3f
00000060: be8b 7d3f 505b 413f 3cce 6d3f 20db 7b3f
00000070: bd67 3d3f 147d 6f3f bc11 8d3f e071 5f3f
00000080: 9375 803f 086b 633f c40f 723f 018a 7b3f
00000090: 48c6 703f 4ca5 823f d6ed 843f 8bdf 693f
000000a0: 1f74 6b3f eca1 7b3f e584 833f 805b 7d3f
000000b0: a6d2 663f 68c7 673f 56fa 3b3f ac06 843f
000000c0: 4344 823f bcfa 8a3f c60b 5d3f 6e64 553f
000000d0: 6576 663f 2db8 663f 8ded 4a3f f114 663f
000000e0: 8c08 323f 77f4 7a3f b2a7 703f ec87 533f
000000f0: de5d 7f3f cc3e 803f f596 773f cb04 363f
0.99380636 0.8309081 0.72367924 0.70126456 0.98781943 0.988544 0.64738655 0.9821421
0.7389574 0.9752469 0.77559316 1.0023351 0.9270211 0.9938 0.81412345 0.82948035
0.87183166 0.9952197 0.959575 1.0308323 0.92294574 0.96595746 1.068476 1.084921
0.99041355 0.75529957 0.92892814 0.98381233 0.7398642 0.9355023 1.1021037 0.87283134
1.0035881 0.8883519 0.94555306 0.9825745 0.94052553 1.0206695 1.0385082 0.91356725
0.9197406 0.9829395 1.0274931 0.9896774 0.90165174 0.90538645 0.7342886 1.0314536
1.0177082 1.0857768 0.8634609 0.8335637 0.90024406 0.9012478 0.79268724 0.89875704
0.6954429 0.98029274 0.9400588 0.82629275 0.99752605 1.0019164 0.9671472 0.71101063

layers.0.ln.bias f4 [64]
00000000: 7276 ce3b 7741 243e d28c 603e 2ac7 e9bd
00000010: 7873 01bd 7bfd 6b39 d018 93be 699c a53b
00000020: ed7a 803e bd55 3f3c c7ba 2fbe 22b4 71bc
00000030: 2590 543d 5885 ddbb 0379 143e eea5 6abd
00000040: 2674 e03d c206 113d 2b25 a03c 0282 d43b
00000050: 708e 753d cd5c 6d3c d4a3 2d3c 35f3 f03c
00000060: 3fe6 953c 5043 553e 90f4 0c3d fcc4 f23b
00000070: d1df 4c3e 50c5 25bc 2d5d 313d 302a bc3d
00000080: 6de3 683c ddb7 5f3c 3f5d 553d 4a82 10bb
00000090: 93aa 983c 1918 8d3c 4540 f83b 52f2 693b
000000a0: c0df 9d3c 1425 dabb 578f 9b3c b80e 9a3c
000000b0: 7513 203d 2a15 453d 7755 353e bc8a 093c
000000c0: 80a5 8c3c 9151 a33c 919e c43d 5a5a 45bb
000000d0: 4624 c23c 0268 0f3d b1d7 293e 7349 353d
000000e0: c0cd 683e 885f 683a dde7 a03c 46fa bf3d
000000f0: 1313 383c b57d 0ebc f29f 46bc 35f8 993d
0.006300741 0.16040598 0.21928719 -0.11414941 -0.03160426 0.00022505775 -0.28729868 0.005054046
0.25093785 0.011678156 -0.17161094 -0.01475242 0.05189528 -0.0067602806 0.14499287 -0.05728715
0.109596536 0.035406835 0.019548973 0.0064852247 0.059950292 0.014487457 0.010598142 0.029412845
0.018298266 0.20826459 0.03441292 0.0074087363 0.20007254 -0.010117844 0.04330175 0.09187734
0.014214379 0.013654676 0.05209088 -0.0022050315 0.018636024 0.017223405 0.007576021 0.0035697413
0.019271731 -0.006657252 0.018989248 0.018805847 0.039081056 0.048115887 0.17708384 0.008394893
0.01716876 0.019936355 0.09600557 -0.0030113668 0.023698937 0.0350113 0.16586186 0.0442595
0.22734737 0.0008864333 0.019641811 0.09373908 0.011235016 -0.008696963 -0.012123095 0.07518045

layers.1.ln.weight f4 [64]
00000000: 30dc 8b3f 45aa 773f 400b 5b3f 8acc 873f
00000010: f6b0 853f f434 843f deea 863f 11c5 833f
00000020: 7d2b 393f 80f4 833f 04a4 873f 37ab 863f
00000030: 4d88 813f b051 843f b637 733f eb37 873f
00000040: 1694 643f 32b4 963f c951 843f 4f2c 9e3f
00000050: 0e05 753f 37b3 833f 1cde a83f c9ce 8f3f
00000060: ea30 8d3f 5d02 6c3f af17 833f 88a3 863f
00000070: 3103 5c3f 0eaf 8f3f 3cba 9e3f 2335 593f
00000080: 5db2 9c3f 0c09 913f ba8f 783f a446 833f
00000090: 82e8 903f 466f 863f 0695 b13f 69b5 963f
000000a0: 92e4 823f 59ec 843f afd7 983f 1331 913f
000000b0: 51d6 813f c4b4 813f 00d3 5c3f 4ac9 993f
000000c0: 46c4 9f3f d08e 953f 8dd7 6e3f ba32 873f
000000d0: 64fb 783f 2679 883f 7c33 783f ebd1 823f
000000e0: ab55 493f 83f4 7e3f 7df3 943f f3ad 6e3f
000000f0: a72f 9b3f 5e33 9d3f 4c83 833f 62be 563f
1.0926571 0.96744186 0.8556404 1.0609295 1.0444629 1.032866 1.0540426 1.0294515
0.7233198 1.030899 1.0596929 1.0521001 1.0119721 1.0337429 0.95006883 1.056394
0.8928846 1.1773741 1.0337459 1.2357272 0.9571084 1.0289067 1.3192782 1.1234981
1.1030552 0.92191106 1.0241603 1.0518656 0.8594237 1.1225297 1.2400584 0.84846705
1.2241932 1.1330886 0.9709431 1.0255933 1.1320956 1.0502708 1.3873603 1.1774112
1.0226004 1.0384628 1.1940821 1.1343101 1.0143529 1.013329 0.8625946 1.2014554
1.2481773 1.1684208 0.93297654 1.0562356 0.9725859 1.0661972 0.9695356 1.0220312
0.78646344 0.99591845 1.1636807 0.93234175 1.2123917 1.2281301 1.0274444 0.8388425

layers.1.ln.bias f4 [64]
00000000: ac0f 1d3d e1a7 11bd 9c86 163d a136 1d3d
00000010: dd71 1fbd 9789 1bbd 5a69 1c3d df59 1bbd
00000020: a9c2 103d 565d 1bbd 1ab9 1c3d 533b 1cbd
00000030: f24a 193d a76f 1bbd 04e2 0ebd 3dd5 1b3d
00000040: d33e 183d 8d22 23bd 5b85 213d 24ad 233d
00000050: 1912 253d d511 1bbd 4911 283d 36d7 23bd
00000060: 3b72 1fbd 936f cebc e882 1abd 9c50 1cbd
00000070: 82b7 42bc 2e4a 1e3d a6c3 22bd 5ffc 173d
00000080: 83e7 23bd 3d1a 253d 68e0 1c3d 449e 1abd
00000090: c2ed 1e3d 39a8 1ebd 1703 243d bb86 243d
000000a0: 8a6a 1abd 0775 1bbd 49df 233d 5d1f 243d
000000b0: 4380 19bd 6f4b 19bd 6db5 153d a1c5 22bd
000000c0: 98bb 26bd 08f6 23bd 7853 183d 58e2 283d
000000d0: 5c44 1c3d 7495 1ebd 9535 17bd 5f78 19bd
000000e0: aec3 63ba 952d 27bd 477e 223d 732b 213d
000000f0: bfa6 223d 8fc4 203d 4d4a 21bd 88f0 323b
0.038345024 -0.035560492 0.036749467 0.038382176 -0.038926948 -0.037973013 0.03818641 -0.037927505
0.035341892 -0.03793081 0.038262464 -0.038142513 0.03742499 -0.037948277 -0.034883514 0.038045157
0.03716929 -0.039827872 0.03943382 0.03996004 0.040300462 -0.037858803 0.04103211 -0.040000163
-0.038927298 -0.025199687 -0.0377225 -0.038162813 -0.011884572 0.038644962 -0.039737366 0.037105914
-0.04001571 0.040308226 0.038299948 -0.03774859 0.038800962 -0.03873465 0.04004201 0.04016755
-0.03769926 -0.037953403 0.040007863 0.040068973 -0.037475836 -0.037425455 0.036549974 -0.039739255
-0.040706247 -0.040029556 0.037188977 0.041231483 0.03815113 -0.03871675 -0.036916334 -0.03746831
-0.00086885213 -0.040814955 0.03967121 0.039348077 0.039709803 0.039249953 -0.0393775 0.0027304012

logit.weight f4 [1, 64]
00000000: 971f 49be 2b8d 303d 6d6c 5fbc 720a 1abe
00000010: a181 043e 3676 0e3e 2c89 2abe 548c 033e
00000020: 06a6 c4ba cfd0 f03d 5f38 1fbe ea35 2c3e
00000030: d37c b2bd 0e04 243e 1193 113d 0204 2fbe
00000040: 7f3a 18bc 82f4 5e3e e3a7 c4bd 019d a9be
00000050: 7ccd bbbc f81e e63d 5e83 bdbe be26 503e
00000060: d0e0 3c3e 2374 013d 89be b53d 9d44 263e
00000070: 6fd6 a43c 3580 58be 7b36 b23e d2c5 52bb
00000080: a4a9 a23e 0561 45be 5617 6ebd eb3e c03d
00000090: 7da5 53be 0062 283e 8283 fbbe 21b2 7dbe
000000a0: af3d d03d 1fa6 053e a0f0 a2be db51 4bbe
000000b0: 2403 963d 54cf 923d 5ffb 33bc 1072 a53e
000000c0: 07e1 9a3e 46ab 7a3e 8ccf 51bd 1866 ecbd
000000d0: 62a9 7ebd 6c66 0e3e a3fd 2c3d ee1d ae3d
000000e0: 22f5 5a3c d9e3 1c3d b204 69be 77f5 05bd
000000f0: 841a a0be 904c b2be bcda b43d d696 2dbd
-0.19640957 0.04310338 -0.013636691 -0.15043047 0.12940075 0.13912281 -0.1665389 0.128465
-0.0015003092 0.11758577 -0.15548848 0.16817442 -0.087152146 0.16017172 0.035540644 -0.17091373
-0.00929129 0.2177296 -0.09602334 -0.33127597 -0.022925131 0.112363756 -0.37014288 0.20327279
0.18445134 0.031604897 0.08874232 0.16237111 0.020121781 -0.21142657 0.3480719 -0.0032161367
0.3177005 -0.19275291 -0.058127724 0.09387001 -0.20668598 0.16443634 -0.4912377 -0.24774982
0.10168015 0.13051651 -0.31824207 -0.19855444 0.07324818 0.07168451 -0.0109852245 0.32313585
0.30249807 0.24479398 -0.051223323 -0.1154291 -0.062173255 0.13906258 0.042234074 0.085018024
0.013364108 0.03830323 -0.22755697 -0.032704797 -0.3127023 -0.34824038 0.08830783 -0.042380176
