Model/both/fold0.ckpt (torch, 140607 bytes, 15 tensors)

input_block.0.weight f4 [438]
1.0284526 1.0194453 0.9782523 0.984096 1.0018171 1.0100995 0.99998224 0.9933972
1.006768 0.9813716 0.99446225 1.0439789 0.97242755 0.9929011 1.0066193 0.9802895
0.9658899 0.98060364 1.030028 0.9838428 0.9912147 0.95840013 1.0511091 1.0531901
1.010647 0.99976134 1.0423847 0.9896078 1.0057043 0.95901114 0.98324716 1.0139843
1.0143013 0.98920757 0.9609963 0.9940545 1.0288695 1.0442458 0.9641896 0.98996055
0.97597367 1.0039508 1.0183371 1.0324754 0.9534088 0.96597064 0.97659373 0.9602159
1.009836 0.9462468 0.99250966 0.99276936 0.98750275 1.0219172 0.9830702 1.0251896
1.0107181 1.0074646 1.0147716 1.000457 0.96569383 0.99080014 0.9962921 0.98803157
0.99042964 0.98749524 0.98805916 0.9791421 1.0086225 0.97140896 0.96648574 0.9658857
0.98984796 0.96260285 1.0054932 0.98196125 0.98854893 0.9521946 0.97481805 0.9368691
0.98365796 0.9961335 0.9990736 0.9787891 1.0159518 0.9734985 1.0165905 0.94367725
1.0032735 0.96003354 0.9894164 0.97493654 0.9756097 0.9992243 0.9748936 1.0170764
0.9951153 0.99432594 0.96284294 0.96976393 0.98025566 0.98252517 0.95876914 1.0459642
1.0188468 0.95481205 0.9676468 1.0310708 0.97326356 1.0021842 0.98746383 1.0057688
0.998712 0.97656137 0.998056 0.9884982 0.9664048 0.9757804 0.9789675 1.0224227
1.001534 0.9917162 0.9598522 0.9803634 1.0186734 1.0220792 1.0252161 0.9877764
0.9919215 0.9494121 0.98764133 1.0303574 0.9593927 1.0041703 1.019534 0.977459
1.0360037 1.0423396 0.9958204 0.9752351 0.9678156 0.98828495 0.9365366 0.9943384
0.9940325 0.9928438 0.97566295 1.0146811 0.9893377 1.0189399 0.9942537 0.9482225
0.9597181 1.0307146 1.0027236 1.051851 1.0432755 0.99487436 1.0064707 1.0190592
0.9827576 0.98544693 0.9435996 1.0095623 1.011207 0.96426046 0.98479146 1.0183594
0.9736829 0.9610153 1.0061445 0.98285264 1.0035706 1.0484596 0.97720355 1.0313536
1.0022002 0.9576648 0.9964495 0.97805256 0.97134167 0.9656739 0.921903 0.973553
0.9374655 1.0732263 1.0055276 1.0103095 1.0058026 0.9694241 1.0110267 1.0156099
1.0164903 1.0203017 0.96166694 1.0097222 0.95700276 1.0124933 0.98766 0.9784441
1.0222163 0.95555305 1.0437899 1.0096781 0.9555231 1.034928 1.0274464 0.99264085
1.0011684 0.9739363 0.9894192 0.98993 0.973797 0.97687984 1.0054969 0.9932601
0.9936485 1.0086801 0.96813697 1.0064983 0.9876115 1.0003967 0.9806916 1.0445241
0.9984305 1.0146617 0.95098406 0.99973214 0.98792857 1.012204 0.95486015 0.97286004
1.0041012 0.99521166 0.9845276 1.0006814 0.96785533 0.9535666 0.9752679 0.96391356
1.0094029 0.97474223 1.010892 0.9793559 0.9854327 1.023496 1.0164636 1.0137148
0.93979615 0.974469 0.9924977 0.99089164 0.98717916 1.0265522 0.94981056 0.981793
00000000: 56a4 833f 2f7d 823f be6e 7a3f b7ed 7b3f
00000010: 8b3b 803f f14a 813f d6fe 7f3f 474f 7e3f
00000020: c6dd 803f 2b3b 7b3f 1495 7e3f 1aa1 853f
00000030: 03f1 783f c42e 7e3f e7d8 803f 41f4 7a3f
00000040: 8f44 773f d708 7b3f f5d7 833f 1fdd 7b3f
00000050: 3fc0 7d3f b659 753f be8a 863f efce 863f
00000060: e25c 813f 5cf0 7f3f dd6c 853f f056 7d3f
00000070: ebba 803f c181 753f 16b6 7b3f 3dca 813f
00000080: a0d4 813f b53c 7d3f db03 763f 5b7a 7e3f
00000090: ffb1 833f d9a9 853f 21d5 763f 0e6e 7d3f
000000a0: 69d9 793f 7681 803f df58 823f 2728 843f
000000b0: 9912 743f da49 773f 0c02 7a3f b6d0 753f
000000c0: 4e42 813f 3b3d 723f 1d15 7e3f 2226 7e3f
000000d0: fbcc 7c3f 2fce 823f 7daa 7b3f 6a39 833f
000000e0: 365f 813f 9af4 803f 09e4 813f fa0e 803f
000000f0: b637 773f 14a5 7d3f 000d 7f3f a3ef 7c3f
00000100: cc8c 7d3f 7dcc 7c3f 72f1 7c3f 0fa9 7a3f
00000110: 8b1a 813f 42ae 783f 9c6b 773f 4944 773f
00000120: ad66 7d3f 246d 763f 00b4 803f d061 7b3f
00000130: 8b11 7d3f 06c3 733f ad8d 793f a7d6 6f3f
00000140: 02d1 7b3f 9b02 7f3f 4ac3 7f3f ec91 7a3f
00000150: b50a 823f 3337 793f a31f 823f d594 713f
00000160: 446b 803f c2c4 753f 654a 7d3f 7195 793f
00000170: 8fc1 793f 2acd 7f3f a192 793f 8f2f 823f
00000180: e0bf 7e3f 258c 7e3f e07c 763f 7342 783f
00000190: 09f2 7a3f c586 7b3f e571 753f 28e2 853f
000001a0: 9269 823f 906e 743f b3b7 773f 21fa 833f
000001b0: cd27 793f 9247 803f 6eca 7c3f 08bd 803f
000001c0: 97ab 7f3f edff 793f 9980 7f3f 380e 7d3f
000001d0: 4e66 773f bfcc 793f 9d9d 7a3f bfde 823f
000001e0: 4432 803f 1de1 7d3f e0b8 753f 19f9 7a3f
000001f0: e463 823f 7ed3 823f 483a 833f eade 7c3f
00000200: 91ee 7d3f ac0c 733f 10d6 7c3f c0e2 833f
00000210: c39a 753f a788 803f 1780 823f c13a 7a3f
00000220: c59b 843f 626b 853f 16ee 7e3f 02a9 793f
00000230: c3c2 773f 3e00 7d3f ddc0 6f3f f68c 7e3f
00000240: ea78 7e3f 032b 7e3f 0cc5 793f 12e1 813f
00000250: 3c45 7d3f 9f6c 823f 6987 7e3f b6be 723f
00000260: 16b0 753f 75ee 833f 3f59 803f 0ea3 863f
00000270: 0d8a 853f 16b0 7e3f 08d4 803f 8870 823f
00000280: 0196 7b3f 4046 7c3f be8f 713f 5639 813f
00000290: 3b6f 813f c6d9 763f 4b1b 7c3f 9a59 823f
000002a0: 4843 793f 1905 763f 58c9 803f 3b9c 7b3f
000002b0: 0075 803f ed33 863f 032a 7a3f 6503 843f
000002c0: 1948 803f 8529 753f 5017 7f3f a761 7a3f
000002d0: d9a9 783f 6836 773f d601 6c3f c53a 793f
000002e0: bdfd 6f3f 7b5f 893f 21b5 803f d251 813f
000002f0: 24be 803f 2e2c 783f 5369 813f 81ff 813f
00000300: 5b1c 823f 3f99 823f ce2f 763f 943e 813f
00000310: 22fe 743f 6199 813f 49d7 7c3f 507b 7a3f
00000320: fcd7 823f 209f 743f e89a 853f 223d 813f
00000330: 299d 743f 8578 843f 5d83 833f b61d 7e3f
00000340: 4926 803f e453 793f 944a 7d3f 0d6c 7d3f
00000350: c34a 793f cc14 7a3f 1fb4 803f 4b46 7e3f
00000360: c05f 7e3f 6e1c 813f d3d7 773f f0d4 803f
00000370: 1bd4 7c3f 000d 803f 9b0e 7b3f f7b2 853f
00000380: 2499 7f3f 6fe0 813f b173 733f 72ee 7f3f
00000390: e3e8 7c3f e78f 813f b771 743f 5b0d 793f
000003a0: 6386 803f 31c6 7e3f 000a 7c3f 5416 803f
000003b0: 5ec5 773f f11c 743f 28ab 793f 0ac3 763f
000003c0: 1d34 813f b588 793f e964 813f 11b7 7a3f
000003d0: 5145 7c3f eb01 833f 7b1b 823f 68c1 813f
000003e0: 7b96 703f cd76 793f 5414 7e3f 13ab 7d3f
000003f0: c6b7 7c3f 1066 833f c926 733f c956 7b3f

input_block.0.bias f4 [438]
-0.0029144178 0.0032703974 -0.0028752363 -0.012925794 -0.012988523 -0.0016552783 -0.016195467 -0.01554737
0.007089299 0.0013593663 0.0058494583 0.0030829278 0.00969059 -0.003755312 0.0056543313 -0.008195466
-0.010181 0.020766916 -0.0045114746 -0.013762228 0.016696587 0.00908196 -0.0036093045 -0.011062589
-0.008792647 -0.0017797524 0.0087031005 -0.0007744415 -0.0037343598 0.011042726 -0.012812742 0.010409217
0.009267988 -0.019656608 -0.019971788 0.0069463234 0.0024730065 0.008222015 -0.017592415 -0.010118615
0.0002997964 -0.00267082 0.0032073215 -0.0026433317 -0.018427335 -0.011916788 -0.010472896 -0.006083201
-0.009666167 -0.012431723 0.00065318303 0.0007273465 0.008912518 0.0065397983 0.0020232142 -0.0056863166
-0.013845214 -0.014792056 -0.004128543 0.0022603457 0.015009453 0.003901058 -0.002439662 -0.002992004
0.009155491 0.010131891 0.0016102119 0.010631524 0.0104966415 0.01024062 -0.0181602 -0.0068050455
-0.0073445393 0.020835433 -0.008174607 -0.0031058553 -0.01226456 -0.016670534 0.0090758605 0.046374448
0.014223916 -0.002342485 -0.0045651738 -0.000110323606 7.476419e-05 0.015860256 -0.00028254837 -0.032359295
-0.015107151 -0.0085318405 0.0088267345 0.012329081 -0.021856185 -0.008699935 0.014332179 -0.011864187
-0.007933125 -0.007450094 -0.019195361 0.000737762 0.0051751244 0.0007332358 0.018931692 -0.009975404
-0.0021696715 -0.014699851 0.0072065624 0.0073443376 0.03762718 0.015992297 -0.018218128 -0.00057472935
0.013186038 -0.020359943 -0.011696809 -0.007534773 0.02185705 -0.011667746 0.0052356645 0.008848956
-0.0022909562 -0.0063190577 -0.033094488 -0.015944768 -0.0038380418 0.002159203 0.008136425 0.01191419
0.004891651 -0.020369833 -0.0058552185 -0.0025601583 0.011136497 0.0070097684 0.0055291294 -0.004435841
0.0029657304 -0.005162664 0.010728117 -0.018570986 -0.024114534 0.0077895657 0.022131871 -0.008774747
0.019701656 -0.011495865 0.01623174 -0.009567165 0.0016145634 -0.00896842 -0.0060701002 -0.0073492583
-0.040615626 0.0041133845 -0.011468426 9.707828e-05 -0.003494893 0.008542402 -0.011827255 0.0044795023
0.0022030775 -0.005709299 -0.017542021 -0.005435465 -0.0054902346 -0.0048460043 0.001008976 -0.00848317
-0.009682817 0.036500394 0.004644797 -0.009078397 -0.016647551 0.00041179245 0.014277808 -0.0007988633
0.003067239 -0.022190375 0.004602446 0.003142221 -0.0024827595 0.0068082255 0.002776144 0.014372618
0.0042987084 0.0013181458 0.0043574222 -0.008424502 0.0048474795 -0.0022135216 -0.002491619 -0.0025147367
0.009976494 0.009955655 -0.009696208 0.0031603556 0.0024690528 0.0057983454 0.008176545 0.0055556823
-0.0080198 0.0019331875 -0.00037259716 0.0014074809 -0.04105966 0.006648086 -0.0043573133 -0.004698654
0.0074244323 0.0010296899 0.009644733 0.011277727 -0.023836495 0.004976846 9.586122e-05 -0.009843448
-0.007327036 -0.008329619 0.017212057 -0.011829365 -0.014197044 -0.008114386 -0.012526916 0.0007657711
-0.0010739213 -0.002012596 -0.0038689293 0.02201842 0.0051583224 -0.0017781373 0.024741797 -0.012158959
0.0067712604 -0.009291799 -0.014883253 0.006818141 0.02234378 0.000243125 -0.005544356 -0.0074077244
-0.009055063 0.008168398 0.015432429 0.015916 -0.003429431 0.0043192417 -0.010799715 -0.011284775
-0.0055242567 -0.0027975484 -0.016853752 -0.008092246 0.0043912013 0.009197163 -0.011043429 -0.0013795084
00000000: d1ff 3ebb 2a54 563b 766e 3cbb b6c6 53bc
00000010: d0cd 54bc ecf5 d8ba 5bac 84bc 65ba 7ebc
00000020: 5a4d e83b c42c b23a d0ac bf3b f20a 4a3b
00000030: 48c5 1e3c ae1b 76bb f847 b93b 4746 06bc
00000040: 36ce 26bc 611f aa3c fed4 93bb f87a 61bc
00000050: 48c7 883c 80cc 143c 158a 6cbb dc3f 35bc
00000060: 090f 10bc 9546 e9ba 7397 0e3c e403 4bba
00000070: 29bc 74bb 8dec 343c 89ec 51bc 6c8b 2a3c
00000080: c2d8 173c e506 a1bc e09b a3bc fc9d e33b
00000090: 2a12 223b a1b5 063c f81d 90bc 8cc8 25bc
000000a0: fe2d 9d39 ed08 2fbb ed31 523b bf3b 2dbb
000000b0: ecf4 96bc a23e 43bc 8296 2bbc 9755 c7bb
000000c0: d85e 1ebc 6dae 4bbc 5f3a 2b3a 66ab 3e3a
000000d0: cf05 123c ce4b d63b e797 043b 4854 babb
000000e0: 09d7 62bc 615a 72bc bb48 87bb 4f22 143b
000000f0: 35ea 753c e5a8 7f3b bde2 1fbb 7f15 44bb
00000100: ea00 163c 3b00 263c bf0d d33a d82f 2e3c
00000110: 1bfa 2b3c 46c8 273c b3c4 94bc dcfc debb
00000120: 76aa f0bb 12af aa3c c9ee 05bc 9b8b 4bbb
00000130: 4bf1 48bc a590 88bc ebb2 143c 22f3 3d3d
00000140: 6e0b 693c 6084 19bb 7497 95bb 895d e7b8
00000150: b8ca 9c38 5eed 813c 0023 94b9 2e8b 04bd
00000160: fc83 77bc 22c9 0bbc 029e 103c eaff 493c
00000170: be0b b3bc 2c8a 0ebc 84d1 6a3c 0262 42bc
00000180: f0f9 01bc eb1f f4bb 973f 9dbc 5f66 413a
00000190: 1794 a93b 9f36 403a a316 9b3c e06f 23bc
000001a0: 0c31 0ebb a5d7 70bc 0725 ec3b c5a8 f03b
000001b0: f51e 1a3d 4702 833c 2f3e 95bc 6fa9 16ba
000001c0: 400a 583c e5c9 a6bc f9a3 3fbc 42e6 f6bb
000001d0: 8e0d b33c 132a 3fbc f08f ab3b 36fb 103c
000001e0: de23 16bb 1910 cfbb 168e 07bd 9a9e 82bc
000001f0: a887 7bbb 6a81 0d3b a44e 053c bc33 433c
00000200: 254a a03b a3de a6bc 22dd bfbb 54c8 27bb
00000210: db75 363c 33b2 e53b b32d b53b 885a 91bb
00000220: b35c 423b 912b a9bb fcc4 2f3c 2e22 98bc
00000230: d88b c5bc 9d3f ff3b e64d b53c f5c3 0fbc
00000240: 5e65 a13c 2759 3cbc 6df8 843c 99bf 1cbc
00000250: c29f d33a 48f0 12bc b1e7 c6bb 0cd2 f0bb
00000260: 925c 26bd 92c9 863b 11e6 3bbc 8196 cb38
00000270: 930a 65bb 6ef5 0b3c 1ac7 41bc cac8 923b
00000280: 8261 103b 1215 bbbb 49b4 8fbc fc1b b2bb
00000290: 6de7 b3bb 3bcb 9ebb 9e3f 843a fefc 0abc
000002a0: aea4 1ebc 7081 153d 6233 983b 8fbd 14bc
000002b0: 7260 88bc d9e5 d739 78ed 693c cf6a 51ba
000002c0: bb03 493b 97c8 b5bc 1ed0 963b b8ed 4d3b
000002d0: cbb5 22bb 8917 df3b f8ef 353b 217b 6b3c
000002e0: 2edc 8c3b a2c5 ac3a b5c8 8e3b ec06 0abc
000002f0: 9bd7 9e3b bb10 11bb 6e4a 23bb 48ce 24bb
00000300: 7374 233c 0b1d 233c d8dc 1ebc f81d 4f3b
00000310: d5cf 213b 0c00 be3b eaf6 053c 710c b63b
00000320: 7b65 03bc 0263 fd3a 2559 c3b9 397b b83a
00000330: 2d2e 28bd 30d8 d93b cbc7 8ebb 2bf7 99bb
00000340: a748 f33b a9f6 863a f104 1e3c 37c6 383c
00000350: c144 c3bc cf14 a33b 1a09 c938 6a46 21bc
00000360: a217 f0bb f478 08bc 4d00 8d3c f4cf 41bc
00000370: b89a 68bc 34f2 04bc b23d 4dbc 07be 483a
00000380: d2c2 8cba c2e5 03bb dd8d 7dbb f95f b43c
00000390: 2507 a93b 6310 e9ba 4faf ca3c 5f36 47bc
000003a0: 73e1 dd3b a13c 18bc e3d8 73bc b66a df3b
000003b0: 4e0a b73c 5fef 7e39 6ead b5bb 7fbc f2bb
000003c0: b05b 14bc bfd4 053c 4cd8 7c3c 4562 823c
000003d0: 4ec0 60bb 6d88 8d3b 4af1 30bc c7e3 38bc
000003e0: d304 b5bb 1357 37bb e110 8abc 5795 04bc
000003f0: 11e4 8f3b b3af 163c 80ef 34bc 9fd0 b4ba

input_block.1.weight f4 [64, 438]
-0.05940929 0.018634591 0.010821891 0.007040651 -0.0313882 -0.039161284 -0.050011124 0.03238456
0.003216403 -0.04595389 -0.0021827673 -0.10956127 0.031271003 0.021793257 0.031009331 -0.015681291
0.02298075 -0.0088457195 0.031767655 0.023177503 0.054734297 0.008852723 0.04715465 -0.034787882
-0.041778978 -0.022917232 0.054107428 -0.01914635 -0.009360364 0.008627239 0.02664603 0.06150498
0.032953266 -0.019864272 0.019559156 0.025057508 -0.024602147 -0.027184168 -0.038814224 -0.012070527
0.035861213 0.09311576 0.041094605 -0.060966674 0.009018126 -0.003930222 0.05103794 -0.052302938
-0.006933394 -0.015884325 0.055451594 0.0139913745 0.0030699421 0.055543385 0.034251872 -0.005766861
-0.019642117 -0.07947263 0.041834928 0.04441208 -0.028353123 0.011884273 0.039671484 0.061197024
0.058595292 -0.022530986 -0.013638046 -0.013371333 0.009512763 -0.052317724 -0.03378997 0.039285555
-0.062008936 -0.026619885 -0.029129185 -0.048092484 0.035731472 -0.022344489 -0.012363153 0.051129147
-0.03162028 -0.0034447091 0.01989253 -0.006562214 -0.014513888 -0.04329164 0.017819934 -0.035137907
-0.020301947 0.039343644 0.0119406935 0.012313135 -0.03664944 -0.08190886 0.03206334 -0.02555677
-0.05926403 0.025627807 -0.005165569 -0.018070389 -0.010132646 0.015454876 -0.038693104 -0.01204091
0.04983438 -0.027394287 -0.019946663 0.06849212 0.011452536 0.054072775 -0.01592599 -0.018608967
0.01405254 -0.036018416 0.011778466 -0.067773275 0.040730074 -0.051962923 -0.029106261 0.054330308
-0.01951598 -0.056896757 -0.045660697 0.026189016 -0.094674565 0.070814885 0.049874518 0.060209006
-0.039198298 -0.05246348 -0.019802898 0.024152678 -0.0041611353 0.0005625284 0.06592437 0.019114513
0.036410894 0.0030402646 -0.02971478 -0.049847707 -0.0338159 -0.001087735 -0.041882344 -0.05023679
0.06863702 0.022739645 -0.013300442 -0.03555188 0.06427741 0.03084737 -0.0099492865 -0.0056740004
0.021710783 -0.048623323 -9.890404e-05 0.012883706 0.058590755 -0.007730187 -0.06081958 0.0013827495
-0.029656932 -0.018398624 -0.029991064 -0.0046788175 0.02149142 -0.00035849318 0.041700695 0.020651452
-0.01635087 -0.033850778 -0.051465224 0.018684598 -0.012919232 -0.100323334 0.010197223 0.032320235
-0.025626993 0.011159625 -0.0058816937 0.04154687 0.06601578 0.06620566 -0.012811068 -0.003312204
0.024524184 -0.08112552 -0.014928665 -0.037033714 0.03218055 0.0016257112 -0.053457364 0.044343643
-0.029904312 0.07557747 0.0693997 0.044919286 0.004125787 -0.0167581 0.03876955 0.013259794
-0.014304267 0.009758955 0.023608316 0.02926228 0.011996904 -0.0059280884 0.0065603517 -0.0055723917
0.09075629 -0.0214502 0.0625235 0.015546713 -0.016758353 -0.029744763 -0.02226271 0.051460955
0.008938137 0.068009794 0.07859706 -0.01674679 0.058331102 -0.023646472 0.015138848 0.00079221267
-0.04300015 -0.041540716 0.031524803 0.028412238 -0.00016631634 0.0017404475 0.03963465 0.0075921393
0.012268612 -0.0007317715 0.036573615 0.013062201 0.045400593 0.05193532 0.02035349 0.0041357926
0.0036534076 0.052362826 0.03695944 0.04167644 0.025650077 0.071249984 -0.036954097 -0.049862817
0.011142272 0.040191017 -0.035309542 -0.026211489 -0.009306294 0.020825243 0.013975546 -0.055030845
00000000: 2857 73bd 92a7 983c 4d4e 313c 43b5 e63b
00000010: ea90 00bd 9567 20bd 77d8 4cbd aca5 043d
00000020: 4aca 523b 253a 3cbd c20c 0fbb a961 e0bd
00000030: 0616 003d c687 b23c 4807 fe3c 0d76 80bc
00000040: 2042 bc3c a3ed 10bc cd1e 023d bfde bd3c
00000050: 1231 603d 030b 113c 3c25 413d bd7d 0ebd
00000060: 6f20 2bbd ebbc bbbc c09f 5d3d ced8 9cbc
00000070: 365c 19bc 4359 0d3c c648 da3c a5ec 7b3d
00000080: 01fa 063d 66ba a2bc 863a a03c 6745 cd3c
00000090: 718a c9bc 55b1 debc aafb 1ebd 76c3 45bc
000000a0: 35e3 123d 7ab3 be3d d152 283d 31b8 79bd
000000b0: c3c0 133c 17c9 80bb 290d 513d 9b3b 56bd
000000c0: 8631 e3bb d81f 82bc 3621 633d 143c 653c
000000d0: 1531 493b 7681 633d b14b 0c3d f0f7 bcbb
000000e0: 81e8 a0bc 8cc2 a2bd 1a5b 2b3d 71e9 353d
000000f0: cf44 e8bc 41b6 423c 917e 223d bba9 7a3d
00000100: 9e01 703d e792 b8bc 1c72 5fbc 6f13 5bbc
00000110: 6bdb 1b3c 1c4b 56bd 5a67 0abd e4e9 203d
00000120: 15fd 7dbd f211 dabc 54a0 eebc a0fc 44bd
00000130: 2a5b 123d ca0b b7bc d28e 4abc cc6c 513d
00000140: 4484 01bd a1c0 61bb a9f5 a23c d707 d7bb
00000150: a9cb 6dbc 9352 31bd 1cfb 913c c4ec 0fbd
00000160: 4550 a6bc cd26 213d e6a2 433c 08bd 493c
00000170: b91d 16bd d5bf a7bd d954 033d 6e5c d1bc
00000180: d7be 72bd 68f1 d13c ef43 a9bb 5a08 94bc
00000190: 6603 26bc 7336 7d3c a97c 1ebd 3d47 45bc
000001a0: 231f 4c3d fc69 e0bc 2f67 a3bc 9945 8c3d
000001b0: 6ba3 3b3c 6a7b 5d3d 3977 82bc d571 98bc
000001c0: a03c 663c 0c88 13bd 78fa 403c b7cc 8abd
000001d0: 94d4 263d 13d7 54bd 4170 eebc 7589 5e3d
000001e0: fadf 9fbc 930c 69bd b606 3bbd 598a d63c
000001f0: bde4 c1bd 6507 913d 3949 4c3d b89d 763d
00000200: 658e 20bd f2e3 56bd b039 a2bc d6db c53c
00000210: 225a 88bb a476 133a 5b03 873d 0a96 9c3c
00000220: 9723 153d 2d3f 473b 696c f3bc 1c2d 4cbd
00000230: 8b82 0abd 5592 8eba d28c 2bbd 18c5 4dbd
00000240: 9191 8c3d 7e48 ba3c 19ea 59bc d99e 11bd
00000250: e0a3 833d a0b3 fc3c 5502 23bc f7ec b9bb
00000260: d0da b13c 4029 47bd b46a cfb8 2e16 533c
00000270: dcfc 6f3d 824d fdbb f41d 79bd 603d b53a
00000280: 18f3 f2bc b6b8 96bc d2af f5bc c450 99bb
00000290: c60e b03c 24f4 bbb9 59ce 2a3d 3c2d a93c
000002a0: 42f2 85bc 1da7 0abd 33cd 52bd 7110 993c
000002b0: 30ab 53bc 5276 cdbd 4112 273c 3962 043d
000002c0: b3ef d1bc dcd6 363c 39bb c0bb 0d2d 2a3d
000002d0: 4833 873d d596 873d 84e5 51bc 9011 59bb
000002e0: f1e6 c83c 2325 a6bd 5c97 74bc aab0 17bd
000002f0: c1cf 033d d115 d53a 1cf6 5abd aea1 353d
00000300: e3f9 f4bc 5cc8 9a3d 6e21 8e3d 49fd 373d
00000310: 9c31 873b 4848 89bc d2cc 1e3d 9b3f 593c
00000320: 725c 6abc 06e4 1f3c 3a66 c13c 73b7 ef3c
00000330: aa8e 443c 6940 c2bb 38f8 d63b 9c98 b6bb
00000340: 6fde b93d 54b8 afbc 520c 803d a4b7 7e3c
00000350: d048 89bc 4aab f3bc 4960 b6bc b9c8 523d
00000360: 4471 123c b848 8b3d 7ff7 a03d 9030 89bc
00000370: 98ec 6e3d 3fb6 c1bc ee08 783c 7eac 4f3a
00000380: ed20 30bd 9926 2abd 2720 013d c8c0 e83c
00000390: 3465 2eb9 ba1f e43a f157 223d 7bc7 f83b
000003a0: 4a02 493c 5bd4 3fba 37ce 153d d802 563c
000003b0: f9f5 393d 21ba 543d 5dbc a63c 8b85 873b
000003c0: 026e 6f3b 677a 563d c862 173d eab4 2a3d
000003d0: 1c20 d23c 83eb 913d 2e5d 17bd f43c 4cbd
000003e0: 138e 363c 569f 243d bda0 10bd 7ab9 d6bc
000003f0: 6d79 18bc b399 aa3c b0f9 643c 0668 61bd

input_block.1.bias f4 [64]
0.0024767427 -0.0035668537 0.028412208 0.03192928 0.025059225 0.014393379 -0.012632214 -0.010668085
-0.04439374 -0.022356268 0.01708738 -0.0045579737 -0.031113662 -0.0080216145 0.017977325 -0.037140846
-0.0042944574 0.036863055 -0.034961343 -0.00934554 -0.00583142 -0.04045496 -0.019243192 -0.018351203
0.031127473 0.016259093 0.03227496 0.017177392 -0.036500506 0.01898729 -0.028173622 -0.032732815
-0.00052685785 0.04262588 0.018086124 0.005283541 -0.043670006 0.030762548 0.04075441 -0.022597393
-0.030601332 0.031513434 -0.02525891 -0.013421856 -0.05286543 0.028540269 -0.025516799 -0.03642971
-0.034196153 0.0066323266 -0.028217243 0.011639543 0.047383223 -0.011776676 0.033923745 -0.022688461
-0.00035125096 0.028302554 0.018620932 -0.01777502 0.016245808 -0.05042076 -0.025972607 -0.018756928
00000000: d950 223b e0c1 69bb b8c0 e83c 47c8 023d
00000010: 0149 cd3c 35d2 6b3c 59f7 4ebc 31c9 2ebc
00000020: 36d6 35bd 7e24 b7bc d5fa 8b3c 0e5b 95bb
00000030: 14e2 febc 176d 03bc 2f45 933c 0021 18bd
00000040: 85b8 8cbb b7fd 163d a033 0fbd 091e 19bc
00000050: 7f15 bfbb 1ab4 25bd e6a3 9dbc 4355 96bc
00000060: 0bff fe3c ca31 853c c032 043d 9ab7 8c3c
00000070: 8e81 15bd 3c8b 9b3c 5ecc e6bc d812 06bd
00000080: d51c 0aba 7a98 2e3d 5a29 943c 8e21 ad3b
00000090: 52df 32bd bd01 fc3c 19ee 263d 2b1e b9bc
000000a0: a5af fabc 3b14 013d c6eb cebc 58e7 5bbc
000000b0: 6c89 58bd 48cd e93c 9b08 d1bc 5237 15bd
000000c0: 4411 0cbd fd53 d93b d927 e7bc c8b3 3e3c
000000d0: e914 423d f6f2 40bc a0f3 0a3d 27dd b9bc
000000e0: 1b28 b8b9 c2da e73c ed8a 983c eb9c 91bc
000000f0: ee15 853c 0086 4ebd 81c4 d4bc 21a8 99bc

hidden_block.0.weight f4 [64]
1.0042733 1.0013176 0.9618355 0.9672943 1.0081093 0.98634976 1.071751 1.0011846
0.9980982 1.0196558 0.9945869 1.0090518 0.9973345 0.9952804 0.98032683 0.92913723
1.0345514 1.0169781 0.9820679 0.9932931 1.0191848 1.0071988 0.9995305 0.9615988
0.9783394 0.9222198 1.0036293 0.9646154 0.97078246 0.982313 1.0637691 1.0411838
1.0025262 0.9935136 0.98113954 0.9890546 0.99920416 0.96097094 0.9760272 0.9968428
1.0026895 1.006819 0.94825876 1.0354674 0.96935064 0.9504679 0.9595648 0.97827286
0.99432397 1.0718517 1.0756147 0.9785677 0.96838593 1.013281 0.97811 1.0081234
1.0703691 1.0020853 0.99207896 0.9306962 0.98552513 0.9622975 1.0076977 1.0116864
00000000: 078c 803f 2d2b 803f da3a 763f 99a0 773f
00000010: ba09 813f 6b81 7c3f 232f 893f d126 803f
00000020: 5d83 7f3f 1584 823f 3f9d 7e3f 9c28 813f
00000030: 5051 7f3f b2ca 7e3f b3f6 7a3f f0db 6d3f
00000040: 2e6c 843f 572c 823f cd68 7b3f 7548 7e3f
00000050: a674 823f e4eb 803f 3be1 7f3f 572b 763f
00000060: 7374 7a3f 9916 6c3f ed76 803f 09f1 763f
00000070: 3385 783f dd78 7b3f 9629 883f 8345 853f
00000080: c752 803f e856 7e3f f62b 7b3f af32 7d3f
00000090: d8cb 7f3f 3102 763f ebdc 793f 1731 7f3f
000000a0: 2158 803f 72df 803f 16c1 723f 328a 843f
000000b0: 5d27 783f dd51 733f 0aa6 753f 1770 7a3f
000000c0: 048c 7e3f 7032 893f bead 893f 6a83 7a3f
000000d0: 24e8 773f 31b3 813f 6b65 7a3f 300a 813f
000000e0: db01 893f 5544 803f e3f8 7d3f 1b42 6e3f
000000f0: 604b 7c3f 2159 763f 3dfc 803f f17e 813f

hidden_block.0.bias f4 [64]
0.017052082 -0.00041499283 -0.001775278 -0.0034162863 0.0059926333 0.023617746 -0.04442881 -0.0055183284
0.004751495 -0.015001323 0.019408895 0.003116039 -0.013484605 0.01430085 0.002454616 0.033252124
-0.02519174 0.029376928 0.0055538905 0.008944009 0.015020549 0.0088018635 0.006460896 0.018881556
0.005810163 0.027394578 0.016126512 0.0004778138 0.008941258 0.015623992 -0.059266776 -0.020655984
0.018738788 -0.0041588885 -0.01528774 -0.007959943 0.010557602 0.025308814 0.009463325 0.0003445842
-0.017091807 -0.006777161 0.016831202 -0.046201665 0.016966015 0.009667932 0.003862925 0.025703568
0.017876014 -0.07736682 -0.06439725 0.026703285 0.028018368 0.010122204 -0.0034320618 0.029826459
-0.05516672 0.010352506 0.0046645785 0.009400401 -0.0029601797 -0.00027031385 -0.0025098505 -0.009671034
00000000: cfb0 8b3c 6593 d9b9 72b0 e8ba c6e3 5fbb
00000010: da5d c43b 017a c13c fcfa 35bd 18d3 b4bb
00000020: 6eb2 9b3b 1cc8 75bc 67ff 9e3c 7636 4c3b
00000030: 88ee 5cbc 1d4e 6a3c 9fdd 203b 6133 083d
00000040: e85e cebc e2a7 f03c 69fd b53b e589 123c
00000050: c018 763c b135 103c edb5 d33b 7ead 9a3c
00000060: 2e63 be3b 986a e03c bf1b 843c 1583 fa39
00000070: 5b7e 123c c6fb 7f3c b8c1 72bd bd36 a9bc
00000080: 1682 993c 4947 88bb 6e79 7abc 6c6a 02bc
00000090: cbf9 2c3c 6e54 cf3c 100c 1b3c 4fa9 b439
000000a0: 1e04 8cbc f212 debb 97e1 893c f53d 3dbd
000000b0: 50fc 8a3c 3f66 1e3c 2129 7d3b 4a90 d23c
000000c0: b870 923c 7f72 9ebd b5e2 83bd d9c0 da3c
000000d0: c786 e53c 9ad7 253c 71ec 60bb 9e56 f43c
000000e0: 80f6 61bd 8f9d 293c 52d9 983b 2404 1a3c
000000f0: 93ff 41bb e9b8 8db9 4e7c 24bb 4273 1ebc

hidden_block.2.weight f4 [64, 64]
0.029282775 0.1296763 -0.09231727 -0.053323977 0.03652309 0.056051753 -0.011404619 0.030714346
0.0035319217 0.10002553 0.026815513 0.04683325 -0.06265403 -0.08707747 -0.049180966 -0.10339648
0.09322508 0.014080885 0.062414475 0.042298183 0.060852557 -0.0902184 -0.10027 0.12015242
0.06768324 0.07689387 -0.05232978 -0.10681379 0.008925963 0.08183966 0.08660652 0.045751285
0.029963179 -0.097440735 0.08940769 -0.09102839 0.105074644 0.08104508 -0.102305986 -0.11608188
-0.08760872 0.06530571 -0.11444402 0.104328044 -0.0694963 0.008372813 -0.027580349 -0.07384437
-0.1237724 0.053561132 -0.035358835 -0.028871346 0.086700015 -0.059696447 0.004489626 0.004958945
0.011907691 -0.043570686 0.039865777 0.09585688 0.032818947 -0.064648606 -0.009255676 -0.10882957
0.05588392 0.036217075 -0.0077987993 0.06256469 -0.057317752 -0.026240416 -0.06990995 -0.0896334
0.04101496 -0.04417611 0.10763293 -0.06758225 0.03654226 0.112362504 0.062084667 -0.055586744
0.02492825 -0.11396573 0.12682225 -0.0026525366 -0.078643836 0.0044240453 -0.11023265 -0.07130551
-0.06221698 0.066367276 0.10328578 -0.052807562 0.020751987 0.06770785 -0.10481749 0.1117399
-0.11530546 0.08984858 -0.038254052 -0.091090746 -0.004283979 -0.07422548 0.02138476 -0.081518844
0.008765848 -0.011572918 -0.009094948 0.09211098 -0.061749198 0.11129553 -0.0867185 -0.0030714124
-0.020364186 0.048259713 0.046215825 -0.0032866886 0.09758007 -0.14020897 -0.01782823 -0.00045201392
-0.08654036 -0.015648954 -0.03459526 0.003264799 0.04497397 0.034015622 -0.01600421 0.14241627
0.0012255132 0.06983822 0.021229304 -0.104664266 0.03956182 -0.015154112 -0.19031574 -0.06045038
0.06848646 0.053750917 0.17227033 0.081734195 -0.16592644 0.02354931 0.068385616 -0.028097669
-0.0032506029 -0.0045474805 0.067679524 -0.19200772 0.13552643 -0.09716876 0.044270597 -0.05915656
0.025256822 0.02480965 0.0628302 -0.0014939648 0.122167 -0.10778389 0.019237595 -0.07060671
-0.047258466 -0.020312876 0.076780684 0.059139706 -0.10849376 0.025423681 0.020903189 -0.09833122
0.020281581 0.049444832 -0.08374131 -0.062985204 -0.037612308 -0.100933224 0.08791413 0.08041649
-0.12830555 -0.13604431 -0.09276441 -0.053633243 -0.117630556 -0.0506201 -0.22101803 0.041004248
-0.023040758 0.12579583 -0.086197846 -0.035903126 0.15381356 -0.04798586 -0.0140047055 -0.115258016
-0.09295092 0.065654755 -0.012018626 0.027398592 0.07352769 0.15501557 0.07840254 0.010039777
-0.00040322228 0.04694734 0.059711397 0.044994403 -0.008324614 0.024582865 0.016691124 -0.032307256
-0.07555296 0.014481554 0.03033936 0.1196505 0.015418336 0.040546153 0.10305821 0.060905702
-0.07525853 0.010628695 0.11655081 0.078206584 -0.07910934 -0.084676996 -0.08841768 0.02036691
-0.06762917 0.011166409 -0.07645624 0.09918034 -0.07592037 -0.011259978 -0.044085503 -0.043558024
-0.10557397 0.13075633 0.07348998 0.094528936 -0.091392234 -0.107712 -0.034274083 -0.050596435
-0.021690072 0.055780053 0.0012206507 0.11923539 -0.0676186 0.00423434 -0.043347813 -0.11294044
-0.043221097 0.06457402 -0.090222485 0.064472534 -0.04520096 -0.04998637 -0.033498853 -0.11267429
00000000: 6ee2 ef3c ddc9 043e d610 bdbd 3e6a 5abd
00000010: 3c99 153d 8696 653d 70da 3abc a79c fb3c
00000020: d077 673b 2fda cc3d 35ac db3c 39d4 3f3d
00000030: c250 80bd ac55 b2bd fb71 49bd 89c1 d3bd
00000040: caec be3d 83b3 663c 52a6 7f3d dc40 2d3d
00000050: 8840 793d 6dc4 b8bd 5c5a cdbd 7912 f63d
00000060: 839d 8a3d 897a 9d3d c057 56bd 30c1 dabd
00000070: 343e 123c 8d9b a73d c25e b13d b365 3b3d
00000080: 5775 f53c 028f c7bd 611b b73d 186d babd
00000090: 6031 d73d f7fa a53d cd85 d1bd 56bc edbd
000000a0: 336c b3bd 00bf 853d a061 eabd f1a9 d53d
000000b0: 1354 8ebd 202e 093c 2ff0 e1bc b83b 97bd
000000c0: 627c fdbd eb62 5b3d 6dd4 10bd 9a83 ecbc
000000d0: c78f b13d 4384 74bd b61d 933b a57e a23b
000000e0: 7a18 433c 2d77 32bd 4c4a 233d 9d50 c43d
000000f0: 296d 063d 7d66 84bd 1ea5 17bc 0ae2 debd
00000100: 8ae6 643d 5b58 143d 128d ffbb eb21 803d
00000110: 05c6 6abd 24f6 d6bc f32c 8fbd b791 b7bd
00000120: 4dff 273d 02f2 34bd a76e dc3d 9068 8abd
00000130: 56ad 153d 501e e63d 7e4c 7e3d edae 63bd
00000140: 5436 cc3c dd66 e9bd b1dd 013e 2ed6 2dbb
00000150: 0510 a1bd 95f7 903b a8c1 e1bd a008 92bd
00000160: 3bd7 7ebd 91eb 873d 7f87 d33d be4c 58bd
00000170: 1200 aa3c 6aaa 8a3d 8daa d6bd e4d7 e43d
00000180: 4525 ecbd 8802 b83d 48b0 1cbd c98d babd
00000190: 9f60 8cbb 8703 98bd 182f af3c 5af3 a6bd
000001a0: a29e 0f3c 569c 3dbc fa02 15bc aea4 bc3d
000001b0: baec 7cbd e9ee e33d 7899 b1bd c049 49bb
000001c0: cbd2 a6bc faab 453d ce4c 3d3d 7c65 57bb
000001d0: 0fd8 c73d f192 0fbe 820c 92bc 48fc ecb9
000001e0: 123c b1bd 3c32 80bc c2b3 0dbd 3df6 553b
000001f0: a036 383d f753 0b3d 431b 83bc 92d5 113e
00000200: 66a1 a03a 5707 8f3d 14e9 ad3c 385a d6bd
00000210: 930b 223d f448 78bc 21e2 42be d19a 77bd
00000220: a142 8c3d ec29 5c3d a267 303e 4264 a73d
00000230: 9fe8 29be 7cea c03c c20d 8c3d 152d e6bc
00000240: 1108 55bb 0803 95bb 909b 8a3d ac9d 44be
00000250: 71c7 0a3e 6a00 c7bd 1655 353d 264e 72bd
00000260: 65e7 ce3c 9b3d cb3c 1fad 803d 24d1 c3ba
00000270: b132 fa3d cdbd dcbd 2998 9d3c 409a 90bd
00000280: 1892 41bd 3067 a6bc 313f 9d3d 7a3c 723d
00000290: fa31 debd 5345 d03c 2a3d ab3c e161 c9bd
000002a0: 8f25 a63c aa86 4a3d 9080 abbd 63fe 80bd
000002b0: 5d0f 1abd 14b6 cebd 530c b43d 67b1 a43d
000002c0: 8862 03be 334f 0bbe 44fb bdbd 88ae 5bbd
000002d0: 4ae8 f0bd 0657 4fbd 8d52 62be 12f4 273d
000002e0: f9bf bcbc 9fd0 003e 7f88 b0bd 280f 13bd
000002f0: 4d81 1d3e d28c 44bd fe73 65bc 650c ecbd
00000300: 0d5d bebd 0076 863d c5e9 44bc 0373 e03c
00000310: af95 963d 67bc 1e3e 8391 a03d e07d 243c
00000320: 9467 d3b9 db4b 403d f093 743d 0d4c 383d
00000330: f663 08bc 0162 c93c d3bb 883c 9d54 04bd
00000340: 83bb 9abd 0a44 6d3c 408a f83c 520b f53d
00000350: 309d 7c3c b913 263d 2f10 d33d 4278 793d
00000360: 2521 9abd fa23 2e3c 31b2 ee3d c62a a03d
00000370: 1404 a2bd 226b adbd 5414 b5bd 82d8 a63c
00000380: 2a81 8abd 50f3 363c 1795 9cbd 101f cb3d
00000390: 247c 9bbd c57b 38bc 0093 34bd e669 32bd
000003a0: 2a37 d8bd fde4 053e ea81 963d 6398 c13d
000003b0: da2b bbbd 1c98 dcbd fb62 0cbd 353e 4fbd
000003c0: 61af b1bc a079 643d 3efe 9f3a af31 f43d
000003d0: 9f7b 8abd 38c0 8a3b 7a8d 31bd 514d e7bd
000003e0: 9b08 31bd 623f 843d 91c6 b8bd 2d0a 843d
000003f0: a424 39bd 82be 4cbd 1836 09bd c7c1 e6bd

hidden_block.2.bias f4 [64]
-0.09529782 0.06397939 -0.04124406 -0.10001006 0.06667861 -0.09110141 0.06769131 -0.06241932
-0.027888747 -0.009056059 -0.05814362 -0.014261073 0.047600456 0.16848351 -0.014694905 0.05462453
0.003291242 -0.042893615 -0.15717971 -0.030638397 -0.087747894 0.031396132 0.01999997 0.036268674
-0.08609371 -0.03473239 -0.19702509 -0.14576787 0.03642871 0.014767243 0.06813519 -0.08756549
0.054681443 0.049461156 0.0632561 0.038575716 -0.024389094 0.12985766 -0.038789116 -0.03333258
0.018940939 0.06103999 -0.035983026 0.10647704 0.08074126 -0.0038690781 -0.0016976916 -0.0524761
-0.058546215 -0.055656355 -0.14757718 0.13566548 -0.14297068 -0.07998786 -0.08120492 -0.047237433
-0.10959157 0.039898545 -0.08975855 -0.037578907 -0.00096516736 0.035525344 -0.0107992 -0.10654479
00000000: 812b c3bd a007 833d 88ef 28bd 13d2 ccbd
00000010: cc8e 883d 6093 babd bea1 8a3d 67ab 7fbd
00000020: f176 e4bc dd5f 14bc 0128 6ebd 47a7 69bc
00000030: b2f8 423d f186 2c3e e6c2 70bc f9bd 5f3d
00000040: e1b1 573b 37b1 2fbd b8f3 20be 60fd fabc
00000050: 2bb5 b3bd 3b99 003d fad6 a33c 768e 143d
00000060: e651 b0bd 8d43 0ebd f2c0 49be 2c44 15be
00000070: 4536 153d 4ef2 713c 768a 8b3d 8955 b3bd
00000080: a6f9 5f3d c897 4a3d 6a8c 813d 9201 1e3d
00000090: a3cb c7bc 68f9 043e 56e1 1ebd be87 08bd
000000a0: 072a 9b3c 1205 7a3d f062 13bd a210 da3d
000000b0: ac5b a53d 5c90 7dbb 1485 deba 2ef1 56bd
000000c0: 28ce 6fbd ebf7 63bd 791e 17be e4eb 0a3e
000000d0: e866 12be add0 a3bd c44e a6bd 0a7c 41bd
000000e0: 8c71 e0bd a86c 233d 55d3 b7bd 57ec 19bd
000000f0: 4903 7dba 0683 113d 21ef 30bc 2834 dabd

hidden_block.4.weight f4 [64]
0.99406797 0.9527171 0.9788255 1.0002602 0.94294137 1.0004691 0.93767434 1.0138279
1.0047271 0.93626994 0.9642863 0.9543956 0.98331016 0.9244748 0.996096 0.84790605
0.9802236 1.0277895 0.9761518 1.0151987 0.8817123 0.96147734 1.0316586 1.0255754
0.9879091 0.95574194 1.0265383 1.0316156 0.8713819 0.9665701 0.9183494 0.8998431
0.9097355 0.9605129 1.0054233 0.99153125 1.0092396 0.91178674 1.0259278 0.9371598
0.9402743 0.9154297 0.9986261 0.9490225 0.94467884 0.93949324 1.0048013 0.9176025
0.90141314 0.9728821 0.9926829 1.0048958 0.94706833 0.92401236 0.95655125 0.98150223
0.9877422 0.9530756 0.9588059 0.9599295 0.9737145 0.9188141 0.9421861 0.94945216
00000000: 3d7b 7e3f 45e5 733f 4f94 7a3f 8708 803f
00000010: 9b64 713f 5f0f 803f 6d0b 703f 1dc5 813f
00000020: e69a 803f 63af 6f3f 78db 763f 4553 743f
00000030: 37ba 7b3f 61aa 6c3f 2600 7f3f 5f10 593f
00000040: efef 7a3f 9b8e 833f 16e5 793f 08f2 813f
00000050: e6b7 613f 6123 763f 640d 843f 0e46 833f
00000060: 9ce7 7c3f 81ab 743f 9b65 833f fb0b 843f
00000070: e212 5f3f 2371 773f f218 6b3f 1e5c 663f
00000080: 6de4 683f 2ce4 753f b6b1 803f fed4 7d3f
00000090: c32e 813f db6a 693f 9a51 833f b4e9 6f3f
000000a0: d1b5 703f 9a59 6a3f f6a5 7f3f 23f3 723f
000000b0: 79d6 713f a182 703f 549d 803f ffe7 6a3f
000000c0: 03c3 663f cd0e 793f 7720 7e3f 6da0 803f
000000d0: 1273 723f 138c 6c3f 8be0 743f bb43 7b3f
000000e0: acdc 7c3f c3fc 733f 4e74 753f f1bd 753f
000000f0: 5a45 793f 6737 6b3f 1c33 713f 4c0f 733f

hidden_block.4.bias f4 [64]
-0.014689782 -0.022575052 -0.021330481 -0.015175338 -0.020399347 -0.017971592 0.022294909 -0.021242011
-0.011651485 -0.067245424 -0.008963652 0.00531701 -0.030500649 -0.0058841454 -0.016602807 -0.05075787
0.020823877 -0.096853785 -0.006606848 -0.027692346 0.019535735 -0.01112396 -0.04896883 -0.09410328
0.016630264 -0.012690102 -0.026598036 -0.02485293 0.0044138515 -0.006467558 0.02647237 0.015013962
-0.024807971 -0.03139972 -0.016231526 -0.02710477 -0.020967009 -0.01783176 -0.020551683 0.0096255485
-0.015937824 -0.08573678 -0.020343158 -0.01600832 -0.0112719005 -0.004198318 -0.025332086 0.00013308416
0.0032115877 -0.01575893 -0.014900669 0.028980248 0.017418152 0.00896581 -0.0033313155 -0.06731223
-0.010284157 0.040683076 0.00020786852 -0.0050497665 -0.010634912 0.004264622 0.018091952 -0.0082398625
00000000: 69ad 70bc 51ef b8bc 43bd aebc fba1 78bc
00000010: 881c a7bc 2939 93bc d0a3 b63c ba03 aebc
00000020: dfe5 3ebc f8b7 89bd 48dc 12bc 503a ae3b
00000030: 7fdc f9bc cacf c0bb 9c02 88bc 7ce7 4fbd
00000040: d696 aa3c 475b c6bd 427e d8bb 0fdb e2bc
00000050: 6809 a03c 4541 36bc 8a93 48bd 38b9 c0bd
00000060: 313c 883c 25ea 4fbc 20e4 d9bc 5f98 cbbc
00000070: 12a2 903b cfed d3bb 95dc d83c 1ffd 753c
00000080: 163a cbbc fe9c 00bd faf7 84bc d30a debc
00000090: 01c3 abbc e913 92bc 015c a8bc 7ab4 1d3c
000000a0: 0a90 82bc c496 afbd b2a6 a6bc e123 83bc
000000b0: c7ad 38bc 0b92 89bb 3c85 cfbc 828c 0b39
000000c0: 8079 523b df18 81bc f021 74bc fc67 ed3c
000000d0: 83b0 8e3c 55e5 123c 3352 5abb ffda 89bd
000000e0: e17e 28bc 4ca3 263d 48f7 5939 8378 a5bb
000000f0: 0e3e 2ebc 3ebe 8b3b 9335 943c 7d00 07bc

layers.0.ln.weight f4 [64]
0.9557231 0.74886763 0.85334325 0.93535954 0.83779943 0.83040357 0.81561404 0.98694044
0.961844 0.83368975 0.8671708 0.90356636 0.97331756 0.7897915 0.9802367 0.7248649
1.1131911 0.8315436 0.9749962 0.8296018 0.99483234 0.95120955 0.9750771 0.8534098
1.1068965 0.9481144 0.9935353 0.9814379 0.95083386 0.9388427 1.0541651 0.98996514
0.705336 0.88329726 0.9523761 0.8990119 0.9814887 0.7492699 1.0198796 0.86966836
0.875969 0.7990139 0.9601952 0.86658144 0.89000577 0.84311706 0.9872031 0.75686014
1.0060496 0.93547136 0.9459395 1.0419903 0.88814414 0.9501959 0.79257673 0.772364
0.93646646 1.09808 0.9602793 1.1266824 0.9254691 0.926868 0.97276145 1.1518677
00000000: 45aa 743f cab5 3f3f b474 5a3f b973 6f3f
00000010: 067a 563f 5495 543f 15cc 503f 21a8 7c3f
00000020: 693b 763f b16c 553f e8fe 5d3f 2050 673f
00000030: 572b 793f c72f 4a3f cbf0 7a3f bf90 393f
00000040: 0c7d 8e3f 0be0 543f 5a99 793f c960 543f
00000050: 55ad 7e3f 7882 733f a79e 793f 1179 5a3f
00000060: c9ae 8d3f a0b7 723f 5458 7e3f 843f 7b3f
00000070: d969 733f ff57 703f e2ee 863f 5b6e 7d3f
00000080: e690 343f c51f 623f ecce 733f a525 663f
00000090: d842 7b3f 27d0 3f3f 6a8b 823f 96a2 5e3f
000000a0: 813f 603f 2d8c 4c3f 5acf 753f 48d8 5d3f
000000b0: 6bd7 633f 85d6 573f 58b9 7c3f 96c1 413f
000000c0: 3cc6 803f 0d7b 6f3f 1729 723f f05f 853f
000000d0: 6a5d 633f 0a40 733f 4fe6 4a3f a6b9 453f
000000e0: 44bc 6f3f e38d 8c3f ddd4 753f 2137 903f
000000f0: 8beb 6c3f 3947 6d3f e506 793f 6770 933f

layers.0.ln.bias f4 [64]
0.023632037 0.17417635 -0.039159752 0.043778032 0.029106023 0.113103226 0.06617667 0.009243771
-0.018809652 -0.14992289 0.04909084 -0.015462923 -0.045755096 -0.033418972 0.014145168 -0.13415241
0.023936292 0.121326715 0.014059142 0.17069694 0.01049916 0.022722956 0.011085345 0.12545677
0.019980287 0.031790707 0.008757227 0.021672206 0.005420961 0.05368809 0.017323298 0.009145129
-0.11767031 -0.030069027 0.01843524 0.017476315 0.00018500161 -0.12377685 0.008332482 -0.026637133
-0.054914296 -0.21852906 0.014550132 -0.034825638 -0.05458702 0.020000184 0.0003067825 0.194556
0.018446488 0.03354361 0.035070613 -0.011674514 0.089852355 0.053408794 0.17826496 0.18185
0.04655893 0.034523718 0.046605896 -0.008771766 0.044216454 0.04596438 0.03146864 -0.0063522137
00000000: f997 c13c 495b 323e fa65 20bd 9850 333d
00000010: c16f ee3c aaa2 e73d a287 873d 3073 173c
00000020: b316 9abc 6385 19be 7a13 493d 3358 7dbc
00000030: b269 3bbd 55e2 08bd 22c1 673c 405f 09be
00000040: 0b16 c43c 247a f83d 5158 663c 2ecb 2e3e
00000050: ab04 2c3c 7e25 ba3c 4f9f 353c bd77 003e
00000060: b3ad a33c f936 023d 797a 0f3c e989 b13c
00000070: 51a2 b13b 0be8 5b3d 97e9 8d3c 73d5 153c
00000080: 22fd f0bd 5253 f6bc 8005 973c 7d2a 8f3c
00000090: fefc 4139 b87e fdbd f684 083c 1e36 dabc
000000a0: d0ed 60bd 15c6 5fbe ad63 6e3c 54a5 0ebd
000000b0: a496 5fbd 6dd7 a33c a6d7 a039 b039 473e
000000c0: 171d 973c 0665 093d 34a6 0f3d 7646 3fbc
000000d0: 8304 b83d 2ec3 5a3d 178b 363e e336 3a3e
000000e0: 94b4 3e3d be68 0d3d d3e5 3e3d 74b7 0fbc
000000f0: 501c 353d 2545 3c3d 43e5 003d 3b26 d0bb

layers.1.ln.weight f4 [64]
1.0271422 0.95154005 1.0526435 1.0286642 0.9747926 1.0002186 0.96530163 1.0289176
1.0125215 0.9665929 0.9978881 1.0534992 1.0342273 1.0562115 1.0525311 1.0207775
1.2611237 1.0126283 1.0357488 0.960657 1.211805 0.98042035 1.0312679 0.9719748
1.2546169 1.0553478 1.0356797 1.0376518 1.1363395 0.97587866 1.2557681 1.2025863
1.0521058 0.96163356 1.0138774 1.024771 1.0330532 1.016711 1.0389321 1.079991
1.0435431 0.9909624 1.0172341 0.9242631 1.0769755 0.99665046 1.0346862 0.8135783
1.0958599 1.0234666 1.0333457 1.0657684 0.9787972 0.99680233 0.96667874 0.9303987
1.0364292 1.2149787 1.0156671 1.3923544 1.0257221 1.0190854 1.0946193 1.3670439
00000000: 6579 833f 2198 733f 06bd 863f 45ab 833f
00000010: 028c 793f 2a07 803f 021e 773f 92b3 833f
00000020: 4e9a 813f a272 773f 9875 7f3f 10d9 863f
00000030: 8f61 843f f031 873f 57b9 863f d6a8 823f
00000040: 806c a13f ce9d 813f 6b93 843f 9eed 753f
00000050: 6d1c 9b3f d4fc 7a3f 9600 843f 57d3 783f
00000060: 4997 a03f a315 873f 2791 843f c6d1 843f
00000070: 9373 913f 2fd3 793f 02bd a03f 59ee 993f
00000080: 67ab 863f 9e2d 763f bcc6 813f b22b 833f
00000090: 163b 843f 9623 823f bafb 843f 253d 8a3f
000000a0: d292 853f b6af 7d3f ba34 823f 829c 6c3f
000000b0: 55da 893f 7c24 7f3f 9970 843f ab46 503f
000000c0: 2345 8c3f f400 833f ac44 843f 196b 883f
000000d0: 7492 7a3f 702e 7f3f 4278 773f 9c2e 6e3f
000000e0: b6a9 843f 6c84 9b3f 6101 823f ab38 b23f
000000f0: dd4a 833f 6471 823f 7c1c 8c3f 4bfb ae3f

layers.1.ln.bias f4 [64]
-0.027528236 -0.028035037 0.027377114 -0.027734868 -0.026345087 -0.028372161 0.024340756 -0.027196897
-0.02808882 0.020101039 -0.026905106 0.027623298 -0.029470969 0.027877852 -0.028081764 0.027020693
-0.030059738 -0.031609163 0.028189119 -0.007895129 0.029029964 0.02781423 -0.027452543 -0.011183419
-0.028867166 -0.028200679 -0.027519936 -0.02770464 0.030675102 0.02777009 0.02892474 0.028294293
0.027886188 -0.026705014 -0.027106175 -0.027645966 -0.027393728 0.027124522 -0.028266324 0.02885687
0.027624307 0.023731152 -0.02695141 -0.008420038 0.028069705 0.026568549 -0.027593354 0.020594237
0.029699167 -0.02686483 -0.027438942 -0.029225443 0.028644053 0.027502153 -0.014999831 -0.0032698242
-0.02787621 -0.0290773 0.028089345 0.029281447 -0.027144993 0.029525742 -0.02790339 0.028953372
00000000: e582 e1bc bca9 e5bc f845 e03c 3c34 e3bc
00000010: a7d1 d7bc bc6c e8bc 4466 c73c 07cc debc
00000020: 861a e6bc efaa a43c 1968 dcbc 414a e23c
00000030: 1a6d f1bc 1860 e43c ba0b e6bc 805a dd3c
00000040: d73f f6bc 9c78 01bd deec e63c 925a 01bc
00000050: 3fd0 ed3c abda e33c 28e4 e0bc a93a 37bc
00000060: d67a ecbc 1c05 e7bc 7d71 e1bc d7f4 e2bc
00000070: 5a4a fb3c 1a7e e33c 94f3 ec3c 6fc9 e73c
00000080: 9371 e43c 79c4 dabc c50d debc cb79 e2bc
00000090: d068 e0bc 3f34 de3c c78e e7bc 3e65 ec3c
000000a0: 5f4c e23c d567 c23c 34c9 dcbc 33f4 09bc
000000b0: 70f2 e53c 49a6 d93c 750b e2bc 3fb5 a83c
000000c0: ab4b f33c a213 dcbc a2c7 e0bc 326a efbc
000000d0: efa6 ea3c 324c e13c dac1 75bc 8c4a 56bb
000000e0: a65c e4bc 8533 eebc a01b e63c a5df ef3c
000000f0: 2d5f debc f8df f13c a695 e4bc 9f2f ed3c

logit.weight f4 [1, 64]
0.09783242 0.015870463 -0.12018607 0.08224252 0.054661144 0.04487385 -0.05362229 0.13718301
0.09857875 -0.021696942 0.055855278 -0.12856996 0.081618294 -0.15049271 0.12082834 -0.12490182
0.32035133 0.046931118 -0.11947415 0.033500645 -0.27913246 -0.058303308 0.09561537 0.032736577
0.36232075 0.102762386 0.13237762 0.10838579 -0.1648982 -0.038742352 -0.36517832 -0.29895908
-0.13049117 0.040992532 0.103763595 0.09255604 0.15561213 -0.07193314 0.109597735 -0.1235994
-0.15678044 -0.04044985 0.10729392 -0.0134620825 -0.15528728 -0.07614908 0.1557617 0.0035192198
-0.13845961 0.10000882 0.100953646 0.10880201 -0.03005234 -0.07216335 0.03705336 0.029431164
0.08909681 0.2981255 -0.073763475 -0.48447558 0.089250214 -0.059647083 0.18607154 -0.46566582
00000000: 5d5c c83d c602 823c 1d24 f6bd c46e a83d
00000010: 5de4 5f3d a4cd 373d 0ca3 5bbd b479 0c3e
00000020: a8e3 c93d c9bd b1bc 81c8 643d d8a7 03be
00000030: 7e27 a73d c31a 1abe d974 f73d 87cc ffbd
00000040: 1705 a43e d83a 403d ddae f4bd f937 093d
00000050: 73ea 8ebe 73cf 6ebd fed1 c33d ca16 063d
00000060: 1b82 b93e 1675 d23d 008e 073e 5ef9 dd3d
00000070: 13db 28be 4db0 1ebd a7f8 babe 2a11 99be
00000080: 7a9f 05be c9e7 273d 0282 d43d 058e bd3d
00000090: c958 1f3e af51 93bd c774 e03d af21 fdbd
000000a0: 0d8b 20be beae 25bd eabc db3d 1190 5cbc
000000b0: a103 1fbe 0df4 9bbd ff7f 1f3e b6a2 663b
000000c0: 5bc8 0dbe 6dd1 cc3d c9c0 ce3d 97d3 de3d
000000d0: 5330 f6bc 61ca 93bd 44c5 173d a019 f13c
000000e0: 6378 b63d e8a3 983e 4e11 97bd 2f0d f8be
000000f0: d1c8 b63d 8050 74bd 8a89 3e3e c06b eebe
