Model/single/fold3.ckpt (torch, 130111 bytes, 15 tensors)

input_block.0.weight f4 [398]
000000 42 5a 83 3f ec 4c 80 3f 4f a3 79 3f f5 5b 83 3f
       1.026192 1.0023475 0.97514814 1.0262438
000010 32 b9 81 3f af 54 82 3f 07 18 7f 3f a4 b8 82 3f
       1.0134642 1.0182093 0.9964604 1.0212598
000020 d8 3e 84 3f 5e b6 7b 3f ad bd 7e 3f e3 af 86 3f
       1.0331678 0.98325145 0.9950817 1.0522426
000030 da 48 77 3f 95 0f 7f 3f cf 2f 80 3f 0d 52 7a 3f
       0.9659554 0.9963315 1.001459 0.9778145
000040 11 8d 6e 3f 5a 54 80 3f 14 e9 83 3f 42 e3 7f 3f
       0.93184 1.0025742 1.0305505 0.9995614
000050 ab 8e 7b 3f 4d b6 77 3f 20 88 86 3f 88 84 86 3f
       0.9826457 0.96762544 1.0510292 1.0509195
000060 42 fe 76 3f 0e 04 81 3f ee cc 85 3f ad 17 81 3f
       0.96481717 1.0079362 1.0453165 1.008535
000070 86 d9 7e 3f 01 18 7c 3f e1 67 7d 3f 94 0a 77 3f
       0.99550664 0.9847413 0.9898663 0.96500516
000080 1b 1e 80 3f 45 7b 81 3f 68 15 80 3f e3 26 80 3f
       1.0009187 1.0115744 1.0006533 1.0011867
000090 70 fe 83 3f 66 63 7d 3f 43 f0 7f 3f 36 1a 81 3f
       1.0312023 0.98979795 0.99975985 1.0086124
0000a0 36 1c 7a 3f 37 95 7b 3f 45 01 80 3f 05 a0 85 3f
       0.97699296 0.9827456 1.0000387 1.0439459
0000b0 e7 13 76 3f a1 eb 7d 3f 67 36 80 3f c3 25 77 3f
       0.9612412 0.99187666 1.0016602 0.96541995
0000c0 99 d6 78 3f 0d 36 7b 3f d6 a5 79 3f 99 c5 80 3f
       0.9720245 0.9812935 0.9751867 1.0060302
0000d0 97 2b 81 3f 7e 92 7f 3f 8c 53 78 3f 17 1a 83 3f
       1.0091428 0.99832904 0.9700248 1.0242337
0000e0 eb 29 7f 3f b6 5e 79 3f 50 9f 78 3f 09 f4 78 3f
       0.99673337 0.9741014 0.9711809 0.9724737
0000f0 b6 e6 7e 3f 96 3a 81 3f b8 a9 81 3f 49 1b 80 3f
       0.99570787 1.0096004 1.0129919 1.0008327
000100 45 ba 7f 3f 11 74 7c 3f fb 2f 7c 3f b6 8a 80 3f
       0.998936 0.98614603 0.9851071 1.0042331
000110 27 64 7f 3f 35 64 7c 3f c9 9b 79 3f 3b c9 75 3f
       0.99762195 0.98590404 0.97503334 0.9601018
000120 50 6c 7e 3f 19 5e 74 3f c6 df 7f 3f c9 64 74 3f
       0.9938402 0.9545608 0.99950826 0.95466286
000130 99 c3 7e 3f 58 17 74 3f 01 07 80 3f be 05 7b 3f
       0.9951721 0.9534812 1.0002137 0.98055637
000140 54 82 7a 3f 18 5a 79 3f 7d f7 7f 3f 9c 07 7d 3f
       0.97855115 0.974031 0.9998701 0.98839736
000150 a0 a0 80 3f d9 fb 7e 3f 44 0d 82 3f 7f 60 7a 3f
       1.0049019 0.9960304 1.0160298 0.9780349
000160 11 81 81 3f 1e 01 75 3f 2c d2 7d 3f e7 c9 7f 3f
       1.0117513 0.9570483 0.9914882 0.99917454
000170 c1 01 79 3f 49 95 7f 3f 49 5a 80 3f bf f9 7d 3f
       0.972683 0.99837166 1.0027553 0.9920921
000180 fa 54 7a 3f f0 47 77 3f 37 d7 7b 3f 83 8d 7d 3f
       0.97785914 0.9659414 0.98375267 0.99044055
000190 90 a8 7b 3f 7a 2b 7d 3f 9f fd 7e 3f 41 3b 83 3f
       0.9830408 0.98894465 0.99605745 1.0252458
0001a0 8b e1 82 3f 8d 53 77 3f 9a 0a 79 3f 58 99 84 3f
       1.022508 0.96611863 0.972818 1.0359297
0001b0 09 e7 7c 3f 74 8f 7d 3f c5 49 80 3f 0d 7d 80 3f
       0.9879003 0.9904702 1.0022513 1.0038162
0001c0 6c 6c 7e 3f c3 cd 7a 3f 49 60 7d 3f 0a 99 7a 3f
       0.9938419 0.9797022 0.98975044 0.9788977
0001d0 ca 67 7d 3f b4 09 81 3f 05 52 7c 3f b0 af 82 3f
       0.98986495 1.0081086 0.9856265 1.0209866
0001e0 18 09 77 3f 7f 7b 7d 3f be d5 74 3f 1f ec 7c 3f
       0.9649825 0.99016565 0.95638645 0.9879779
0001f0 76 8c 81 3f 3a e8 80 3f 70 9c 80 3f d5 7c 7e 3f
       1.012099 1.007087 1.0047741 0.9940923
000200 ce 6c 82 3f 8d 8e 7b 3f ed 90 7a 3f 54 6c 81 3f
       1.0189455 0.9826439 0.9787739 1.0111184
000210 4a 52 7a 3f 61 4c 7e 3f 99 c1 78 3f 01 57 79 3f
       0.97781813 0.99335295 0.97170407 0.9739838
000220 9c d3 82 3f 86 a4 82 3f e0 d6 81 3f 13 05 83 3f
       1.0220828 1.0206459 1.01437 1.0235924
000230 cc a1 7d 3f ec 50 7e 3f 15 02 73 3f 81 d0 7a 3f
       0.9907501 0.99342227 0.9492505 0.979744
000240 d0 fe 76 3f 62 4a 7b 3f 29 87 79 3f a1 18 82 3f
       0.96482563 0.98160374 0.97471863 1.0163766
000250 b0 0b 7d 3f aa 76 84 3f 5d a4 81 3f 32 7e 79 3f
       0.9884596 1.0348713 1.0128285 0.97458184
000260 e8 36 7a 3f c2 c7 81 3f 58 23 83 3f bc a8 88 3f
       0.9774003 1.0139086 1.0245161 1.0676494
000270 9a 8c 83 3f f5 43 77 3f d0 2a 75 3f f0 a1 82 3f
       1.0277283 0.9658807 0.9576845 1.0205669
000280 60 34 7b 3f ea ac 7f 3f b4 75 79 3f 3d f4 80 3f
       0.9812679 0.9987322 0.97445226 1.0074536
000290 90 fc 81 3f 20 c0 7d 3f 8e 87 7f 3f d0 a4 83 3f
       1.0155201 0.99121284 0.99816215 1.0284672
0002a0 1f c9 78 3f 8e 71 80 3f 31 7d 80 3f 26 d6 7b 3f
       0.97181886 1.0034654 1.0038205 0.9837364
0002b0 e7 2e 7f 3f 96 4d 86 3f 7a 71 7e 3f dc cb 80 3f
       0.9968094 1.0492427 0.993919 1.0062213
0002c0 13 5d 7c 3f a8 b2 80 3f 0d 15 7f 3f 0c e1 73 3f
       0.9857952 1.0054522 0.99641496 0.9526527
0002d0 76 69 76 3f 47 04 76 3f c5 ff 77 3f 0b ac 79 3f
       0.9625467 0.96100277 0.9687465 0.9752814
0002e0 20 37 79 3f 1f 15 89 3f 80 14 7d 3f 54 a0 7b 3f
       0.9734974 1.0709571 0.98859406 0.98291516
0002f0 ce c2 83 3f 70 6c 7c 3f ba 2f 80 3f aa 9d 80 3f
       1.0293825 0.9860296 1.0014565 1.0048115
000300 c7 0d 83 3f 40 98 82 3f b6 79 79 3f af 49 7e 3f
       1.023858 1.0202713 0.9745134 0.9933118
000310 7f 8d 7b 3f 49 da 80 3f 89 cd 7c 3f 6e dd 7e 3f
       0.9826278 1.0066615 0.9875112 0.99556625
000320 af 64 81 3f 0f f4 78 3f cd cf 89 3f 83 1d 81 3f
       1.0108851 0.97247404 1.0766541 1.0087131
000330 67 23 7a 3f 38 34 85 3f 1a 85 84 3f dd 82 81 3f
       0.9771027 1.0406561 1.0353119 1.0118061
000340 95 e2 75 3f 96 a2 79 3f a3 29 7e 3f 28 d1 77 3f
       0.9604886 0.9751371 0.9928228 0.9680352
000350 0b cc 7e 3f 7b b8 7f 3f 95 69 80 3f c5 a3 7f 3f
       0.99530095 0.9989087 1.0032221 0.9985927
000360 2a 1c 78 3f d8 51 7c 3f 9f b5 7d 3f e7 de 80 3f
       0.96917975 0.98562384 0.99105257 1.0068024
000370 ff ea 80 3f c6 13 7d 3f c5 14 7b 3f 8c 0e 85 3f
       1.0071715 0.98858297 0.98078567 1.0395064
000380 9d c5 78 3f 1b 90 7f 3f 19 76 7a 3f 67 70 81 3f
       0.97176534 0.9982926 0.9783645 1.0112427
000390 02 01 7b 3f c1 12 7f 3f 32 50 7b 3f d9 90 75 3f
       0.9804841 0.9963799 0.98169243 0.95924145
0003a0 aa 43 82 3f e9 8d 7f 3f c9 77 7a 3f a7 62 83 3f
       1.01769 0.9982591 0.9783903 1.0264481
0003b0 23 52 7a 3f 1b 1a 7c 3f 6b 23 80 3f 51 13 78 3f
       0.9778158 0.98477334 1.0010809 0.96904474
0003c0 63 b8 80 3f 9e 3a 7e 3f 3e cc 81 3f cc 35 7e 3f
       1.005627 0.9930819 1.0140455 0.9930084
0003d0 13 88 7b 3f 4e 04 81 3f 30 39 81 3f 91 88 81 3f
       0.9825451 1.0079439 1.0095577 1.0119802
0003e0 43 02 7a 3f fc 2f 80 3f 7b 99 77 3f dc 4a 7b 3f
       0.976597 1.0014644 0.9671857 0.981611
0003f0 fc 6f 75 3f 07 98 81 3f 23 a0 80 3f 66 07 7b 3f
       0.95874 1.012452 1.004887 0.98058164

input_block.0.bias f4 [398]
000000 23 3a cf 3a 89 cd 56 bb b8 25 72 bc 67 2a 83 3a
       0.0015810173 -0.0032776317 -0.014779501 0.0010007144
000010 c5 f3 00 3a ae f0 9f bb 94 70 3b bc 4b 10 e3 b9
       0.0004919137 -0.004880986 -0.011440415 -0.00043308953
000020 06 a0 98 3b f2 8c 91 3b ff e8 85 bb 6a d6 ca bb
       0.004657748 0.004441851 -0.004086613 -0.006190111
000030 b4 50 31 bc 3d d3 ba 38 04 b0 ca 3a 0b 59 bd bc
       -0.010822464 8.908517e-05 0.0015463834 -0.023113748
000040 54 dc 62 3c 6b d4 08 3b b7 18 75 3b 42 7e cb bb
       0.013846476 0.0020878564 0.0037398764 -0.0062101195
000050 07 60 9c 3c a2 fa ff 3b 58 0e f8 bb 39 88 af bb
       0.019088758 0.00781186 -0.0075700693 -0.005356815
000060 49 2d 58 bb f2 97 8d bb d3 a6 c4 37 88 e2 8c 3b
       -0.0032985976 -0.004321092 2.3442704e-05 0.0042994656
000070 24 97 2b bb f9 e8 64 3c fd 04 83 bc a9 2f 95 3c
       -0.0026182616 0.013971561 -0.01599359 0.018211203
000080 c8 f9 95 bb 3a cc 04 3a e1 9c fb bb e8 7c aa ba
       -0.0045768954 0.00050658325 -0.0076786135 -0.0013007196
000090 f9 40 12 bb e7 23 0e bb 36 76 82 bc cf a1 73 bb
       -0.0022316559 -0.002168888 -0.015925508 -0.0037175303
0000a0 51 3e 30 bb 28 9a 83 bb 04 64 ce bb 2a 63 49 bb
       -0.0026892612 -0.0040161796 -0.006298544 -0.0030729272
0000b0 9d 74 01 bc 40 bc 82 bc 74 e1 ed ba f2 7c 05 bc
       -0.007901338 -0.015958905 -0.0018148855 -0.008147465
0000c0 da c9 0f bc 91 5b d4 39 ee 43 48 bc 54 f2 ab 3b
       -0.0087761525 0.00040504013 -0.012223227 0.0052473936
0000d0 b1 16 87 3a 36 5b 37 3b c4 9f 0b 3c 32 34 5d 3b
       0.0010306445 0.002797795 0.008521978 0.0033753035
0000e0 9f c1 5d ba e9 36 34 bc 89 c3 b9 bb 60 0d 93 3a
       -0.0008459333 -0.01099942 -0.0056690616 0.0011219196
0000f0 d2 06 10 3c 66 af 1f bb f2 34 c1 3a 2b 35 91 ba
       0.008790689 -0.002436602 0.001474051 -0.0011078467
000100 53 b8 54 3b d2 48 76 3c b9 0f 01 bc a9 db c1 3b
       0.0032458499 0.01503201 -0.007877284 0.005916078
000110 21 02 12 bb 31 d6 c8 3b f6 13 1a bc 78 fc 93 ba
       -0.00222791 0.006129049 -0.009404173 -0.0011290452
000120 e9 df 67 bb ae 69 de 3c ce 4f 4e b9 12 07 3b bc
       -0.0035381264 0.027150001 -0.0001967542 -0.01141526
000130 e4 da bf bb cd 6d 95 bb c8 c4 50 ba 8a 94 65 3b
       -0.005854951 -0.0045602084 -0.0007963893 0.0035031163
000140 f7 b1 5c 3c c7 2d 24 bc a9 47 18 3c 02 1c e3 3a
       0.0134701645 -0.01002068 0.009294429 0.0017327073
000150 32 86 ba bb 2a 4c 99 3c 92 2f 11 3b 06 6e dd bb
       -0.005692267 0.018713076 0.0022153598 -0.0067575006
000160 1c 75 22 bb 45 5c 05 3b 7b 15 ce 3b f6 ce 13 3c
       -0.002478904 0.0020349186 0.0062891818 0.009021511
000170 df be 2a bc b2 6d a7 bb bc c8 f4 3b 4e 50 e9 bb
       -0.010421484 -0.0051095122 0.0074702185 -0.007120169
000180 c9 9d d5 bb 7b 37 bc 39 83 c7 cf bb 5e 6c a9 bb
       -0.0065190536 0.0003589949 -0.0063409223 -0.005170389
000190 56 bd f4 b8 c8 a6 10 3c 4f 30 10 3c 03 aa c4 bb
       -0.00011670093 0.008828826 0.00880058 -0.0060017123
0001a0 e6 70 69 3b d9 df 89 bc f8 37 ca bc 9f 6b b5 3b
       0.0035620271 -0.016830372 -0.024684891 0.005536511
0001b0 f7 8c e0 bb 5a 2a d4 3b 3f 13 75 3a 44 d6 c9 ba
       -0.006852742 0.0064747753 0.0009348876 -0.0015398939
0001c0 e3 3e 13 3b b1 c2 1e bc bc 2e d6 bb 67 a2 3d bb
       0.0022467903 -0.009689973 -0.006536333 -0.002893591
0001d0 30 94 71 3c e1 0a 15 bb c2 71 97 bc 57 2d 57 3b
       0.014744803 -0.002274208 -0.018486861 0.003283342
0001e0 3b 79 d7 3c 5e ce ff ba b9 29 e2 bc a2 2e a4 bb
       0.026302924 -0.0019516458 -0.027607786 -0.005010442
0001f0 eb e9 1b 3b 07 b4 36 bb de ac a5 3a 3d 04 e4 3b
       0.002379055 -0.00278783 0.0012640019 0.006958513
000200 f9 22 76 3b bf b2 5a bc a2 7a 35 bc 1f 8c 83 3b
       0.0037557466 -0.01334828 -0.011076601 0.0040145065
000210 fb 95 1c 3c d3 ac 08 3a 1d 22 c9 bb cd 3f bf bc
       0.0095572425 0.0005213741 -0.0061381 -0.023345852
000220 ba d0 0f 3c 6c 37 67 3b d4 4b e3 3b 33 4f 79 3b
       0.008777792 0.0035280837 0.0069365297 0.0038041591
000230 b0 81 49 bb 80 72 3e 3b b2 28 95 3c fc ea 6b bc
       -0.0030747466 0.0029059947 0.018207882 -0.014399286
000240 53 c0 17 3c ac 43 37 bc d7 0f 6a 3c ab ea 80 3a
       0.009262162 -0.011185568 0.014286003 0.0009835562
000250 0c da 53 bb 89 4d 97 bb e9 e4 8a 3b 7d d3 33 bc
       -0.003232601 -0.004617397 0.004238714 -0.010975716
000260 7c 3d 44 bc 4a a7 d4 b8 35 09 90 3b 3b a7 ad bb
       -0.01197755 -0.00010140108 0.004395629 -0.0052994764
000270 1c 2b 86 3b 7a fc 2e bc c7 93 e2 ba c9 bb 91 3b
       0.0040944945 -0.010680312 -0.0017286473 0.0044474346
000280 19 19 b9 39 a7 9d a5 bb 33 85 3b bc e8 63 59 bb
       0.0003530465 -0.005054194 -0.011445331 -0.003317112
000290 06 9f 4c ba e9 24 ed bb 4f 75 c7 bb 05 d3 06 bc
       -0.0007805679 -0.007237066 -0.0060869823 -0.008229022
0002a0 61 aa 8a bc 3e be a7 3a 36 ac 9a bb 90 a4 65 bc
       -0.016926946 0.0012797785 -0.004720236 -0.014016286
0002b0 80 fc cc bb 32 5f f1 3a e0 3b 71 3c 76 d5 71 3a
       -0.0062556863 0.0018415211 0.014723748 0.00092252286
0002c0 10 82 a4 3b b9 f1 bc bb 03 66 c4 3b 18 f0 7b 3b
       0.0050203875 -0.0057661203 0.005993606 0.0038442668
0002d0 6b 00 c3 bb 86 ef f0 3b b9 3b e7 bb 41 e4 28 3c
       -0.0059509776 0.007352772 -0.00705668 0.010308326
0002e0 2f c5 28 3c b1 2b c8 bb 6d e1 df bb da 10 6d ba
       0.0103009185 -0.006108724 -0.006832293 -0.00090433436
0002f0 89 8e d3 ba 8f ce 74 bc 6d 52 8f bc f9 f4 a7 3b
       -0.0016140501 -0.0149418255 -0.017495358 0.0051256386
000300 e3 d1 48 bb d6 19 1b 3c d1 51 e9 3a 76 70 80 b9
       -0.003064268 0.009466609 0.0017800872 -0.00024497852
000310 e5 45 1d 3c f8 64 d0 3b 65 db 7c bb d6 33 b6 3b
       0.009599184 0.0063596927 -0.0038582918 0.0055603785
000320 93 2d 45 3b c3 f4 9d ba d3 a4 a4 bb f0 7b 0f 3c
       0.0030086979 -0.0012051094 -0.0050245314 0.008757576
000330 59 e0 0f bc 9c 1f a8 3b 02 75 82 ba d4 1a 04 bc
       -0.008781516 0.0051307213 -0.0009953084 -0.008063037
000340 5f 83 63 3c a5 56 79 3c c2 0f 07 3c 60 93 78 3c
       0.013886302 0.015218412 0.008243503 0.015171856
000350 dc 1d 4b bb 0c 95 ce bb 86 06 85 3b 7b 3a bb bb
       -0.003099314 -0.006304389 0.0040596155 -0.0057137585
000360 8d c6 1d bc c0 79 02 bc ef 12 80 bb 00 44 98 bc
       -0.009629858 -0.007963598 -0.003908507 -0.018587112
000370 00 5d 96 bb e8 41 fe ba f2 58 a3 ba cf 01 0f bc
       -0.004588723 -0.0019398304 -0.0012462421 -0.008728459
000380 35 9c e2 3a 87 74 10 bc f5 b0 ad bb 57 93 e1 3a
       0.0017288985 -0.008816845 -0.005300636 0.0017210048
000390 83 54 ad bb b5 15 d5 bb 61 4f 47 3c e5 2c 06 bc
       -0.0052896156 -0.006502832 0.0121649215 -0.008189415
0003a0 f2 7e 9c 3b 94 d1 29 3b 70 a1 0e 3c 08 cc 9b bb
       0.0047758752 0.0025912272 0.008705482 -0.004754547
0003b0 e9 e0 1f 3c 7d 38 6a bb ca 2b 52 bc 68 ac c2 bb
       0.009758213 -0.0035739236 -0.012827823 -0.0059409626
0003c0 40 3e bf bb 7b eb da 3b ca 5c 9a 3b 28 20 0d 3c
       -0.005836278 0.0066809035 0.0047107683 0.008613624
0003d0 2e 2e 33 3c 09 12 84 3b 3a bf db b9 ad f3 8e 3a
       0.010936303 0.0040304703 -0.0004191341 0.0010906361
0003e0 de ae 2b ba 4c 6e a5 3b f7 8e 1e ba 6e 46 68 bc
       -0.00065491896 0.005048549 -0.0006048525 -0.014176948
0003f0 1c 22 86 b7 8d c2 91 ba 03 03 bb bb 50 8f b9 3b
       -1.5989928e-05 -0.0011120603 -0.005707146 0.005662836

input_block.1.weight f4 [64, 398]
000000 2d 5c c1 bb ac 75 71 bd aa e0 7f bc 70 c1 64 3c
       -0.005900881 -0.05895011 -0.015617529 0.013962135
000010 ce ee 51 bc ee ef 0c bd 62 49 21 bc 94 9f 3a 3d
       -0.012813283 -0.034408502 -0.009844156 0.04556234
000020 68 02 71 3c 47 11 f0 bc 8b b3 0c 3d 8a 08 a2 3c
       0.014710046 -0.029305113 0.034350913 0.019779462
000030 0e 33 51 3c 28 5c 52 3d 88 56 80 3d 14 3f ff bb
       0.01276852 0.05135742 0.062665045 -0.007789502
000040 9f b2 ec 3c 9f 55 52 bc b0 0f 4e 3c bb 45 18 bd
       0.028893767 -0.0128377965 0.012576982 -0.037175875
000050 62 8a f8 3c 59 92 26 bd 45 4c b6 bb ca 97 64 3c
       0.030339424 -0.04066691 -0.0055632913 0.013952205
000060 7d 41 fc 3b 96 eb 91 ba 63 6f 27 3d de 8b 8c 3d
       0.0076982365 -0.0011132832 0.04087771 0.06862615
000070 95 91 ce 3c d5 ab 2b bd ae ef 00 bd 41 05 27 bd
       0.025215903 -0.04191192 -0.031478576 -0.040776495
000080 68 3a b2 3b c5 1b 32 bd 01 b0 15 bd 5c cb ff 3b
       0.0054390915 -0.043483514 -0.036544804 0.0078062247
000090 58 63 ac bd 13 ac 09 3c b2 7f 27 bd d1 6f 01 bd
       -0.08417386 0.008402842 -0.040893264 -0.031600777
0000a0 7b 90 b1 bc bd cf 0f 3d e1 e1 09 3d 6b 7f e3 bc
       -0.021675339 0.035110224 0.03366268 -0.027770719
0000b0 e8 1a 62 bd d2 a5 0b 3d 0a 61 0b bd 3c b9 49 3d
       -0.05520144 0.034093685 -0.03402809 0.04924892
0000c0 88 a4 50 bd f1 8f 57 3d 37 59 ca bc a5 2d 20 bc
       -0.05093816 0.052627508 -0.024700744 -0.0097765075
0000d0 fe dc 2a 3d d6 f4 64 bd 7e 4f 34 bc 03 46 3c bd
       0.04171466 -0.055897556 -0.011005281 -0.045965206
0000e0 d5 14 3b bd 97 0b 03 3c 2c 7d 46 bd 77 19 24 bd
       -0.045674164 0.007998369 -0.048459217 -0.040063348
0000f0 44 b3 6c bc 0a 41 30 bd 71 56 76 bd 64 3f dc bc
       -0.014447037 -0.043030776 -0.06014103 -0.026885696
000100 90 c4 ce bc 47 68 8a b9 54 fe 4b bd 0b 3c c9 3c
       -0.025240213 -0.00026399104 -0.049803093 0.024564764
000110 e0 59 06 bd d6 c2 25 3d 1b f5 f2 3c 78 a1 3c bc
       -0.032800555 0.040469013 0.029657891 -0.0115131065
000120 9e a3 29 3c ca ca ff 3c ce 93 44 bd 53 30 23 bd
       0.010353951 0.031224627 -0.04799252 -0.039841007
000130 f4 51 62 3c b7 6f e7 bc 81 2e 91 3d 56 51 e2 3c
       0.013813484 -0.028251512 0.07088948 0.027626675
000140 01 0b 14 bd e2 cd 45 3d 05 6e dd bb df 43 01 3b
       -0.036143307 0.04829205 -0.0067575 0.0019724292
000150 9b b0 65 3d 9f 0c 2c bd bc 61 00 3d d5 82 3d 3c
       0.056076627 -0.042004224 0.031343207 0.011566837
000160 43 cd 07 bd 9f 38 80 3c a5 2e 1b bd e3 3c 05 3d
       -0.033154737 0.015651999 -0.03788628 0.03252877
000170 41 1c 17 3d e4 6d b8 bc 5d af 12 3d ed fc 51 bc
       0.03689218 -0.022513337 0.03581177 -0.01281665
000180 50 f5 f7 bc bb 51 eb bc 71 8d 2a 3d 47 bb 40 bd
       -0.030268341 -0.028725496 0.041638795 -0.0470536
000190 d3 64 6f 3d 1b 15 d1 3c 06 8c 1e bd fc 5f a7 3c
       0.058445763 0.02552276 -0.038707756 0.020431511
0001a0 74 1c fb bb db d5 c2 3c 54 28 49 bc 0e 83 3a bd
       -0.007663304 0.023783615 -0.012277681 -0.04553514
0001b0 a3 e0 81 bc 12 a5 26 bc 02 35 2a bc c1 3a 93 3d
       -0.015854185 -0.010171192 -0.010388615 0.07188941
0001c0 b0 12 0e 3d 4f 20 d3 3c ae df a0 3c 2e e4 bc 3c
       0.03468579 0.025772242 0.019637909 0.023058023
0001d0 e3 85 72 3c 65 27 73 bd be 15 91 bc e2 00 23 3c
       0.014802429 -0.05936374 -0.017710563 0.009948941
0001e0 c4 73 b4 bc d0 9c a8 bc fb 64 1d 3d 76 10 40 bd
       -0.022027858 -0.020582587 0.03842638 -0.0468907
0001f0 a1 96 96 bb ac 54 78 3c 57 4b 69 bd de a7 2c bc
       -0.004595593 0.015156906 -0.056956615 -0.0105380695
000200 6a 06 0e 3c b1 0a ef bc 38 34 16 3d 05 66 72 bc
       0.008668521 -0.029179903 0.036670893 -0.014794831
000210 c6 12 3d 3b 95 e8 5e 3d af ff 18 bc db 49 6c bd
       0.0028850301 0.054421026 -0.0093383035 -0.05768762
000220 ae 73 86 3d f9 0f 2d 3c d0 23 3f 3d 1b c8 40 3d
       0.06565033 0.01056289 0.046665013 0.047065835
000230 3f c1 0e bd e0 72 2d 3d 14 8f 78 3c 80 fc 7e bc
       -0.034852263 0.04234588 0.015170831 -0.01556313
000240 76 60 25 3d 95 e1 43 3d 54 5f 05 b9 7a f5 02 3d
       0.040375195 0.047822554 -0.00012719381 0.031972386
000250 25 ee 78 3c 98 53 52 bc 73 2b 14 3d 0e 1d 0d 3d
       0.015193497 -0.012837313 0.03617425 0.034451537
000260 39 4d 9b 3a a9 dd cd 3c 28 ce fd 3c b9 b2 01 bc
       0.0011848576 0.02513011 0.030982092 -0.007916146
000270 3a 85 29 3c bc 14 12 bb cd 59 67 3c c2 cf 2e 3d
       0.010346705 -0.002229019 0.014120531 0.042678602
000280 0b 30 d3 bb 0d 2d f9 3c bb c8 38 3c b9 cd f6 3c
       -0.006444936 0.03041699 0.011278327 0.030127393
000290 d5 50 78 3d 88 24 19 3d 30 50 8f 3c 69 8b 21 3d
       0.060623962 0.037388355 0.017494291 0.039439593
0002a0 3c 63 ce 3c 7b 25 9a bd a9 d6 1a 3d c5 74 0d bd
       0.025193803 -0.0752668 0.037802372 -0.03453519
0002b0 86 e2 77 bd c6 7e 96 bd 2f 8a 59 3d c6 59 2e 3d
       -0.060518764 -0.07348399 0.053110298 0.042566083
0002c0 09 76 e1 3c 10 59 3f bd 52 17 a5 3c 38 ef d5 3c
       0.027522104 -0.046715796 0.020152722 0.026115045
0002d0 9e e9 2a 3c 0d 3c 3d bd 62 3b 99 bc 30 83 20 3b
       0.010431675 -0.046199847 -0.018705074 0.0024492256
0002e0 39 e6 10 3d 24 2f 17 3d be 4e 79 3d 7e a3 3b ba
       0.035375807 0.03691019 0.06086611 -0.0007157846
0002f0 fb 47 5b bd 89 01 d8 3a ae 01 86 bc 20 cd c7 bc
       -0.053535443 0.001647995 -0.016358223 -0.024389803
000300 e7 f0 27 3d 08 24 b2 3c 0e b2 95 3c 57 f9 23 3d
       0.041001227 0.021745697 0.01827338 0.04003271
000310 75 26 27 bd db d4 14 3d 90 33 71 bc 37 f2 15 3d
       -0.04080816 0.036335807 -0.014721766 0.036607947
000320 12 63 5a bd 62 67 ac 3b 7d f3 cc 3c b4 80 30 3d
       -0.053317137 0.0052613476 0.025018448 0.04309149
000330 b7 4a 93 bc 27 f0 ab 3b 77 d9 80 bd b1 56 a3 3c
       -0.017979963 0.0052471342 -0.06291478 0.019938799
000340 91 60 07 3c 78 87 bd 3c 2b e7 26 3d 03 16 f9 bc
       0.008262769 0.023135886 0.040747803 -0.030406004
000350 bd 12 34 3d de 77 c5 3b a0 06 08 3d d5 ee 24 bd
       0.043963183 0.006026252 0.033209443 -0.04026683
000360 45 ea 1c bd a4 38 0d 3c 97 f0 74 3d cc 01 08 3b
       -0.038309354 0.008619461 0.059799757 0.0020753024
000370 50 f0 71 bd 2d a6 f6 bc 91 e3 c6 bc c9 68 bd 3c
       -0.05906707 -0.030108536 -0.024278434 0.023121255
000380 fd af 4d 3d 60 be ad bb 42 73 00 3d af 48 98 bc
       0.050216664 -0.0053022355 0.03135992 -0.018589346
000390 cc 46 24 b8 b7 4d e0 bc fd 53 fb bb d4 be 06 bd
       -3.916658e-05 -0.027380807 -0.0076699243 -0.03289683
0003a0 9a d3 74 bc 97 1a 8b bc 54 19 d5 3c b5 cd 3b bd
       -0.014943028 -0.016980452 0.026013054 -0.045850474
0003b0 40 17 80 3c b8 c6 fd 3c 6a 03 7e bb e4 dd e5 3b
       0.015636086 0.030978546 -0.003875936 0.007014977
0003c0 88 20 8c 3b 3d 0c f2 3c fe 0a 8a bc 33 96 75 bc
       0.004276339 0.029546851 -0.016850945 -0.014989424
0003d0 08 9d 24 bd a6 63 6e 3d 06 fe 3a bd 46 55 5f bd
       -0.04018882 0.0582005 -0.045652412 -0.054524682
0003e0 c2 38 eb 3c b5 e8 dc 3c 28 73 b5 bb 91 36 dc bc
       0.028713588 0.026966432 -0.0055374093 -0.026881488
0003f0 36 c2 f9 bb 71 f7 40 3c eb 40 60 3d 99 d0 9b bc
       -0.0076220287 0.011777745 0.05474941 -0.019020366

input_block.1.bias f4 [64]
000000 eb ac 3d bd 11 c7 28 3d 34 f3 81 ba b8 70 ec 3b
       -0.046307486 0.04120547 -0.0009914399 0.0072155856
000010 80 a7 11 3d d2 a0 0c bd e8 e9 29 bd fb 65 7c bb
       0.03556013 -0.034333058 -0.041482836 -0.0038512934
000020 f4 d9 e4 3c f1 98 71 bd 59 dc 9a bb bd 25 24 bd
       0.02793596 -0.058983747 -0.0047259745 -0.040075053
000030 c1 1f 97 bc e8 93 bf bc 14 5b 99 3c ba 59 6b 3c
       -0.018447759 -0.023385957 0.018720187 0.014364654
000040 c7 84 39 bd b4 ef 5e bd 81 5c 3f bd 95 1b 04 3d
       -0.045292642 -0.054427817 -0.046719078 0.032252867
000050 cd 4b b6 bb f9 ca 0c bd 85 da ea bc b0 a1 cb 3c
       -0.0055632354 -0.034373257 -0.028668651 0.024857372
000060 d4 e8 36 bc 27 f7 c2 3c 81 be c4 3c 9d af 3d bd
       -0.011163909 0.023799492 0.02401662 -0.046310056
000070 38 a6 a1 3c a5 14 2f bd 5b df af 3c 34 36 40 3c
       0.01973258 -0.042744298 0.021468809 0.011731673
000080 d5 c2 75 bc 11 5d 37 3c 52 4f 51 bd e5 01 8b b9
       -0.015000065 0.011191622 -0.051101036 -0.00026513558
000090 e1 43 00 3c fa e9 24 bd 14 ac e4 3c 84 bd 05 39
       0.007828684 -0.0402622 0.027914084 0.00012754468
0000a0 32 55 05 3d 0f fc 3b 3d 1a e7 64 3c aa 1e c6 bc
       0.03255195 0.04589468 0.0139711145 -0.024184544
0000b0 d8 0a f4 3c b6 64 04 3d 5b 2e a5 bc 40 0b 1b 3d
       0.029790327 0.032322608 -0.020163706 0.037852526
0000c0 a8 c9 1d bc 00 23 a8 3c fb 8a 38 bd b1 a5 15 39
       -0.009630598 0.020524502 -0.045054417 0.00014271472
0000d0 47 9d da 3b 49 fb 3b 3d c2 d7 f7 3c a3 9b ca bb
       0.006671581 0.04589394 0.030254249 -0.006183104
0000e0 b2 f7 62 bd 3c 5a 0b 3d e1 0c 6a 3c 74 67 fe 3b
       -0.055412002 0.0340216 0.014285297 0.0077637974
0000f0 3f 4c 31 bc ed 94 06 bd 48 fa d8 bb 27 7e 16 bd
       -0.010821401 -0.03285687 -0.0066216327 -0.036741402

hidden_block.0.weight f4 [64]
000000 a8 9c 83 3f 1c 45 82 3f 7b b0 79 3f 09 73 7d 3f
       1.0282183 1.017734 0.9753491 0.99003655
000010 c4 e4 80 3f 18 cd 78 3f 0c ee 7b 3f bd df 71 3f
       1.0069814 0.9718795 0.98410106 0.9448202
000020 d8 20 82 3f e5 6a 81 3f a4 52 82 3f 81 8b 82 3f
       1.0166273 1.0110747 1.018147 1.0198823
000030 f9 d6 81 3f ac 71 6f 3f bd 99 7a 3f 95 d2 7d 3f
       1.014373 0.93532825 0.97890836 0.9914945
000040 08 00 7e 3f ae 31 82 3f d6 4f 80 3f fd 72 7d 3f
       0.992188 1.0171411 1.0024364 0.99003583
000050 bc df 7a 3f ee 1b 7c 3f 01 96 7c 3f ba 4e 81 3f
       0.9799764 0.9848012 0.9866639 1.010215
000060 a3 77 78 3f c7 70 87 3f 03 92 83 3f 11 0d 80 3f
       0.9705755 1.0581292 1.0278934 1.0003988
000070 41 5f 7f 3f 90 77 70 3f 0d a6 81 3f 93 60 7e 3f
       0.9975472 0.9393244 1.01288 0.9936611
000080 55 9c 81 3f 60 e5 81 3f 50 34 81 3f c3 ca 7f 3f
       1.0125834 1.0148125 1.009409 0.99918765
000090 bb 7c 85 3f 69 e5 70 3f 39 da 76 3f 96 7d 7d 3f
       1.042869 0.9410005 0.9642673 0.99019754
0000a0 65 2f 81 3f 63 28 7b 3f 60 9a 80 3f e1 f3 83 3f
       1.0092589 0.981085 1.0047112 1.0308801
0000b0 d5 f9 7b 3f 54 64 7f 3f a3 aa 7d 3f dc 4b 7b 3f
       0.9842809 0.99762464 0.99088496 0.9816263
0000c0 67 46 7e 3f 5d 09 81 3f ee 32 76 3f 2b 36 77 3f
       0.99326175 1.0080982 0.9617146 0.9656703
0000d0 c2 8c 74 3f 3a b3 83 3f 86 2e 81 3f f3 32 76 3f
       0.9552728 1.0289071 1.0092323 0.9617149
0000e0 6e cc 83 3f d4 cd 81 3f e9 2c 81 3f 4e 0e 7e 3f
       1.0296762 1.0140939 1.009183 0.9924058
0000f0 c4 4d 7e 3f 53 f0 73 3f 26 98 88 3f b3 58 71 3f
       0.9933741 0.9528858 1.0671432 0.9427597

hidden_block.0.bias f4 [64]
000000 85 91 0f bd 20 ac 75 bc d4 e0 42 bc d9 1c b5 bb
       -0.035050888 -0.014994651 -0.0118944235 -0.0055271205
000010 52 4f a0 bc 64 15 ad 3b 55 1a b3 bb 97 ea ea 3b
       -0.019569073 0.005282091 -0.0054657855 0.0071690786
000020 43 e2 aa 3c c6 57 f8 bc af 99 fd 3b c4 ba 18 bd
       0.020859843 -0.030315291 0.007739268 -0.03728749
000030 50 97 64 bc a7 af 68 3b f6 7f 71 3b 79 14 4f 3c
       -0.013952091 0.0035505088 0.0036849952 0.012639158
000040 e5 81 e5 3b 89 93 06 bc fd 4f 62 3a cf 45 2c 3c
       0.00700401 -0.008213886 0.0008633135 0.010514691
000050 18 4b bd bb b5 10 c0 3b 50 87 02 3c e7 64 9e bb
       -0.005776774 0.0058613666 0.007966831 -0.004833806
000060 f0 0b 06 3c c9 76 32 bd f2 bb a5 bc 9e bb 03 3b
       0.008181557 -0.043570314 -0.02023122 0.0020100842
000070 79 54 4f bc 5d 5f 7c 3c 00 de 3d bc bb d4 24 ba
       -0.012654417 0.015403596 -0.011588573 -0.0006287803
000080 7c 1e b5 39 fa 59 11 bc ff 6c d4 3b 05 d9 4c 3c
       0.00034545723 -0.00887155 0.00648272 0.012502913
000090 fc f0 3b bd 43 16 01 3b 38 0d fb 3c 18 2d 28 bc
       -0.045884117 0.0019697107 0.030645952 -0.010264657
0000a0 f8 54 b6 bb 86 18 a7 39 a6 87 0a 3c e9 8b 7c bc
       -0.0055643283 0.00031870994 0.008455193 -0.015414217
0000b0 63 c6 2f 3c 9e 07 41 3b 39 1d ad bb f6 2d c2 bc
       0.010728451 0.0029454003 -0.0052830246 -0.023703557
0000c0 0e 19 60 3c 0f 1b 0f 39 3b f8 97 b8 42 e8 25 3d
       0.0136778485 0.00013647623 -7.2464776e-05 0.0405047
0000d0 6e 79 95 3c 21 54 af ba 98 35 cd 3b 93 00 ae 3c
       0.018246379 -0.0013376513 0.0062624924 0.021240508
0000e0 4f f8 c3 bc 9e 67 7a bc 9c a9 6f bc cd ae bf bb
       -0.023922114 -0.015283493 -0.01462784 -0.0058496953
0000f0 ca 62 a3 3a 51 6c ab 3c 97 4c 91 bd 55 8d 3a 3b
       0.0012465355 0.020925673 -0.070946865 0.0028465588

hidden_block.2.weight f4 [64, 64]
000000 19 8e e9 bd 4a f2 6d bd b7 00 24 bd de 25 89 3d
       -0.11404056 -0.058092393 -0.040039744 0.06696676
000010 4b ee 86 bc df fb c0 bd b6 07 2b bc 2b 91 f5 3c
       -0.016471049 -0.094230406 -0.01043885 0.029976448
000020 d5 e6 9a bd 2d e5 23 3d 20 a7 e1 bd ec 5c 17 3d
       -0.07563559 0.04001348 -0.11018205 0.03695385
000030 af e6 d5 bd 96 6b 04 3e 20 9c cd bd e3 ba c6 bd
       -0.1044439 0.12931666 -0.10039544 -0.097036146
000040 98 e6 7e bd a8 4c d3 3c 43 16 34 bc 28 c6 9f bc
       -0.06223163 0.025793388 -0.010991636 -0.019503668
000050 de d6 da 3c da 6a 34 3d 7d 02 b8 3d 36 82 50 3c
       0.026713785 0.044047214 0.089848496 0.012726357
000060 90 ef 59 bc 03 b2 80 bd 6f dc 99 bb b7 25 73 3d
       -0.013301745 -0.06283953 -0.004695467 0.05936214
000070 66 b7 fd 3c e9 ce 8a 3d 74 32 7f bd f5 5a 90 bd
       0.03097124 0.06777746 -0.062303975 -0.07048599
000080 47 2a a3 bb 3e 31 3c 3d 04 66 21 bc 51 c0 1e bd
       -0.004979405 0.0459454 -0.009850983 -0.038757626
000090 73 2f 1f bd 7f 7c d2 3d ee f8 65 3c 05 05 00 3e
       -0.03886361 0.10277652 0.0140364 0.12501915
0000a0 f8 21 01 bd 7d 22 9d bd 0a 8f 2c bc 1c a3 69 3d
       -0.031526536 -0.07672594 -0.01053215 0.05704032
0000b0 68 e1 f7 3d 09 b1 3c 3d 5e bb bf 3d c2 ef 97 bd
       0.1210354 0.04606727 0.09361909 -0.07418777
0000c0 1d 99 7b bd f6 dc 97 bc e7 60 80 3d e7 8a 89 bd
       -0.061425317 -0.01853798 0.06268483 -0.06715947
0000d0 ac 8d c9 3d 32 29 87 bd bd 08 a6 3d 39 b3 d1 3d
       0.09841475 -0.06599654 0.081071354 0.10239262
0000e0 83 2a 77 bc 2c 43 9b 3c 2b 21 ba bd 35 94 76 3d
       -0.015085819 0.018952928 -0.090883575 0.060199935
0000f0 9e 08 aa 3c a9 b3 60 3c 7c f5 e8 bc e9 15 90 3c
       0.020756062 0.013714709 -0.028437369 0.017588573
000100 e9 0f f9 bb b7 48 4b bd 0c fc 4a bd b7 e8 be bd
       -0.0076007736 -0.049629893 -0.049556777 -0.093217306
000110 99 fc 90 3d 2d 77 cc 3b c0 fa 05 3e 0b 4e 00 bc
       0.07079429 0.006239793 0.13083935 -0.007831107
000120 34 8a 0a be c9 d2 96 3d 93 d6 a3 3d 39 f4 50 bc
       -0.13529283 0.07364423 0.07999911 -0.01275354
000130 19 e7 6b b9 1f ef 84 3d f2 cd 00 bd 18 53 65 3d
       -0.00022497437 0.06490921 -0.031446405 0.055987448
000140 f8 e6 a2 bd a9 6e 4a 3d 15 55 b3 bd fe f0 49 bd
       -0.0795421 0.04942194 -0.087564625 -0.049302094
000150 43 43 82 bd 3f 7a c9 3d ef 85 7f 3c 99 f3 8b 3d
       -0.063604854 0.0983777 0.015595897 0.06833572
000160 8c af d9 bd 05 52 23 bc 2b 9b 96 bd 4f 22 ce 3d
       -0.10629186 -0.009968285 -0.07353815 0.100651376
000170 c1 bd f6 3b 79 a1 8a 3b 4a 44 4b bc 9b 13 c7 bd
       0.0075299446 0.004230675 -0.012406418 -0.09720536
000180 bc 41 df bc 74 d4 70 bd 3b 98 8e bc 6f 1a 97 3c
       -0.027253024 -0.05879636 -0.017406574 0.018445222
000190 09 aa 0f 3c 11 c5 c8 bd 9d 30 f6 3c c2 b6 dc bc
       0.008768567 -0.098032124 0.030052477 -0.026942614
0001a0 6d c6 84 bd 9a 48 37 3d b0 91 d0 3d 20 1d 23 3d
       -0.06483159 0.044746973 0.10184038 0.039822698
0001b0 bf e4 21 3a 0d 44 85 bd ec ab 2a 3d 2f 52 14 3c
       0.00061757484 -0.0650712 0.041667864 0.009052797
0001c0 7c 69 0f 3d f6 da 76 bd e7 ed 0e 3d 58 9d 0e 3e
       0.035012707 -0.06026741 0.03489485 0.1392721
0001d0 3e 3c ba bd a1 1b 69 bb 0c a0 8f ba 91 b4 4f bc
       -0.090935215 -0.0035569447 -0.0010957732 -0.012677328
0001e0 17 71 89 3d 7b d6 29 bd 70 00 a7 3c 05 00 b0 bd
       0.06711023 -0.04146431 0.02038595 -0.08593754
0001f0 33 77 b0 bc 83 fd c1 3d cd 80 a9 3d 49 f2 e4 3c
       -0.021541214 0.09472182 0.0827652 0.027947562
000200 3f 5f df bc 26 28 40 bc 76 a7 0a ba 17 65 b4 3d
       -0.027267097 -0.011728322 -0.0005289236 0.08808344
000210 6f 1e bf bd d5 46 78 3d 01 af 03 bc 1e aa 01 bd
       -0.093319766 0.060614426 -0.00803733 -0.031656377
000220 b0 34 14 bd 8f b8 78 bb 9f 60 ac 3d ad 39 e1 bd
       -0.03618306 -0.0037951802 0.084168665 -0.10997329
000230 04 1e 29 bd 81 51 f2 3d c8 dd 5d 3d 3d aa dd bd
       -0.04128839 0.11831952 0.054166585 -0.10823486
000240 e2 9f eb bd 0a e8 c8 bc da 4c 8b bd 43 99 d4 3c
       -0.115051046 -0.024524707 -0.06801768 0.025951987
000250 1b bd 97 3d 94 0a 82 bd 53 a6 12 3d cb 33 fa 3d
       0.07409116 -0.06349674 0.03580315 0.1221691
000260 69 95 05 3c 41 70 e9 bd 76 fc aa 3d 1b 23 c4 3d
       0.008153298 -0.11398364 0.08348934 0.09577008
000270 27 cf bc 3c ba 13 b5 3d 0d e1 fb ba f3 67 27 bc
       0.023047997 0.08841653 -0.0019216851 -0.0102176545
000280 d1 2f 7b 3b 28 b5 55 bd 08 5c e0 bd 27 cd e7 3d
       0.0038328061 -0.052174717 -0.109550536 0.113184266
000290 88 e7 32 bd fb 39 fd 3c 73 f5 8e 3d ca fb db bd
       -0.043677837 0.030911436 0.069804095 -0.10741384
0002a0 8f 70 d7 bd 91 43 05 be 84 fa b5 3c 32 71 36 bd
       -0.10519516 -0.13014056 0.022214182 -0.044541545
0002b0 2a ae a4 bc 87 76 ba bd 13 2b 5a 3d 31 15 a6 bc
       -0.02010258 -0.091046385 0.053263735 -0.020273777
0002c0 2a ce 8a bd 2d 2d da 3c 8f c8 ae 3d e8 f3 18 bc
       -0.06777604 0.02663287 0.08534347 -0.0093354955
0002d0 1f 73 18 3c b8 d9 11 3d f8 f0 7d 3d d6 79 94 bd
       0.009304791 0.035608023 0.061997384 -0.07249801
0002e0 ef 2d 45 3d 17 b7 1a 3c cb 06 42 3c ef dd 51 bc
       0.04813951 0.009443066 0.01184244 -0.012809261
0002f0 6f 2c 88 bd e4 e1 9d 3d ba 5a 3b 3d df b5 a6 bd
       -0.066491 0.07709101 0.04574082 -0.08140158
000300 9d c6 85 bd b6 8b e1 3d e6 23 89 3d c3 ed 98 3d
       -0.06532023 0.11012976 0.066963 0.074672244
000310 cb 63 1d 3d 1c 12 28 be 45 25 4a bd 1b b5 90 3d
       0.038425248 -0.16413158 -0.04935195 0.07065793
000320 fb 5f bc 3d 22 b3 db bd 5f ce fc bd 6b 67 7a 3d
       0.09197994 -0.10727526 -0.1234405 0.061133783
000330 ec 0f 1d 3d 93 7f c6 3b 31 5a 0c 3c 60 e4 b9 bd
       0.038345262 0.0060576885 0.008566425 -0.09076762
000340 82 8d b6 bd 55 93 eb 3d 07 39 27 bb 88 18 7f 3d
       -0.08913709 0.11502711 -0.0025516169 0.062279254
000350 5e 74 64 bd 6a 1a 0e be 8b 93 c2 3d bb 30 88 3d
       -0.05577504 -0.13877264 0.09500798 0.066499196
000360 64 96 bc 3c e1 3b 87 3d c6 c8 b7 3d dc ee 8e 3d
       0.02302093 0.06603218 0.08973841 0.069791526
000370 06 43 2a bd f1 ae d9 bd d0 6f 8f 3d 56 a2 ba bd
       -0.041567825 -0.106290706 0.070037484 -0.091129944
000380 f4 6e da bd ca ce d8 3d f8 41 34 3d db a7 8c bd
       -0.10665694 0.10586317 0.044008225 -0.068679534
000390 9c 96 83 3d 0c 24 e6 bd b4 44 0e be 40 f2 e9 3d
       0.06425211 -0.11237344 -0.13893396 0.11423159
0003a0 3f 3d cf bd 30 0c 84 bd f4 7b d2 3d fd 9e 3d 3d
       -0.10119104 -0.06447637 0.102775484 0.0462942
0003b0 5b 5a 96 3d 1b 8a d3 bd 86 28 e0 3d 88 31 f3 bd
       0.07341453 -0.10329076 0.10945229 -0.11874682
0003c0 d6 a9 4f bd ed 3d ce bc 45 7f 5f 3d 53 fb 1b bd
       -0.050699078 -0.025176013 0.054564733 -0.03808148
0003d0 4f dd c9 3d 5f 0d ce bd 53 03 17 bd 51 a9 b2 3c
       0.098566644 -0.10061144 -0.036868405 0.021809252
0003e0 35 07 b6 bd 44 bf c4 bd 75 dd c6 b9 71 49 1e 3e
       -0.088880934 -0.096067935 -0.000379305 0.15457703
0003f0 b6 0f ae bd 04 e7 d2 3c 50 9e bd 3c c9 59 f1 3d
       -0.084990904 0.025744922 0.023146778 0.11784703

hidden_block.2.bias f4 [64]
000000 cb 46 12 3e 58 24 97 bd 2d c0 ad 3d 1b d8 0e bd
       0.14284818 -0.07379979 0.0848392 -0.034874063
000010 60 d3 93 3a 6a b2 e2 bd ca 45 11 bd a9 c1 a5 bd
       0.0011278205 -0.11069186 -0.035466947 -0.08093578
000020 2a 79 b0 3d 5a 7e dd bd 52 39 b3 3d 00 7a 25 bb
       0.0861686 -0.10815115 0.08751167 -0.002524972
000030 0f 66 9a bd f5 82 28 be 11 9f c2 bd 09 c7 50 3d
       -0.075389974 -0.16456206 -0.09502996 0.050971065
000040 cf 86 3b bd fe f8 e4 3c 03 02 f3 3d 17 3e 72 3d
       -0.04578286 0.02795076 0.11865618 0.059141245
000050 65 74 89 3c 50 4b fe bd 19 c9 a3 bd e5 b9 3a be
       0.016779134 -0.124167085 -0.07997341 -0.18234976
000060 27 a1 d1 bd f3 d5 95 3b c2 63 0c be 0e ee 37 bd
       -0.102358155 0.004572624 -0.1370993 -0.04490476
000070 70 50 f5 bc 5e 63 41 be 82 88 04 bc 02 33 75 bd
       -0.029945582 -0.18885562 -0.008089187 -0.059863098
000080 f3 86 8b bc 31 6e 98 bd e6 14 95 3d 47 34 df bd
       -0.017032122 -0.07442892 0.07279377 -0.10898643
000090 a5 43 9d bd b0 78 34 3e f0 94 62 3e 65 76 94 3d
       -0.07678918 0.17624164 0.22127128 0.072491445
0000a0 6d b2 47 3e 8e 9d f0 bd 45 96 aa 3c 16 8b 10 3e
       0.19501658 -0.11748801 0.020823607 0.14115557
0000b0 9a e0 80 bd b8 09 ed 3c 62 85 c9 3d b4 04 07 3e
       -0.06292839 0.028935298 0.09839894 0.13185388
0000c0 9f 71 dd 3d 70 60 c0 bd 5b 28 91 bd 19 f0 ed bb
       0.10812687 -0.09393394 -0.07087775 -0.007261288
0000d0 8c 31 4a bd eb f6 2c 3d da 48 75 bd d1 1c f7 bd
       -0.049363658 0.042227667 -0.05988393 -0.12066043
0000e0 73 ae 5a bd 70 c7 c4 bd ec d4 20 3d dc 41 01 be
       -0.053389024 -0.09608352 0.039265558 -0.1262278
0000f0 52 e3 1a be 84 e7 da bc 8a 1d 68 3c 8e a3 05 3c
       -0.15125778 -0.026721723 0.014167199 0.00815667

hidden_block.4.weight f4 [64]
000000 6b 60 6f 3f 19 16 73 3f 18 52 70 3f 7c ca 77 3f
       0.935065 0.94955593 0.93875265 0.9679334
000010 f5 f0 60 3f ca a2 6d 3f 7b 2d 75 3f 62 61 77 3f
       0.8786767 0.9282652 0.9577252 0.9663297
000020 7f 55 72 3f 0a 89 80 3f 3c 46 5c 3f 0b d0 80 3f
       0.94661707 1.0041821 0.8604467 1.006349
000030 5d 02 7c 3f 27 91 76 3f 6f 81 71 3f ef e7 66 3f
       0.98441106 0.96315235 0.94338125 0.9019765
000040 0f 96 6a 3f 94 7c 64 3f 81 46 7c 3f 1e 92 7b 3f
       0.9163522 0.8925259 0.9854508 0.9826983
000050 97 61 79 3f 42 ad 7b 3f 24 9e 58 3f ec 48 71 3f
       0.97414535 0.98311245 0.84616303 0.94251895
000060 58 c3 6b 3f c8 de 7a 3f c5 68 70 3f 2c 87 7c 3f
       0.92094946 0.9799619 0.93909866 0.98643756
000070 18 c9 69 3f 15 60 66 3f 92 df 7e 3f d5 1f 7f 3f
       0.9132247 0.8999036 0.9955989 0.99657947
000080 51 da 85 3f d6 16 7d 3f 23 fa 7f 3f 2d 39 80 3f
       1.045725 0.9886297 0.99991053 1.0017449
000090 55 fc 86 3f 9c 1d 71 3f 5b ff 6a 3f d7 f5 68 3f
       1.0545756 0.94185805 0.9179589 0.9100012
0000a0 4e d0 71 3f 36 70 78 3f b5 46 76 3f e2 fb 79 3f
       0.9445847 0.9704622 0.9620164 0.9764997
0000b0 a3 97 79 3f 0a 27 7a 3f 4a e0 77 3f f3 50 76 3f
       0.97497004 0.9771582 0.9682661 0.9621727
0000c0 a7 9a 71 3f ad ae 71 3f 55 30 80 3f e7 5f 7c 3f
       0.94376606 0.9440716 1.001475 0.98583835
0000d0 fa 75 7c 3f e8 67 80 3f 41 75 74 3f bb d6 7f 3f
       0.9861752 1.003171 0.95491415 0.9993703
0000e0 cf c7 7f 3f cc 12 80 3f a4 f9 70 3f 4f 7a 6e 3f
       0.9991426 1.0005736 0.9413092 0.9315538
0000f0 ff 0c 81 3f 88 4f 6c 3f a9 ac 80 3f 61 de 6c 3f
       1.0082091 0.92308855 1.0052692 0.92526823

hidden_block.4.bias f4 [64]
000000 87 48 66 3c 71 68 14 3b 08 03 a6 bb 24 68 6d 3c
       0.014055378 0.002264526 -0.0050662793 0.014490161
000010 e8 58 06 bb 43 f9 86 3c 9c e7 e6 3b 04 dc bd 3c
       -0.002049977 0.01647628 0.007046653 0.0231762
000020 16 a1 b3 3c 71 20 9b bb 2c ae cb 3c cd 30 b4 bc
       0.021927398 -0.004734092 0.024863325 -0.021995926
000030 0f b4 26 bc d9 70 99 bc 87 aa 3c 3c 8a a0 b5 3c
       -0.010174765 -0.018730568 0.011515266 0.022171278
000040 8c ce 42 3a b3 49 b4 3c e5 f5 11 3d e0 22 39 3d
       0.00074312906 0.022007799 0.035634894 0.045199275
000050 fd d3 e0 bb e5 ab 96 3b b1 3c 93 3c c9 d7 0e 3c
       -0.0068612085 0.004598128 0.017973276 0.008718439
000060 4b c9 b4 3a 63 52 28 bc dd ff 4c 3c d3 89 03 3b
       0.00137929 -0.010273549 0.012512174 0.0020071163
000070 71 c1 2b bb 41 6b 36 bc 17 f5 34 bc 8c 69 3b 3d
       -0.002620783 -0.01113397 -0.011044762 0.045754954
000080 a1 bf 95 bc ae 88 dd 3c 39 10 a4 bc 97 6c b6 bc
       -0.018279852 0.027042713 -0.020027267 -0.022268577
000090 12 65 98 ba be b9 35 bd 02 bf 73 bd 96 29 bf bc
       -0.0011626801 -0.04436659 -0.05950833 -0.02333526
0000a0 62 da 01 bd fd 1a af bc 2c 80 9d 3c 23 24 a9 ba
       -0.031702407 -0.021375174 0.019226156 -0.0012904446
0000b0 39 42 15 bd c5 39 f2 bb 44 20 d3 bb 24 51 0b ba
       -0.036440108 -0.0073921406 -0.0064430553 -0.000531452
0000c0 0b e9 0d 3c 8f 8b 28 bb e5 fe 81 bc f4 94 02 3c
       0.008661519 -0.002571795 -0.015868613 0.0079700835
0000d0 ee cf 81 bc 54 88 9b 3c 16 17 1d 3c 65 d4 3c bc
       -0.015846219 0.018985905 0.009588024 -0.011525248
0000e0 9e d3 7a bc 91 05 25 bc a4 ef c4 bb 65 95 56 3c
       -0.0153092425 -0.010072128 -0.0060100127 0.013097142
0000f0 bf 1f 8e bc cc 50 95 3c 7e e4 ae bc 23 35 a6 3c
       -0.017349122 0.018227004 -0.021349188 0.02028901

layers.0.ln.weight f4 [64]
000000 cf db 65 3f 87 70 6a 3f 0a 58 7f 3f 1a 34 7d 3f
       0.89788526 0.91577953 0.9974371 0.98907626
000010 f6 0f 4f 3f e9 8e 75 3f 36 13 78 3f 4a 4f 77 3f
       0.8088373 0.9592119 0.96904314 0.9660536
000020 22 8d 70 3f 00 34 87 3f 7a 90 56 3f 04 a0 7a 3f
       0.9396535 1.0562744 0.83814204 0.97900414
000030 09 4e 6d 3f e0 63 65 3f 90 fb 75 3f 80 96 5b 3f
       0.926972 0.8960552 0.9608698 0.8577652
000040 7b 1e 7b 3f 4f 01 67 3f 72 1d 8b 3f 05 8c 89 3f
       0.98093385 0.9023637 1.0868361 1.0745856
000050 59 cb 74 3f b5 06 71 3f 31 c3 71 3f 68 80 6e 3f
       0.95622784 0.9415086 0.94438463 0.9316468
000060 a8 dd 83 3f 6f 57 69 3f 37 25 65 3f 62 fa 79 3f
       1.0302019 0.9114904 0.8950991 0.9764768
000070 ae 75 73 3f 66 e8 41 3f d0 30 7c 3f 0c 39 88 3f
       0.9510144 0.75745237 0.9851198 1.0642409
000080 d9 c4 85 3f 8b ac 70 3f 16 47 72 3f 12 6b 79 3f
       1.0450698 0.9401328 0.9463972 0.97429
000090 e4 e6 69 3f d0 b8 3c 3f dc 0f 31 3f a8 56 46 3f
       0.91367936 0.737195 0.69164824 0.77475977
0000a0 67 76 4b 3f 4e 66 63 3f 55 d2 66 3f 85 06 63 3f
       0.7947754 0.8882798 0.9016469 0.88681823
0000b0 20 a1 68 3f b7 e7 5e 3f 18 9e 73 3f c0 90 70 3f
       0.9087086 0.8707232 0.95163107 0.9397087
0000c0 7e 46 6e 3f ff b1 6d 3f 5c 1e 76 3f 3f a8 81 3f
       0.9307631 0.92849725 0.96140075 1.012947
0000d0 34 b4 74 3f 47 95 8b 3f 8f 5e 73 3f 2c c6 76 3f
       0.9558747 1.0904931 0.9506616 0.96396136
0000e0 94 9d 7b 3f 17 08 78 3f 88 28 84 3f 06 68 4f 3f
       0.9828732 0.96887344 1.0324869 0.810181
0000f0 91 6b 7d 3f ef 95 64 3f 3f 0d 7d 3f 3b 52 6a 3f
       0.9899226 0.8929128 0.98848337 0.91531724

layers.0.ln.bias f4 [64]
000000 ed 28 f4 bc c8 4d 53 3d 15 ed 80 3b d5 c4 ad bb
       -0.029804671 0.05158785 0.0039345124 -0.005303005
000010 67 12 c6 3d 11 6f 0a 3c 5a ec d9 bb f0 b7 ca 3c
       0.09671479 0.008449332 -0.0066504898 0.024745911
000020 26 61 b1 3c af 63 3a 3c 7d a7 0f 3d 52 66 17 3c
       0.02165277 0.0113763055 0.03507184 0.009240704
000030 d3 e2 3a 3d 90 c9 38 3d f9 81 ce 3c 23 41 cb bc
       0.045626473 0.0451141 0.02520846 -0.024811333
000040 00 f0 a6 3c 98 fb 48 3d a7 9a cc 3c 5a 27 02 3d
       0.020378113 0.049068063 0.024976088 0.03177581
000050 31 43 ea 3c a3 89 4a 3d d2 7d c8 3c 19 ac 2a 3d
       0.028596492 0.049447667 0.024474058 0.04166803
000060 4b eb b8 3a 40 f3 75 3d 07 b8 98 3d 60 5f be 3c
       0.0014108209 0.060046434 0.074569754 0.023238838
000070 83 67 7a 3a 72 ec 40 3e e4 bd 1f 3c af a7 ac 3c
       0.00095521676 0.18840197 0.009749863 0.021076052
000080 e1 f1 93 3b ca c0 30 3d 77 3f b5 3c 11 b9 97 3b
       0.004514918 0.043152608 0.022124989 0.004630216
000090 a6 7c bf bc 3b dd 41 be dc 6a 7e be ad 4c e6 bd
       -0.023374867 -0.18932049 -0.24845451 -0.112450935
0000a0 99 47 f9 bd 40 2d 52 3d 07 5f d2 3c 16 34 f2 bc
       -0.12171859 0.051312685 0.025680078 -0.029565852
0000b0 54 df 96 3c f4 7b 12 bd 66 df b3 3c 57 64 66 bc
       0.018417038 -0.035762742 0.02195711 -0.014062009
0000c0 8b fb 60 3c 30 e3 c1 bc 31 7d f6 3c 2f e9 d8 bb
       0.0137318475 -0.023667902 0.030088993 -0.0066195945
0000d0 bf 2b c9 3c 13 e5 97 3c c7 bb 1a 3c cb 0a e2 3c
       0.024556993 0.018541848 0.009444184 0.027593037
0000e0 a6 93 0d 3c 15 dd ce 3c 53 cc 1c bc 9e 0e 24 3e
       0.008641159 0.025251905 -0.009570199 0.16021201
0000f0 52 fd 01 3c 93 83 af bc 34 b3 1e 3b 44 5b 51 3d
       0.007933931 -0.021425044 0.00242157 0.05111243

layers.1.ln.weight f4 [64]
000000 bd 40 86 3f 8f d2 83 3f c1 3f 8c 3f 0d 01 93 3f
       1.0488507 1.0298632 1.0956956 1.1484696
000010 9f 80 72 3f ee 34 91 3f 7f 30 8c 3f cb 4e 85 3f
       0.9472751 1.1344278 1.09523 1.0414671
000020 90 a5 83 3f 4d 5d 8e 3f c5 e2 83 3f 11 ad 82 3f
       1.0284901 1.1122223 1.030358 1.0209066
000030 83 0a 82 3f 6d 76 82 3f 04 2f 88 3f 59 83 87 3f
       1.0159458 1.0192391 1.0639348 1.0586959
000040 c2 cd 87 3f 98 d5 81 3f 3b bd 91 3f d3 67 8d 3f
       1.0609667 1.0143309 1.1385874 1.104731
000050 d6 66 83 3f 53 94 84 3f 2d 80 85 3f b4 5d 86 3f
       1.0265758 1.0357765 1.0429741 1.0497346
000060 b7 58 99 3f 55 e9 82 3f 36 06 85 3f f7 2c 87 3f
       1.1980199 1.0227457 1.039252 1.0560597
000070 95 d6 94 3f fd 03 6a 3f 27 94 84 3f f2 c5 8c 3f
       1.1627985 0.91412336 1.0357713 1.0997908
000080 27 ef 7f 3f 30 76 82 3f a7 e6 81 3f 4a 7a 80 3f
       0.9997429 1.0192318 1.0148515 1.003732
000090 42 0c 8b 3f 4e 9a 84 3f 3e b3 84 3f c0 d4 82 3f
       1.0863116 1.035959 1.03672 1.0221176
0000a0 35 09 85 3f f1 0b 7f 3f 74 40 84 3f 24 d8 85 3f
       1.0393435 0.99627596 1.033217 1.0456586
0000b0 c7 ea 73 3f 02 5a 89 3f a2 41 80 3f bb 08 84 3f
       0.95280117 1.0730593 1.002003 1.0315164
0000c0 04 e1 85 3f 65 27 8b 3f b9 fa 82 3f 9f 27 84 3f
       1.0459294 1.0871397 1.0232764 1.0324591
0000d0 de 80 82 3f 56 d3 92 3f af 58 8d 3f 96 21 83 3f
       1.0195577 1.1470745 1.1042689 1.0244625
0000e0 b3 23 83 3f 4c a4 83 3f 8c 09 92 3f 7f 1c 70 3f
       1.024527 1.0284514 1.1409163 0.9379348
0000f0 2d c5 83 3f b9 7c 83 3f 82 80 83 3f 5d 94 7d 3f
       1.0294548 1.0272437 1.0273592 0.9905451

layers.1.ln.bias f4 [64]
000000 9a d1 ac 3c dc db af bc 62 75 b2 bc f3 d3 b2 3c
       0.02109604 -0.021467142 -0.021784488 0.02182958
000010 b9 d3 4b bc 49 4e b1 3c 53 be ad 3c 93 53 af 3c
       -0.012440615 0.021643775 0.021208918 0.021402156
000020 10 cd ac 3c 0d 05 b1 bc dd a9 b0 3c 78 59 ac bc
       0.021093875 -0.021608854 0.021565372 -0.021038756
000030 e4 23 ac bc 13 ec b0 bc dd 76 b6 bc f5 24 b1 3c
       -0.021013208 -0.021596944 -0.022273475 0.021624068
000040 96 dd b2 3c 9e 76 b9 3c 92 7d b3 bc 38 aa bb bc
       0.021834176 0.022639569 -0.021910463 -0.022908315
000050 78 3f aa bc 33 8a ae bc b9 55 ad 3c cd b9 b0 bc
       -0.020782217 -0.021306133 0.02115904 -0.021572972
000060 d9 aa b2 3c 71 d5 ac bc d0 8e b4 bc 8a 06 ae bc
       0.021809982 -0.02109787 -0.022040755 -0.021243352
000070 fb b6 b7 3c 36 e5 9e 3c d3 d9 ab bc b0 64 c2 bc
       0.02242612 0.019396406 -0.02097789 -0.023729652
000080 7c b8 ae bc 49 12 ad 3c 05 2a ab bc 57 7a a9 bc
       -0.021328203 0.021126883 -0.02089406 -0.020688219
000090 82 44 b3 3c 40 53 ac 3c 6f e3 b1 3c 5d 2e ac 3c
       0.021883253 0.02103579 0.021714894 0.021018201
0000a0 8f e0 ac 3c a5 e1 a6 bc a3 ec aa 3c 63 f0 af 3c
       0.021103172 -0.020371268 0.02086479 0.02147693
0000b0 fe ab 91 3c 09 8d af 3c bc 18 b0 3c 7b a0 ac 3c
       0.017782208 0.021429555 0.02149617 0.021072617
0000c0 fe 6f ae 3c 1f a0 af 3c 89 94 ac bc 9f ce b0 bc
       0.021293636 0.021438656 -0.02106692 -0.0215829
0000d0 5f fa a9 bc 22 ec b4 bc c5 61 b1 3c 6b 74 ac bc
       -0.020749269 -0.022085253 0.021653065 -0.021051606
0000e0 f9 bd aa bc a9 13 ad bc 88 a7 b3 3c 4b e2 b7 3c
       -0.02084254 -0.021127539 0.021930471 0.022446772
0000f0 1c 92 ac bc a5 2e ac 3c fc fd ab bc ae 80 b0 3c
       -0.021065764 0.021018336 -0.020995133 0.021545734

logit.weight f4 [1, 64]
000000 a3 26 0b be 6f 2b 8c 3d 70 2d 54 3e 55 8b 69 be
       -0.13588957 0.06844222 0.20720458 -0.22807057
000010 a2 ed b3 3c 17 aa 4a be 0e c9 59 be 1e bb fb bd
       0.021963898 -0.19791447 -0.21268103 -0.12291549
000020 fd f4 0b be e8 8e 55 3e 5c 22 bb bd 8f 8d ef 3d
       -0.13667674 0.20855296 -0.09137413 0.11696922
000030 f6 7a 89 3d 81 41 6f 3d 98 09 d6 3d 70 29 c7 bd
       0.06712906 0.05841208 0.104510486 -0.097247005
000040 b8 02 07 be b6 a5 70 bd 3e 47 78 3e f0 ce 12 3e
       -0.13184631 -0.058751784 0.24245927 0.14336753
000050 5f 8e c9 3d c5 42 ad 3d 16 5c 0f be 77 9a b7 3d
       0.09841608 0.08460001 -0.13999972 0.08965009
000060 ad 07 a3 be 5b ac 81 3d 93 8e 81 3d ee 58 1d 3e
       -0.31841794 0.06331702 0.06326022 0.15365955
000070 13 67 78 be 33 c9 3d 3b d4 b6 21 3e b0 92 ea 3d
       -0.2425807 0.0028959035 0.157924 0.1145376
000080 17 10 f9 3d 4d e9 fa bd 99 64 aa 3d 3a c2 ed 3d
       0.12161272 -0.1225153 0.08319969 0.116093114
000090 0a 68 2f be 35 f1 eb bd 01 54 81 bd d1 7c 88 bd
       -0.17129532 -0.11520616 -0.063148506 -0.06664432
0000a0 0a 60 26 be ac e9 3c 3d bb 45 e2 bd e4 ec 1a be
       -0.16247573 0.046121284 -0.11048456 -0.15129429
0000b0 97 aa 27 bd 2c 61 36 be f2 5c 4f bd 0a da 09 be
       -0.04093417 -0.17810506 -0.05062575 -0.13462082
0000c0 94 a8 13 be 04 c3 46 be 64 5a a8 3d dd 3f a8 3d
       -0.14419776 -0.1941033 0.08220366 0.08215306
0000d0 0b 14 bb 3d bc a7 79 3e e1 b7 45 be 5f 3e be 3d
       0.09134682 0.24380392 -0.19308425 0.0928924
0000e0 0d 7a 0a 3e c3 d6 cb 3d fb 3a 68 be 9f 73 3e bb
       0.13523121 0.09953072 -0.2267875 -0.0029060615
0000f0 d5 9a 0b 3e b8 b0 aa bd 6b fb 16 3e 4f eb 51 bd
       0.13633282 -0.08334488 0.14744346 -0.0512498
