Model/single/fold1.ckpt (torch, 130111 bytes, 15 tensors)

input_block.0.weight f4 [398]
00000000: 226d 843f 3a9d 823f 0d3f 7f3f 9552 793f
00000010: e0f3 7e3f 3134 803f 65fb 7e3f f83e 823f
00000020: c6f8 823f 6891 7a3f 20ee 7f3f 7141 843f
00000030: 0206 7d3f 6410 813f 0aa2 7a3f 395b 7c3f
00000040: ab6b 7b3f d6bc 7b3f 0642 823f fa0a 813f
00000050: e66f 7c3f 2586 7c3f 0b89 813f 34d6 823f
00000060: 3d8d 783f e38a 803f 5b58 833f 291c 813f
00000070: a95d 843f 87a4 813f dbb3 783f 029d 7f3f
00000080: c9d6 803f 3b8b 763f 0db1 7b3f e949 803f
00000090: 046e 863f 16f9 813f efce 7e3f ae6a 7b3f
000000a0: 1801 763f 3f48 833f ea13 803f 9d0e 833f
000000b0: 5eb3 7a3f 5d43 7b3f 940a 7e3f 58b1 7c3f
000000c0: edb3 803f 0260 783f 17ae 783f 7120 803f
000000d0: e77a 7a3f 67be 7f3f 8124 7c3f 9d14 833f
000000e0: 36c5 803f 9734 7e3f a260 7d3f 65b7 7c3f
000000f0: 7123 7a3f 126f 7e3f 1030 803f f64c 813f
00000100: a579 813f f1e1 803f 77b2 803f 215b 7f3f
00000110: 37d8 813f e2c6 6f3f 864e 793f a2ea 713f
00000120: dd0e 7d3f a7b5 7a3f 6c71 763f 920c 7c3f
00000130: a0c5 7b3f b971 7c3f 84ab 7b3f 20de 7a3f
00000140: d252 7c3f 3194 773f f810 833f 75a9 803f
00000150: 5816 813f 4498 783f 9dda 7e3f 1969 783f
00000160: a5ef 7f3f f05a 793f 5e23 733f b282 7e3f
00000170: 1c21 7c3f 20c2 7c3f 92ef 7b3f 09f0 7f3f
00000180: 8d95 7c3f 8f99 7c3f 0879 7f3f 069b 7b3f
00000190: 5bdc 783f 3a08 793f 102f 7d3f 410b 843f
000001a0: 78e7 813f b1ad 7b3f 5e00 7c3f ee17 833f
000001b0: 6468 813f 9d1c 803f 2e5e 7f3f ad28 833f
000001c0: 4297 823f ca07 773f b9fc 7a3f 59ec 7b3f
000001d0: 8235 803f 2700 803f 4b72 7f3f 4c5c 833f
000001e0: 6674 7f3f 4716 803f ad19 7d3f 40bb 7f3f
000001f0: ba22 843f 8e33 7e3f c252 843f b6b3 713f
00000200: 7654 7f3f 75fd 773f 823a 7a3f e56a 823f
00000210: e8d1 7c3f c745 803f 966c 793f e042 7c3f
00000220: 6334 833f 8ccf 863f d13d 7c3f 9c14 773f
00000230: 7eba 783f f50c 793f cfbe 733f 5c8e 803f
00000240: b3c7 783f df5e 7d3f 293a 783f 6659 803f
00000250: 5504 803f 8261 823f 6825 823f 3137 7e3f
00000260: d139 783f 710e 813f c549 833f 456f 863f
00000270: b258 853f eda7 743f 5497 7b3f fe58 803f
00000280: 7fee 7e3f d2c1 803f 808f 7e3f 475e 803f
00000290: 6929 823f 0152 823f a35d 7d3f 291e 843f
000002a0: eff1 7c3f b9e5 7d3f 06e4 803f 2c4b 803f
000002b0: e397 803f 23d8 833f 1b2c 7e3f a608 843f
000002c0: df47 823f fead 7e3f 7cf7 763f e77f 803f
000002d0: ef3d 7d3f c571 803f 7882 783f 3730 713f
000002e0: 926c 793f 4c2f 883f b6d7 813f 3ec2 7f3f
000002f0: a8c4 823f d41c 783f b544 823f 72b2 7f3f
00000300: 48c9 823f b1ff 813f 82ec 7d3f e927 813f
00000310: ffc5 803f 96bf 813f bc67 803f 3a75 813f
00000320: 1797 823f 3711 7d3f af42 8b3f fa92 783f
00000330: 3b5b 793f 3a80 823f 3192 853f 81b6 7a3f
00000340: 9114 803f 617b 7b3f 2953 7c3f 515d 763f
00000350: e504 803f 05a2 7a3f 0825 823f 9b3a 813f
00000360: b137 773f 951c 7b3f 8221 803f 329e 7c3f
00000370: 5bac 823f 8cd7 7e3f e9cf 7a3f d7ed 803f
00000380: 7e05 813f cd40 7f3f 970f 7a3f 90c7 803f
00000390: 20f0 7a3f 3d10 823f fe92 7b3f a98d 723f
000003a0: 265c 803f eab7 7c3f eb18 7a3f 4c3e 813f
000003b0: 68dd 803f 7e43 733f 2a03 7e3f 3424 713f
000003c0: ad01 7d3f 3068 7c3f a7e1 7e3f 8826 773f
000003d0: 2747 7f3f 626f 7d3f 5118 823f 739b 803f
000003e0: 0f68 7f3f 9dbf 813f 378d 7e3f 2ad7 7a3f
000003f0: 8fb9 7f3f 03fb 813f 683e 823f ab5c 7b3f
1.0345805 1.0204232 0.9970558 0.97391635 0.99590874 1.0015928 0.9960235 1.0175467
1.023217 0.9787812 0.99972725 1.0332471 0.9883729 1.0083127 0.979035 0.98576695
0.98211163 0.98335016 1.0176399 1.0081475 0.98608243 0.9864219 1.0119947 1.022162
0.9709051 1.0042385 1.0261339 1.0086719 1.0341083 1.0128335 0.9714944 0.9984895
1.0065547 0.963062 0.98317033 1.0022556 1.0502324 1.015414 0.99534506 0.98209655
0.9609542 1.0256423 1.0006077 1.0238835 0.9792994 0.98149663 0.9923489 0.98708105
1.0054909 0.97021496 0.9714064 1.00099 0.97843784 0.99899906 0.984932 1.0240666
1.0060184 0.99298996 0.98975575 0.9871734 0.9771033 0.9938823 1.0014668 1.0101612
1.0115248 1.0068952 1.0054463 0.99748427 1.0144109 0.93662846 0.9738544 0.94498646
0.98850805 0.9793343 0.9626682 0.9845668 0.98348427 0.98611027 0.9830859 0.97995186
0.98563874 0.967105 1.0239553 1.0051714 1.0084944 0.9710734 0.9955233 0.97035366
0.99975044 0.97404385 0.9497584 0.99418175 0.9848802 0.9873371 0.9841243 0.9997564
0.98665696 0.9867181 0.99794054 0.9828342 0.97211236 0.9727818 0.98899937 1.0315934
1.0148764 0.9831191 0.9843806 1.0241678 1.0109982 1.0008732 0.9975308 1.0246788
1.020241 0.9649626 0.98041874 0.9840751 1.0016329 1.0000046 0.9978377 1.0262542
0.99786985 1.0006799 0.98867303 0.99895096 1.0323098 0.99297416 1.0337756 0.9441484
0.9973825 0.9687112 0.97745526 1.0188872 0.9875779 1.0021294 0.97431314 0.98539543
1.0250362 1.0532088 0.98531824 0.9651582 0.97159564 0.97285396 0.95213026 1.0043445
0.97179717 0.98972887 0.96963745 1.0027282 1.0001322 1.0186007 1.0167665 0.99302965
0.9696322 1.0082532 1.0256888 1.0502707 1.0417693 0.95568734 0.98277783 1.0027158
0.99582666 1.0059149 0.99437714 1.0028771 1.0168887 1.0181276 0.98971003 1.0321704
0.9880666 0.99178654 1.0069587 1.0022941 1.0046352 1.0300335 0.9928605 1.0315139
1.0178183 0.9948424 0.9647138 1.0039033 0.9892263 1.003472 0.9707408 0.94214195
0.9743129 1.0639434 1.0143955 0.99905765 1.0216265 0.9691899 1.0177218 0.9988166
1.0217676 1.0156156 0.9918901 1.0090305 1.0060424 1.0136592 1.0031657 1.01139
1.0202359 0.9885439 1.0879725 0.9709927 0.9740483 1.0195382 1.0435239 0.9793473
1.0006276 0.98235136 0.9856439 0.9623614 1.0001494 0.9790347 1.0167551 1.009601
0.96569353 0.9809049 1.0010226 0.98678887 1.0208849 0.9954765 0.97973496 1.0072583
1.0079801 0.99708253 0.9768004 1.0060902 0.9802265 1.0161206 0.9827117 0.94747406
1.0028121 0.9871813 0.9769427 1.0097136 1.0067568 0.9502486 0.9922358 0.94195867
0.9883068 0.9859648 0.9956307 0.9654317 0.99717945 0.9899808 1.0163671 1.0047439
0.99768156 1.0136601 0.99434227 0.97984564 0.99892515 1.0154728 1.0175295 0.98188275

input_block.0.bias f4 [398]
00000000: cc45 0abc ef77 2a3b 26bb 3bbc 8760 50bb
00000010: b463 abbb 7df9 563b 2860 1abc a1c2 bd3a
00000020: 1bf7 f43b 8073 e53b cf37 57ba d28a 363a
00000030: e093 fbbb ed05 3ab9 7511 9dbb 4e9e bebb
00000040: d77b 84ba 9764 c63b 3dca b83b ab24 953b
00000050: 3008 c43b f636 8e3b d10a b8ba 8b97 fc38
00000060: 6409 353b 198a a53b 516b eabb 0806 023c
00000070: e24f fe3b 838c aa3b 75f4 3bbc 7b51 a73a
00000080: c899 f63a 53e1 cabc 82a1 63bb b5c1 26bc
00000090: f472 883b a4f1 7aba f099 75bc 48c2 fcbb
000000a0: 539e df39 32ea ce3b 6d31 3d3b 0802 95ba
000000b0: a56e 993b a861 a33a 3409 fbbb b363 c0bb
000000c0: c933 9abb d1f0 233c 4d2b 11bc eaa3 2c39
000000d0: c070 15bc fd87 ce3b bea1 0cbc daf7 b5bb
000000e0: 1d91 3ebc ba11 8ebb c3d7 483b ef24 623b
000000f0: a9a4 893b 254f b7bb 4a02 b2bb 9ae3 943b
00000100: 5848 0f3c f213 1b3c 2ccd dd3a eed0 b53a
00000110: e66c 81bb cdfe 83bc 4b63 a63a 0e11 9cb9
00000120: 3790 5fb8 14f3 003c 86e5 2dbc 1894 11bc
00000130: 2e9b 13bb ca6c bbbc 881b d73b 0db5 523c
00000140: 71fe 2b3c 3158 9cbc d683 ccb9 2e9b c0bb
00000150: 23aa de3b d0df 8b3c cda1 123a deb3 82bc
00000160: ed62 3abc 135d 093b a8bd f03c b748 fb3b
00000170: 1a56 533a e82c e5bb a721 523c d230 fbb9
00000180: 4252 65bc 89ec 15ba 8975 1bbc 08a2 1bbc
00000190: 5eba 753c 39e7 1b3c b72f 633c 7c45 e6bb
000001a0: 626d e8ba 75dc 06bc 1b1b 15bd 39ca 40bb
000001b0: e7f1 9f3b edd5 173c 1c5e cbba d3d1 5cba
000001c0: 536a 9a3b 468f 6cbc dcf0 cc3a 1c8b 083c
000001d0: 0b12 24bb 4760 57bb fc8c 4dbb 07e1 a33b
000001e0: 6303 9b3b 4512 13bc 7075 fbbb 7687 92bc
000001f0: 9d3e ee39 f99e c43a 7b16 e1ba f94a 553c
00000200: 3bc4 09bb 12e2 56bc 42ae b7bc f5e5 c0bb
00000210: 027c c13b aa60 6fba f0af 41bc 5d4b 15ba
00000220: 6de3 5c3b 0a67 b0bb fe29 c9bb a6c4 babb
00000230: e041 a3bc 2997 95bb 0765 0f3b b8fc e8bb
00000240: d5c0 b43b 7f7c 8db7 d4c6 0f3c d4c8 8cb9
00000250: ad28 2cbc 0c81 ccbb 081c c2b9 fa82 80bc
00000260: 337a 8ebc 1372 f1bb 3b09 4b3c 9348 d5b9
00000270: 103b 533b dcda 91bc 9e43 1c39 3c25 9bbb
00000280: ac78 66ba 12a6 adbc a24e 4bbb d2e8 293a
00000290: ca72 3f3b 636e 0dbc 1b70 1c3c 8bd1 f7bb
000002a0: e7d7 39bb 8133 763b f901 6abb a493 153c
000002b0: cf05 d03a 0a8c 043b c72e 1ab8 2617 bc3a
000002c0: d655 2a3c 2ee5 3abc 017b a0bb 4712 013c
000002d0: 3c67 b33b d4c4 25bc b285 c23b 8c1d 823c
000002e0: a004 753c 5c0e dabb ad2d 18bc 5770 70bb
000002f0: 7670 433b e885 8cbc 1677 94bb 65d6 edba
00000300: f7f5 ba3a 8320 e8b9 b750 68bc 0384 a43b
00000310: 2e00 293c 53f9 013c 8a58 2e3b 6e6d ca3b
00000320: f292 b7b9 d2c0 10bc 6ce9 90bb 7f1f 573c
00000330: 9df9 8abc 7391 e8ba 61ff 703b ab47 3eb9
00000340: 776b af3a e89d 133c fdd5 203b e62f 233c
00000350: 08f5 94ba 01e3 babb 4442 5d3b 8488 f73a
00000360: 702f 4fbc c86e 22bb 0e60 ba3b b6a8 1bbc
00000370: c826 5f39 0cab 67bb 7be3 d8bb c4d1 afba
00000380: 70fc 1b3b 1d5f 0abb ec26 403b be84 393c
00000390: b7d4 2a3c 9792 bd3b 009e eb3b 6b43 b7bc
000003a0: a188 e53a 218e 0fbc 973d 563c 85c3 0b3a
000003b0: fafa ab3b 8097 53bc 44fc 97bc 57aa 11bc
000003c0: b3a7 5abc d2fd 133c 0494 8e3b 5029 493b
000003d0: d1b8 94bb d2cd 2abc 7db6 923b 9766 b8bb
000003e0: 465c c23b bd68 613b 06b1 1cba c670 983b
000003f0: 47b8 03bc a93e bd3b 48e3 54bb 4263 873b
-0.008439492 0.0026011427 -0.011458194 -0.0031795816 -0.0052303914 0.0032802515 -0.0094223395 0.001447756
0.0074757463 0.007002294 -0.0008209915 0.0006963435 -0.00767754 -0.0001774055 -0.004793341 -0.0058172112
-0.0010107708 0.0060544717 0.005639343 0.0045514903 0.0059824213 0.004340048 -0.001404131 0.000120445235
0.0027624005 0.005051863 -0.0071539064 0.007936008 0.0077609876 0.0052047386 -0.011471857 0.0012765372
0.0018814141 -0.024765646 -0.0034733717 -0.010178019 0.004164094 -0.00095727504 -0.014990315 -0.00771359
0.00042651835 0.0063145394 0.0028868571 -0.0011368403 0.0046823793 0.0012465017 -0.007661009 -0.00587126
-0.0047058803 0.010006146 -0.008860421 0.00016464261 -0.00912112 0.006302832 -0.008583484 -0.005553228
-0.011631277 -0.0043356093 0.0030646182 0.0034506877 0.004200537 -0.0055941516 -0.005432402 0.004543734
0.008745275 0.009465205 0.0016922108 0.001387147 -0.0039497493 -0.01611271 0.0012694387 -0.00029767345
-5.3301654e-05 0.007870454 -0.010613805 -0.008885406 -0.0022522914 -0.022879023 0.0065645613 0.012860549
0.010497675 -0.019085022 -0.00039008138 -0.005877874 0.006795184 0.017074496 0.0005593568 -0.015954908
-0.011376125 0.0020960018 0.02938731 0.0076685804 0.00080618414 -0.0069938786 0.012825406 -0.00047910825
-0.013996663 -0.00057191454 -0.009488472 -0.0094990805 0.014998047 0.009515577 0.013866357 -0.007027326
-0.0017732794 -0.008231272 -0.036402803 -0.002941741 0.004881132 0.0092673125 -0.0015515718 -0.00084236
0.004712382 -0.014438456 0.0015635747 0.0083339475 -0.0025035169 -0.0032863782 -0.003136455 0.0050011906
0.0047306283 -0.008976524 -0.0076739118 -0.017886858 0.00045441548 0.0015000991 -0.0017172837 0.013018363
-0.0021021503 -0.013115423 -0.02242196 -0.005886788 0.0059046755 -0.00091315305 -0.011821732 -0.0005695129
0.0033704892 -0.005383377 -0.006139039 -0.005699712 -0.019928873 -0.004565139 0.0021880285 -0.0071102045
0.0055161514 -1.6866483e-05 0.008775432 -0.0002685251 -0.010507745 -0.0062409695 -0.00037023448 -0.015687454
-0.017392254 -0.007368335 0.012392337 -0.00040680598 0.003223125 -0.017804556 0.00014902509 -0.0047346633
-0.0008791785 -0.021197353 -0.003102221 0.00064815313 0.0029212707 -0.008632275 0.009548212 -0.0075628213
-0.0028357448 0.003756732 -0.0035706742 0.009129439 0.0015870872 0.0020225071 -3.6760026e-05 0.001435016
0.010396441 -0.01140718 -0.0048974757 0.007877893 0.005474953 -0.010117728 0.005936348 0.01588323
0.014954716 -0.006654544 -0.009288234 -0.0036688054 0.002982167 -0.017153695 -0.0045307977 -0.001814556
0.0014263977 -0.0004427471 -0.0141794 0.00502062 0.010314984 0.007932979 0.0026603066 0.006177596
-0.00035013963 -0.008835034 -0.0044223573 0.013130068 -0.016964728 -0.0017743543 0.0036773311 -0.0001814651
0.0013383467 0.009009816 0.002454161 0.00996015 -0.0011364529 -0.0057033305 0.0033761421 0.0018885289
-0.012645587 -0.002478527 0.00568772 -0.009500673 0.00021281384 -0.0035349755 -0.0066189147 -0.0013413955
0.0023801588 -0.002111382 0.0029320074 0.011323152 0.010426692 0.005785297 0.007190466 -0.022371015
0.0017512032 -0.0087619135 0.013076208 0.0005331564 0.0052484246 -0.012914538 -0.018552907 -0.00889071
-0.013345647 0.009032683 0.004351141 0.003069479 -0.0045386334 -0.010425048 0.0044773207 -0.005627464
0.00593141 0.0034394704 -0.0005977306 0.0046521155 -0.008039541 0.005775292 -0.0032484103 0.0041317055

input_block.1.weight f4 [64, 398]
00000000: 0bf9 503d b354 be3b 5217 b03c af20 873c
00000010: a462 e03c dad2 99ba 05ad dabc 9c68 4a3c
00000020: 3ec0 25bd cddb 7abb a26e 2bbd 75bc 053d
00000030: 576b ad3c ebf1 82bd 572c c1bc 60bb 933c
00000040: 7088 3a3c 59be cebc 1ce1 933c d110 2c3d
00000050: 78ef d1bb 111c 083d 83e7 333d 47d5 833d
00000060: 2a1c 063c cc77 68bc ee63 5a3c de91 96bd
00000070: 3af4 75bd fff2 0cbd f10a 10bd a1b0 8e3c
00000080: 0183 eebc cb3a 3fbb c728 2c3d f4fa ce3c
00000090: db1b 70bd 0cdf 883c f9db 3fbc 0e04 c5bb
000000a0: b7da 4dbb 8aff 62bd 42a6 963c 79a1 053c
000000b0: aab4 c0bc b692 ac3c 0d31 43bc ba54 16bd
000000c0: 6872 af3b 19c1 89bc 4e50 42bd d38b 0fbd
000000d0: f42c 4c3c 1261 c1bc 1ff1 133d c3fa f2bb
000000e0: cd9b 1bbd 1b6d 2bbc fc89 4c3c 3cc8 0ebd
000000f0: a957 07bc 5ba7 2d3d 536d eabb f95c 8fbd
00000100: 35f7 b5bc 0f67 e33a eeec 20bd c3b5 0d3d
00000110: de4c 99bd e7ac 09bd 484b 3dbd 66f8 22bc
00000120: 8b30 06bd 793d 1ebc e83b eebc d31f a73c
00000130: 4d40 c53c a029 e3bc 0d33 8abb e2cf 95bc
00000140: c478 98bc a2ec 09bd a104 b1bb 21b5 b33c
00000150: fdee 75bd 0731 22bd 261d 9abd 36fe 1cbd
00000160: 3b30 ab3c a1c4 193d 5090 543b 4c4a 2ebc
00000170: d499 90bb 7942 153c 0fe1 0ebb fd52 8e3c
00000180: 0748 463d 80f2 fa3c 9ab0 a73c 444e 843c
00000190: 1715 723d d975 533d 3d44 c4bc 1b0f 2abb
000001a0: fd2b 5d3b 212a 8bbb 6e76 053d d34f cfbc
000001b0: 8206 c0bc da78 6bbc 0440 08bc 8c9e 333d
000001c0: 2eb9 6fbc f763 3dbd f25b 4f3c 3f48 49bc
000001d0: 6069 50bc b29c 103d bbbc 37bd 515a b3bc
000001e0: c06d 263d a81e 4a3d d5a9 6c3c 8e96 e5bc
000001f0: 1fec 8a3d 586a 7d3b 6b15 81bc 29fa fbbc
00000200: 0e2b 353d 34ad a63c 782c 32bd a0b3 723d
00000210: b091 803c e188 13bd 9865 303d 50f7 4ebd
00000220: bb66 363d 656d 6abc 0277 533d d62a 1c3d
00000230: 627f 19bd 23da 583c a830 a13c 86d3 a83c
00000240: 017f 86bc b799 e23b b9db 853d 3432 39bd
00000250: 4bda 263b f208 893c 44b3 68bc 0caf 7a3d
00000260: 29e2 053c df0c 453c 9fab ff3c 9fe9 8c3d
00000270: 9ecf 75bd 69de d4bc fe7a fabc eaf3 fdbc
00000280: 544e fcbc 7216 debc 134c 4b3d e824 8f3a
00000290: 3828 103c 759c 26bd 46cb a13c d50a 3b3d
000002a0: 5de8 863c 2670 2d3d d031 693d 165d 133c
000002b0: 1809 82bc c779 ab3c 8e77 963c 5373 133d
000002c0: 881a 38bd fc41 a13c 09c8 f4bc 7ff7 fcbb
000002d0: 08d2 dabc deea 463c 082d ff3c 791a 833c
000002e0: eb9d 93bc 3219 eb3c 5dd0 56bc 3c05 563c
000002f0: ee10 3d3d 90a1 90bc 6efa 7abc 6715 133d
00000300: 3dca 8c3d 3832 c4bc 1c94 c23c 4f62 17bd
00000310: fc3a dc38 00c4 80bd 6701 9abc 8a80 84bd
00000320: 396c 1a3d 3a03 8dbc 5e91 cd3c 9f07 b0bb
00000330: fdb4 5c3c 014b 543b a12b 4dbd a113 363c
00000340: 1abd 60bd a569 663d 9ec2 48bd 46ab b8bb
00000350: 34ce d0bc e092 0cbd 566d a8bc cf3c 11bc
00000360: 73a6 483c 889b 05bd 9a3a 063d 51bc 103d
00000370: ad23 76bc d728 213d b1c9 a03c 34b4 873c
00000380: 7a26 8c3d 71bd c2bc 3364 07bd 8c56 13bd
00000390: 608e 94bd 07e2 893b 9caf 8abc 418c 39bd
000003a0: 6cd3 dd3b bb7a 733b cc31 183c d479 463d
000003b0: 53d8 5dbc 782b 033c acf1 1d3d 2579 573d
000003c0: ddbf 8a3c 20bd 32bc 7d8e 2c3d 4e37 ae3c
000003d0: 60ba 263d a840 09bd 8ca9 113d 4aff 33bd
000003e0: 80c1 ad3c 5dca 9dbc 0cd3 13bd 7800 8bbb
000003f0: 7b06 673d e00c a2bc b243 4d3d 961d 95bc
0.051018756 0.005808437 0.021495495 0.016495077 0.027390786 -0.0011735812 -0.02669383 0.012354042
-0.04046654 -0.0038277984 -0.041853555 0.03265043 0.021169348 -0.063937984 -0.023580713 0.018033683
0.011385068 -0.02523725 0.018051676 0.042008225 -0.0064067207 0.03322989 0.04392196 0.06437164
0.008185426 -0.014188718 0.013329489 -0.07352041 -0.060047366 -0.034411427 -0.035166685 0.017418208
-0.029115202 -0.002917933 0.042031076 0.025266148 -0.058620315 0.01670792 -0.01171016 -0.0060124462
-0.0031410882 -0.055419482 0.018389825 0.008156174 -0.023523647 0.021066051 -0.01191355 -0.036701895
0.0053542145 -0.016815709 -0.047439866 -0.035045456 0.01246189 -0.023605857 0.036118623 -0.007415147
-0.03799038 -0.0104630245 0.01248407 -0.034858927 -0.008260646 0.04239593 -0.0071541457 -0.07000155
-0.022212604 0.001734944 -0.039288454 0.03459717 -0.074853644 -0.03361216 -0.046214372 -0.009946918
-0.032761138 -0.009658211 -0.0290813 0.020400917 0.024078513 -0.02772981 -0.0042175115 -0.018287603
-0.018612273 -0.033672936 -0.005402163 0.021936955 -0.06004237 -0.039597537 -0.07525091 -0.038328372
0.020897022 0.037541036 0.003243465 -0.010637831 -0.004412869 0.009110087 -0.0021801626 0.017373556
0.048408534 0.030633211 0.020469952 0.016150601 0.059102144 0.05162606 -0.02395832 -0.0025948945
0.0033748143 -0.0042469655 0.032583646 -0.025306618 -0.023440603 -0.014372075 -0.008316044 0.043852374
-0.014631553 -0.046237912 0.012656199 -0.012285291 -0.012720436 0.035305686 -0.04485772 -0.021893652
0.04063201 0.049345642 0.014444788 -0.028025892 0.06783318 0.0038668122 -0.015757283 -0.030758934
0.044230513 0.020346262 -0.04349944 0.059253335 0.01569447 -0.03601921 0.043065637 -0.050528824
0.044531565 -0.014308308 0.051627167 0.03812679 -0.037474997 0.013235602 0.019676521 0.020608675
-0.016417982 0.006915297 0.065360494 -0.045213893 0.0025459703 0.016727898 -0.0142028965 0.061202094
0.008171597 0.0120269945 0.031209765 0.06880497 -0.060012452 -0.02598496 -0.030576225 -0.031000096
-0.030799069 -0.027110312 0.049633097 0.0010921033 0.008798651 -0.040676553 0.019750249 0.045664627
0.016468221 0.04234328 0.05693227 0.008994361 -0.015873477 0.020932091 0.018367555 0.035998654
-0.044947177 0.019684784 -0.02988054 -0.0077199335 -0.026711479 0.012140958 0.031149402 0.016003834
-0.018019637 0.028698537 -0.013111201 0.013062771 0.046158724 -0.017655164 -0.015318496 0.035909083
0.068745114 -0.023949727 0.023752265 -0.03695899 0.00010501404 -0.06287384 -0.018799497 -0.064698294
0.037700865 -0.017213453 0.02509373 -0.0053720023 0.013470885 0.0032393339 -0.050090436 0.011113078
-0.05486784 0.056253094 -0.049013726 -0.0056356518 -0.02548895 -0.03431976 -0.020559948 -0.008864596
0.012246716 -0.03261903 0.03277073 0.035335843 -0.015023154 0.03934559 0.019627424 0.01656542
0.06843276 -0.023771973 -0.03305454 -0.03597121 -0.072537184 0.0042078528 -0.01692944 -0.045299772
0.006769588 0.003715201 0.009289216 0.048456028 -0.013540345 0.008005969 0.038560554 0.052605767
0.01693719 -0.010909349 0.042128075 0.021266606 0.040705085 -0.033508927 0.035562083 -0.043944634
0.021210432 -0.019261533 -0.03608994 -0.0042419992 0.056402665 -0.01978153 0.050113387 -0.018202584

input_block.1.bias f4 [64]
00000000: 1903 9cbc b7f0 ed3c 65b3 43bd 190a 69bc
00000010: 72bc 3ebd 4c0b dcbc deba 543b afba 04bc
00000020: 18f8 bd3c 95bf a23b 8592 31bc 3813 d13c
00000030: e528 40bc efd1 44bd 10ef 07bd b897 103d
00000040: aa02 163d 685c a53c a58c 85bc 43ef 303d
00000050: 5f55 b6bc 9634 423d 500e 35bc 7e64 383d
00000060: d20c 23bd a8e9 abbc e8e5 363b 34b6 0e3d
00000070: 18e1 9ebc 4b07 0d3d cea2 143d 52f5 1cbb
00000080: 1890 2dbd eb1d bbbb 163c 263d d54a 353d
00000090: c219 1dbd 7824 113b 35ba 04bd 958a 4a3c
000000a0: e0b5 d0bc 830e c3bc cb31 2fbd 911f 18bd
000000b0: 275a 8c3c 7612 ad3c c19e 49bd 69ce 093d
000000c0: 9dfa ac3c 9dc8 f6bc 6000 04ba 7b78 953c
000000d0: c786 d6bc 5428 263d fea3 113c 8219 333d
000000e0: fa20 2bbc 5327 b7bc b4a9 4a3d d347 0a3d
000000f0: d31f d2bc 4de9 27bc c843 193a fd53 38bd
-0.019044446 0.029045446 -0.047778506 -0.014223599 -0.046566434 -0.026860856 0.0032460014 -0.008101149
0.02318959 0.004966686 -0.010838156 0.02552186 -0.0117285 -0.04805177 -0.033186972 0.03530094
0.036623634 0.020185664 -0.016302416 0.043196928 -0.022257505 0.04741343 -0.011050776 0.04501771
-0.03980715 -0.02098544 0.002790803 0.03484173 -0.019394442 0.034430783 0.036288075 -0.0023949933
-0.042373747 -0.0057103536 0.040584646 0.04426082 -0.038354643 0.0022146981 -0.032404143 0.012362142
-0.02547735 -0.02381063 -0.042772096 -0.03713948 0.017132832 0.021126967 -0.049223665 0.033644114
0.021115595 -0.030124957 -0.0005035456 0.018245926 -0.026187314 0.040565804 0.008889196 0.043725498
-0.010444874 -0.022357618 0.049478248 0.033759903 -0.02564994 -0.010248494 0.0005846587 -0.045001972

hidden_block.0.weight f4 [64]
00000000: 36d6 7f3f 2d59 7b3f c4e7 7a3f d0fa 783f
00000010: db0b 793f 40a9 7a3f a375 823f a47f 833f
00000020: 04ca 813f b919 803f b0c5 7a3f 8f03 873f
00000030: ccdc 7e3f 606b 7c3f 6807 7d3f 225b 7b3f
00000040: f924 843f 234a 763f 4766 813f 5616 7e3f
00000050: c784 803f 30bd 753f ac3d 753f 31cc 7a3f
00000060: 241b 803f c7b0 7f3f e036 833f 53b7 7e3f
00000070: a360 863f 81af 773f c102 7f3f c29d 7f3f
00000080: 3066 7e3f 19a6 823f 90bb 893f 372f 853f
00000090: 2878 863f 542a 753f 4eb7 823f 81fe 793f
000000a0: 27b9 803f 1736 833f a021 813f 3e93 843f
000000b0: c948 7c3f c358 703f 57bf 7e3f 184a 803f
000000c0: f82d 6f3f 7769 793f e4dd 823f 17d3 823f
000000d0: 9d82 743f 1855 843f d0ea 833f 76a9 7f3f
000000e0: 4781 813f ba77 813f dd79 823f 5ff0 783f
000000f0: e194 733f b880 823f 1084 783f 7529 7e3f
0.99936235 0.98182946 0.98009896 0.9725771 0.97283715 0.97914505 1.019215 1.0273328
1.0139775 1.000785 0.979579 1.0547961 0.9955566 0.9860134 0.98839426 0.9818593
1.0323783 0.96206874 1.0109338 0.9925283 1.004052 0.959918 0.9579723 0.9796782
1.0008283 0.99879116 1.0251122 0.9949848 1.0498241 0.9675217 0.9961358 0.99850094
0.99374676 1.0206939 1.0760365 1.0405034 1.0505419 0.9576771 1.021219 0.9765397
1.0056504 1.0250882 1.0088387 1.0357435 0.9854856 0.9388544 0.9951071 1.0022612
0.9342952 0.9742655 1.0223966 1.022067 0.955118 1.0338469 1.0306034 0.9986795
1.0117577 1.0114663 1.019344 0.9724178 0.95149046 1.0195532 0.9707651 0.9928201

hidden_block.0.bias f4 [64]
00000000: 23c2 f6bb dd32 49bb bbee ac3c a742 d33c
00000010: 94f0 74b9 cb71 45bb 9f1e dcbb 2937 09bd
00000020: 65da ed3a a2bd dbbb e64c e23c c6cc b8bb
00000030: 0185 04bc d529 69bc 3abd f0bb 6422 e3bb
00000040: 2795 b7bb 5a5f 7c3c 34c5 d1bb 4984 613c
00000050: f763 cc3a ab70 73b9 26a2 f83b 766b 293b
00000060: 7e7f 33bc a47b bdbb e926 adbb 4963 b43b
00000070: d7ae 2bbd 2531 6438 e1b0 67bb 9dfe 24bc
00000080: aa4b 36bc ba0b 2bbc 03cb 59bc 3ac3 b3bc
00000090: 002c c1bc 300c 2cbc 90e3 a3bb f395 f93b
000000a0: 20d9 0abc 5696 12bd 9697 5939 573a a1bc
000000b0: 64f7 2dbc 0705 313c 1712 bd3b c005 85b9
000000c0: bafd 023c ff59 05bc c421 bdbc 2e1f d2bc
000000d0: 0a56 8f3c 5c85 cebc 682a 95bc 3809 933b
000000e0: 0e08 47bc a10d 0bbc 4c8b bdbb 7e37 35bc
000000f0: ce59 96bb e147 37bc e242 d1b9 80f6 e6bb
-0.007530467 -0.0030700483 0.02110993 0.025788618 -0.00023359276 -0.003012764 -0.0067175175 -0.03349987
0.0018146752 -0.0067059556 0.027624559 -0.0056396453 -0.008088351 -0.014231165 -0.0073467763 -0.00693159
-0.005602497 0.015403593 -0.0064016823 0.013764449 0.0015593757 -0.00023216258 0.007587689 0.0025851405
-0.0109556895 -0.0057825614 -0.0052841795 0.005505 -0.041914787 5.4405205e-05 -0.003535323 -0.01007047
-0.011126438 -0.010439808 -0.013293031 -0.021943677 -0.023580551 -0.010500953 -0.005001493 0.0076167523
-0.008474618 -0.035787903 0.00020751203 -0.019681139 -0.010618065 0.010804421 0.0057699787 -0.0002537202
0.007995063 -0.0081391325 -0.02308739 -0.025649633 0.017497081 -0.025210075 -0.018208697 0.004487183
-0.0121479165 -0.008487136 -0.0057844277 -0.011060594 -0.0045883423 -0.011186571 -0.00039913418 -0.007048428

hidden_block.2.weight f4 [64, 64]
00000000: 8283 cf3d 77c2 5e3d 2c29 613d cabf a93d
00000010: 48bc 32bd c604 0d3e c5fe 8cbc 9f49 d33d
00000020: f12a a63c 6312 00bd 1942 e53d 150e 0dbe
00000030: 3188 a4bd 6a73 dfbc 1822 dd3c be70 80bd
00000040: 688e a73d 2350 c6bd 9872 d53c 94e2 133d
00000050: e583 aa3d 5498 a5bd 9fb6 953d c774 a3bd
00000060: 5772 13be 2b8b 793d 011c f33c f9d6 21bb
00000070: adf0 303d 4d7a 17bd 12f7 8fbd c8e7 713b
00000080: 6dda c13c b0c9 d23d bf7b 8dbd c175 863d
00000090: e72e 9dbd cc15 acbc 33bf 7b3d f350 e1bc
000000a0: 2467 73bd e40e 56bd f076 763d bb33 dc3d
000000b0: bb15 0b3d 6bce f9bb 3916 ac3b b610 ca3d
000000c0: 5801 20bc 8e05 423d e51e c7bd 5ff0 30bd
000000d0: 8d3d 71bd e158 7d3d 80ee c0bd 765a 773b
000000e0: e014 abbd 007b e6bd 8f2c adbd 373b e73d
000000f0: d389 80bd b1b0 0f3d a12d aebb 3edf 2bbd
00000100: 8fee dcbd 93b1 cf3d a2ed 0bbe 4357 1c3d
00000110: 92f4 9cbc 6457 343d edb1 93bc 92ff cf3c
00000120: 3ed0 00be 3788 cf3d a8c4 ed3a b906 26bd
00000130: f2a2 cbbc e0f7 993d 7021 c03c 4e21 7dbd
00000140: 0fc2 a83d 862a 4dbd 6c6d f03c 39e9 363b
00000150: 2482 173e 60b7 dd3d 7cf2 32bd 47af 8d3c
00000160: 3d7e ff3d 9112 f23d 0032 0fbc c5f5 92bc
00000170: 376d 5bbd 802b b6bd 2918 cc3c 7570 2e3c
00000180: 4e7a 9ebd 76da e3bd 716a cdbb 551a 3abe
00000190: 4b81 bfbd 6156 0abe 5b87 1ebe 5ce6 a93c
000001a0: a830 a03d fcf6 09bd e992 07be 7fe8 39be
000001b0: 9a34 cc3d 9965 843d 5ed4 383a cfdb 9a3d
000001c0: 5748 a03d 070a cc3d b12c 10be 8026 25bd
000001d0: 20a6 b2bd fe0f e2bc 51d7 643d 47b7 413d
000001e0: 6e2f 2cbe e58b d6bc dad9 ab3d 59d8 d63d
000001f0: 4ec5 99bd 892e 3abe 07cb 3fbd 3b69 8ebd
00000200: 2f88 473d d0ef 7dbd 5c8b f4bb 0948 c83d
00000210: 6ec6 873d ac83 b13c d921 38bd 7dd7 0a3e
00000220: 5af3 8a3d c481 873d 7b56 4fbd 5f75 43bc
00000230: 8668 d63c 19e4 503d 194f 8a3d 2357 77bd
00000240: a609 31bd 79dc 4c3d ad6d 7d3b 08ca fcbc
00000250: 61ad c83c d494 20bc b57e 733d 2af4 133d
00000260: 2868 abbd b5ba 83bd 3583 813d 16e4 11bc
00000270: 2c1b b23d 62d9 05bd 102e 743d 24b3 4a3d
00000280: 0235 7dbd 528c 803d debb da3b 24e9 9d3d
00000290: 0e7c bcbc 77e7 c4bc 089f 073e 5ef3 9bbd
000002a0: 8911 7ebc 4938 9a3c 2204 e9bc 6249 b53d
000002b0: 116a f1bd 68ee 103d aa2b d83b b797 ab3b
000002c0: 6860 aebd 6e08 6ebd 05ed aa3d 86f4 27bb
000002d0: 48d4 1a3d 8953 99bd 0839 00be 1680 3f3d
000002e0: 9f97 c83d cd73 67bd dddf b73d ca4e 66bd
000002f0: 9bc4 823d 6eab 623c b93a acbd 57b5 d0bd
00000300: 6aa8 65bc 56eb a23d 9f31 ac3d 2511 9bbd
00000310: 1ed8 06bd 80dc aebb ca38 a23d ebc7 c2bd
00000320: 3492 5d3d b028 79bd e7cb d33d feb0 4d3d
00000330: cd22 7dbd 2269 27bd df97 5f3d 1545 e23b
00000340: bdcf 43bd 9fbc c03d 8bfc 9abc 6a6f 16bd
00000350: fa14 29bc a375 ce3d 134f 843d fddd fd3b
00000360: 6332 c63d 36aa dc3c d3f4 99bd 6909 d43d
00000370: a753 9a3b 88a7 acbd d869 d6ba 66fd a1bc
00000380: c9bb ebbd c2d6 49bd ef47 b8bd dcd7 dbbd
00000390: b039 d7bd 3b36 f5bd e7c2 c7bb c4ae ccbd
000003a0: b45a fdbd 3f53 ccbd 4f72 b7bd b1e0 21bd
000003b0: 49a3 ca3d 662b 87bd d3ef 783d 209c 053d
000003c0: 86a7 2abc a9dd 7d3c adb6 143d a438 0b3d
000003d0: 0fa9 2b3d e010 75bd a809 0e3e 1818 73bd
000003e0: eda4 a6bc 29ba 583c e470 3e3d 7483 a13d
000003f0: 739e 68bc 9f07 f3bd a971 f93d e2c3 cd3c
0.10132505 0.054384675 0.054970905 0.08288534 -0.04363659 0.13771352 -0.017211327 0.103167765
0.020284148 -0.031267535 0.11194248 -0.13774903 -0.08033789 -0.027276713 0.026993796 -0.06271504
0.08181459 -0.096832536 0.02605562 0.036104754 0.08325938 -0.08085695 0.07310223 -0.07981258
-0.14399086 0.060923737 0.02967644 -0.0024694784 0.043198276 -0.03698187 -0.07029547 0.0036911834
0.023663724 0.10292375 -0.06908368 0.065654285 -0.076749615 -0.021006487 0.06146164 -0.02750442
-0.059424534 -0.052260295 0.06017202 0.10752054 0.03395627 -0.007623484 0.0052516726 0.098664686
-0.009765945 0.04736858 -0.097226895 -0.043197986 -0.05889659 0.06185234 -0.0942049 0.0037743128
-0.08353591 -0.11253929 -0.084557645 0.11290591 -0.06276288 0.035080615 -0.005315498 -0.041960947
-0.10787689 0.101412915 -0.13664868 0.038169157 -0.019159589 0.044028655 -0.018029178 0.02539042
-0.12579438 0.10133403 0.0018140273 -0.040533755 -0.024857972 0.075179815 0.023453444 -0.06179934
0.08240139 -0.05008938 0.029349051 0.0027910008 0.14795738 0.10825992 -0.043688282 0.017295493
0.1247525 0.118199475 -0.008739948 -0.017939458 -0.053570952 -0.08895016 0.024913864 0.010646929
-0.077381715 -0.111256525 -0.0062687923 -0.18174107 -0.093508326 -0.13509513 -0.15481322 0.020739727
0.078217804 -0.03368281 -0.13239636 -0.18155096 0.099709705 0.06464691 0.0007050688 0.075614564
0.07826298 0.0996285 -0.14079548 -0.04031992 -0.08723092 -0.027595516 0.055869404 0.047293928
-0.16814968 -0.026189754 0.08391161 0.10490484 -0.07508336 -0.18181814 -0.04682448 -0.06953665
0.04871386 -0.06199628 -0.007462902 0.097793646 0.06629644 0.021669231 -0.044954155 0.13558765
0.06784697 0.06616548 -0.050619584 -0.011929839 0.026172888 0.05099878 0.06753368 -0.060385834
-0.043222092 0.050014947 0.0038670108 -0.030858055 0.024496736 -0.009801108 0.05944701 0.036121525
-0.083694756 -0.06432096 0.06323854 -0.008904478 0.08696589 -0.032678016 0.05961424 0.049487248
-0.06181813 0.06276764 0.0066752275 0.07710484 -0.023008373 -0.024036152 0.1324426 -0.07614778
-0.01550711 0.018825667 -0.028444353 0.08851887 -0.11787809 0.035383612 0.006597002 0.0052365917
-0.08514482 -0.058113508 0.08345989 -0.0025627925 0.037800103 -0.07486636 -0.12521756 0.04675301
0.097945444 -0.05650692 0.089782454 -0.056227483 0.06385156 0.013834817 -0.08409638 -0.10190838
-0.014017204 0.07955043 0.08407902 -0.075716294 -0.03292095 -0.0053363442 0.07920988 -0.095107876
0.05409451 -0.06082982 0.10341626 0.05021762 -0.061800767 -0.040871747 0.054588195 0.006905208
-0.047805537 0.094109766 -0.01891925 -0.036727346 -0.010319943 0.10081031 0.06460395 0.0077474103
0.09677579 0.026936632 -0.075174 0.10353357 0.004709679 -0.084303916 -0.0016358448 -0.01977415
-0.115104266 -0.049277075 -0.08998095 -0.10734531 -0.1050905 -0.11973234 -0.006096232 -0.099942714
-0.12370816 -0.099768154 -0.089573495 -0.039520923 0.098944254 -0.066000745 0.06077559 0.032619596
-0.010415917 0.015494742 0.036307026 0.033989564 0.041909274 -0.059830546 0.13870871 -0.05934915
-0.020342315 0.013227978 0.04649438 0.07886401 -0.0141979335 -0.11866688 0.12179882 0.025117818

hidden_block.2.bias f4 [64]
00000000: 6e26 443d 8ef7 b63d 049b afbd 2b68 9bbd
00000010: e87c 13be 07a1 d33d 2c90 d53b 1b14 ff3b
00000020: fb0e cf3c 432f 663d 6c99 9e3d dbd6 773d
00000030: e7fc b5bd fa8c 18be 2fa8 313d a137 a4bd
00000040: ba20 2bbe 2a22 39bd 594b 5a3b 7e6a fd3c
00000050: b81f 72bd 6054 273d 0434 01be 8936 7cbd
00000060: 5f10 813d 26e6 13bc 1193 c2bb 8aac 07be
00000070: 4845 ab3d 5021 ffbd 8481 823d d57e 49bd
00000080: 6b89 303d a301 f2bd 5d44 f7bd b974 fe3d
00000090: cc85 d6bd afd4 e1bd 94b1 453d e0f7 a3bd
000000a0: 5904 c83d 9a22 593d e621 003e f558 3dbe
000000b0: 193a b43d d21e 19bc 704b e93c f828 00be
000000c0: c232 d9bd eb73 d5bc 7c0f 83bd ff24 243d
000000d0: 1687 9f3d 97be dabd a061 a43d ecc9 003e
000000e0: 72c7 d03c 647e 913c 41e8 823d 7302 a63d
000000f0: 9304 4ebd 1a5b 94bd 5012 643d d243 973d
0.047888212 0.08933936 -0.08574489 -0.07588228 -0.14403117 0.10333448 0.006517431 0.007784379
0.025275698 0.056197416 0.07744107 0.060507637 -0.08886128 -0.14897528 0.043373283 -0.08018423
-0.16711703 -0.045198597 0.003330907 0.030934568 -0.05911228 0.04085195 -0.12617499 -0.061575446
0.06301951 -0.00902704 -0.005937942 -0.13249412 0.08362824 -0.12457526 0.063723594 -0.049193222
0.043099802 -0.118167184 -0.12073586 0.12424607 -0.104747385 -0.11026894 0.048265055 -0.08006263
0.09766454 0.053011514 0.12512931 -0.18490966 0.08800144 -0.009345727 0.028478354 -0.12515628
-0.106053844 -0.02605625 -0.06399438 0.040074345 0.077894375 -0.106808834 0.08026433 0.12577027
0.025485728 0.017760463 0.06391955 0.08105936 -0.05029733 -0.07243939 0.055681527 0.073859826

hidden_block.4.weight f4 [64]
00000000: ee3c 7b3f 5e35 703f 4d79 803f d733 7a3f
00000010: fbbc 773f 0971 673f 91b5 7c3f 7845 703f
00000020: 7424 7c3f 0263 803f 2605 7c3f 1071 803f
00000030: 7b29 7f3f b3eb 7f3f c104 823f 93ef 7a3f
00000040: 99fa 7d3f 0476 783f 1df2 6b3f 8a56 733f
00000050: 3cf4 7f3f bd07 793f e366 713f 372e 773f
00000060: 655a 7e3f 5bd5 7d3f f94c 763f 6f52 793f
00000070: 1e1e 723f 68b8 763f 4f41 6e3f 1d4e 793f
00000080: 9b67 713f eb5e 743f 815f 763f e819 803f
00000090: 825d 773f f181 7a3f a39a 763f ebb6 7b3f
000000a0: cc28 753f cc3c 793f 7598 753f ce7f 763f
000000b0: 2d55 7b3f ef57 6c3f 7a9c 6e3f 31dd 713f
000000c0: fe6f 823f 6216 823f d16f 703f cc60 713f
000000d0: 9445 7c3f d4bf 873f 57c2 6f3f 2af1 7b3f
000000e0: f57d 773f aced 793f 682e 823f 3446 843f
000000f0: 1e91 823f 7030 7f3f b3d5 743f a573 793f
0.98139846 0.9383143 1.0037018 0.9773535 0.96772736 0.9040685 0.9871455 0.93856
0.98493123 1.0030215 0.98445356 1.0034504 0.9967267 0.99969023 1.0157701 0.9802181
0.99210507 0.9705508 0.9216631 0.95053923 0.9998205 0.9727743 0.9429762 0.96554893
0.9935668 0.9915368 0.962112 0.9739141 0.94577205 0.9637513 0.93068403 0.97384816
0.94298714 0.95457333 0.9623948 1.0007906 0.96627057 0.97854525 0.96329707 0.98325986
0.95765376 0.97358394 0.95935756 0.96288764 0.9817684 0.92321676 0.93207514 0.94478136
1.0190427 1.0163081 0.9392062 0.94288325 0.9854367 1.0605416 0.93655914 0.9841486
0.9667657 0.97628284 1.0170412 1.0333924 1.0200536 0.99683285 0.9563858 0.97442085

hidden_block.4.bias f4 [64]
00000000: 0ea2 7abb cbd1 8dbd 1e3d 80bc d35e 0c3c
00000010: 9aaa 1e3c ab9c 9dbc d045 78bc a240 943c
00000020: 4067 7abc 1b81 3ebc 2f6a 91bc a31a 50bc
00000030: 4425 84bc 3d55 98bc 2695 6abb 41ff f93c
00000040: 30e5 92bb 0a91 e4b7 1ef7 b93b 8c10 9abc
00000050: 470c 0bbc a9d8 46bc 27fe 98ba de0b ed3c
00000060: 5bde 883d a2c2 53bc d107 9e3b b2d3 4abc
00000070: 9f15 56bb 00da 323b e895 1d3d 9b73 97ba
00000080: 71ea 373d a596 ec3b 1318 0a3c 0d14 173d
00000090: a751 a33c ffc7 2f38 224f 90bc f3a9 9fbc
000000a0: 4269 353c 1ac1 4dbc da17 c13c dab9 24bd
000000b0: b119 043d 1f5a 0f3d 379f 8cba e5df 543c
000000c0: 6adc a3bc 14cd 803c 14cc 37bd 833c 6ebd
000000d0: 06ad 44bc 00b1 1abc 75f7 a0bd 6539 a0bc
000000e0: 3a15 45bc 4b99 3dbc 10b4 96bc 547f 83bc
000000f0: 7d85 66bc 3c6b b2bc cbca 70bc caab 0dbd
-0.0038243565 -0.069247805 -0.015654143 0.00856753 0.009684229 -0.019239744 -0.015153363 0.018097226
-0.015283406 -0.011627461 -0.017750828 -0.012701663 -0.01613105 -0.018595332 -0.0035794466 0.030517222
-0.0044828877 -2.7247257e-05 0.0056752106 -0.018806718 -0.008486814 -0.012136617 -0.0011672423 0.028936323
0.06683036 -0.012924822 0.004822709 -0.012379574 -0.0032666696 0.0027290583 0.03847304 -0.0011554839
0.044901315 0.0072201067 0.008428591 0.036884356 0.019936396 4.1909512e-05 -0.017615858 -0.019490218
0.011072459 -0.012558246 0.023570944 -0.040216304 0.032251064 0.034998056 -0.0010728602 0.012992834
-0.020002563 0.015722789 -0.04487236 -0.058163177 -0.012004143 -0.009441614 -0.07859699 -0.019558618
-0.012028987 -0.011572192 -0.018396407 -0.016051926 -0.014069912 -0.021779649 -0.014696787 -0.03458766

layers.0.ln.weight f4 [64]
00000000: 4280 6e3f 32d7 503f 575c 7c3f ebd0 753f
00000010: c799 533f 86d2 503f 8cf4 6b3f cfa6 713f
00000020: 5e11 693f 8615 7c3f 9249 763f ac9e 7a3f
00000030: 2520 7b3f f03f 7b3f 463c 7f3f fc9b 683f
00000040: 499f 743f 3b6e 883f 8886 513f 7945 4f3f
00000050: a493 793f 422e 713f 5ea2 503f e22b 8c3f
00000060: d4a4 7c3f 44cc 783f 7765 8c3f f455 723f
00000070: 5f5f 873f 5eeb 593f c345 683f 6d41 793f
00000080: 5582 8c3f 72bf 5f3f 76b0 7c3f 75b5 853f
00000090: b81c 823f 8bdd 7c3f 47d9 603f bd5c 6e3f
000000a0: b975 763f 386f 7c3f 3d37 853f 4666 503f
000000b0: c801 863f 5bbd 653f 92c0 693f f34c 653f
000000c0: 51f0 7d3f 1345 773f 36a3 553f ac90 603f
000000d0: 90be 6f3f be2f 7b3f 35bc 6f3f 5556 763f
000000e0: 98b4 613f b81c 653f 361f 7e3f 3746 703f
000000f0: 85d9 553f 6c7c 623f 426a 653f a295 603f
0.93164456 0.8157836 0.985784 0.9602191 0.8265652 0.81571233 0.92170024 0.94395155
0.91042125 0.9847034 0.9620601 0.97898364 0.98095924 0.98144436 0.99701345 0.90863013
0.9555555 1.065864 0.81845903 0.8096538 0.97490907 0.9421121 0.8149775 1.0950892
0.9868901 0.97186685 1.0968465 0.94662404 1.057598 0.85124767 0.9073145 0.97365457
1.0977274 0.874015 0.9870676 1.0446001 1.0165014 0.9877555 0.8783154 0.9311026
0.9627338 0.98607206 1.0407482 0.81406057 1.0469294 0.8974206 0.91309464 0.8957054
0.9919482 0.96589774 0.83452165 0.8772075 0.9365015 0.98119724 0.93646556 0.9622548
0.8816619 0.89496946 0.99266374 0.9385714 0.83535033 0.884711 0.8961526 0.8772832

layers.0.ln.bias f4 [64]
00000000: f67a 863d b19f 48be fd52 0c3c 858b 8338
00000010: 8d1a 263e eb73 a5bd 542f 21bd 3cd3 cb3c
00000020: 60f5 39bd 9a90 dc3b c4dd 6c3c 4e95 6a3c
00000030: 3871 a93b b739 973b 50d0 b23c 88fa 533d
00000040: 6d30 103d e013 a7ba ca3e 243e 319d 203e
00000050: 581c a93c 32f8 eb3c bd2b 243e 36f0 d43c
00000060: f646 0dbc 191e 3e3c 3b52 033a c490 dd3c
00000070: 169c 11bc cfa4 053e 1425 a03d 982d b13c
00000080: 4b2e 1c3d 7e99 cc3d 1949 9c3c 21c7 cd3c
00000090: 0b4b c63c eef7 893c 42e0 d03d 41ce 163d
000000a0: 2893 cd3c 0a48 dcbc a614 863c eacd 1a3e
000000b0: 1688 8e3c b4f9 b43d b685 4a3d c357 9e3d
000000c0: 0652 b23b 7e24 573c 4160 aebd 0eb5 bfbd
000000d0: 0f90 4ebc a8f4 bc3c 813d 81bd 4385 4bbc
000000e0: 5f5a 41bd 3bb2 c3bc 2f48 1cbb 40c3 293d
000000f0: 148f 9abc 374e ebbc 07f7 1dbd 2da0 013e
0.06566422 -0.19592167 0.008564708 6.272554e-05 0.16221066 -0.0807875 -0.039351776 0.024880998
-0.045400023 0.006731105 0.01445717 0.014317824 0.0051709674 0.0046150344 0.021827847 0.051752597
0.035202432 -0.0012747012 0.16039577 0.15684964 0.020643398 0.028804872 0.1603231 0.025993448
-0.008622875 0.0116038555 0.0005009507 0.027046569 -0.008887311 0.1305115 0.07819572 0.021628186
0.038130086 0.09990214 0.019077824 0.025119366 0.024205705 0.016841855 0.10199024 0.036817793
0.025094584 -0.02688982 0.016367268 0.15117612 0.017398875 0.088366896 0.049443923 0.07731583
0.005441907 0.013131259 -0.08514453 -0.09360705 -0.012607588 0.02306588 -0.06310559 -0.012421909
-0.047205325 -0.023888698 -0.0023846736 0.04144597 -0.018867053 -0.02872382 -0.03856566 0.12658758

layers.1.ln.weight f4 [64]
00000000: e28e 833f 8e25 813f 3617 823f 3164 843f
00000010: 4b91 793f c023 833f 4f1c 883f 2212 813f
00000020: 17c6 863f b2cf 803f dcc0 803f e7f8 813f
00000030: 8088 813f 8b4a 813f 6ba4 783f 7970 7c3f
00000040: d311 823f 1606 983f 0d01 813f 42cf 7f3f
00000050: bf59 823f 0f4d 803f fbbb 7a3f 91be 9b3f
00000060: 9449 793f cbf7 803f 9886 9f3f 14e7 813f
00000070: bbe2 9d3f 9479 743f 02ec 773f f806 853f
00000080: 31de 983f 6c38 813f d050 863f c4f6 8c3f
00000090: 819a 923f 4b87 853f 5652 803f 5530 813f
000000a0: cc6d 853f b3f9 913f 8bc0 8c3f efde 7f3f
000000b0: 7974 8d3f f505 853f 6294 853f 8b0b 853f
000000c0: b626 823f b0b9 843f 6b0c 873f 6950 5a3f
000000d0: 3101 873f 458e 833f 09b8 7d3f f2dc 7f3f
000000e0: e888 833f 1f77 7f3f 17f2 833f 0ea7 803f
000000f0: ac01 863f 5663 8a3f 5441 873f d46c 793f
1.0277979 1.0089586 1.0163333 1.0343076 0.97487324 1.0245285 1.0633639 1.0083659
1.0529202 1.0063384 1.0058856 1.0154084 1.0119781 1.0100874 0.9712588 0.9860912
1.016169 1.1876857 1.0078446 0.99925625 1.0183638 1.0023516 0.97943085 1.2167531
0.97377896 1.007562 1.246295 1.0148644 1.2334818 0.95498013 0.96844494 1.0392752
1.1942807 1.0095344 1.0493412 1.1012807 1.1453401 1.0431913 1.0025127 1.0092875
1.0424132 1.1404327 1.099626 0.99949545 1.105117 1.0392443 1.0435908 1.0394148
1.0168064 1.0369167 1.0550665 0.85278946 1.0547239 1.0277792 0.9910894 0.9994651
1.0276155 0.9979114 1.0308255 1.0050981 1.046926 1.0811565 1.0566812 0.97431684

layers.1.ln.bias f4 [64]
00000000: b435 8fbc 92dd 863c d2bf 8abc c759 8b3c
00000010: f563 72bc 7c38 8a3c 5508 8e3c 6741 8c3c
00000020: b46e 8d3c 60f6 89bc 366a 89bc da82 8abc
00000030: 125b 8abc 9b50 8abc ee65 07bc 1682 8a3c
00000040: 8054 8abc d007 933c d8c5 89bc 3014 86bc
00000050: a8b0 8abc 764b 88bc 6417 83bc 7ee1 94bc
00000060: 8346 6b3c f7c4 89bc b998 933c 2501 8abc
00000070: 3cef 953c bddb 9dbb 5def 953c 6cca 9b3c
00000080: 48c9 96bc a5dc 88bc 6fa6 8f3c fad4 9fbc
00000090: 7dc2 90bc 3338 903c cc5e 86bc 7b0b 89bc
000000a0: f8a0 913c c1cd 8f3c ee4b 90bc 7981 85bc
000000b0: ccc1 95bc b872 9cbc 067e 90bc 0f55 90bc
000000c0: 79ba 8abc 11d2 8e3c 6605 8e3c 6766 8dbb
000000d0: 5f24 8e3c 6490 8bbc e62f 8ebc 5217 8ebc
000000e0: 90ec 8a3c 1b71 803c 3d98 8dbc 818e 88bc
000000f0: 63ef 8e3c 229e 9b3c 92b7 8f3c 967a 80bc
-0.017481662 0.016463075 -0.01693717 0.017010583 -0.014794339 0.016872637 0.017337957 0.01712103
0.017264701 -0.016841114 -0.016774278 -0.016908098 -0.016889129 -0.016884139 -0.008264048 0.016907733
-0.016885996 0.017948061 -0.016817972 -0.016367048 -0.01692994 -0.016637545 -0.016002364 -0.01817393
0.014360073 -0.016817553 0.01801716 -0.016846249 0.018302552 -0.0048174546 0.018302614 0.01901742
-0.018406525 -0.016706774 0.017535416 -0.019510735 -0.017670864 0.017604923 -0.016402625 -0.016729107
0.017776951 0.017554166 -0.017614331 -0.016297089 -0.018280886 -0.01909767 -0.017638218 -0.017618684
-0.01693462 0.017434152 0.017336559 -0.004315186 0.017351327 -0.017036624 -0.017356824 -0.017345104
0.016958505 0.015678933 -0.017284507 -0.016669514 0.017448133 0.018996302 0.017543588 -0.015683454

logit.weight f4 [1, 64]
00000000: 7516 703d ab50 6bbd aa40 053e 4706 01be
00000010: 6854 a23c 995b bebd 4302 23be 1c6c d6bd
00000020: 8b00 0dbe cfdb 083e 031a dd3d d132 e93d
00000030: 5cdb 0b3e 8210 073e 073d 0b3c 239d 68bd
00000040: 8db1 b63d 6bcc 84be 1b64 1f3d 5a93 153d
00000050: cc10 e13d 8862 af3d 112d b03c ca09 963e
00000060: 7839 8dbc 2d0c 023e 0463 b3be 8c67 c03d
00000070: d6f8 8cbe b6b3 813c e525 19bc 6b16 71bd
00000080: 5488 7a3e 6271 5b3d 48a7 16be a4a7 e13d
00000090: 0cf7 813e d48c 00be f560 3a3d 3c39 a23d
000000a0: b054 c9bd ae77 83be eb04 613e d8a4 1c3d
000000b0: 4634 263e 004a 4a3d 3a17 913d 56c2 7b3d
000000c0: ea78 083e 2c54 04be 1bf3 04be 52f9 9abb
000000d0: 5182 03be 2ef9 d33d b968 033d 5d7d 343d
000000e0: 4f4c e3bd 3cd6 15bd d3ed fa3d 53fc 7e3d
000000f0: 4a3c e9bd c866 b3bd 7a73 d7bd 9cfd d33c
0.058615167 -0.057449978 0.13012949 -0.12600051 0.019815639 -0.092948146 -0.15918832 -0.10469839
-0.13769738 0.133651 0.10795977 0.113866456 0.13657898 0.13189891 0.008498437 -0.056790482
0.08920584 -0.2593721 0.038913827 0.03651748 0.10989532 0.08563715 0.021505864 0.29304343
-0.017239317 0.12699957 -0.3503648 0.0939475 -0.27533597 0.015832763 -0.009347414 -0.05885927
0.24466068 0.053574927 -0.1471225 0.11018303 0.25383794 -0.12553722 0.04550262 0.07921073
-0.09830606 -0.25677246 0.21974532 0.038243145 0.16230878 0.04938698 0.07084508 0.06146463
0.13327375 -0.12922734 -0.12983362 -0.0047294283 -0.1284268 0.10350262 0.032082293 0.04406487
-0.11098539 -0.036581263 0.122523926 0.062252354 -0.11388452 -0.08759838 -0.10520072 0.025877766
