Model/single/fold2.ckpt (torch, 130111 bytes, 15 tensors)

input_block.0.weight f4 [398]
00000000: 2a3f 853f bb31 813f ea8a 783f c2ff 823f
00000010: 4464 7b3f 9e3b 823f 3145 803f 1dbf 813f
00000020: 12ce 833f ece4 763f dce3 7e3f eef2 853f
00000030: 83a7 793f f667 803f 4f77 7b3f b2aa 7c3f
00000040: cb8a 793f ce9b 7c3f 86b1 7f3f fd37 803f
00000050: c127 823f 4300 803f d7fd 833f 6572 843f
00000060: 3f74 813f ed61 823f 84b7 853f b1b8 833f
00000070: 08fb 803f ded9 813f efb8 7f3f aa05 7e3f
00000080: 634c 7a3f d083 773f 681c 793f 77c9 7b3f
00000090: f415 873f 2beb 813f 2e95 803f 233f 7c3f
000000a0: 7eb4 7d3f caf3 7d3f 18a5 7d3f 20df 873f
000000b0: cfa9 753f b07c 803f 442f 7c3f 0215 743f
000000c0: 4b14 813f 2874 7c3f 8ff5 7b3f 014a 813f
000000d0: 97bb 793f 28b4 803f 22a3 773f 96b3 803f
000000e0: 91df 723f c25e 813f 65b4 7f3f 3eee 803f
000000f0: 8eaf 793f bef8 803f 2449 813f 3ffa 823f
00000100: 73fa 7b3f 8845 7c3f 2769 763f 2d22 7b3f
00000110: bfa5 823f 744a 783f 5beb 7c3f a0a3 7c3f
00000120: b5a2 823f 0386 7b3f 5b6a 793f 6c2a 793f
00000130: 08c3 7a3f da0e 7d3f 8724 7e3f 5fc1 7d3f
00000140: 8742 7a3f 05c2 763f 2161 813f 7457 7b3f
00000150: e753 813f 9f0a 7a3f 73f0 803f 90fe 783f
00000160: 9c8b 813f be7c 753f 0e06 773f 4b50 7b3f
00000170: f8be 763f 3c52 803f 08d3 803f 6dd0 803f
00000180: 43b9 7f3f 9892 763f e41f 7b3f c1f6 753f
00000190: 3913 803f bb58 7f3f 22b8 7a3f ff8a 823f
000001a0: b25e 823f 8b8e 753f c2d2 783f 4908 823f
000001b0: c25f 7f3f 0554 773f abce 7c3f 0f12 803f
000001c0: 6dce 7c3f 69e2 783f e688 7c3f 6caa 7a3f
000001d0: d3f6 7b3f 1221 7d3f b287 803f 5bf8 833f
000001e0: 7825 7e3f 2896 7e3f fda9 7e3f 6ae6 7d3f
000001f0: a426 833f 2579 813f afe4 823f 9e0c 7e3f
00000200: cd5b 7c3f 1fcb 7b3f d350 7c3f 04c0 823f
00000210: 28ac 7b3f 1d4d 7e3f cd76 733f 6a74 7f3f
00000220: ddff 823f 87fa 853f 7eb8 7e3f 154f 7e3f
00000230: 261a 753f 787a 7a3f 2a38 773f 5c5e 7c3f
00000240: b920 7e3f 8bba 7a3f cd4a 783f f332 813f
00000250: 5659 813f 7c63 833f 6939 803f ed73 763f
00000260: 81e2 773f c90c 803f 194b 773f 2dea 883f
00000270: 326e 863f fc46 7b3f 5d06 813f 1287 803f
00000280: 4fbb 793f ae66 7a3f 4b1d 793f ebc6 803f
00000290: 0ea8 803f d1f6 7b3f bb52 7f3f c489 823f
000002a0: c487 7c3f 1eee 773f 4157 803f a3ab 7d3f
000002b0: 3f7e 803f 716c 863f e5fb 7f3f d9fc 813f
000002c0: bc7f 7d3f 8422 783f 0d57 7d3f 12fb 813f
000002d0: cee2 7a3f b74f 773f c2f3 7c3f d31d 7e3f
000002e0: cfe2 723f cbfb 873f 8630 823f 0239 833f
000002f0: e940 833f 0d38 803f 691a 803f 2863 803f
00000300: 6fc8 7d3f de30 7b3f 6863 7a3f cb93 7f3f
00000310: cbef 7f3f 8de9 813f 9b1c 803f b458 7a3f
00000320: dead 823f 522f 7d3f 0fb1 893f 97fa 7c3f
00000330: 1645 7d3f 2869 843f 50ed 833f 8b1d 7f3f
00000340: 97eb 803f 1fd9 7d3f 45fc 7d3f 792a 763f
00000350: 1643 823f 6011 7c3f fce2 803f 77bd 803f
00000360: 802d 743f 1732 783f 6fc6 7c3f 8dc5 7a3f
00000370: da3a 833f 4d39 803f 9c40 7c3f 3d40 843f
00000380: ea03 763f 0913 7f3f 795d 7c3f 32ac 803f
00000390: 43ca 7a3f 1a48 7f3f 6fac 783f a71a 803f
000003a0: a8f4 7f3f 4486 7c3f 9b5e 753f 95cf 7e3f
000003b0: d2d6 7a3f 26e4 773f b292 703f 9347 763f
000003c0: d810 7d3f 4403 7a3f d0dc 7e3f ca98 7d3f
000003d0: eb65 773f 258e 823f 61db 823f 8048 813f
000003e0: de73 803f be84 7f3f bc92 7e3f 64ae 723f
000003f0: a289 803f be8e 833f 31a8 7f3f 7746 7b3f
1.0409901 1.0093302 0.97086966 1.0234301 0.9819987 1.0174444 1.0021116 1.0136448
1.0297263 0.9644306 0.99566436 1.0464761 0.9752123 1.0031726 0.98228925 0.9869796
0.97477406 0.9867524 0.99880254 1.0017086 1.0168382 1.000008 1.0311841 1.034741
1.01136 1.0186135 1.044663 1.0290738 1.0076609 1.0144613 0.9989156 0.9922739
0.97772807 0.96685505 0.9730897 0.98354286 1.0553575 1.0149893 1.0045526 0.9853384
0.99103534 0.9920012 0.9908004 1.0614967 0.9596223 1.0038052 0.9850962 0.95344555
1.0084318 0.9861474 0.9842157 1.0100709 0.97551864 1.0054979 0.96733296 1.0054805
0.94872385 1.0107043 0.99884635 1.0072706 0.975335 1.007591 1.0100446 1.0232619
0.9842903 0.98543596 0.962542 0.98099023 1.0206832 0.96988606 0.98796624 0.9868717
1.0205904 0.9825136 0.9742791 0.97330356 0.97953844 0.98850787 0.99274486 0.99123186
0.9775776 0.963898 1.0107766 0.9818032 1.010373 0.97672457 1.0073379 0.9726343
1.012073 0.95893466 0.96493614 0.9816939 0.96385145 1.0025096 1.0064402 1.0063607
0.9989206 0.96317434 0.98095536 0.9607964 1.0005866 0.99744767 0.97937214 1.0198668
1.0185149 0.9592063 0.9719659 1.0158778 0.9975549 0.9661258 0.9875285 1.0005511
0.9875248 0.97220474 0.9864639 0.97916293 0.984235 0.98878586 1.0041411 1.0310167
0.9927592 0.9944787 0.9947813 0.9917971 1.0246167 1.0115095 1.0226039 0.99238
0.98577577 0.98356813 0.9856083 1.0214849 0.98309565 0.99336416 0.9510315 0.9978701
1.0234333 1.046708 0.9950026 0.9933942 0.95743024 0.9784312 0.96570075 0.9858148
0.9926868 0.9794089 0.96989137 1.0093673 1.0105388 1.0264735 1.001752 0.9627064
0.9682999 1.0003902 0.96598965 1.0696465 1.0502379 0.9815519 1.0080067 1.004122
0.97551435 0.97812927 0.9731032 1.0060705 1.0051286 0.98423487 0.9973561 1.0198293
0.9864466 0.96847713 1.0026628 0.9909002 1.0038527 1.0501844 0.99993736 1.0155288
0.9902303 0.96927667 0.98960954 1.0154746 0.98002326 0.9660601 0.98809445 0.9926426
0.9487733 1.0623716 1.0171058 1.0251772 1.0254184 1.0017105 1.000806 1.003026
0.9913396 0.9812144 0.9780793 0.9983489 0.9997527 1.0149399 1.000873 0.977916
1.020931 0.9890033 1.0757159 0.9881987 0.9893354 1.0344591 1.0306797 0.99654454
1.0071896 0.99159425 0.9921306 0.9615856 1.0176723 0.9846401 1.006927 1.005782
0.9538193 0.9695143 0.98740286 0.9795769 1.0252335 1.0017487 0.98536086 1.0332104
0.9609972 0.9963842 0.9858013 1.005255 0.97964877 0.99719393 0.9713811 1.0008134
0.9998269 0.98642373 0.9584748 0.99535495 0.9798404 0.968325 0.9397384 0.96202964
0.98853827 0.9766123 0.99555683 0.9906126 0.9663989 1.0199629 1.0223199 1.010025
1.003536 0.99811924 0.9944265 0.9479735 1.0042002 1.0277936 0.99866015 0.98154396

input_block.0.bias f4 [398]
00000000: 7150 8e3a f1c3 0ebb 7802 9bbb a3c0 0cbb
00000010: 51aa e3bb 8b50 52bb 9960 1bbc dd51 08bc
00000020: 9aab 363b a845 7a3b f158 243b 2d3f 07ba
00000030: f775 21bc 9e77 043c 15c6 b03a ac75 58bc
00000040: 9154 97bb 8bed 273c a45d a93a 1447 f9b9
00000050: 89e6 5bba 78a9 ce3b b87c 23ba cc8c 0ebc
00000060: 9d9d b5bb 9ecd 2f3b ab60 0abc 7efc 943b
00000070: cb8c c7b9 fbae 113b 3c33 c6bb fbad 053c
00000080: 47b8 933a 7e30 72bc 30b3 c6bb cd2b 2cbb
00000090: c59e ef3b 3d20 ae3b b886 b0bb 5875 7ebc
000000a0: f05f ddbb f1bf 46bb e6ea d4bb 3780 50bb
000000b0: 2ed4 4abc 69cc e33a 5f49 9fbb e628 b0bc
000000c0: 92b6 5fbb f2b7 22bb 87a8 933a 230f a93b
000000d0: 9904 b23b 1bed f2b9 d63a c1bb 6da1 a23b
000000e0: d439 6bbc f36e 12ba cc88 c3bb c692 b3bb
000000f0: 4d99 d1ba ced4 8a3b f0d9 883a 72f3 283b
00000100: 6783 213c b00b 163c ee5a 9dbc d310 8f3b
00000110: 1adc 91bb a097 4e3c 46aa 71bc b7cf ba3b
00000120: 3ee2 dd3b d8bb c83a 280b 85bc e1b9 5d3b
00000130: 731b 2ebc 83fc 74bc 02ef eaba f06e bbba
00000140: 9de8 333c 271c 91bc 1e62 c03b b758 c339
00000150: 460b fdba 493d 913c 7056 b63b dce1 79bc
00000160: acd2 08bc 9eb6 0b3b fd2c b13c 2258 463c
00000170: 986b b7bc f1d5 c2bb 3fca 413b fd11 febb
00000180: 9226 9ebb 72ba 353b 986d b9bb 92a7 67bc
00000190: aa1d 25ba 2521 673c cf18 a13c 23f8 62bb
000001a0: d7ea cbbb 8ea2 a6bc 0eb8 1bbc 5e8f a63b
000001b0: 8729 3e3b 2251 a73c 2845 bcbb 8b4b 8cbb
000001c0: 1f50 2a3c 765b 51bc 2e72 5dbc e2e4 fcb9
000001d0: 4f1f b43c 1ef5 13bb f4fb 663b 35fe b43b
000001e0: a798 abba d807 afbb f417 0ebb 32fb e0bb
000001f0: e720 0dbc be75 8ab9 8451 2c3c 91d1 c33b
00000200: 3790 b839 729b 06bc 7c80 13bc 2623 ebbb
00000210: 8122 6c3c 16e5 033b 43ee f0bc 5667 36bc
00000220: a91f 3fbb 3e06 93bb 7fba 893b c159 a3ba
00000230: 6d6e edbc 8e68 083c 7b18 3c3b 4efd 6dbc
00000240: 4c42 99bb f167 ddbb 16bd 533c 8f93 5a3b
00000250: 5c82 adbb c207 e4b7 ec64 35bc c75a 00bb
00000260: ab63 5ebc 712e 3dbc 360a 263b d38d 12bc
00000270: b169 04bb 5ef4 01bc 0a91 ebbb 87ef 823b
00000280: fa7c ba3b bcdf 54bc 76a3 3b3a 9b95 8ebb
00000290: 5fd1 ef3b 5961 e83b 1af8 a7bb 926f f5bb
000002a0: 2e64 1ebb a7bd 1a3b 76e9 7dbb aae7 c0bb
000002b0: 3020 34b8 edc0 06bc c6ef 1b3c 33a5 033b
000002c0: 5bf1 1d3c 32c1 72bc 402f c83b 7b1d ae3c
000002d0: e450 ec3a 52c9 043a 0220 043c 076f 4c3c
000002e0: a3a2 7a3c 9b35 fbbb c8e6 503b 1ae7 0abc
000002f0: cb8a 423b e633 8ebb b64c 5ebc 2ccd 7cbb
00000300: 5cfb 073c 35f9 83ba d0cd 45bc fa67 103c
00000310: 1059 703c 76b2 ee3b d3f5 553b 14ac 8d3b
00000320: 8189 9abb b81f 88ba 7def bfbb 7616 1c3c
00000330: e58a 83bb dafd d83b 3690 a43b 68ed 303b
00000340: c689 b83a d1e6 173c 601b 1e3c 7a3e da3c
00000350: b2cf 83bb 1ed8 663b 49a5 64ba be90 c9bb
00000360: ee23 78bc 0b3f 77bc df51 843c bdee 39bc
00000370: b91d a93b f9b8 a7bb 6e5f 3bbc 8449 55bc
00000380: 2fea 88bb 5305 58bc 38bf 68ba 227b 063c
00000390: b12b 163c 886b 7bbb d44b 603c 2ff1 c63b
000003a0: a9f4 96bb aaf8 1dbc 288d 8fbc 776e 0ebc
000003b0: 1360 573b fea1 d83b 449f e8bb 03bf 9c3b
000003c0: 1eae ffbb 6a04 d2bb a1ae 0d3c f46a af3b
000003d0: 9eed 3e3c 0fd9 563b 051b c23a f51b c7bb
000003e0: b712 35bb 1ce4 44bc 1f71 2dbc 3240 363b
000003f0: 8845 6dbb 79b6 cf3b 2b16 b2bb 8de9 17bb
0.0010857714 -0.002178427 -0.004730519 -0.0021477125 -0.0069477935 -0.0032091464 -0.00948348 -0.008320299
0.0027873279 0.003818849 0.0025077427 -0.0005159255 -0.009854785 0.00808516 0.0013486767 -0.013211649
-0.0046182354 0.010249506 0.0012921584 -0.00047545938 -0.00083885394 0.0063068233 -0.0006236541 -0.008700561
-0.0055424706 0.0026825438 -0.008445899 0.004546701 -0.00038061137 0.002222954 -0.006048588 0.008159156
0.0011270129 -0.014782069 -0.0060638413 -0.0026271224 0.007312628 0.0053139017 -0.0053871535 -0.015530907
-0.0067558214 -0.0030326808 -0.0064977286 -0.0031814703 -0.012379689 0.0017379645 -0.0048610414 -0.021503877
-0.003413592 -0.0024828878 0.0011265435 0.005159275 0.005432677 -0.00046334494 -0.0058969064 0.004963091
-0.014357049 -0.0005585991 -0.005967235 -0.0054801432 -0.0015991122 0.004236794 0.0010440927 0.002577987
0.009857989 0.00915806 -0.019208398 0.0043660193 -0.004451287 0.012609392 -0.014750069 0.005701031
0.006771355 0.0015314771 -0.016240671 0.0033832716 -0.010626662 -0.014952782 -0.0017924013 -0.001430003
0.010980752 -0.01771362 0.0058710715 0.00037259396 -0.0019305728 0.017729418 0.0055645034 -0.015251603
-0.008351009 0.0021318565 0.021627897 0.012105973 -0.022390172 -0.005945914 0.002957001 -0.007753609
-0.0048263753 0.0027729538 -0.0056588165 -0.014139073 -0.0006298671 0.014107023 0.01966515 -0.0034632764
-0.0062230635 -0.020341184 -0.009504331 0.0050830087 0.0029016451 0.02042443 -0.0057455488 -0.0042814664
0.010395079 -0.012778154 -0.013515992 -0.00048235717 0.021987585 -0.002257652 0.003524539 0.005523468
-0.0013091759 -0.005341511 -0.0021681758 -0.0068658823 -0.008613802 -0.00026409136 0.010517482 0.00597591
0.00035202663 -0.008215772 -0.009002801 -0.007175821 0.014412523 0.002012556 -0.029410487 -0.011133036
-0.0029163158 -0.004486828 0.0042031403 -0.0012462662 -0.02898332 0.008325709 0.0028701115 -0.014525725
-0.0046770927 -0.0067567755 0.0129235 0.0033352112 -0.005295081 -2.718333e-05 -0.011071425 -0.0019585358
-0.013573567 -0.011546717 0.0025335676 -0.008944946 -0.0020204599 -0.007931797 -0.007188921 0.003995839
0.005691168 -0.012992796 0.00071578415 -0.0043513305 0.00731866 0.007091683 -0.0051260116 -0.007490107
-0.0024168598 0.0023611577 -0.003874389 -0.0058869915 -4.294532e-05 -0.008224708 0.009517616 0.002008748
0.009640063 -0.014816569 0.0061091483 0.021254292 0.0018029478 0.00050653995 0.008064272 0.012477643
0.015297565 -0.0076663024 0.0031875838 -0.0084779505 0.0029684778 -0.004339683 -0.013568094 -0.003857444
0.008299675 -0.0010068776 -0.012072995 0.008813852 0.014669672 0.007284458 0.0032647743 0.004323492
-0.004716099 -0.001038543 -0.0058574066 0.0095268395 -0.0040143603 0.0066220583 0.005022074 0.0026996974
0.0014079146 0.0092713395 0.009650081 0.02664112 -0.004022562 0.003522403 -0.0008722139 -0.006151288
-0.015145285 -0.015090714 0.01615232 -0.011348424 0.005161014 -0.005118486 -0.011436326 -0.013018016
-0.0041783075 -0.013184863 -0.00088785915 0.008208068 0.00916569 -0.0038363654 0.013689954 0.006071232
-0.0046068025 -0.009641806 -0.017523363 -0.008693329 0.0032863661 0.006611108 -0.007099064 0.0047835126
-0.007802739 -0.0064092176 0.008647592 0.005353326 0.011653332 0.0032783186 0.0014809078 -0.006076331
-0.0027629563 -0.012017276 -0.010586052 0.002780926 -0.0036204774 0.006338891 -0.0054347715 -0.0023179979

input_block.1.weight f4 [64, 398]
00000000: 3fe6 8fbd eecc d3bc 596d a13c 7539 69bd
00000010: 3e05 4dbd 6710 7bbd 695e 34bd 346b a7bc
00000020: c013 033d 1d7f efbb 0ee5 903c 1b06 9dbd
00000030: 50eb c5bc c9df 073d 16c3 2b3d 7017 0b3d
00000040: d100 893c a4c5 7b3d 8717 413a 6b81 0b3c
00000050: bf0d 01bd aa6f 093d 343d 63bd d555 afbd
00000060: d1b5 0ebd 4726 553c dc84 b93d 11a2 833d
00000070: f597 ad3c f44b 263d d24e 9d3c c29b 443d
00000080: 25cc 5a3c 1f6d 173d 33de 57bc 9180 35bd
00000090: d3b0 753d e207 9f3c 12c1 093c 36d2 f0bc
000000a0: 5305 3cbd ad32 98bc e39c eb3c 60d6 88bd
000000b0: ef00 043c d54e 133b 1d98 593d 3609 623c
000000c0: 0a46 1abd 95fb 113d a5ed 323d d211 843c
000000d0: 5443 27bc 6eea 283d 1d00 5fbc aaaf 9cbc
000000e0: 0475 b33c 2f4e ffbc c377 49bd e9d0 3c3d
000000f0: 4664 f4bc b6c8 3abd 6183 a0bb 2478 773d
00000100: 1e0e 523d 38a1 43bc 6e28 b83c ac82 94bc
00000110: 1e77 3b3d d41c ddbc 05dd 70bc e8f0 5b3d
00000120: f318 f53c 9396 15bc 9e9c 3fbd 1a49 953c
00000130: daa8 933c ef8d 64bd cd16 1d3d 6321 8a3c
00000140: 72d8 363d 730b 70bc 3553 463d 7a6b 14bd
00000150: 6199 95bc 4b13 31bb 65a9 cf3b 9978 b1bc
00000160: 023d ebbc dc42 7fbc c129 3f3d 836b 453d
00000170: e7c6 69bb 43fa 0bbd b745 d9bc ee93 1dbd
00000180: b1ea 7cbd ea60 fc3b 6fff febc 443e 5e3c
00000190: 30ae 94bc eab2 77bd daf7 673c a88d 86bd
000001a0: 0541 f93c aa15 56bc b87b 9cba 5a27 21bc
000001b0: d376 10bd 8732 a1ba ae34 fabb 1a7c 8d3c
000001c0: ac7e faba cf9f efbc 9b1c fe3c 9e30 95bc
000001d0: 3435 0abd 7f44 a83c 8489 523d 52d8 b73c
000001e0: 1fc7 62bd ebed 033c 31a2 37bd f3ef d73b
000001f0: 0c89 3ebd 323a 5c3b bd5a e43c 03cf f5bc
00000200: 61fe e7bc 2f98 abbc 5412 313d 3448 1fbc
00000210: e506 d63c d398 e03c 668f b2bc b08e 5ebd
00000220: 30c1 28bd fd9a f3bc 878d 75bd cac3 0bbc
00000230: 656c a43c 4a41 edbb 1af2 a03c 2ef2 003d
00000240: 6d9f 9b3b ca8d d0bc 8723 9b3c e8e9 87bb
00000250: d495 e93c 974f e8bb 8f40 0d3d 9134 3f3b
00000260: 5bcb 393d 4d92 f5bb 8a96 1d3b 81e4 aebd
00000270: ec53 913d 356c 2dbb eb31 b3bc b736 ea3c
00000280: e8c0 953c 3208 92bc 6c4b 273d 6518 74bd
00000290: 20b8 b0bc 98ef e2bc 31ad 28bd 744d 9bbd
000002a0: ba92 fe39 bc38 27bd f9c2 1b3b 7fd6 af3c
000002b0: d4d9 2dbc 3017 96bd ca2e 4a3d fcc9 e0bc
000002c0: 5a5f e93b 47f4 10bd 4acd 1f3d 13fb 5e3d
000002d0: 2f08 d9bc 89d7 0c3d 7e09 ee3c 96cd 85bb
000002e0: 0493 b73c b57d 9ebd e82a aa3c 206d f43c
000002f0: cb10 a6bd aad3 c6bb 7190 c2bc 481f 543c
00000300: 294e 89bd e67a 283d 3458 0b3a ff97 9dbc
00000310: dcbf 193d 152f 5e3d 73f5 7f3d 50b2 2cba
00000320: 6c8a b9bc a346 60bc 4e5d 3cbd bb14 8ebc
00000330: 387c 45bc 7f0c af3d 3024 043d 9ceb f6bc
00000340: b37e ff3c 0997 9e3c 4874 d93b 3e96 adbc
00000350: 21bc 7d3d 276f 343c 3a0f e4bc ca22 523d
00000360: 4589 23bc 1b1c 98bc 3077 dabb 44c3 57bb
00000370: 4b29 963d fc7a 90bd 4bd0 21bd 1862 fdbc
00000380: dc69 ffbc df6c 26bd 3c50 3a3d 8d2b d0bc
00000390: 7f03 6fbd c834 d53c ef26 333d 4ff6 96bc
000003a0: d90d 1839 f6f9 97bb 4fbb b23c 1461 88bc
000003b0: c814 c6bb 46a6 f0bc 1a17 183d cbde c53c
000003c0: c5cd b63c 4468 c7bc 5594 643d ef1d 363d
000003d0: dfbe 203c 73fe 213d 071b 573c 57e3 41bd
000003e0: 0f8f 843c 18c9 cc3b f3f8 043d 0b72 a0bb
000003f0: fd02 a23c 59e1 ee3b 7434 83bd f88a 0e3d
-0.07026338 -0.025854554 0.019705461 -0.05693956 -0.050053827 -0.06129494 -0.04403535 -0.02043686
0.032001257 -0.0073088543 0.017687347 -0.0766718 -0.024160057 0.033172403 0.041934095 0.0339579
0.016724022 0.06146778 0.00073658716 0.008514742 -0.03150725 0.033553757 -0.05547829 -0.08561293
-0.034841362 0.013009614 0.09058544 0.06427396 0.021190623 0.04059978 0.019202624 0.048000105
0.013354336 0.0369693 -0.013175535 -0.044312064 0.059983086 0.019412939 0.008407848 -0.029397111
-0.045903515 -0.018578852 0.028761333 -0.06681514 0.008056863 0.0022477407 0.053123582 0.013796141
-0.03766445 0.035640318 0.043683667 0.016121779 -0.010208923 0.041239195 -0.013610867 -0.019126732
0.021906383 -0.03116521 -0.04918648 0.04609767 -0.02983297 -0.04560157 -0.004898474 0.06041731
0.051282994 -0.011940293 0.022480216 -0.018128715 0.045767896 -0.026991285 -0.014701133 0.053696543
0.029919123 -0.009130138 -0.04678022 0.018223334 0.01802485 -0.05579942 0.038351823 0.016861623
0.044640012 -0.014651167 0.048419196 -0.03623531 -0.018261613 -0.0027019556 0.006337332 -0.02166395
-0.028715614 -0.015579905 0.04667068 0.048198234 -0.0035671534 -0.034174215 -0.0265225 -0.038471155
-0.061747257 0.0077019827 -0.03112766 0.01356465 -0.018149465 -0.06047336 0.0141582135 -0.065699875
0.030426512 -0.013066689 -0.0011938727 -0.009836042 -0.03526957 -0.0012298384 -0.0076356744 0.01727109
-0.0019111237 -0.029251007 0.0310195 -0.018211659 -0.033742145 0.020540474 0.051400676 0.022442017
-0.055365678 0.0080523295 -0.044832412 0.0065898835 -0.046517417 0.0033604023 0.027875299 -0.030005937
-0.02831954 -0.02094659 0.04323037 -0.009721804 0.026126334 0.027416622 -0.021796893 -0.054335296
-0.041199863 -0.02973699 -0.059949424 -0.0085305665 0.020071218 -0.007240449 0.019646693 0.03148096
0.0047492296 -0.025458235 0.01893784 -0.004147757 0.028513826 -0.007089566 0.034485396 0.002917562
0.04535995 -0.007494247 0.0024046027 -0.085396774 0.07096085 -0.0026462201 -0.021874389 0.028590543
0.018280461 -0.017826173 0.040843412 -0.059593577 -0.021572173 -0.027702138 -0.041180793 -0.075831324
0.00048555975 -0.04082559 0.0023767336 0.021464584 -0.010611016 -0.073286414 0.049361028 -0.027440064
0.0071219625 -0.03538921 0.03901414 0.05443866 -0.02649316 0.034385238 0.02905726 -0.0040833456
0.02240897 -0.077388205 0.020772412 0.029837191 -0.08108672 -0.006067713 -0.023750516 0.012946911
-0.06704361 0.04113283 0.00053155725 -0.019237516 0.037536487 0.05424412 0.062489938 -0.000658785
-0.022649013 -0.013688716 -0.04598742 -0.01734387 -0.012053542 0.08547305 0.032261074 -0.030141644
0.031188345 0.019359129 0.0066361763 -0.021189805 0.06194699 0.011012829 -0.027839292 0.05130271
-0.009981458 -0.01856809 -0.0066670403 -0.0032922784 0.07332095 -0.070547074 -0.039505284 -0.030930564
-0.031178407 -0.04063117 0.045486674 -0.025411392 -0.058352944 0.026026145 0.0437383 -0.018427996
0.00014501008 -0.004637952 0.021817831 -0.016647853 -0.006044958 -0.02937616 0.037131406 0.024154088
0.022314915 -0.02434171 0.055805523 0.04446214 0.009811132 0.039549302 0.013129002 -0.04733595
0.016181497 0.006249558 0.03246398 -0.0048964075 0.019776816 0.007290047 -0.06406489 0.0348005

input_block.1.bias f4 [64]
00000000: 124d 90bc 0eaf fe3a 33e7 8d3b 991e 13bd
00000010: 9dce bcbc 065d 1cbd 3759 6d3c 471b cc3c
00000020: fbb7 953c 9eba 29bc 1d2c eb3c d0cf ca3c
00000030: c776 f6bb 1cea 87bc 4058 51bd 920a 57bd
00000040: 43d1 43bd 8678 803c 279f 5cbc 2957 9fbb
00000050: 9cbe 92bc 3363 2a3a f4e7 36bc 5c9e 2a3d
00000060: f2fa 1e3c 3d76 7aba 79f4 3c3c 6a90 cdba
00000070: e5e5 513b c067 063d 9012 413d a620 a83c
00000080: cb21 0cba a6b0 e53c bfa2 ab3c d548 e73c
00000090: 4579 6ebc 687e 06bd e0c2 c9bc 34c4 14bb
000000a0: 68d5 02bd 1bce fd3c 8556 6cbc 49f3 c2bc
000000b0: fce7 103b ffff ef3c 62e2 023c 926a fb3c
000000c0: 3121 a03c ed3b 11bc 25aa 513d 959e edbc
000000d0: 495f 1bbc 3e4e 003c 3f2b 80bc 0cbd 6abc
000000e0: a386 cb3c 188c b13c 13c8 0e3c 3e63 cbbc
000000f0: e3fa f63c f724 203c eea4 eabc 491a 103c
-0.017614875 0.0019430832 0.0043305396 -0.035917852 -0.02304774 -0.03817465 0.0144866025 0.02491535
0.018276205 -0.010359434 0.028707558 0.024757296 -0.0075214836 -0.016591124 -0.051109552 -0.052500315
-0.04780699 0.01568247 -0.013465679 -0.004862685 -0.017913155 0.0006499767 -0.0111637 0.04165493
0.009703385 -0.0009554362 0.011532896 -0.0015683298 0.0032027897 0.032813787 0.047136843 0.02052338
-0.0005345612 0.028038334 0.020951627 0.028232971 -0.01455528 -0.032835394 -0.024629056 -0.0022699954
-0.0319418 0.030982068 -0.014424925 -0.023797648 0.002211093 0.029296873 0.007988544 0.030690465
0.019547077 -0.008864385 0.051187653 -0.029006282 -0.009483167 0.007831154 -0.015645621 -0.014327299
0.024844473 0.021673247 0.008714694 -0.024827596 0.030148929 0.009774438 -0.028643098 0.008795329

hidden_block.0.weight f4 [64]
00000000: 9d9e 823f 4ea2 703f cb85 7b3f fa00 7f3f
00000010: fa98 7c3f 0fa2 823f 18e4 723f f0ba 7e3f
00000020: 333e 813f 485a 6b3f 41d3 803f 7c48 813f
00000030: 2075 7e3f 1785 853f b804 783f 7aaf 843f
00000040: 281d 763f deea 7d3f e472 853f 81c2 7a3f
00000050: 235a 803f d99f 853f d6fb 823f 4c95 7d3f
00000060: cc21 7c3f c25f 803f 6d52 813f 12cc 883f
00000070: 9f3d 833f 1903 853f 04e0 703f 3f8e 7d3f
00000080: 8930 823f 111c 803f ab50 7a3f c900 713f
00000090: 5d87 7e3f 4276 813f b29a 883f 4297 7e3f
000000a0: ec0e 7e3f 81bb 7b3f 1e3b 7a3f a24d 803f
000000b0: 547c 6a3f a37e 743f 67c0 793f 1199 7f3f
000000c0: 6995 813f 0219 7f3f 9c02 813f 963c 803f
000000d0: 297d 7e3f 4154 803f 8d44 7a3f 4326 7d3f
000000e0: 1d85 813f 85d0 803f 0369 723f a15b 763f
000000f0: 573f 733f 61cd 803f 6376 7e3f 472e 7d3f
1.0204655 0.9399766 0.98251027 0.99610865 0.98670924 1.0205706 0.94879293 0.99503994
1.0097107 0.91934633 1.006447 1.0100245 0.9939747 1.0431241 0.968822 1.0366051
0.9613824 0.99186504 1.0425687 0.9795304 1.0027508 1.0439407 1.0233104 0.99055934
0.9848907 1.0029223 1.0103279 1.0687277 1.025318 1.039157 0.9409182 0.99045175
1.0171062 1.0008565 0.9777934 0.94141823 0.994253 1.0114214 1.0672209 0.9944955
0.9924152 0.98332983 0.97746456 1.0023692 0.9159596 0.9550573 0.9755921 0.99842936
1.0123721 0.99647534 1.0078921 1.0018489 0.9940973 1.0025712 0.9776085 0.9888651
1.0118748 1.0063635 0.94691485 0.96233565 0.95018524 1.0062677 0.99399394 0.9889874

hidden_block.0.bias f4 [64]
00000000: 6f31 c33b e5e2 163d aa3f 31ba 6db5 7c3c
00000010: 6cfa 4b3c 8c0d c3ba 3d86 573d 3d02 fe3b
00000020: 6449 40bc 490b 433d e2ff 5fbb 52ec 9e3b
00000030: 95dd ed3a 2306 52bd 8fe4 c23c 1cd1 5abc
00000040: c6a0 3f3c 812f 8a3c 847d 50bc daaf 033b
00000050: 4bae 493a 5b0a 0cbd b534 a0bc 82c4 813c
00000060: ccfd 2b3c e602 0dbc 9d8d c1bc bc6b 13bd
00000070: eb0a 23bc 2e52 10bd 3f6f 073d c89a 11bc
00000080: 298c 28bb e528 e43b 5e77 e63c 9720 903c
00000090: 6184 833b f892 0a3c fe46 a3bd dec1 db3a
000000a0: 6ea0 55bb 12b7 983c f616 743b c74a a5bb
000000b0: ad43 373d e8f4 583c 7918 0a3b 1148 c5bb
000000c0: d041 e4bb 3b55 f23b 825a 023c 0e9e f5bb
000000d0: b2ed 313c 2a99 be3b efc3 c13c c50c 583c
000000e0: 6d84 c63b 8a90 123c 44d0 313d ab64 c33b
000000f0: fb81 b43c 4e4f 57bc b1ed 403b adf7 483a
0.0059568207 0.036837477 -0.0006761501 0.015424115 0.012449842 -0.0014881357 0.052618254 0.0077517317
-0.011736248 0.047618184 -0.0034179618 0.004849949 0.0018147702 -0.051275384 0.023790626 -0.01335552
0.011696046 0.016868355 -0.012725238 0.002009383 0.0007693513 -0.034189563 -0.019556383 0.015840773
0.010497522 -0.008606648 -0.023627097 -0.035991415 -0.0099513335 -0.035234623 0.033065077 -0.008887
-0.0025718308 0.006962883 0.02813309 0.017593665 0.0040135835 0.008457892 -0.07972525 0.0016766151
-0.0032596844 0.018641982 0.003724513 -0.0050443145 0.044742275 0.013241984 0.0021071716 -0.006020554
-0.0069658533 0.007395414 0.007956149 -0.007495648 0.010859894 0.0058165984 0.023652999 0.013186638
0.006058267 0.008945594 0.04341151 0.0059629283 0.022034636 -0.013141466 0.002943855 0.0007666301

hidden_block.2.weight f4 [64, 64]
00000000: 2193 e7bd 2508 a8bc 96d1 33bd e203 9abd
00000010: 74e6 87bd 0395 843d a9db f93d e720 c6bd
00000020: 69b5 913d 089e 4d3c ef90 be3d 0f7b c7bd
00000030: fe5a 5fbd 2251 f93c ad1a b6bd 37d9 fd3c
00000040: 6c3e a3bd 3d3e 4abb 157b ef3d 236c 523d
00000050: 65ca 0b3c db17 173e 5134 a9bd 6307 cebd
00000060: ecea e33c 6ab7 c8bc 3bec 09bc 9596 2e3c
00000070: 60e0 893d af10 e83d 1624 82bc 3d49 023d
00000080: 13cd c43d ab02 4e3d 52b6 c2bd e238 62bd
00000090: 0b9d 9dbd ead1 0abd 51b8 143e 1cbf 6d3d
000000a0: c416 febd 81fe f13d c842 e6ba 53b0 fcbd
000000b0: 3365 313d 3c05 8bbd d36b 6c3d 230b 233d
000000c0: 650f 5c3d 7b0f b93d f565 673c eda0 163d
000000d0: 6aea 563b d894 b13d e4fc 313d 8b51 153d
000000e0: dfd6 383c 8669 6f3d 18e1 203c 4600 bdbd
000000f0: a089 713d 28df e53d 314d abbc a35a 62bd
00000100: 11db 8a3d 3607 eb3d b9fa 3bbd dfe9 38bd
00000110: 7f7f 4c3d ed76 2bbc 6d22 d93d 13f0 4bbd
00000120: f825 aebd 7fb0 933d a8c1 463d 35e8 dbbd
00000130: 0ac2 dfbd bc03 d03c b24e fc3c 7f75 f3bd
00000140: 8b88 59bd 8948 26bd d8fc 7e3d e6d1 eb3d
00000150: db22 e73d 3546 4abd 34c9 a5bd d331 ab3d
00000160: b9f5 2e3c f6c3 723d 4fb9 c03d 4240 17bd
00000170: 6bc8 b5bc ac2e ab3d f941 bb3d 713e 803d
00000180: 33c3 05bc f580 be3d 8d4f 5dbd 66fa 6c3c
00000190: d1c9 fcbd b4d3 b83d 4a1e 98bd cc98 193d
000001a0: a43a 66bd 247f 3bbd 97b0 afb9 3232 373d
000001b0: 7899 703d 493d ffbd da78 b93d 4f52 39bc
000001c0: d633 02bc 3a4f f5bd c961 f93c 623a bb3d
000001d0: 895a 113c e435 dabc e78c e93c 102a d93d
000001e0: 9a24 c23d 2ba1 93bd 6896 84bd 1c7a 41bc
000001f0: 8cb1 613b 93ee 8bbd ef98 46bd e67c 7dbd
00000200: 3b70 95bd 1341 a8bd c9d7 253e 0d3d e33c
00000210: b4e3 c5bc 520d cabc f233 2e3d 2fba 043e
00000220: a3f5 53bc c3fb 623c f40e d9bc 33a9 393d
00000230: cbbe 943d 7669 c13c d33e 0b3e 6102 3dbd
00000240: e269 05bb 5536 76bb b665 49bb 950a 4abd
00000250: e08b 363d 4e5d 7c3d aef9 60bc 078a 8ebd
00000260: 7617 4cbc 5633 a83c 5f8f aa3d 705f 4b3c
00000270: 8fc0 adbc 25f2 b43c 3695 633c 5314 cdbd
00000280: 7ea9 95bc 2f25 80bd b551 d13d b9bd 383d
00000290: 18fa f43d ce42 cd3c 13ba 9a3d 23e7 29bc
000002a0: 19df ab3c 5e6d a9bd 49bf 9cbd 6fb8 c13d
000002b0: 5bdd 2e3d 9bc3 993c 73aa 6fbb 6729 b5bc
000002c0: de01 77bd 8e61 273d 9e47 a6bc 5189 a3bc
000002d0: 7d3f a6bc f1c8 043e c8b9 d5bc 325e 363d
000002e0: 933b 693d ef96 87bd b932 aa3d 381c 70bd
000002f0: 51d9 9c3d 9c8f 96bc 1da8 bfbd c9db eb3d
00000300: 52f7 a83d 449f 8fbb a90c 85bc 7251 563d
00000310: 0756 823c 1429 273c 84cc ec3d 34e9 953d
00000320: 3469 02bd 2135 6ebd 6904 90bd 3bf0 4c3d
00000330: 8a2f 0f3e cd9a c03d a37b 5fbd 8085 90bd
00000340: 91e6 2e3d 5720 adbd 369f 2d3c 8d8e d0bd
00000350: 7ccd 203d 820a d53b ff46 26bd e55a d6bc
00000360: de29 9e3c 109a 573c 68b3 52ba 4079 bcbc
00000370: be96 d4bb 7063 ef3d 765a 02be 9678 883d
00000380: 9994 6f3b d9e1 023e e267 eebc 734b 8b3d
00000390: 4f14 113d 6f28 25bd 6405 523b 5be0 843d
000003a0: 1f05 dbbc 90f0 6d3d bdb1 dd3d fa5f d7bd
000003b0: 4d13 acbd 15fd 62bd 0b16 c83d 0dcd e73d
000003c0: 555e 94bd d20b b8bc adaa 113d 23b3 553d
000003d0: 8aa2 9abd d14e b9bc bac9 1e3b 7d2d 643d
000003e0: 3c64 793c d1ce 0cbe 3542 01bd 01fc b83d
000003f0: 6caf d1bb b8b1 123e 461e 193e fa70 8cbd
-0.113073595 -0.020511696 -0.04390105 -0.07520272 -0.06635752 0.06473734 0.122001 -0.096742444
0.07114679 0.012549885 0.09304988 -0.097402684 -0.054530136 0.030434195 -0.08891807 0.030987365
-0.079708904 -0.003085985 0.11693398 0.05137266 0.008532141 0.14755194 -0.08261932 -0.10060003
0.02782198 -0.024501521 -0.008418138 0.010656019 0.06732249 0.11331307 -0.015886348 0.031808127
0.09609427 0.050295513 -0.09507431 -0.05523003 -0.07695969 -0.033891596 0.14523436 0.058043584
-0.12406686 0.11816121 -0.001756751 -0.12338319 0.0433094 -0.06788108 0.057720017 0.039805543
0.05372562 0.09036156 0.01412343 0.036774565 0.003279353 0.08670968 0.043454066 0.03645472
0.011281698 0.058450244 0.0098192915 -0.09228568 0.05896914 0.11224204 -0.020910831 -0.05526222
0.06780065 0.11475985 -0.045893405 -0.04514491 0.049926277 -0.010465366 0.10602269 -0.0497895
-0.08503336 0.07211398 0.04852453 -0.10737649 -0.10925682 0.025392406 0.030799244 -0.11887645
-0.053108733 -0.04059652 0.06225285 0.11514644 0.11285945 -0.04938336 -0.08095017 0.083591126
0.010678702 0.059268914 0.09410345 -0.036926515 -0.022190293 0.08358511 0.09143443 0.0626191
-0.008164215 0.0930194 -0.054030944 0.0144639965 -0.12343181 0.09024754 -0.07427652 0.037499234
-0.056208268 -0.045775548 -0.0003351017 0.044725604 0.05874011 -0.12462861 0.09056254 -0.011311128
-0.007946929 -0.11978002 0.030442135 0.09141995 0.008871683 -0.026637025 0.02850957 0.10603726
0.094796374 -0.07208475 -0.06474 -0.011808898 0.0034438102 -0.06832614 -0.048485693 -0.06188669
-0.07296797 -0.08215537 0.16195597 0.027739072 -0.024156429 -0.024664555 0.042530008 0.12961648
-0.012936982 0.01385397 -0.026496388 0.045327377 0.07262953 0.023609858 0.13598184 -0.046144847
-0.00203573 -0.0037569006 -0.003073079 -0.049326498 0.04456699 0.06161242 -0.013731403 -0.069599204
-0.012456765 0.020532291 0.08328127 0.012412891 -0.021209983 0.02208812 0.013890555 -0.10013642
-0.018269297 -0.06257092 0.102206625 0.04510281 0.11961764 0.025056269 0.07555022 -0.010370049
0.020980405 -0.08272813 -0.07653672 0.09459006 0.04269157 0.01877003 -0.0036570102 -0.022114469
-0.060304515 0.04086452 -0.020297822 -0.019962939 -0.020293945 0.12967278 -0.026089564 0.044523425
0.05694158 -0.06620585 0.08310456 -0.05862066 0.07658637 -0.018379025 -0.09358237 0.1151653
0.082502976 -0.0043829996 -0.016241388 0.052323766 0.015910162 0.010202665 0.11562446 0.073198706
-0.03183861 -0.058156136 -0.07032091 0.05003379 0.13982978 0.09404526 -0.05456127 -0.07056713
0.042700354 -0.08453434 0.010597041 -0.101834394 0.039258465 0.006501497 -0.04059505 -0.026166389
0.019307073 0.01315929 -0.0008037598 -0.023007035 -0.0064876964 0.11688888 -0.1272982 0.06663625
0.0036557077 0.12781467 -0.02910227 0.068015 0.03541976 -0.040321764 0.003204667 0.06488105
-0.02673584 0.058090746 0.108249165 -0.10516353 -0.08402119 -0.05541714 0.09769829 0.11318407
-0.07244555 -0.022466574 0.03556316 0.05217279 -0.07550533 -0.02262059 0.0024229125 0.055707444
0.015221652 -0.13750769 -0.03155728 0.09032441 -0.0063990857 0.14325607 0.14952955 -0.06857486

hidden_block.2.bias f4 [64]
00000000: 15fa 8ebd 0cbc 90bd 9981 163d bf4b ccbd
00000010: 49ca 943c e45c 803b 881d 413d b3bd babd
00000020: 7311 06be a0d4 df3b 9845 1bbc bdbd 153d
00000030: 1dbd 713d e6e8 3ebe 5ddb 0a3e f444 84bd
00000040: 17d7 74bd 9635 90bd 0847 343d dd3d fd3d
00000050: 3ddc 15be 6843 e73c 1dd2 3d3c 7cf0 673c
00000060: d65a 5f3d 335c b13c 6680 54bd 4660 c1bd
00000070: a9c2 40bd bb01 b7bd 96cb e9bb 492b 593e
00000080: d990 f9b7 1801 be3d 1a2d ca3d 3841 d5bd
00000090: 03e7 033e 884a 55bd d866 1c3e 17ac 053e
000000a0: 1a20 cc3d 3aee 873d e283 863c 0cb4 093d
000000b0: f591 d43d 511f ce3d a01f 28bd 6eb6 373d
000000c0: f08f a5bd fd5d fbbd d83b 0cbe 7698 21bd
000000d0: df80 013d 8c52 64bd 8e24 6ebd dc34 6fbd
000000e0: 0625 1cbe c62f 1fbe 3fe7 e9bd f04d 89bd
000000f0: 038d 0fbe eec8 e9bd 037e 513d 33d4 c7bd
-0.06981293 -0.07067117 0.036744688 -0.09975385 0.018162863 0.0039173234 0.047147304 -0.091182135
-0.13092594 0.006830767 -0.009477042 0.0365579 0.059018243 -0.18643531 0.13560243 -0.06458464
-0.05977544 -0.07041471 0.044013053 0.12365315 -0.14634795 0.028230384 0.011585739 0.014156457
0.054529987 0.02165041 -0.051880263 -0.09442191 -0.047060642 -0.08935877 -0.007134865 0.21207918
-2.9750563e-05 0.09277552 0.09871884 -0.1041283 0.12881093 -0.05207303 0.15273607 0.13053928
0.099670604 0.06637235 0.016420309 0.03361897 0.103794016 0.10064567 -0.041045785 0.044851713
-0.080840945 -0.12273786 -0.13694704 -0.03945204 0.03161704 -0.055742785 -0.05814033 -0.05840002
-0.15248498 -0.15545568 -0.1142106 -0.067043185 -0.14018635 -0.114152774 0.051145565 -0.09757271

hidden_block.4.weight f4 [64]
00000000: 9469 7e3f 0ca8 7e3f 746a 783f 725d 733f
00000010: 0dbb 7d3f 00ba 763f 6147 763f 1e62 7f3f
00000020: def3 7a3f e340 5c3f e3dc 5c3f f701 723f
00000030: 3770 7f3f a24b 683f 4d87 803f 8f69 563f
00000040: 60b0 703f ba36 7f3f 1670 803f ca55 843f
00000050: ddc9 823f c698 833f da87 803f 6575 773f
00000060: 08aa 753f 16e7 7f3f a2f9 7e3f 864f 7f3f
00000070: 702c 6f3f 6d5c 793f c510 763f aa13 703f
00000080: 044e 793f 9b81 793f 5e6e 753f 7cea 803f
00000090: bbc6 793f 4c3e 783f 654c 713f e6ed 6c3f
000000a0: b705 783f 26d4 733f 2050 803f cb98 803f
000000b0: 1e09 6a3f 4565 813f b8c2 713f a7df 7d3f
000000c0: d7ce 6d3f 651d 703f 4ff2 6b3f 0e69 793f
000000d0: d87d 833f d6d9 6f3f 4c4e 7d3f 4466 6c3f
000000e0: c909 6a3f 6bc3 7f3f aa1d 783f db54 683f
000000f0: 9057 773f c392 7e3f 7024 743f 2c7a 7b3f
0.9937985 0.9947517 0.97037435 0.9506446 0.9911354 0.96377563 0.96202666 0.9975909
0.9802836 0.8603651 0.86274546 0.9453425 0.997806 0.90740407 1.004129 0.8375482
0.94019127 0.9969288 1.0034206 1.0338681 1.0217854 1.0280998 1.0041459 0.96663505
0.9596257 0.99961984 0.9959966 0.9973072 0.9342718 0.97406656 0.9611934 0.93780005
0.9738467 0.9746339 0.9587153 1.0071559 0.97568864 0.9697006 0.94257194 0.92550504
0.9688372 0.9524559 1.0024452 1.0046629 0.9142016 1.010903 0.9443774 0.9916939
0.9289374 0.9379485 0.9216661 0.97425926 1.027278 0.93691766 0.98947597 0.92343545
0.9142118 0.9990756 0.96920264 0.9075448 0.96617985 0.9944269 0.953681 0.98233294

hidden_block.4.bias f4 [64]
00000000: 8475 65bc b27c 85ba a296 8b3b cba7 13bc
00000010: 80df 46bc 01ea 9e3c 122b cb3b ce17 6dbc
00000020: 803c dcbb 892e 293d 358d 193d ee68 3eba
00000030: 729e 463d 582b 30bb 747f 183d 7454 843c
00000040: 40f3 7dbc e342 543b afa1 82bc 258b aabc
00000050: 0f1c acbc 5912 b6bc ec65 04bd d679 8abb
00000060: 639b 19bc 8d66 99bc 1fb7 243b e3db 94bb
00000070: e41d 833c b9be c43b 915f 563c af1f 1dbd
00000080: 56e7 68bc 1019 ac3c 886e 8dba 2fe3 c8bc
00000090: a8bb 8dbc cb05 c8bc 58b9 43bc 3fbc 64bb
000000a0: afe5 983c fa7e 24bc e11c 0b3b 35df b2bc
000000b0: 5f31 0abd 3a8d ab3b b071 24bc 65a9 08bd
000000c0: 1056 523c f803 c13b 9390 52bb ffc2 c3bb
000000d0: 691c 1c3d 200c a83b 2796 4cbc ad30 383c
000000e0: f3fe d13c 202f 0dbc 6664 8f3b 1d45 9f3c
000000f0: b64f 743c 6124 0fbc 4e46 043c 145c f1bb
-0.014005069 -0.0010184257 0.0042599 -0.009012173 -0.0121382475 0.019398691 0.0062002027 -0.0144710075
-0.0067210793 0.041304145 0.03748818 -0.00072635605 0.04849095 -0.0026881304 0.037230924 0.016153552
-0.01549989 0.00323885 -0.015946237 -0.020818302 -0.021009473 -0.022225546 -0.032323763 -0.0042259498
-0.009375426 -0.018725658 0.0025133563 -0.004542814 0.016005464 0.006004181 0.013084308 -0.038360294
-0.014215311 0.021008044 -0.0010790387 -0.024522392 -0.017301396 -0.024416825 -0.011946045 -0.0034902242
0.01866421 -0.010040039 0.002122693 -0.021834949 -0.03373849 0.0052353414 -0.010036871 -0.033364672
0.012837902 0.0058903657 -0.003212963 -0.005974173 0.03811303 0.0051283985 -0.012486971 0.011242074
0.025634265 -0.0086171925 0.004375982 0.019442135 0.014911583 -0.008736701 0.008073403 -0.007365713

layers.0.ln.weight f4 [64]
00000000: 471e 793f 7695 883f 6bb5 783f 71a2 653f
00000010: 7155 793f c741 813f 45e4 6d3f 9214 793f
00000020: 6c4f 733f 0922 633f 06e1 733f f81f 643f
00000030: ff8c 863f a43d 4c3f d62c 8d3f 2f90 643f
00000040: bc4b 5d3f 14ed 823f 5a1f 783f 0814 4b3f
00000050: 00e6 7d3f aa32 7f3f 8566 403f 74b3 6e3f
00000060: d9b1 6c3f 208d 7a3f 22b2 803f d162 853f
00000070: 2a31 6c3f 3456 773f 53a0 763f 9248 383f
00000080: 9d0b 4e3f 9a6b 733f a309 653f 80bb 7b3f
00000090: b1e1 753f 4fa9 513f 97d4 613f 288d 5b3f
000000a0: 9022 5f3f fa90 6a3f 254d 623f 166a 783f
000000b0: c6a0 443f 530a 803f 2d49 5f3f 5e1e 763f
000000c0: e519 873f 22c1 873f 442e 533f a208 783f
000000d0: f268 8b3f f63b 6a3f 4677 7d3f 725b 8b3f
000000e0: d8e3 4e3f ecd1 783f e904 853f cf9c 873f
000000f0: aa41 7b3f 28ed 7b3f 8e43 823f c8b2 733f
0.97311825 1.0670612 0.9715182 0.8970099 0.97396 1.0098199 0.92926437 0.9729701
0.95043063 0.8872381 0.95265234 0.8911128 1.0511779 0.79781556 1.1029308 0.89282507
0.86443686 1.02286 0.9692284 0.7932744 0.9917908 0.9968668 0.7515643 0.93242574
0.92458874 0.9787159 1.0054362 1.0420781 0.9226252 0.9661591 0.96338385 0.71985734
0.8048647 0.9508606 0.8946783 0.9833298 0.960475 0.8189897 0.8821501 0.8576226
0.87162113 0.91627467 0.88398963 0.97036874 0.7680782 1.0003151 0.8722103 0.96140087
1.0554777 1.0605814 0.8249247 0.9688817 1.0891402 0.91497743 0.9901012 1.0887282
0.8081641 0.97195315 1.0392123 1.0594729 0.9814707 0.98408747 1.0176866 0.95194674

layers.0.ln.bias f4 [64]
00000000: 8372 973c a561 3bbc e3f3 c23c a606 4d3d
00000010: c7b7 683c b92c b93b 4c8d 753d 3b4d 733c
00000020: 17d4 fb3c 2035 953d df27 e33c efdf 78bd
00000030: 3d52 113d 476b 1b3e 9c3e 083d 3870 793c
00000040: 936d 84bd 3922 903c 3f79 b03c 2c80 3cbd
00000050: d28c c83b 4292 8739 6f54 7abd f0ca 123d
00000060: 0dfe eb3c d2b7 043c bca7 7c3b db34 0eba
00000070: 52ee 583d 1198 833c 8385 a53c ec53 81be
00000080: a386 273e bfd4 1e3c 3219 0dbd a313 a93b
00000090: fad0 2bbc 378f 323e 257e 44bd ddbd 2d3b
000000a0: a886 113e bc1b 28bd 1765 74bc 6377 3c3c
000000b0: da92 8cbd 74d1 ef3b af1e 1cbd 3c1b 5e3c
000000c0: 1f9d cc3b fba4 023c 4355 043e 6dc1 8b3c
000000d0: 74f4 ef3c 5dcd 473d bd63 603c ab8d 9a3b
000000e0: 9643 123e 40ed d13c bf83 923b 60b8 573c
000000f0: 1c52 e43c 5fad 6c3c 129b 793c 5725 0c3d
0.01848722 -0.0114368545 0.023797935 0.05005517 0.014203972 0.0056510833 0.059949204 0.014849956
0.03074078 0.072855234 0.027728973 -0.060760435 0.03547882 0.15177642 0.033262834 0.015224509
-0.06466212 0.017594444 0.02154219 -0.04602067 0.0061203027 0.00025858177 -0.06111568 0.035838068
0.028807664 0.008100467 0.0038552126 -0.0005424746 0.052961655 0.016063722 0.020205265 -0.2525934
0.16359954 0.009694277 -0.034447856 0.0051598116 -0.010486836 0.17437445 -0.047971863 0.0026510872
0.14211524 -0.041042075 -0.01491668 0.011503073 -0.06863947 0.00731867 -0.0381152 0.013556298
0.006244316 0.007973905 0.1292315 0.017060006 0.029291369 0.048779834 0.013695654 0.004716595
0.14283594 0.025625825 0.0044712718 0.013166517 0.027871184 0.014445632 0.015234726 0.034215298

layers.1.ln.weight f4 [64]
00000000: fada 833f 9636 a53f ddb2 8f3f 2ef9 823f
00000010: 030f 843f 86b7 853f 7613 823f ff58 823f
00000020: 490f 823f f4f3 7c3f d5e1 863f 4673 833f
00000030: 029b 8a3f 91bf 783f 4000 913f 5b12 843f
00000040: d2e2 833f d016 873f 79ac 823f 5bce 883f
00000050: 1fca 823f 9648 833f 8367 883f 3146 7b3f
00000060: 0c8d 813f 3a5b 823f 76bc 853f decd 8a3f
00000070: c090 7a3f 1dd0 7e3f a937 823f 0e48 833f
00000080: 5074 743f 365e 863f 2c5e 853f 76e9 823f
00000090: 10c3 813f c993 763f 86c4 853f aebe 863f
000000a0: 45af 543f 4bbc 863f 198a 8a3f 5978 823f
000000b0: a52b 883f 6e84 813f c39f 863f 7225 813f
000000c0: e366 a03f 023b 9a3f 7428 653f de89 843f
000000d0: edd7 903f e348 793f f0cf 853f 73eb a13f
000000e0: 553a 693f 4cc6 833f 4986 933f 3724 9b3f
000000f0: 2924 8a3f c570 843f 9d59 8a3f cafa 833f
1.0301201 1.2907283 1.122646 1.0232294 1.0317081 1.0446632 1.0162189 1.018341
1.0160915 0.9880974 1.0537668 1.0269554 1.0828555 0.9716731 1.1328201 1.0318102
1.0303595 1.0553837 1.0208884 1.0687975 1.0217932 1.0256526 1.0656589 0.9815398
1.0121169 1.018409 1.0448139 1.0844076 0.9787712 0.99536306 1.0173236 1.0256364
0.9548998 1.0497501 1.0419364 1.0227497 1.0137653 0.9631925 1.0450599 1.0526941
0.8307994 1.0526212 1.0823394 1.0192977 1.0638319 1.0118539 1.0517505 1.0089552
1.2531399 1.2049258 0.8951485 1.0354574 1.1315895 0.9737684 1.0454082 1.2649978
0.9110463 1.029489 1.1525356 1.2120427 1.0792285 1.0346915 1.0808598 1.031091

layers.1.ln.bias f4 [64]
00000000: 1a1b 9abc cd06 a33c 09ba 9dbc 3a1c 9abc
00000010: cf28 9abc ba03 9fbc 42e5 96bc f117 98bc
00000020: 435c 97bc 1571 a53c 4f5b a2bc 71c7 973c
00000030: 6b17 bdbc 2440 7dbc 3e7d a5bc 9064 9c3c
00000040: db23 9d3c e78b 9fbc e3bb 99bc 3143 a53c
00000050: 49bd 99bc 25ef 99bc 6b67 a13c 13d4 a83c
00000060: 94d7 98bc 7392 99bc 19e8 a0bc 4242 9ebc
00000070: 4ddb 9b3c 4dbc 9ebc 2110 9b3c ad37 9a3c
00000080: e05c 94bc 67a5 9a3c 5b3a 9b3c f1dc 9abc
00000090: 3fee aabc df06 9abc f0b3 9a3c a107 983c
000000a0: 93f6 ac39 b856 9c3c 5ad4 9f3c e389 99bc
000000b0: f4ee aa3c 244f a3bc 4f08 9c3c 9db8 97bc
000000c0: b901 a33c 6dc5 a93c 4513 05bc 3605 99bc
000000d0: e616 a6bc 6c0d 993c 2514 9bbc 84f0 a53c
000000e0: 30a5 8a3c 2219 9abc e368 a33c 872e 9e3c
000000f0: 9fb4 9abc 2b7e 9abc 3343 a13c 688a 9abc
-0.018811751 0.019900704 -0.019253748 -0.018812288 -0.018818287 -0.019410957 -0.018419866 -0.018566104
-0.018476611 0.020195523 -0.01981893 0.018527718 -0.023082456 -0.015457187 -0.020201322 0.01909092
0.019182136 -0.01947589 -0.01876635 0.02017364 -0.018767016 -0.01879079 0.019702634 0.020608937
-0.018657483 -0.01874659 -0.019641923 -0.019318704 0.01902547 -0.019376898 0.01892859 0.018825376
-0.018110693 0.018877698 0.018948724 -0.018904181 -0.020865558 -0.018802105 0.018884629 0.018558325
0.0003299011 0.01908432 0.019510437 -0.018742507 0.020865895 -0.019935198 0.01904693 -0.018520648
0.019898282 0.020724023 -0.00812227 -0.018679243 -0.02027459 0.018683158 -0.018930504 0.020256288
0.01692447 -0.018810812 0.019947475 0.019309295 -0.018884955 -0.01885899 0.019685363 -0.018864825

logit.weight f4 [1, 64]
00000000: 2363 033e 4fe3 c1be ae2e 783e 93ba a53d
00000010: ba40 163e f08d 003e b677 a83d ee3f 0b3e
00000020: 59a4 d23d 3eef b6bc 028d c83d 145f 01be
00000030: 39af bd3d e2fb d33c 3597 4b3e a673 a8bd
00000040: 860a a9bd c90a 013e 0fca d43d fdaa c5bd
00000050: b27c 113e 1c0c e63d c0ad e3bd 641b d9bc
00000060: b31c ac3d a8b2 fc3d e77e e33d 020c 513e
00000070: a57b f4bc b7cb 533d d1c4 e7bd 847d 9fbd
00000080: 6041 533c 338a 25be 7b7f e7bd c2a6 133e
00000090: 5031 283d cdbb a33c 1280 e3bd 8897 c6bd
000000a0: d49b 4cba ffbf 2ebe 0eee 25be ab08 e43d
000000b0: f915 a7bd 70ad 393d f429 1abe 271a ea3d
000000c0: 95da 99be 33fa 7ebe a0d9 443c 2f9a 153e
000000d0: 363f 4b3e 9682 79bd 47e7 153e 6434 99be
000000e0: bb77 e33a 6fbe e83d 20bc 6cbe 7e62 9abe
000000f0: eed3 503e 923b 113e 7a8b 12be 9f87 cd3d
0.12830786 -0.37868735 0.24236557 0.08092227 0.14673129 0.12554145 0.08225958 0.13598606
0.10285253 -0.022330876 0.0979252 -0.12633926 0.09261937 0.025876943 0.198819 -0.08225183
-0.0825396 0.1260177 0.10390102 -0.09651754 0.14207724 0.112327784 -0.111171246 -0.026502319
0.084039114 0.123387635 0.11108189 0.20414737 -0.029844115 0.05170795 -0.113168366 -0.07787612
0.012894005 -0.16166 -0.11303612 0.14419082 0.041062653 0.019987011 -0.11108412 -0.09696871
-0.00078052026 -0.17065428 -0.16204092 0.11134466 -0.08158488 0.04533142 -0.15055066 0.114307694
-0.30049577 -0.24900131 0.0120147765 0.14609598 0.19848332 -0.060915552 0.14639007 -0.29922783
0.0017354408 0.11364447 -0.23118639 -0.3015327 0.20393345 0.1418288 -0.14311019 0.10035633
