Model/single/fold4.ckpt (torch, 130111 bytes, 15 tensors)

input_block.0.weight f4 [398]
0	0x3f8190ff	1.0122374
1	0x3f824793	1.0178093
2	0x3f807807	1.003663
3	0x3f81b72b	1.0134023
4	0x3f7fdd72	0.99947274
5	0x3f815b3c	1.0105968
6	0x3f7d2935	0.98891
7	0x3f81c892	1.0139334
8	0x3f84b83f	1.0368727
9	0x3f7bc142	0.98341763
10	0x3f7e9509	0.9944616
11	0x3f85fb08	1.0467234
12	0x3f776f2c	0.9665401
13	0x3f7f2c70	0.9967718
14	0x3f7c67cd	0.9859589
15	0x3f7676fe	0.9627532
16	0x3f7b0c9f	0.98066133
17	0x3f77816b	0.9668185
18	0x3f82bfa3	1.0214733
19	0x3f7fac07	0.9987187
20	0x3f7cb15e	0.9870814
21	0x3f79fc4c	0.976506
22	0x3f848b3b	1.035499
23	0x3f8065f2	1.0031111
24	0x3f817d88	1.0116434
25	0x3f80cb31	1.0062009
26	0x3f82c64b	1.0216764
27	0x3f79d707	0.9759373
28	0x3f825555	1.0182291
29	0x3f825e16	1.0184963
30	0x3f7ca60a	0.98690856
31	0x3f74dee3	0.956526
32	0x3f7bb6e0	0.9832592
33	0x3f7b7612	0.98227036
34	0x3f7b7dcc	0.98238826
35	0x3f805c71	1.0028211
36	0x3f84025e	1.0313222
37	0x3f835b35	1.0262209
38	0x3f7b2949	0.9810987
39	0x3f81aee1	1.0131494
40	0x3f7780a8	0.9668069
41	0x3f8290b1	1.0200406
42	0x3f7f715b	0.9978234
43	0x3f86f806	1.0544441
44	0x3f746f60	0.95482445
45	0x3f7b5773	0.9818031
46	0x3f7db11c	0.9909837
47	0x3f7be508	0.9839635
48	0x3f802870	1.001234
49	0x3f788292	0.97074234
50	0x3f7c9704	0.9866793
51	0x3f7c37cd	0.98522645
52	0x3f7aca1e	0.97964656
53	0x3f803237	1.0015324
54	0x3f768691	0.9629908
55	0x3f82c7b3	1.0217193
56	0x3f80fb83	1.0076755
57	0x3f7db739	0.991077
58	0x3f788d07	0.9709019
59	0x3f7d2108	0.98878527
60	0x3f7ed08a	0.99536955
61	0x3f81e994	1.0149407
62	0x3f822f76	1.0170734
63	0x3f79b15e	0.97536266
64	0x3f7eb5a3	0.99495906
65	0x3f7d862c	0.99032855
66	0x3f739c27	0.95160145
67	0x3f7a120d	0.97683793
68	0x3f8200e4	1.0156522
69	0x3f792b02	0.9733125
70	0x3f7953a8	0.97393274
71	0x3f7b0b07	0.980637
72	0x3f83dc5c	1.0301623
73	0x3f71da22	0.9447347
74	0x3f7bf293	0.98417014
75	0x3f79115c	0.97292113
76	0x3f81d62a	1.0143483
77	0x3f71e3c2	0.94488156
78	0x3f7830f7	0.96949714
79	0x3f7c5c34	0.9857819
80	0x3f722406	0.9458622
81	0x3f75783b	0.9588658
82	0x3f809f00	1.0048523
83	0x3f73de58	0.95261145
84	0x3f806d64	1.0033383
85	0x3f7b3a96	0.9813627
86	0x3f809b68	1.0047426
87	0x3f7781f3	0.9668266
88	0x3f8178ec	1.0115027
89	0x3f754d37	0.95820946
90	0x3f7d388d	0.98914415
91	0x3f809770	1.0046215
92	0x3f7d135a	0.98857653
93	0x3f7aa26a	0.97904074
94	0x3f8017dc	1.0007281
95	0x3f82616d	1.0185982
96	0x3f7deefc	0.99192786
97	0x3f7ea012	0.99463
98	0x3f746e13	0.9548046
99	0x3f771401	0.965149
100	0x3f78681b	0.9703385
101	0x3f7cc2e6	0.9873489
102	0x3f72ab19	0.94792324
103	0x3f84bc14	1.0369897
104	0x3f829db8	1.0204382
105	0x3f7a1145	0.976826
106	0x3f7e65ac	0.9937389
107	0x3f828845	1.0197836
108	0x3f7ebea3	0.9950964
109	0x3f765241	0.9621926
110	0x3f7ec141	0.9951363
111	0x3f814559	1.0099288
112	0x3f7bfd0d	0.98433
113	0x3f7d6c5d	0.98993474
114	0x3f808860	1.0041618
115	0x3f8061f4	1.0029893
116	0x3f7c5a0c	0.985749
117	0x3f802a73	1.0012954
118	0x3f7784a9	0.966868
119	0x3f81e74a	1.0148709
120	0x3f7aaf95	0.97924167
121	0x3f792bf9	0.9733272
122	0x3f7c4617	0.9854445
123	0x3f78b51e	0.9715136
124	0x3f834e76	1.0258319
125	0x3f7f1b70	0.9965124
126	0x3f84474f	1.0334262
127	0x3f7a545a	0.9778496
128	0x3f8248a9	1.0178424
129	0x3f7a7a6c	0.9784305
130	0x3f6a5250	0.9153185
131	0x3f8254c6	1.0182121
132	0x3f7a5559	0.9778648
133	0x3f80232d	1.0010735
134	0x3f7d9b8a	0.9906546
135	0x3f773010	0.9655771
136	0x3f83658f	1.0265368
137	0x3f87a7ed	1.0598122
138	0x3f8244c5	1.0177237
139	0x3f80e9e4	1.0071378
140	0x3f77158e	0.96517265
141	0x3f805c38	1.0028143
142	0x3f6bca8e	0.9210595
143	0x3f7edeb4	0.9955857
144	0x3f7922d4	0.9731877
145	0x3f7d2b12	0.98893845
146	0x3f77f231	0.9685393
147	0x3f809ea0	1.0048409
148	0x3f7e5aa9	0.99357086
149	0x3f815506	1.0104072
150	0x3f73da9f	0.95255464
151	0x3f7ae4a4	0.9800513
152	0x3f75f56e	0.9607762
153	0x3f8269e5	1.0188566
154	0x3f767db0	0.96285534
155	0x3f88a0ad	1.0674034
156	0x3f83e69c	1.0304751
157	0x3f7a85c9	0.9786039
158	0x3f81eaa6	1.0149734
159	0x3f81ad4e	1.0131013
160	0x3f7fb944	0.9989207
161	0x3f7e6615	0.99374515
162	0x3f7de223	0.9917318
163	0x3f7e7838	0.9940219
164	0x3f7faebe	0.9987601
165	0x3f80e386	1.0069435
166	0x3f7ec3d6	0.9951757
167	0x3f85b97c	1.044723
168	0x3f7af874	0.9803536
169	0x3f77b4dc	0.96760345
170	0x3f81ddd8	1.0145826
171	0x3f80334e	1.0015657
172	0x3f81f31b	1.0152315
173	0x3f85e3c1	1.046013
174	0x3f77c934	0.96791387
175	0x3f82bb1c	1.0213351
176	0x3f7e8959	0.99428326
177	0x3f805c68	1.00282
178	0x3f7afa25	0.9803794
179	0x3f804141	1.0019914
180	0x3f7ee88a	0.99573576
181	0x3f7eaf0a	0.9948584
182	0x3f7bd44f	0.9837083
183	0x3f77be25	0.9677451
184	0x3f7a40fe	0.9775542
185	0x3f87cd2b	1.0609487
186	0x3f8493cf	1.0357608
187	0x3f7c72b7	0.9861254
188	0x3f8261d0	1.01861
189	0x3f7fc653	0.99911994
190	0x3f7e452c	0.993243
191	0x3f7f31bd	0.9968527
192	0x3f80a5d3	1.0050606
193	0x3f801b81	1.0008394
194	0x3f809352	1.0044959
195	0x3f8153d4	1.0103707
196	0x3f7952d2	0.97392
197	0x3f826e5f	1.0189933
198	0x3f7fc861	0.9991513
199	0x3f7d0fb9	0.98852116
200	0x3f823a4d	1.0174042
201	0x3f78da01	0.9720765
202	0x3f86f26c	1.0542731
203	0x3f7952cd	0.9739197
204	0x3f7cb4b6	0.98713243
205	0x3f81c6e8	1.0138826
206	0x3f84ef68	1.0385561
207	0x3f784518	0.9698043
208	0x3f7eb966	0.99501646
209	0x3f76481c	0.9620378
210	0x3f7e66eb	0.9937579
211	0x3f7c796e	0.98622787
212	0x3f8256dc	1.0182757
213	0x3f7d7f89	0.9902273
214	0x3f812612	1.0089743
215	0x3f7fef62	0.99974644
216	0x3f7b782f	0.9823026
217	0x3f7a69e7	0.97817844
218	0x3f7f3b5a	0.9969994
219	0x3f73701d	0.95092946
220	0x3f8078a7	1.003682
221	0x3f7e8cc3	0.99433535
222	0x3f78dd26	0.97212446
223	0x3f853bb7	1.0408849
224	0x3f7fa34d	0.9985855
225	0x3f7808ed	0.9688862
226	0x3f7ce168	0.9878144
227	0x3f814ea9	1.010213
228	0x3f7c2310	0.98491
229	0x3f8222f2	1.0166914
230	0x3f7dee88	0.99192095
231	0x3f7cb277	0.98709816
232	0x3f81684d	1.0109955
233	0x3f81a8a8	1.0129595
234	0x3f7a15df	0.9768962
235	0x3f7e934f	0.99443525
236	0x3f7d1359	0.9885765
237	0x3f76720b	0.96267766
238	0x3f721840	0.9456825
239	0x3f80b655	1.0055643
240	0x3f77aac8	0.96744967
241	0x3f81c640	1.0138626
242	0x3f81607e	1.0107572
243	0x3f70d14d	0.9406937
244	0x3f7d1bc6	0.98870504
245	0x3f7f8bcb	0.9982268
246	0x3f80a579	1.0050498
247	0x3f835085	1.0258948
248	0x3f78a6d3	0.97129554
249	0x3f832fcf	1.0248965
250	0x3f7d7eac	0.9902141
251	0x3f7bf26b	0.98416775
252	0x3f7fffd8	0.9999976
253	0x3f83c88e	1.029558
254	0x3f81bc90	1.013567
255	0x3f7bbf32	0.98338616

input_block.0.bias f4 [398]
0	0xbc8cb1cb	-0.017174622
1	0xbb0b97c3	-0.0021300174
2	0xba0e214d	-0.00054218323
3	0xb8a72c12	-7.971389e-05
4	0xbb80c2b0	-0.0039294586
5	0x3baad13f	0.0052129324
6	0xbc49800f	-0.012298598
7	0xbb3c46ff	-0.002872884
8	0x3bfd0cc6	0.00772247
9	0x3c7b7c3a	0.015349442
10	0x3b005196	0.001957988
11	0xbb2bd5de	-0.0026220004
12	0x3b2bb05d	0.002619765
13	0xbba23185	-0.004949751
14	0xbba13e52	-0.0049207592
15	0xbc8a88cc	-0.016910933
16	0x3c44d631	0.012013958
17	0x3cc89c39	0.024488555
18	0x3a9fe593	0.0012199156
19	0xbbdd8ec3	-0.0067614033
20	0xbaaaf1ae	-0.0013041997
21	0x3c5eb0cb	0.013591955
22	0x3ac16680	0.0014755279
23	0xbbd60372	-0.0065311724
24	0xbbb93362	-0.0056518773
25	0xbb893c29	-0.00418808
26	0x3b9bb20f	0.004751451
27	0x3c1547cb	0.009111355
28	0xb91efa16	-0.00015161218
29	0xbb19a439	-0.0023443832
30	0xbc57039c	-0.013123419
31	0x3b3fd040	0.0029268414
32	0xbc1503bb	-0.009095128
33	0xbb2ddf36	-0.002653075
34	0xbbbe19c5	-0.005801412
35	0xbbb1f5cc	-0.0054309126
36	0xba2684bd	-0.0006352177
37	0xbad4d71e	-0.0016238426
38	0xbc80b5ce	-0.015711691
39	0x3c2d7a17	0.0105881905
40	0x3baf854d	0.005356467
41	0x3b728f6a	0.003701175
42	0xba1c39fa	-0.0005959567
43	0x39eb5aef	0.00044890444
44	0xbc8ad4a0	-0.01694709
45	0xbbe4eb2e	-0.0069860434
46	0xbc911326	-0.017709326
47	0xbc32a3d2	-0.010903316
48	0xbb7ac7dc	-0.0038266098
49	0xbbed6aa1	-0.007245377
50	0x3ba72fdd	0.0051021413
51	0xbb300698	-0.00268594
52	0x3a8a3a3d	0.0010545921
53	0x3ba9e0ac	0.0051842537
54	0x3c027c01	0.007964135
55	0xbb677686	-0.0035318448
56	0xbcb167d6	-0.021655958
57	0xbb000373	-0.0019533306
58	0xbaad84c5	-0.0013238421
59	0x3b8d629f	0.004314735
60	0xbc1b9a72	-0.009497272
61	0x3a558e22	0.00081464846
62	0xbbcad2dd	-0.0061896876
63	0x39f22e1a	0.00046192185
64	0x3c3e8dcd	0.011630488
65	0x3bdf56db	0.006815774
66	0xbcd8098f	-0.026371745
67	0x3b9d6b81	0.004804075
68	0x3bb56ed9	0.0055368957
69	0xbc043a79	-0.008070582
70	0xbc6c2977	-0.014414183
71	0x3c2aeff4	0.010433186
72	0x3b64124d	0.0034800947
73	0x3d0ebadd	0.034846175
74	0xbc09b279	-0.008404368
75	0xbbe529db	-0.006993515
76	0xbb926020	-0.0044670254
77	0x3b09ab6c	0.0021006716
78	0x3c88917e	0.016670939
79	0x3c81a7a3	0.015827006
80	0x3d05c873	0.032661866
81	0xbc8d71e9	-0.01726623
82	0x3c09a37c	0.008400794
83	0x3c650413	0.013978022
84	0x3baeef90	0.0053386167
85	0x3b9c0dc4	0.004762383
86	0xbbab46f9	-0.0052269665
87	0xbbe494fb	-0.0069757677
88	0x3a2fd27b	0.0006707084
89	0x3baede92	0.005336591
90	0x3c362405	0.011116986
91	0x3c0b1b5d	0.008490411
92	0xbc712e6a	-0.014720539
93	0xbb7ce28b	-0.0038587179
94	0xba8800c7	-0.0010376208
95	0xbaf1bd68	-0.0018443288
96	0xbc623403	-0.013806346
97	0xbb08d268	-0.0020877365
98	0xbbb2e76b	-0.005459716
99	0x3bb265ec	0.005444279
100	0x3ba11777	0.0049161273
101	0x3b2e29c3	0.0026575185
102	0x3cd4bf1e	0.025970038
103	0xbbbe2cf6	-0.0058036996
104	0x3b9de530	0.004818581
105	0xbc9b1739	-0.018931972
106	0x3b870d0a	0.0041214274
107	0x3b9c87a6	0.0047769127
108	0xbadc6359	-0.0016814276
109	0x3c7d1aab	0.015448253
110	0xbc629f9a	-0.013831997
111	0xbbc33594	-0.0059573147
112	0x3c97ed0b	0.018545648
113	0xbb51121e	-0.0031901668
114	0xbb5aeff6	-0.0033407188
115	0x398728e9	0.00025779687
116	0x3c4d4d33	0.012530613
117	0xbb7e49e9	-0.0038801378
118	0xbc70362b	-0.014661352
119	0xbb40c4d3	-0.0029414191
120	0x3bcfb243	0.006338389
121	0xbc36427c	-0.01112425
122	0xbc20b6fe	-0.009809254
123	0xbc1ef5a6	-0.009702122
124	0xbbf750cb	-0.007547473
125	0xbab28551	-0.0013620054
126	0x3be2dcfa	0.006923315
127	0x3c4bf072	0.012447463
128	0x3bcf9b70	0.0063356683
129	0xbc539673	-0.012914288
130	0xbd571fb0	-0.052520454
131	0xbacbeb83	-0.0015557859
132	0x3c609b44	0.013708893
133	0x3b35ca6b	0.0027739059
134	0xbc6a357d	-0.014294979
135	0xbc2b7f61	-0.010467381
136	0xbc16a154	-0.009193737
137	0xbbd0e524	-0.006374972
138	0x3b2d54ad	0.0026448176
139	0xbaf93cbe	-0.0019015295
140	0xbd18a20c	-0.037263915
141	0xbc5c80f6	-0.013458481
142	0x3ca2d9a1	0.019879164
143	0xbbd1a50d	-0.0063978494
144	0x3c433525	0.011914526
145	0xbaabfb51	-0.0013121163
146	0x3c652bde	0.0139875095
147	0xba618852	-0.0008603382
148	0xbc7cbde5	-0.015426134
149	0xbad5481a	-0.0016272098
150	0xbc55abcf	-0.013041451
151	0xbc90552c	-0.017618738
152	0xbc363bda	-0.011122668
153	0xbc0dd305	-0.008656268
154	0x3bfd8c99	0.007737708
155	0x3a9e3c6e	0.0012072453
156	0x3bbd7065	0.0057812207
157	0xbc4c65dc	-0.012475457
158	0xbcea8f78	-0.028632864
159	0xbb9220e8	-0.004459489
160	0xbb002bbb	-0.0019557315
161	0xbc1c2db2	-0.009532379
162	0x3b9023c7	0.0043987962
163	0x3b7a77fb	0.0038218487
164	0x3bde4865	0.0067835324
165	0x3b5d5adf	0.0033776087
166	0xbbe8df87	-0.0071067247
167	0x3b3f407e	0.0029182727
168	0xbb6282f8	-0.0034562927
169	0xba8a34bb	-0.0010544279
170	0x3c07d7d8	0.008291207
171	0xbb836ab3	-0.0040105223
172	0xbbd17517	-0.006392132
173	0xbc1f70f2	-0.009731518
174	0x3c808519	0.015688466
175	0xbc088027	-0.008331335
176	0x3b7bc0b9	0.0038414432
177	0xbc44830f	-0.011994137
178	0xbb880782	-0.0041512856
179	0xbb29586e	-0.0025840062
180	0xbb8b127d	-0.0042441473
181	0x3c61ba5a	0.01377734
182	0x3c8e188d	0.017345691
183	0x3c5d89ea	0.013521651
184	0x3b8760df	0.004131421
185	0xbaa0228e	-0.0012217329
186	0x3c1b2eee	0.009471638
187	0x3a9dc5c4	0.0012037088
188	0x3b485b1d	0.0030571886
189	0xbc140664	-0.009034727
190	0xbb433c0e	-0.0029790434
191	0xbc34e014	-0.0110397525
192	0x3be75795	0.007060001
193	0x3c199f8a	0.009376416
194	0xbbda1220	-0.0066549927
195	0x3bf5ae0a	0.0074975537
196	0x3cf176ef	0.029475657
197	0x3b6a4df0	0.003575202
198	0xbc379fd7	-0.011207542
199	0x3b86f0d2	0.0041180635
200	0x3b24cbe9	0.0025145954
201	0xbb9c3c8e	-0.004767961
202	0x3b29ec92	0.002592836
203	0x3c27cdd2	0.0102419425
204	0xbbc39322	-0.0059684673
205	0x3ba311fb	0.0049765087
206	0x3b07db58	0.0020730104
207	0xbc08a728	-0.008340634
208	0x3b503a9d	0.0031773217
209	0x3cde0c2d	0.027105415
210	0x3c30cf67	0.010791636
211	0x3c178994	0.00924911
212	0x3ba274f1	0.004957788
213	0xbb82d9c8	-0.0039932467
214	0x3b92cbea	0.004479875
215	0xba4891be	-0.0007651112
216	0x3a951041	0.0011372642
217	0xbbc6b4c8	-0.0060640313
218	0x3b004a14	0.0019575404
219	0xbc93042a	-0.017946322
220	0xbbb24b13	-0.0054410785
221	0xbbd7b915	-0.006583343
222	0xbc8127e5	-0.015766094
223	0x3aad4019	0.0013217955
224	0xb88e1d14	-6.776504e-05
225	0xbc7b327a	-0.015331859
226	0xbc9caf50	-0.019126564
227	0x3baf98fe	0.0053588143
228	0x3b87483e	0.004128485
229	0x3a508f84	0.0007955956
230	0x3c0c9386	0.008580094
231	0x3b341eea	0.0027484247
232	0x3c5e41b6	0.013565471
233	0xbbaf947c	-0.005358277
234	0xbc35eb22	-0.011103423
235	0xbc104863	-0.008806321
236	0xbaed5d1d	-0.0018109415
237	0x38d54389	0.00010169211
238	0xbc94bf83	-0.018157726
239	0xba68d12a	-0.00088812655
240	0xbca99cbb	-0.020704618
241	0xbb5294cc	-0.0032132147
242	0xbadc9429	-0.0016828823
243	0x3cc2437e	0.023713823
244	0x3c4690ba	0.012119466
245	0xbb56f11c	-0.003279752
246	0xbc001e7e	-0.00781977
247	0x3b821e65	0.0039709085
248	0xbc1d766c	-0.0096107535
249	0x3bda2f64	0.0066584814
250	0xbc31648c	-0.010827195
251	0x3b75d01d	0.0037508078
252	0xbaf0fc47	-0.0018385731
253	0x3a27d8f2	0.0006402872
254	0xbc38645a	-0.011254394
255	0x3bb4e272	0.0055201584

input_block.1.weight f4 [64, 398]
0	0x3c2e7f48	0.010650463
1	0xbc3c994e	-0.01151116
2	0xbcbd8a1b	-0.023137143
3	0xbcb27850	-0.021785885
4	0xbc5ccce6	-0.013476586
5	0xbc62c8cb	-0.013841818
6	0xbcc2e28e	-0.02378967
7	0x3caa6c1c	0.020803504
8	0xbc18056f	-0.009278639
9	0x3ce48b4b	0.027898451
10	0xbc58ce38	-0.01323276
11	0xbd811c6a	-0.06304248
12	0xbc83c525	-0.016085217
13	0x3cc7c43a	0.02438556
14	0x3cc8272a	0.024432737
15	0x3d09763a	0.033560015
16	0xbb01b63a	-0.0019792453
17	0xbca71884	-0.020397432
18	0xbc71c0f2	-0.014755474
19	0xbca1e8e8	-0.019764379
20	0x3cb663cc	0.022264384
21	0x3d45743f	0.048206564
22	0xbca5b2b9	-0.020226823
23	0xbd44cda3	-0.048047673
24	0x3cf82262	0.030289833
25	0x3d05eff7	0.03269955
26	0x3d194aba	0.03742478
27	0xbc831e91	-0.016005786
28	0x3be75bbf	0.0070604975
29	0x3d324b0c	0.0435286
30	0x3c9db6c5	0.01925219
31	0xbd479619	-0.04872713
32	0xbc7d1b99	-0.015448474
33	0xbb8f5a48	-0.004374776
34	0xbc0ac4ba	-0.008469755
35	0xbd1fb337	-0.038989272
36	0x3c3d66e7	0.011560178
37	0x3cf2b2a1	0.029626193
38	0xbca34d3b	-0.019934287
39	0x3beb2e69	0.0071771634
40	0x3a98b715	0.0011651242
41	0x3d8d3183	0.06894209
42	0x3b99fdec	0.0046994593
43	0xbd2fb634	-0.04289837
44	0xbd13de7f	-0.03610086
45	0xba24ae1d	-0.00062820484
46	0x3c5395a5	0.012914096
47	0x3c565a3c	0.013083037
48	0xbc2fbd3e	-0.010726271
49	0x3cd87362	0.026422206
50	0xbd5e9e68	-0.054350287
51	0xbc57ea0a	-0.013178358
52	0x3ce9d4aa	0.028543789
53	0x3d6bff6d	0.05761664
54	0xbd0536f6	-0.032523118
55	0x3d6607b9	0.05615971
56	0xbbfb0703	-0.007660748
57	0xbd2aefd6	-0.04173263
58	0xbd00324f	-0.031297978
59	0x3d375285	0.04475643
60	0xbce7f9ab	-0.028317293
61	0xbc89f4ce	-0.016840365
62	0x3c047f66	0.008087015
63	0xbb71921e	-0.0036860774
64	0x3cd53ec4	0.026030906
65	0x3d348543	0.0440724
66	0x3d4ce634	0.050024226
67	0x399c6827	0.00029832238
68	0x3d86b73a	0.065779164
69	0x3cdb9b31	0.0268074
70	0xbd21ad2a	-0.039471783
71	0x3b8e3a7d	0.0043404684
72	0x3d1557bd	0.036460627
73	0x3c7c52aa	0.015400568
74	0x3c189917	0.009313843
75	0x3c5469d1	0.012964682
76	0x3d217d58	0.039426178
77	0x3d302f52	0.04301388
78	0x3bafd17d	0.005365549
79	0x3cbfefad	0.023429716
80	0x3cef8419	0.029237794
81	0x3c338d17	0.010958931
82	0x3b7f136e	0.0038921493
83	0xbd07302d	-0.03300493
84	0xbc144025	-0.009048496
85	0xbd10fd4f	-0.035397824
86	0xbcb16509	-0.021654623
87	0x3b995cb4	0.0046802405
88	0x3c3bf3a0	0.011471659
89	0x3ca435e7	0.020045234
90	0x3d240888	0.0400472
91	0x3cd1ac62	0.025594894
92	0x3d470fcc	0.04859905
93	0xbceb1424	-0.028696127
94	0x3d288d22	0.04115022
95	0xbccaf9b2	-0.024777267
96	0x3b6ac55d	0.0035823204
97	0xbcbab6e3	-0.022792285
98	0x3c8654e7	0.016397906
99	0xbc9ad7ac	-0.018901668
100	0xbc888bc3	-0.016668206
101	0xbab23363	-0.0013595637
102	0x3c14c906	0.009081131
103	0xbd157595	-0.036489088
104	0x3d479343	0.048724424
105	0x3d2c2140	0.042023897
106	0x3d050743	0.03247763
107	0x3d36d93b	0.04464076
108	0x3a411deb	0.0007366824
109	0x3ceac087	0.028656257
110	0x3d4e5615	0.050375063
111	0x3d620c65	0.0551876
112	0x3d25ae17	0.04044923
113	0xbad94192	-0.0016575328
114	0xbd40919b	-0.04701386
115	0xbca1fe00	-0.019774437
116	0x3d1fccbc	0.03901361
117	0xbd74b793	-0.059745383
118	0x3d05e142	0.032685526
119	0xbc2ccd5c	-0.010547008
120	0xbd7bcf70	-0.061477125
121	0xbc0eda19	-0.008718991
122	0x3d01fa62	0.031732924
123	0x3cf23577	0.02956651
124	0xbd277fc9	-0.04089335
125	0xbc646901	-0.0139410505
126	0x3d8645e7	0.065563016
127	0x3c588a1b	0.013216521
128	0xbd1e3509	-0.038624797
129	0xbcc5bb97	-0.024137301
130	0x3cdec3a9	0.027192907
131	0x3c3dea39	0.011591488
132	0xb96e7e62	-0.0002274453
133	0x3c3a3343	0.011364761
134	0x3d126e67	0.03574982
135	0x3cbad75b	0.022807768
136	0x3c17c855	0.0092640715
137	0xbd824d48	-0.063623965
138	0xbd617133	-0.055039596
139	0xbd011505	-0.031514186
140	0x3c0e9026	0.00870136
141	0xbbcc6fa1	-0.006238893
142	0x3d2f8fa6	0.042861603
143	0xbaf1e7d2	-0.0018455929
144	0xbd048e43	-0.032362234
145	0xbd1d8d67	-0.03846493
146	0x39bacd23	0.00035629523
147	0x3c974fd4	0.018470682
148	0x3c32e726	0.010919368
149	0xbcf7fe83	-0.030272728
150	0xbcf5b190	-0.029991895
151	0x3d091afb	0.033472996
152	0xbca4ba7a	-0.02010845
153	0xbd8c6c8e	-0.06856643
154	0xbd1c453d	-0.03815197
155	0xbd21efcf	-0.03953534
156	0xbc0651bf	-0.008198201
157	0xbc126ea3	-0.008937511
158	0x3c15675f	0.009118884
159	0xbb8fd433	-0.00438931
160	0xbd3a9e44	-0.04556109
161	0xbb844e19	-0.0040376303
162	0xbd367e56	-0.044554077
163	0xbd15755c	-0.036488876
164	0x3cf3a36f	0.029741017
165	0x3d16d6e2	0.036826022
166	0x3c9d5f26	0.01921041
167	0x3ce179f3	0.02752397
168	0xbd3c730d	-0.04600816
169	0xbcdd8bbd	-0.027044171
170	0x3cd6a10b	0.026199838
171	0xbce1cd24	-0.027563639
172	0x3c86f15f	0.016472517
173	0xbceb8f6e	-0.028754916
174	0xbafb0bb4	-0.0019153268
175	0xbc10eda6	-0.008845722
176	0x3ccf7bdc	0.025327615
177	0xbd01ca31	-0.031686965
178	0xbc0707b5	-0.008241584
179	0x3c657cb4	0.014006782
180	0x3d0a8199	0.033815
181	0x3c4a355c	0.012341823
182	0xbd31f8ed	-0.043450285
183	0x3d08f120	0.03343308
184	0x3d2d8147	0.042359617
185	0xbd5059b7	-0.05086681
186	0x3d027cb2	0.0318572
187	0xbd84d7db	-0.06486484
188	0xbb845611	-0.00403858
189	0x3bd6a932	0.0065509314
190	0xbd162fc3	-0.036666643
191	0xbd146d1e	-0.036236875
192	0xbcb3a7a8	-0.02193053
193	0x3d8bde6b	0.06829532
194	0xbd1a536e	-0.03767722
195	0x3d751277	0.059832063
196	0xbbca3082	-0.0061703334
197	0x3d49488f	0.049141463
198	0x3d3a3085	0.045456428
199	0xba9477a0	-0.0011327155
200	0xbd8cf41f	-0.068825
201	0xbc2c9a0f	-0.010534777
202	0xbcf51bf1	-0.02992055
203	0xbc421494	-0.0118457265
204	0x3cb2bc1e	0.021818217
205	0xbc57b874	-0.013166536
206	0x3d7db9f5	0.06194492
207	0x384e282c	4.915164e-05
208	0xbc397090	-0.011318341
209	0xbceabc64	-0.028654285
210	0x3d5132bd	0.05107378
211	0x3bedb4ae	0.0072542047
212	0x3d394757	0.04523405
213	0x3d48d075	0.049026925
214	0xbccdf8ff	-0.025143145
215	0xbac88c27	-0.0015300558
216	0x3ce5afa9	0.028037863
217	0x3d0b3204	0.033983245
218	0x3d0d6bc1	0.03452659
219	0x3d51cec7	0.05122259
220	0x3d1ae4c8	0.03781584
221	0xbd6d7c7c	-0.057980046
222	0x3ae50905	0.0017474002
223	0xbd737985	-0.059442062
224	0xbd43dd5a	-0.04781852
225	0x3a79b03f	0.0009524859
226	0x3d1c0d12	0.038098402
227	0x3d58c8d1	0.05292589
228	0x3c0f5367	0.008747912
229	0x3cfd78cb	0.030941388
230	0xbd1dc8c1	-0.038521532
231	0xbc1a3de9	-0.009414175
232	0xbd8beb99	-0.06832046
233	0x3bc77b98	0.0060877316
234	0xbbcfdb86	-0.006343308
235	0x3ca1e86d	0.01976415
236	0x3d87546d	0.066079
237	0x3c64b81a	0.013959909
238	0x3c929c99	0.017896937
239	0xbd42a52c	-0.0475208
240	0xbc9143af	-0.01773247
241	0x3d284741	0.041083578
242	0x3cb4f983	0.022091633
243	0x3ca4cacd	0.020116234
244	0x3c51b37f	0.012799143
245	0x3ceeb1ec	0.029137574
246	0x3b928ba0	0.004472211
247	0xbd0e5ce2	-0.03475655
248	0x3ce7ebbf	0.028310655
249	0x3d5c19e2	0.05373562
250	0x3d307f2f	0.04309004
251	0xbd245f18	-0.04012975
252	0xbc0efccf	-0.008727266
253	0x3c01d983	0.007925394
254	0x3c9bfe08	0.01904203
255	0x3d312788	0.04325059

input_block.1.bias f4 [64]
0	0xbd1c1fb3	-0.03811617
1	0xbcdc6716	-0.026904624
2	0x3d097db2	0.033567138
3	0xbd3670a0	-0.044541
4	0xbcd853b6	-0.026407104
5	0xbd65a851	-0.056068722
6	0x3cef95ff	0.029246328
7	0xbced383e	-0.028957482
8	0xbc6b9c52	-0.014380531
9	0xbcb16d56	-0.02165858
10	0xbd4a1c38	-0.049343318
11	0x3cbba7ee	0.022907224
12	0x3d3296ff	0.043601032
13	0x3ccb4792	0.0248144
14	0x3c886f50	0.01665464
15	0xbc903997	-0.017605586
16	0xbd2613dd	-0.040546287
17	0xbd6c160c	-0.057638213
18	0x3ae46ca1	0.0017427393
19	0xbd025fa2	-0.031829484
20	0x3c8b8c09	0.017034547
21	0xbcd4bf39	-0.025970088
22	0x3c81f844	0.015865453
23	0x3d343f87	0.044005897
24	0xbb501e6c	-0.0031756414
25	0x3d3d1ee1	0.046172027
26	0xbd73cdca	-0.059522428
27	0x3d4ba460	0.049717307
28	0x3c98a6f4	0.018634297
29	0xbd1fce8e	-0.039015345
30	0xbd20e3dd	-0.039279807
31	0x3d08ea04	0.0334263
32	0xbd0d527e	-0.0345025
33	0xbd28c9b3	-0.04120798
34	0x3b577781	0.0032877626
35	0x3d04659c	0.032323465
36	0x3c00d833	0.007864046
37	0xbd77ac50	-0.060467064
38	0x3b1424e4	0.0022604996
39	0x3ccd646c	0.025072299
40	0xbcf4343c	-0.029810064
41	0xbce1dcc2	-0.027571086
42	0x3cee57be	0.029094573
43	0x3d10b848	0.035331994
44	0xbbcbde77	-0.0062215882
45	0xbcf58680	-0.029971361
46	0xbc80e8b9	-0.01573597
47	0x3d166f24	0.036727086
48	0x3d248514	0.040165976
49	0x3c94ad8c	0.01814916
50	0x3bbec7b7	0.0058221477
51	0xbd072fea	-0.03300468
52	0xbcc069ea	-0.023488004
53	0x3ca3767a	0.019953955
54	0x3d1b7064	0.03794898
55	0x3c67cff5	0.014148702
56	0x3c121c1c	0.008917835
57	0xbc383cd5	-0.011244972
58	0xbb6ab534	-0.0035813572
59	0xbc938e0f	-0.018012075
60	0xbc18bb97	-0.009322069
61	0xbbcac7fe	-0.0061883917
62	0x3ca190e4	0.01972241
63	0xbd217bdd	-0.039424766

hidden_block.0.weight f4 [64]
0	0x3f75c41a	0.9600235
1	0x3f7a6d26	0.978228
2	0x3f717b60	0.9432888
3	0x3f83c47a	1.0294335
4	0x3f7d91fe	0.9905089
5	0x3f6fca38	0.93667936
6	0x3f85215d	1.0400807
7	0x3f757b79	0.9589153
8	0x3f7c2b5a	0.9850365
9	0x3f71c7da	0.94445574
10	0x3f8235a4	1.017262
11	0x3f7c950f	0.98664945
12	0x3f839842	1.028084
13	0x3f80c9ed	1.0061623
14	0x3f6b85fe	0.9200133
15	0x3f79682f	0.97424597
16	0x3f82fed9	1.0234023
17	0x3f841a37	1.03205
18	0x3f744244	0.95413613
19	0x3f7da149	0.99074227
20	0x3f8317d2	1.0241644
21	0x3f7779dd	0.96670324
22	0x3f7fc0f8	0.9990382
23	0x3f80742f	1.0035456
24	0x3f7a9652	0.9788562
25	0x3f7cdf9e	0.9877871
26	0x3f8462b5	1.0342623
27	0x3f754d8a	0.9582144
28	0x3f84ab26	1.036473
29	0x3f8200e3	1.0156521
30	0x3f7f2cf3	0.9967796
31	0x3f80ef21	1.0072976
32	0x3f867d95	1.0507075
33	0x3f724c0e	0.946473
34	0x3f858fe9	1.0434543
35	0x3f82cfa3	1.0219616
36	0x3f858dc6	1.0433891
37	0x3f86d1cc	1.0532775
38	0x3f7c8458	0.9863944
39	0x3f793605	0.9734805
40	0x3f78f464	0.9724791
41	0x3f82a394	1.020617
42	0x3f803c65	1.0018431
43	0x3f774985	0.96596557
44	0x3f7e0490	0.9922571
45	0x3f77780a	0.9666754
46	0x3f7ab880	0.97937775
47	0x3f8081f2	1.0039656
48	0x3f771834	0.96521306
49	0x3f6f7036	0.93530595
50	0x3f7b7de7	0.98238987
51	0x3f86333b	1.0484384
52	0x3f7d6131	0.9897643
53	0x3f816670	1.0109386
54	0x3f8073b6	1.0035312
55	0x3f755c73	0.9584419
56	0x3f8004ad	1.0001427
57	0x3f7e729d	0.99393636
58	0x3f80a13d	1.0049206
59	0x3f805a93	1.0027641
60	0x3f8d1611	1.1022359
61	0x3f80758c	1.0035872
62	0x3f8366da	1.0265763
63	0x3f8a0428	1.0782518

hidden_block.0.bias f4 [64]
0	0x3a15d247	0.00057152327
1	0x3c2ab6b7	0.010419539
2	0x3c6a7fd2	0.014312701
3	0xbc74e94c	-0.0149482
4	0x3c7400a5	0.014892732
5	0x3c05cada	0.008166039
6	0xbc372acc	-0.011179637
7	0xbaa1a66e	-0.0012332925
8	0x3add795a	0.0016897127
9	0x3c53040b	0.012879382
10	0xbcbc43c6	-0.022981536
11	0x3bce5d60	0.0062977523
12	0xbcfab6db	-0.03060477
13	0xbc19a70e	-0.009378208
14	0x3c88375a	0.016627956
15	0x3d12e984	0.03586723
16	0xbd8a785f	-0.0676124
17	0xbc82415f	-0.015900312
18	0x3d083329	0.033251915
19	0x3c17a388	0.0092552975
20	0x3c3cb16e	0.011516912
21	0x3c73b096	0.014873644
22	0x3bf68979	0.0075237122
23	0x3c13c1cf	0.009018376
24	0x3c1da3ab	0.009621541
25	0xbc15d548	-0.0091450885
26	0xbc8f35f0	-0.017481774
27	0xbb2152b0	-0.0024615936
28	0xbbcd0436	-0.0062566055
29	0xbb4f44f8	-0.0031626802
30	0x3a872910	0.001031192
31	0xbc07bf5f	-0.0082853725
32	0xbd053ce5	-0.032528777
33	0x3d0c925c	0.034319267
34	0xbd41b078	-0.047287434
35	0xbd30740b	-0.043079417
36	0xbd72f28b	-0.05931334
37	0xbd01d30b	-0.031695407
38	0xbb29e818	-0.0025925692
39	0x3bf8dda9	0.0075947833
40	0x3cbdd227	0.023171498
41	0xbb1aee56	-0.0023640594
42	0xbbd14c49	-0.0063872677
43	0xbd2addd2	-0.04171545
44	0x3d4ab751	0.04949123
45	0x3c372efd	0.0111806365
46	0x3bde0794	0.0067758057
47	0x3ac6f549	0.0015179302
48	0x3bc86ae4	0.006116258
49	0x3d504d0b	0.050854724
50	0x3ceaa9a7	0.02864535
51	0xbc7fdee3	-0.015617105
52	0x3c493506	0.012280708
53	0xbcee7ddf	-0.029112754
54	0xbb2d1dbc	-0.0026415428
55	0x3c397650	0.011319712
56	0x3bbd2b27	0.0057729664
57	0x3c17911d	0.009250906
58	0xbc0cc486	-0.008591777
59	0x3c10a3c8	0.008828111
60	0xbde8173c	-0.113325566
61	0xbbeb191f	-0.0071746255
62	0xbcaeead0	-0.021352202
63	0xbdb649d3	-0.089007996

hidden_block.2.weight f4 [64, 64]
0	0x3c93054f	0.017946867
1	0xbcf14ed7	-0.02945654
2	0xbdebf1d7	-0.11520737
3	0x3d9d62fd	0.07684896
4	0x3de07922	0.10960604
5	0x3d1a9e9b	0.037748914
6	0xbda04a95	-0.078267254
7	0x3dbaa2b6	0.09113066
8	0x3de23740	0.11045694
9	0xbe007c19	-0.1254734
10	0x3c8aac33	0.016927814
11	0xbdaf7c09	-0.0856858
12	0x3cd62c9b	0.026144316
13	0x3d07e1de	0.033174388
14	0x3db9ec05	0.0907822
15	0xbcdbf586	-0.026850473
16	0xbaf13b22	-0.0018404464
17	0x3e2bee77	0.16790186
18	0xbdfbfd2d	-0.12304149
19	0xbd870d08	-0.065942824
20	0x3db1e70f	0.08686649
21	0xbccb4008	-0.024810806
22	0x3ddb04b5	0.10694257
23	0xbdd85bce	-0.10564385
24	0xbdaf8596	-0.08570401
25	0xbc81957a	-0.015818346
26	0x3c927eef	0.017882792
27	0xbdd36713	-0.10322394
28	0xbdae95d6	-0.08524673
29	0x3aa90e3b	0.0012897918
30	0x3d372d3b	0.04472087
31	0x3dbf5c0e	0.0934373
32	0x3d929903	0.07158091
33	0x3d3536a2	0.044241555
34	0x3d059184	0.032609478
35	0xbbb5dc7e	-0.0055499664
36	0x3cf4110b	0.029793283
37	0x3d2a3abf	0.04155993
38	0x3d5ec132	0.054383464
39	0xbdcd308a	-0.10019024
40	0xbd805660	-0.06266475
41	0x3c9eba2e	0.019375887
42	0xbd098811	-0.03357703
43	0x3c8e9265	0.01740379
44	0xbc78457a	-0.015153283
45	0x3d1252a7	0.035723355
46	0x3c040d32	0.008059787
47	0x3dcd266b	0.10017093
48	0xbd80dcd5	-0.0629212
49	0x3c7b1e9b	0.015327121
50	0xbbd03563	-0.0063540204
51	0x3dd48407	0.10376745
52	0xbd0064c2	-0.03134609
53	0xbd9245ad	-0.07142196
54	0xbd11f549	-0.035634313
55	0x3cf75655	0.030192534
56	0xbc237cd0	-0.009978488
57	0x3d932251	0.0718428
58	0x3d884beb	0.06655105
59	0x3d098b31	0.03358001
60	0xbdcf06e6	-0.10108738
61	0x3c7ec6e7	0.015550352
62	0xbd9482b2	-0.07251491
63	0xbd85c89d	-0.065324046
64	0x3d1550e1	0.036454085
65	0x39e4bebe	0.00043629663
66	0xbcf9efd5	-0.030509869
67	0xbd10ae29	-0.035322342
68	0x3cf64ff8	0.030067429
69	0xbbccbecd	-0.006248331
70	0xbdc343c4	-0.0953441
71	0x3df3dbdc	0.11907169
72	0xbd44f7cc	-0.04808788
73	0x3d9c30d2	0.07626499
74	0x3d486de9	0.048932943
75	0x3d79d946	0.060998224
76	0xbe1ee072	-0.15515307
77	0x3d3169f5	0.04331394
78	0x3d6ea5ba	0.058263518
79	0xbd7f73ee	-0.06236642
80	0xbceb2a6d	-0.028706754
81	0x3cc3cad8	0.023900434
82	0x3deb0cf9	0.11477084
83	0xbca4e6aa	-0.02012952
84	0xbd43e831	-0.047828857
85	0xbd3d19c0	-0.046167135
86	0xbcdd9455	-0.02704827
87	0x3d11ec42	0.035625704
88	0xbd0fffd3	-0.035156082
89	0x3d4737ec	0.048637316
90	0x3cf24ea4	0.029578514
91	0x3e046540	0.12929249
92	0xbdb1bb53	-0.086783074
93	0xbd87f2cb	-0.06638106
94	0xbc0beafa	-0.0085399095
95	0xbdded0a6	-0.1087964
96	0xbd536d07	-0.05161765
97	0x3cfe5ba2	0.031049553
98	0xbcbd7da9	-0.023131208
99	0xbda9b7a9	-0.082869835
100	0xbd8e819a	-0.06958313
101	0xbd0725b0	-0.032994926
102	0xbd5f9fd0	-0.05459577
103	0x3dbe794e	0.09300481
104	0xbdc64433	-0.09680977
105	0xbe05a221	-0.13050129
106	0xbe1dcc38	-0.15409935
107	0x3da789d9	0.08180589
108	0xbb23509a	-0.0024919868
109	0xbde4f456	-0.11179416
110	0x3e21e942	0.15811637
111	0x3dc05137	0.093904905
112	0x3ddd5374	0.10806933
113	0x3daa2402	0.08307649
114	0x3c7d5173	0.015461314
115	0xbe14f9e1	-0.14548446
116	0xbd8817cb	-0.06645163
117	0x3e13a44d	0.14418145
118	0xbc261548	-0.01013691
119	0x3d9789a4	0.073993
120	0x3e0c327c	0.13691133
121	0x3d2be7bd	0.04196905
122	0xbdbba205	-0.09161762
123	0xbdb4e112	-0.08831991
124	0xbdb3237e	-0.08747004
125	0x3e193e0f	0.1496508
126	0xbd90d5a7	-0.07072001
127	0xbdf2cae5	-0.11855105
128	0x3de3dce0	0.11126113
129	0xbda30387	-0.07959657
130	0x3d5dbdd6	0.05413612
131	0xbd94acc8	-0.07259518
132	0x3b9da81f	0.0048113014
133	0x3d31b3ef	0.04338449
134	0x3cdc7016	0.026908915
135	0xbe067c3b	-0.13133328
136	0x3d015941	0.03157926
137	0xbb1ccbc8	-0.0023925174
138	0xbd6be4f9	-0.057591412
139	0x3e0da29d	0.13831563
140	0x3d8876d4	0.0666329
141	0x3cef8aa6	0.029240917
142	0x3de83404	0.11338046
143	0xbcd1398d	-0.025540138
144	0x3d0e9db8	0.03481838
145	0x3d85487c	0.06507966
146	0x3cc558e3	0.024090236
147	0xbca13a41	-0.019681098
148	0xbc5d84ce	-0.013520433
149	0x3c8d9a4b	0.017285487
150	0x3d4ebd9d	0.050473798
151	0x3d861015	0.06546036
152	0x3d7565be	0.059911482
153	0xbd49da58	-0.049280494
154	0xbd75329b	-0.059862714
155	0x3e01c8bd	0.12674232
156	0x3e0fa53d	0.14027877
157	0xbdb7807d	-0.08960054
158	0xbd3a024f	-0.045412358
159	0x3ded04bd	0.115731694
160	0xbdea7497	-0.11448019
161	0x3d8a484c	0.06752071
162	0x3d8d59bf	0.06901883
163	0xbdab2399	-0.08356399
164	0xbde42574	-0.11139956
165	0x3da87b16	0.08226602
166	0xbdeb9732	-0.115034476
167	0x3cfdd864	0.030986972
168	0xbd5aca95	-0.053415854
169	0x3e351996	0.17685542
170	0xbda2644c	-0.07929286
171	0x3d841bcd	0.06450615
172	0x3d7657dd	0.060142387
173	0xbcca3a12	-0.024685893
174	0xbc0cc949	-0.008592912
175	0x3c982e67	0.018576814
176	0x3d3c3a4e	0.04595404
177	0x3d84a727	0.06477194
178	0xbdcb986a	-0.0994118
179	0x3e14c984	0.14529997
180	0x3dd087c6	0.10182147
181	0xbde1a154	-0.11017099
182	0x3d0050c9	0.031327043
183	0xbd656bd3	-0.056011032
184	0xbc8dce82	-0.017310385
185	0x3d87b3af	0.06626069
186	0x3dcc0d5e	0.09963487
187	0xbdd10ccf	-0.10207521
188	0xba8e531a	-0.0010858506
189	0xbe4e5db5	-0.20152934
190	0x3c164116	0.009170791
191	0xbd6891cb	-0.056779664
192	0xbe04ab24	-0.1295591
193	0x3cfb43be	0.03067195
194	0x3d15be80	0.036558628
195	0xbc84c740	-0.016208291
196	0xbd836383	-0.06415465
197	0x3d92df17	0.07171457
198	0xbcae2869	-0.021259503
199	0x3d9db7de	0.077010855
200	0x3bc78f72	0.006090098
201	0xbc1ecd2d	-0.009692472
202	0xbe0c268c	-0.1368658
203	0x3cffe3c9	0.031236546
204	0xbdc9612d	-0.09832988
205	0xbdc29013	-0.09500136
206	0x3950ad99	0.00019901096
207	0xbccb9d24	-0.024855204
208	0xbdb3bdea	-0.087764576
209	0xbe0ed85b	-0.1394972
210	0x3d2010f6	0.039078675
211	0xbdb7e9c6	-0.089801356
212	0xbe0f8b07	-0.14017878
213	0xbdc185d3	-0.09449353
214	0xbd284771	-0.041083757
215	0x3dcfeb93	0.10152354
216	0x3d1b26a2	0.03787864
217	0x3cdb2eb6	0.026755672
218	0xbdc847e2	-0.097793356
219	0xbd47eff3	-0.048812818
220	0x3b4db609	0.003138902
221	0x3dc66ded	0.096889354
222	0xbcea8a7a	-0.028630484
223	0xbd7a5def	-0.06112474
224	0xbd8478d7	-0.06468361
225	0x3d19f370	0.037585676
226	0xbdc56c64	-0.096398145
227	0xbd989633	-0.07450523
228	0xbe0a9ea9	-0.13537087
229	0xbe0aa292	-0.13538578
230	0x3ce66f37	0.028129203
231	0x3d9a4efe	0.07534598
232	0xbe30c3bf	-0.17262171
233	0x3cdf3052	0.02724472
234	0x3c9046fe	0.017611977
235	0x3e18668e	0.14882872
236	0xbdbfa6df	-0.09358
237	0x3d8e5b0d	0.0695096
238	0x3d642ce4	0.055706874
239	0xbe16b850	-0.14718747
240	0x3b9f25a7	0.0048567834
241	0x3d4abcc9	0.049496446
242	0xbe021ba2	-0.12705854
243	0xbd72a38b	-0.059237998
244	0x39707abd	0.00022933907
245	0x3d9f11bd	0.07767055
246	0xbd82df57	-0.06390255
247	0x3dc733e0	0.09726691
248	0xbcbb6eeb	-0.022880038
249	0xbda8976b	-0.08232006
250	0xbd2be391	-0.04196507
251	0xbbda61b7	-0.0066644805
252	0xbd0cfacf	-0.034418877
253	0xbcefc851	-0.029270323
254	0xbcdc6185	-0.02690197
255	0xbde23580	-0.110453606

hidden_block.2.bias f4 [64]
0	0xbc4046d2	-0.011735635
1	0x3dbeba91	0.093129285
2	0x3def7e90	0.11694062
3	0x3e58ed73	0.2118433
4	0xbcda8edc	-0.026679449
5	0x3bfef107	0.0077801975
6	0xbd8dd58c	-0.069254965
7	0x3cb23d12	0.021757636
8	0x3c80ff57	0.015746756
9	0x3cb185d2	0.021670256
10	0xbdc937c2	-0.09825088
11	0xb7a954f4	-2.018593e-05
12	0x3d8f732d	0.0700439
13	0xbd5dc88b	-0.05414633
14	0x3d8f95ed	0.07011018
15	0x3d829c1c	0.06377432
16	0xbdf939ed	-0.121692516
17	0x3df548a1	0.119767435
18	0x3c81373d	0.01577341
19	0x3c925dde	0.017867025
20	0xbc02be46	-0.007979935
21	0xbe1732e9	-0.14765514
22	0x3d7705fa	0.060308434
23	0xbd98ddd7	-0.074641876
24	0x3dec1b44	0.11528638
25	0x3d9b69f0	0.07588565
26	0x3e013cd8	0.12620866
27	0xbdf33b64	-0.11876562
28	0xbd1bd62c	-0.038046047
29	0xbdbde3e0	-0.09271979
30	0x3e888baa	0.26669055
31	0xbc3b0bc9	-0.011416384
32	0xbda8ada6	-0.08236246
33	0xbd860a91	-0.06544984
34	0xbdac12fe	-0.0840206
35	0x3cfa72cf	0.030572323
36	0x3d85d4cb	0.06534728
37	0x3dbf3de0	0.093379736
38	0xbe3cadca	-0.1842567
39	0x3a8dd952	0.0010822213
40	0x3ddce350	0.10785544
41	0x3dd33380	0.10312557
42	0xbdbb8fb5	-0.09158269
43	0xbda7265a	-0.08161612
44	0xbcf24ed5	-0.029578606
45	0xbd5be5f6	-0.053686105
46	0x3dd0b6de	0.10191129
47	0xbdfe97ca	-0.12431295
48	0xbd487376	-0.048938237
49	0x3dc43177	0.09579747
50	0xbd56ff36	-0.052489482
51	0xbdaabf61	-0.08337284
52	0xbd93aad6	-0.07210319
53	0xbdecef0f	-0.11569034
54	0xbdd8c6e4	-0.105848104
55	0xbdf39fa1	-0.11895681
56	0xbde2df84	-0.110777885
57	0x3aba3956	0.0014207761
58	0xbddaa0c5	-0.106751956
59	0xbda970a8	-0.082734406
60	0xbe03dfac	-0.12878293
61	0x3e08471e	0.13308379
62	0xbe3499cb	-0.17636792
63	0xbceaf828	-0.028682783

hidden_block.4.weight f4 [64]
0	0x3f75bfea	0.9599596
1	0x3f80b94a	1.0056546
2	0x3f6e2cac	0.93036914
3	0x3f7a0b4c	0.9767349
4	0x3f7d18c0	0.9886589
5	0x3f7aedc9	0.9801908
6	0x3f824df8	1.0180044
7	0x3f7c1ff6	0.9848627
8	0x3f720d60	0.9455166
9	0x3f6d3d29	0.9267145
10	0x3f7cbdc7	0.9872708
11	0x3f82db5c	1.0223193
12	0x3f641e94	0.8910916
13	0x3f7d3982	0.98915875
14	0x3f8615b6	1.0475376
15	0x3f7d5342	0.98955166
16	0x3f7f7726	0.9979118
17	0x3f73c88a	0.95227873
18	0x3f7d44cd	0.98933107
19	0x3f78f618	0.9725051
20	0x3f8234a7	1.0172318
21	0x3f799f44	0.97508645
22	0x3f8407da	1.0314896
23	0x3f767302	0.9626924
24	0x3f6e7d31	0.93159777
25	0x3f719223	0.9436361
26	0x3f71821f	0.94339174
27	0x3f81e564	1.014813
28	0x3f7fd8f5	0.99940425
29	0x3f75c01d	0.95996267
30	0x3f635013	0.8879406
31	0x3f723e95	0.9462674
32	0x3f7f639b	0.9976136
33	0x3f7073df	0.93926805
34	0x3f7586cc	0.9590881
35	0x3f740208	0.953156
36	0x3f7ac1ca	0.9795195
37	0x3f7b6493	0.9820034
38	0x3f77c93d	0.9679144
39	0x3f783b06	0.9696506
40	0x3f66b181	0.901146
41	0x3f7f1bf3	0.9965202
42	0x3f7cff0d	0.98826677
43	0x3f72600e	0.9467782
44	0x3f6b2e4e	0.9186753
45	0x3f759f48	0.9594617
46	0x3f7625de	0.9615153
47	0x3f7e5e0c	0.99362254
48	0x3f6d104b	0.92602986
49	0x3f617f92	0.8808528
50	0x3f70b6fd	0.9402922
51	0x3f6d27c6	0.92638814
52	0x3f7f6ecf	0.99778455
53	0x3f715e95	0.94284946
54	0x3f6efc1e	0.9335345
55	0x3f6e7d51	0.9315997
56	0x3f7a3dd1	0.97750574
57	0x3f72680b	0.94690007
58	0x3f67e1ec	0.90579104
59	0x3f7c190d	0.98475724
60	0x3f5cff29	0.86326844
61	0x3f845aa1	1.0340158
62	0x3f7aa35b	0.9790551
63	0x3f6c9377	0.92412513

hidden_block.4.bias f4 [64]
0	0x3c456698	0.012048386
1	0x39d6e552	0.00040988118
2	0xbcf801be	-0.030274268
3	0xbc11225a	-0.008858288
4	0xbb4a54ac	-0.0030873222
5	0xba05eddd	-0.0005108992
6	0xbd19301d	-0.0373994
7	0x3ba0de82	0.0049093375
8	0x3b4aee59	0.003096482
9	0xbd1f8b82	-0.038951404
10	0xbbc8e2e5	-0.0061305636
11	0x3c4a8bdc	0.012362447
12	0xbcb45357	-0.022012396
13	0xbb9e4a24	-0.0048306156
14	0x3c2dbd69	0.010604241
15	0xbc551593	-0.013005632
16	0x3ac34424	0.0014897627
17	0xbcaf96aa	-0.021434147
18	0x3a4d5af1	0.0007833681
19	0xbc7c3d70	-0.015395507
20	0xbbc3f4bc	-0.0059801023
21	0x3c741158	0.014896713
22	0x3bda0685	0.006653609
23	0x3c00d9af	0.0078644
24	0x3bc3bf07	0.0059737
25	0xbc0b36a5	-0.008496915
26	0xbcb7c399	-0.022432135
27	0x3bc181f1	0.005905383
28	0xbbd1e06d	-0.0064049275
29	0x3baa093a	0.005189088
30	0xbdc28253	-0.094975136
31	0xbd86586e	-0.065598354
32	0xbbe220ad	-0.006900868
33	0x3c3827e2	0.011239978
34	0x3c762df5	0.015025605
35	0xba4a1304	-0.0007708522
36	0xbcb145aa	-0.021639664
37	0x3b33cca7	0.0027435215
38	0xbc219ff1	-0.009864793
39	0x3a15f9f8	0.0005721147
40	0x3c9d815d	0.019226724
41	0x3cb283fa	0.021791447
42	0xbbf6b4f7	-0.007528897
43	0xbb8b8543	-0.0042578294
44	0x3c8119cd	0.015759373
45	0x3ad03acb	0.0015886662
46	0x3c1a544d	0.009419513
47	0xbc3e9009	-0.01163102
48	0xbcaa24ed	-0.02076956
49	0x3c1b3efd	0.009475467
50	0x3c25f7b3	0.010129857
51	0x3c8c480e	0.017124202
52	0xbc732f23	-0.014842781
53	0x3d0456a9	0.032309208
54	0x3ba18ff1	0.004930489
55	0x3c7a926b	0.015293698
56	0xbb1fd1e6	-0.0024386584
57	0x3a817594	0.000987696
58	0x3c0dd4e0	0.00865671
59	0x3b443b08	0.0029942412
60	0x3c75d594	0.015004534
61	0x3ce55d7a	0.027998675
62	0xbab0c830	-0.0013487395
63	0x3c99464e	0.018710282

layers.0.ln.weight f4 [64]
0	0x3f4eb108	0.8073888
1	0x3f7f900d	0.9982918
2	0x3f596c15	0.84930545
3	0x3f681d15	0.90669376
4	0x3f7861ff	0.9702453
5	0x3f77484e	0.96594703
6	0x3f6f87e4	0.9356673
7	0x3f70e01b	0.9409196
8	0x3f69e519	0.913652
9	0x3f5b678a	0.85704863
10	0x3f755cf7	0.9584498
11	0x3f851663	1.0397457
12	0x3f2ab458	0.6668143
13	0x3f785dc1	0.9701806
14	0x3f8982da	1.0743058
15	0x3f6decad	0.92939264
16	0x3f7d8f7a	0.9904705
17	0x3f71cb34	0.9445069
18	0x3f7c0419	0.9844375
19	0x3f49d31f	0.7883777
20	0x3f5e82d7	0.86918396
21	0x3f83fcb1	1.031149
22	0x3f85308e	1.0405443
23	0x3f6571a5	0.8962653
24	0x3f6c1afe	0.92228687
25	0x3f69c9bd	0.91323453
26	0x3f62d997	0.88613266
27	0x3f79671f	0.97422975
28	0x3f752c08	0.9577031
29	0x3f7b2875	0.9810861
30	0x3f4271e7	0.7595505
31	0x3f63d1fb	0.8899228
32	0x3f713d41	0.9423409
33	0x3f83e704	1.0304875
34	0x3f6c38c6	0.9227413
35	0x3f584130	0.8447447
36	0x3f618633	0.88095397
37	0x3f880570	1.0626659
38	0x3f612e83	0.87961596
39	0x3f7e6f4d	0.9938858
40	0x3f7f29df	0.99673265
41	0x3f80c667	1.0060548
42	0x3f75837c	0.95903754
43	0x3f6f3a15	0.93448
44	0x3f66d518	0.90168905
45	0x3f609a36	0.8773531
46	0x3f8303b2	1.0235503
47	0x3f7b11e3	0.9807417
48	0x3f45a900	0.77211
49	0x3f7dfaa2	0.9921056
50	0x3f867696	1.050494
51	0x3f49863f	0.7872047
52	0x3f775071	0.9660712
53	0x3f7e66fd	0.993759
54	0x3f88d62e	1.0690362
55	0x3f638243	0.8887064
56	0x3f777a62	0.96671116
57	0x3f85eccc	1.046289
58	0x3f75f706	0.9608005
59	0x3f77a73b	0.9673955
60	0x3f757da7	0.95894855
61	0x3f88f65e	1.0700185
62	0x3f71ca66	0.9444946
63	0x3f4894b7	0.7835192

layers.0.ln.bias f4 [64]
0	0x3e30963b	0.17244808
1	0xbc4bbb91	-0.012434856
2	0xbd56cc16	-0.052440725
3	0xbda8a007	-0.08233648
4	0x3c9ad7a1	0.018901648
5	0x3c926f9a	0.017875481
6	0x3be5187c	0.006991444
7	0x3cee7ae7	0.029111339
8	0x3cf25513	0.029581582
9	0xbdd3ae7d	-0.103360154
10	0x3cde52b8	0.027139053
11	0x3c944662	0.018099967
12	0xbe2de465	-0.16981657
13	0x3cadf013	0.02123264
14	0x3c663e60	0.014052957
15	0x3b295123	0.0025835715
16	0x3ca1ef06	0.019767296
17	0xbcf617e2	-0.030040685
18	0x3cb8c3f2	0.022554372
19	0x3e2dafac	0.16961545
20	0xbc00fd45	-0.007872884
21	0x3c94da02	0.01817036
22	0x3bc54947	0.006020698
23	0x3d4c52bb	0.049883585
24	0x3a654c96	0.0008747069
25	0x3d444e9f	0.04792654
26	0xbd402185	-0.046906967
27	0x3cea097c	0.028568976
28	0x3d181e20	0.037138104
29	0x3ca47831	0.020076843
30	0xbe80ac40	-0.25131416
31	0xbdfa2484	-0.12213996
32	0x3cd290df	0.025703846
33	0x3bee5bf2	0.0072741443
34	0x3d87881c	0.06617758
35	0x3df828db	0.121171676
36	0x3da441f4	0.08020392
37	0xbb8e58fa	-0.004344103
38	0x3d998217	0.07495516
39	0xbc0e09fe	-0.0086693745
40	0x3c7683e1	0.015046091
41	0xbb5d2a7c	-0.0033747246
42	0x3cfc75a7	0.03081782
43	0x3d2e84e5	0.042607207
44	0xbcbe3e2b	-0.023223003
45	0x3dd133cb	0.10214957
46	0xb7b11bfc	-2.1113075e-05
47	0x3c6f2385	0.014595871
48	0x3e094ecc	0.13408965
49	0x3bff0f5e	0.0077838143
50	0x3b805941	0.00391689
51	0x3e0c51d7	0.13703094
52	0x3cdbd5b1	0.026835294
53	0x3d15a613	0.036535334
54	0xbb92cf9f	-0.004480317
55	0x3d8628fb	0.06550785
56	0x3ca1ae89	0.019736545
57	0xbc1bd948	-0.009512253
58	0xbc10a790	-0.0088290125
59	0x3cdf3d98	0.02725105
60	0x3c92a004	0.017898567
61	0x3c54e129	0.0129931355
62	0x3d2d8aff	0.042368885
63	0x3e238465	0.15968473

layers.1.ln.weight f4 [64]
0	0x3f80453e	1.0021131
1	0x3f849cf3	1.0360397
2	0x3f85384a	1.0407803
3	0x3f648698	0.89267874
4	0x3f84a324	1.0362287
5	0x3f82b552	1.0211585
6	0x3f6e79c9	0.9315458
7	0x3f8291e4	1.0200772
8	0x3f570a05	0.83999664
9	0x3f83171c	1.0241427
10	0x3f819905	1.0124823
11	0x3f8e3e7c	1.1112819
12	0x3f7ba690	0.9830103
13	0x3f821cbd	1.016502
14	0x3f8bc297	1.0918759
15	0x3f836a55	1.0266825
16	0x3f860c69	1.0472537
17	0x3f7df24e	0.9919785
18	0x3f850ccb	1.0394529
19	0x3f6cf5d5	0.9256261
20	0x3f809aba	1.0047219
21	0x3f8b86c3	1.0900501
22	0x3f86fab9	1.0545264
23	0x3f8224f5	1.0167528
24	0x3f87b9f9	1.0603629
25	0x3f84105c	1.0317492
26	0x3f878a14	1.0589013
27	0x3f84f00e	1.0385759
28	0x3f8288b5	1.019797
29	0x3f8ab6c3	1.0837024
30	0x3f80d3e9	1.006467
31	0x3f7cd623	0.98764247
32	0x3f7d3ad9	0.9891792
33	0x3f930f27	1.1488999
34	0x3f83aa04	1.028626
35	0x3f81f33d	1.0152355
36	0x3f81fd93	1.015551
37	0x3f952155	1.1650797
38	0x3f8095e1	1.004574
39	0x3f9252c4	1.1431508
40	0x3f8ff5ad	1.1246849
41	0x3f87eb33	1.0618652
42	0x3f8284df	1.0196799
43	0x3f82db27	1.022313
44	0x3f81be0e	1.0136125
45	0x3f81d89d	1.014423
46	0x3f8fa2b0	1.1221523
47	0x3f82fca4	1.023335
48	0x3f624ebb	0.88401383
49	0x3f90f216	1.1323879
50	0x3fa35f4d	1.2763458
51	0x3f6c9374	0.92412496
52	0x3f82e5bb	1.0226358
53	0x3f9735f4	1.181334
54	0x3fa6bb41	1.3025895
55	0x3f73544e	0.95050514
56	0x3f840f9a	1.0317261
57	0x3fa35bb6	1.2762363
58	0x3f9460fb	1.1592096
59	0x3f8403b4	1.031363
60	0x3f8a5571	1.0807325
61	0x3f8c367f	1.0954131
62	0x3f821f55	1.0165812
63	0x3f65e1cc	0.89797664

layers.1.ln.bias f4 [64]
0	0xbc60f2c4	-0.013729755
1	0xbc846efc	-0.016166203
2	0x3c6d631e	0.014488963
3	0xbb9a2329	-0.0047038984
4	0xbc6bbff8	-0.014389031
5	0xbc6a6f94	-0.014308829
6	0x3c847eac	0.016173683
7	0xbc6893ae	-0.014195366
8	0x3bd395bf	0.00645706
9	0x3c69b845	0.014265125
10	0xbc67f85d	-0.0141583355
11	0xbc73352a	-0.014844218
12	0x3c3fdb82	0.01171005
13	0xbc68e578	-0.014214866
14	0xbc7b7254	-0.015347082
15	0x3c8517b2	0.01624665
16	0xbc6b57cf	-0.014364197
17	0xbc701227	-0.014652765
18	0xbc6af8d3	-0.014341551
19	0x3b0049e0	0.0019575283
20	0x3c73475f	0.014848559
21	0xbc6e60fa	-0.014549488
22	0xbc78b1d0	-0.015179113
23	0xbc677c3a	-0.014128739
24	0x3c77c3b3	0.015122342
25	0xbc6faaa1	-0.014628083
26	0x3c712c52	0.014720039
27	0xbc6d3bce	-0.014479591
28	0xbc68a043	-0.014198366
29	0xbc7574f6	-0.014981499
30	0x3c55ff52	0.013061361
31	0xbc7b1fd0	-0.015327409
32	0x3c74ba33	0.0149369715
33	0x3c71cee8	0.014758803
34	0xbc67eef5	-0.014156093
35	0xbc644042	-0.013931336
36	0xbc62bcb0	-0.013838932
37	0x3c72ee9c	0.014827397
38	0xbc60c05a	-0.013717735
39	0x3c74272e	0.014901919
40	0x3c6f99fd	0.014624116
41	0xbc82e27a	-0.015977133
42	0xbc68b327	-0.0142028695
43	0xbc680411	-0.014161126
44	0x3c6653cc	0.014058065
45	0xbc653e3e	-0.0139918905
46	0x3c704875	0.014665713
47	0xbc6a2dab	-0.014293115
48	0x3c2adb5f	0.010428279
49	0x3c7bbc8e	0.015364779
50	0x3c775c90	0.015097752
51	0xbbbcc730	-0.0057610497
52	0xbc68bb69	-0.014204838
53	0xbc734c6c	-0.014849763
54	0x3c7bcee8	0.0153691545
55	0x3c71b52b	0.0147526665
56	0xbc6a7506	-0.014310127
57	0x3c761323	0.015019211
58	0x3c730644	0.014833037
59	0xbc6a8096	-0.014312884
60	0x3c739818	0.014867805
61	0xbc7881ec	-0.015167695
62	0xbc668e22	-0.014071973
63	0x3c417fbf	0.011810242

logit.weight f4 [1, 64]
0	0x3d2a1bd5	0.04153045
1	0x3d2679cb	0.040643495
2	0xbdc87c8f	-0.09789383
3	0xbc1a17c5	-0.009405081
4	0x3e043064	0.12909085
5	0x3e190ec0	0.14947033
6	0xbba4d50d	-0.0050302804
7	0x3de4a8ba	0.111649945
8	0x3bef2556	0.007298152
9	0xbe10cab7	-0.1413983
10	0x3ded6d26	0.11593084
11	0x3e4a7bb5	0.19773753
12	0xbd03f5f6	-0.03221699
13	0x3e0b90de	0.13629481
14	0x3e272e25	0.16326196
15	0xbd7d3a5c	-0.061823234
16	0x3e2dd7b2	0.16976812
17	0x3da476ed	0.08030496
18	0x3e1f9c7e	0.15587041
19	0x3c895c2b	0.016767582
20	0xbdb4da7c	-0.08830735
21	0x3e5b20c8	0.21399224
22	0x3df4439d	0.11926959
23	0x3d96508c	0.07339582
24	0xbde408cb	-0.111344896
25	0x3d9cda70	0.07658851
26	0xbdeff3ee	-0.11716448
27	0x3e00ea09	0.12589277
28	0x3dd5bf05	0.10436825
29	0x3e06b799	0.13155974
30	0xbd019090	-0.031632006
31	0x3ccd92ab	0.02509435
32	0xbd6bdb4a	-0.057582177
33	0xbe87cde8	-0.26524282
34	0x3dbd1846	0.092331454
35	0x3d7949cb	0.06086139
36	0x3d950b17	0.07277506
37	0xbe8af1a3	-0.2713748
38	0x3d8a694b	0.06758364
39	0xbe682b4b	-0.22672765
40	0xbe7ced75	-0.24699958
41	0x3db9fa47	0.0908094
42	0x3de578a4	0.11204651
43	0x3dc3c2e0	0.09558654
44	0xbdc87b52	-0.097891465
45	0x3d83b703	0.06431391
46	0xbe79c0e3	-0.24389987
47	0x3e197b6a	0.14988485
48	0x3c338116	0.010956069
49	0xbe46eda6	-0.19426593
50	0xbec865b4	-0.39140093
51	0x3ca280f1	0.019836875
52	0x3ded02fa	0.11572833
53	0x3e965153	0.2935892
54	0xbeb719f1	-0.3576198
55	0xbc9fc098	-0.019501016
56	0x3e21deb1	0.15807606
57	0xbec25b4f	-0.37960288
58	0xbe77683c	-0.24160856
59	0x3e12e587	0.1434537
60	0xbe492130	-0.19641566
61	0x3e5fdcab	0.21861522
62	0x3dcf8cfd	0.10134313
63	0x3c52bc36	0.012862256
