Model/single/fold0.ckpt (torch, 130111 bytes, 15 tensors)

input_block.0.weight f4 [398]
000000 b1 d5 83 3f 5c fa 81 3f 3d 4d 7c 3f e2 ba 7f 3f
       1.0299588 1.0154529 0.98555356 0.99894536
000010 37 82 7e 3f 6d 1d 7d 3f af 8c 7e 3f 8c 88 7f 3f
       0.9941744 0.98873025 0.99433416 0.9981773
000020 b2 55 82 3f 8f f0 7d 3f 7f 32 77 3f 03 09 86 3f
       1.0182402 0.9919519 0.96561426 1.04715
000030 0f 4a 76 3f 7b 99 81 3f cb db 79 3f 22 6a 74 3f
       0.96206754 1.0124964 0.97601 0.95474446
000040 29 62 7a 3f 5c 01 7e 3f 1f 32 84 3f e3 f1 7a 3f
       0.9780603 0.99220824 1.0327796 0.9802534
000050 b0 a8 7e 3f 44 59 76 3f 63 aa 82 3f 57 26 81 3f
       0.99476147 0.9622996 1.0208248 1.0089825
000060 ab d2 7f 3f 0b f3 81 3f 13 bf 83 3f 22 7d 80 3f
       0.9993083 1.0152296 1.0292686 1.0038188
000070 d6 a3 7f 3f 2d 1d 7d 3f 42 ba 70 3f 4b 83 76 3f
       0.9985937 0.98872644 0.94034207 0.9629409
000080 4a ff 7f 3f 35 9b 80 3f 95 0a 7e 3f 8c 96 80 3f
       0.99998915 1.0047365 0.99234897 1.0045943
000090 eb f5 83 3f ae 7d 84 3f 32 3c 7a 3f 7d 53 81 3f
       1.0309423 1.0350854 0.977481 1.0103604
0000a0 ea 47 7b 3f 89 fd 81 3f 2b 55 80 3f 85 d0 86 3f
       0.9815661 1.0155498 1.0025991 1.0532385
0000b0 ec a5 72 3f 4b b1 80 3f 51 df 7a 3f 06 3b 73 3f
       0.94784427 1.0054106 0.97997004 0.9501194
0000c0 6d 02 7d 3f 81 71 78 3f dc 75 7a 3f 50 a8 80 3f
       0.98831826 0.97048193 0.9783609 1.0051365
0000d0 c6 b1 79 3f 57 62 81 3f 88 d4 77 3f 64 4f 81 3f
       0.97536886 1.0108136 0.9680867 1.0102353
0000e0 0c ba 81 3f 3b 5f 7e 3f 53 10 7a 3f 29 92 7a 3f
       1.0134902 0.9936406 0.9768116 0.9787927
0000f0 1e 65 71 3f 94 9c 81 3f e6 69 83 3f 88 07 80 3f
       0.9429492 1.0125909 1.0266693 1.0002298
000100 69 25 7b 3f 20 1b 83 3f 58 f6 70 3f 03 87 7a 3f
       0.9810396 1.0242653 0.9412589 0.9786226
000110 cf a2 7f 3f 8a ca 80 3f 6c 95 76 3f 9d 3d 74 3f
       0.998578 1.006181 0.9632175 0.95406514
000120 4c 12 81 3f 27 7e 7d 3f 5a 6c 78 3f dc 46 7c 3f
       1.0083709 0.9902062 0.9704033 0.9854562
000130 80 a7 76 3f 65 2d 77 3f 1c 08 81 3f 96 5a 78 3f
       0.96349335 0.9655364 1.00806 0.97013223
000140 43 8e 70 3f d9 f9 76 3f 09 4a 81 3f c5 6c 7a 3f
       0.93967074 0.9647499 1.0100719 0.9782222
000150 a1 67 7c 3f f2 30 7b 3f 23 da 7d 3f 14 09 76 3f
       0.98595625 0.9812156 0.99160975 0.961076
000160 ca ff 80 3f 3c bf 75 3f ef ec 7c 3f f2 65 7b 3f
       1.0078061 0.95994925 0.9879903 0.9820243
000170 3f 56 7e 3f 13 a5 7f 3f fb 7c 80 3f 1e db 7d 3f
       0.9935035 0.9986126 1.0038141 0.9916247
000180 4b 93 7c 3f f7 cb 81 3f 0a f8 78 3f 91 15 80 3f
       0.9866225 1.014037 0.9725348 1.0006582
000190 26 06 7b 3f 60 8b 80 3f 22 97 7c 3f 3f 0b 83 3f
       0.98056257 1.0042534 0.9866811 1.0237807
0001a0 73 8d 81 3f 42 6c 7b 3f 16 55 72 3f 8d 43 82 3f
       1.0121292 0.98212063 0.9466108 1.0176865
0001b0 a8 96 7f 3f ec fd 7c 3f ee 55 81 3f 7f 63 81 3f
       0.9983926 0.98824954 1.0104349 1.0108489
0001c0 1f f4 7c 3f dd 55 6f 3f 45 f4 78 3f ab a5 7d 3f
       0.9881 0.9349039 0.97247726 0.99080914
0001d0 b6 67 7f 3f 2f 49 82 3f 3f 36 79 3f c2 6b 80 3f
       0.99767625 1.0178584 0.973484 1.0032885
0001e0 67 f9 7d 3f 7e ce 7b 3f 8a f6 7c 3f 6c 4b 7c 3f
       0.9920868 0.9836196 0.9881369 0.98552585
0001f0 b2 29 7f 3f 71 76 81 3f 1e 73 85 3f 7e 84 7d 3f
       0.99672997 1.011427 1.0425756 0.9903029
000200 f0 db 7f 3f 37 98 79 3f 68 74 7e 3f bc 1a 83 3f
       0.99944973 0.97497886 0.9939637 1.0242534
000210 a8 eb 80 3f fc fc 80 3f 98 1a 73 3f 6d ac 77 3f
       1.0071917 1.0077205 0.94962454 0.96747476
000220 9d 33 84 3f 03 fd 80 3f 1c 8d 80 3f bb c6 7e 3f
       1.0328251 1.0077213 1.0043063 0.9952199
000230 43 aa 76 3f 4e 49 76 3f 4d a8 74 3f 98 6f 80 3f
       0.9635355 0.96205604 0.95569307 1.0034056
000240 4d 2d 7b 3f 04 df 7c 3f ec 10 69 3f ee 6d 81 3f
       0.98116 0.98777795 0.91041446 1.0111673
000250 7b af 81 3f 1f 22 82 3f 0d b0 81 3f 8a 2a 7f 3f
       1.0131677 1.0166663 1.0131851 0.99674284
000260 59 d0 7b 3f 3b 26 84 3f b7 59 83 3f b7 c3 88 3f
       0.9836479 1.0324167 1.0261754 1.0684727
000270 20 d6 83 3f 5c ec 7c 3f fb 04 80 3f 84 ac 82 3f
       1.0299721 0.98798156 1.000152 1.0208898
000280 c9 f9 7e 3f af eb 7f 3f ac b0 82 3f fb 0b 80 3f
       0.9959989 0.99969 1.0210166 1.0003656
000290 66 cb 7b 3f 8f 5b 82 3f 4d 12 77 3f 0a 9c 82 3f
       0.98357236 1.0184191 0.965123 1.0203869
0002a0 f6 db 7d 3f 05 37 7a 3f c1 9f 81 3f 07 30 79 3f
       0.9916376 0.97740203 1.0126878 0.9733891
0002b0 46 91 82 3f 35 56 86 3f f8 a2 7b 3f e0 ac 77 3f
       1.0200584 1.0495058 0.98295546 0.9674816
0002c0 ed 6c 7d 3f a3 e2 7e 3f 84 4b 7d 3f 20 8e 82 3f
       0.9899433 0.9956457 0.9894335 1.0199623
0002d0 ef 51 73 3f dc 59 76 3f 22 77 7e 3f 55 9a 7d 3f
       0.95046896 0.96230865 0.9940053 0.99063617
0002e0 23 0e 77 3f 8e b3 88 3f 98 b8 83 3f bc 98 80 3f
       0.96505946 1.0679796 1.0290709 1.0046611
0002f0 05 ca 82 3f c3 a4 79 3f fc 17 7b 3f e3 f0 81 3f
       1.0217901 0.9751703 0.9808347 1.0151638
000300 19 1b 80 3f e0 46 7f 3f 5c 03 78 3f eb 40 84 3f
       1.000827 0.9971752 0.96880126 1.0332311
000310 53 4b 7b 3f b2 44 82 3f 8f 66 7e 3f 43 87 7f 3f
       0.9816181 1.0177214 0.9937524 0.9981577
000320 e6 b9 7e 3f 6f f5 7a 3f e4 d1 85 3f 77 5c 7d 3f
       0.9950241 0.9803075 1.0454679 0.98969215
000330 d0 45 7d 3f 94 7d 86 3f 56 48 83 3f e2 c6 7c 3f
       0.9893465 1.0507073 1.025645 0.9874097
000340 99 62 79 3f 67 5d 76 3f 92 20 7e 3f 75 3e 76 3f
       0.97416073 0.9623627 0.9926845 0.9618905
000350 aa a4 82 3f 3f e6 7a 3f ba 65 83 3f 05 fd 79 3f
       1.0206501 0.9800758 1.026542 0.976517
000360 c1 77 79 3f 01 73 79 3f f0 a8 81 3f d6 1b 7a 3f
       0.97448355 0.9744111 1.0129681 0.97698724
000370 0c ad 7d 3f cc d4 7e 3f f6 7a 78 3f 25 7c 84 3f
       0.99092174 0.9954345 0.97062624 1.0350386
000380 f3 af 77 3f c6 0d 7e 3f 4b 65 72 3f 71 2e 81 3f
       0.9675285 0.99239767 0.9468581 1.0092298
000390 3e 35 7a 3f 83 f3 80 3f 7a 84 7b 3f 01 af 7e 3f
       0.9773749 1.0074314 0.9824902 0.99485785
0003a0 64 4b 83 3f 9f 63 81 3f 21 ed 7a 3f 5f 05 81 3f
       1.0257382 1.0108527 0.9801808 1.0079764
0003b0 5d d9 7c 3f bc 36 7b 3f a3 33 77 3f 41 ae 76 3f
       0.9876917 0.98130393 0.96563166 0.9635964
0003c0 6a 86 7e 3f b8 77 7e 3f 61 45 82 3f ab 63 79 3f
       0.9942385 0.99401426 1.0177423 0.97417706
0003d0 b5 cf 7e 3f cd fc 82 3f 14 6f 80 3f bf 34 81 3f
       0.99535686 1.0233399 1.0033898 1.0094222
0003e0 71 a6 79 3f 47 72 80 3f de ce 73 3f 23 1f 7a 3f
       0.97519594 1.0034875 0.9523753 0.9770376
0003f0 a4 11 7a 3f 02 6f 82 3f fb be 80 3f 34 32 7d 3f
       0.9768317 1.0190127 1.0058283 0.9890473

input_block.0.bias f4 [398]
000000 2e be cd 3b de b1 67 3b ab 2d 58 ba c5 4e f6 3a
       0.0062787747 0.003535382 -0.0008246551 0.0018791786
000010 2d 25 29 bb ba b2 a7 b9 4f 04 0f bc 3c ee 1b bb
       -0.0025809512 -0.00031985884 -0.008729055 -0.0023793122
000020 b1 92 b9 3a 5f a2 6f 3b cd ef 8c 3a e5 60 8d bb
       0.0014158097 0.0036565287 0.0010752619 -0.0043145292
000030 f1 bc 96 ba 47 4e a0 ba ce 82 b8 bb 49 14 38 bc
       -0.0011500401 -0.001223036 -0.0056308275 -0.011235305
000040 41 25 2f 3c 26 57 ec 3b 94 28 c3 bb d2 f0 71 bc
       0.010690034 0.0072125373 -0.005955765 -0.014766889
000050 b6 5c 6a 3b 36 9b 47 3c ec c0 26 bc f1 59 9d ba
       0.0035760826 0.012183001 -0.010177832 -0.0012004954
000060 3a a4 bb bb 9d 9e 3c 3b b2 c4 92 ba 3e 77 a1 3b
       -0.0057263644 0.0028781064 -0.0011197536 0.004927545
000070 29 86 b9 3a 0a d8 e7 3b 17 e0 cf bc 21 71 6e 3a
       0.0014154363 0.0070753144 -0.025375409 0.0009095837
000080 56 cd a7 bb 39 6c a8 3a 19 aa 00 bc 16 27 8e bb
       -0.0051209135 0.0012849636 -0.007853054 -0.0043381555
000090 be 78 28 ba e9 c6 ac 3b ec 0e ad bb 84 90 1f 3a
       -0.00064266834 0.0052727354 -0.00528132 0.0006086903
0000a0 8e 83 96 3b b1 01 5f 3b 91 ad 99 3b 77 eb 8a bb
       0.0045933193 0.0034028108 0.00468988 -0.0042394954
0000b0 ea ef 8e bc 24 bc 70 bc 2d 70 72 3b 23 be 32 bd
       -0.017448384 -0.014693294 0.0036993132 -0.04363836
0000c0 38 ec ab ba 23 c7 4c bb a9 56 c5 3b 86 7b bb bb
       -0.0013116663 -0.0031246624 0.0060222936 -0.0057215123
0000d0 3f 1a 4a bc 41 58 18 3a 78 7d 24 3c 10 c8 95 3b
       -0.012335359 0.00058114907 0.01003968 0.0045709684
0000e0 99 65 58 ba 58 77 cd bb 87 9d 5b 3c 2c 0b 07 bb
       -0.00082548853 -0.0062703304 0.013404257 -0.0020606024
0000f0 46 db 6b 3c f7 9d d9 3b cc 5a 31 3b 63 77 8b bb
       0.014395541 0.0066411453 0.0027062176 -0.0042561754
000100 a1 e5 2e 3b d9 d0 31 ba 5c f7 2d bd 4e 9f 0c ba
       0.0026687162 -0.0006783135 -0.04247223 -0.00053643144
000110 28 b4 6b 3c 18 5d 14 bc 8f 39 23 bb 92 3d 17 3c
       0.014386214 -0.009055398 -0.0024906134 0.009230988
000120 ae 3c 8c 3b 82 ad ef 3b e4 1e 7a bc 54 d9 41 38
       0.0042796945 0.007314385 -0.015266154 4.621719e-05
000130 27 55 09 bd 3f d7 49 bc f7 18 88 bb cd d9 7c 3c
       -0.033528473 -0.012319385 -0.0041533667 0.015432787
000140 b3 c3 0d 3d 2f fe 21 bb 1d a6 2d 3b c0 a3 2e 3c
       0.03461046 -0.0024718156 0.0026496716 0.010659158
000150 0c 57 72 3b 00 f7 3a 3c 77 1e 01 b9 dd e6 d1 bc
       0.0036978154 0.011411428 -0.00012313748 -0.02562278
000160 da f1 05 bc 8d 4c 86 ba 86 4d df 3b 2e ee 12 3c
       -0.008175338 -0.0010246203 0.0068146614 0.008967919
000170 79 e9 a5 bb a1 62 1c bc c9 cf eb ba d2 0e a0 bb
       -0.0050632325 -0.009544999 -0.0017991002 -0.004884579
000180 c2 ba d2 bb d5 f5 17 bb a2 72 7b bc 6d ed e6 ba
       -0.0064309547 -0.0023187299 -0.015347155 -0.0017618366
000190 c0 c6 99 3c 9a a8 e4 3a f2 6c 27 3c bd bf ac bb
       0.01877153 0.0017445267 0.010218846 -0.0052718804
0001a0 c8 5a 5c b9 06 b5 e7 bb 99 b9 7b bc 5a 0b fb bb
       -0.00021014654 -0.00707114 -0.015364074 -0.0076612653
0001b0 2d b2 63 3c 5a 0f 98 3b a4 1c 25 bc bf ef 08 3b
       0.013897461 0.004640502 -0.010077629 0.0020894853
0001c0 46 33 2b 3c 95 27 1b bd 6c f3 bb 3b 28 9e 6a 3b
       0.010449236 -0.037879545 0.0057358053 0.0035799835
0001d0 25 e0 08 3c 0a 42 98 3a e9 65 fd bb 67 71 98 b9
       0.0083542215 0.0011616361 -0.007733096 -0.0002907619
0001e0 bf fa 3c 3c 74 b9 8e bc 10 bb 13 bc 48 6b 0a bc
       0.011534392 -0.017422415 -0.009016767 -0.008448429
0001f0 bf 1a 78 ba a6 79 19 ba 91 50 80 3b f9 ad af 3b
       -0.00094644347 -0.0005854614 0.0039158543 0.0053613153
000200 24 3c 39 bb 76 a7 7f bc c0 7e a8 bb aa b6 b2 ba
       -0.0028264606 -0.015603891 -0.005142063 -0.001363476
000210 3b 86 d7 3b 26 ee ca 3a 73 88 94 bc 0e 2b ec bc
       0.006577281 0.0015482351 -0.01813147 -0.028829124
000220 c2 78 a1 3b 51 e9 b4 3a ba 20 d6 3b 6d 43 7b 3a
       0.0049277255 0.0013802444 0.006534663 0.00095849374
000230 75 95 df bc 84 3e 08 3c cd 6f 85 3c 5b 03 24 bc
       -0.027292946 0.008315686 0.016288662 -0.010010566
000240 9f 15 52 3c 90 7d 0c bc 9a 30 06 3d eb f2 ff 39
       0.012822538 -0.008574858 0.032761194 0.00048818378
000250 3d 2a f7 ba f0 66 fb 3a 6c a0 00 3c 4a 3b c9 39
       -0.0018857192 0.0019180458 0.007850748 0.0003838188
000260 fb 26 1d bc b5 b1 51 3b ad f0 07 bb 58 f6 ce ba
       -0.009591813 0.003199679 -0.002074282 -0.0015789969
000270 6d 68 21 3c de e4 05 bc 9d 58 d6 bb 4f ce 87 3b
       0.009851557 -0.008172242 -0.0065413252 0.004144467
000280 12 c5 4f ba 17 14 fc 39 e5 c2 09 bc 0b 44 3d bc
       -0.0007925789 0.00048080154 -0.008408283 -0.011551867
000290 fa 76 f9 ba db 71 68 bc b0 44 55 bb 9d 94 c1 3a
       -0.001903265 -0.0141873015 -0.0032542162 0.0014769022
0002a0 35 e0 dd ba 0c 08 52 3b 9d f4 22 ba 35 d6 f0 bb
       -0.0016927781 0.0032048253 -0.000621626 -0.007349754
0002b0 5e c6 d2 bb af 8e 57 bb ff fc aa 3c e6 f6 20 bb
       -0.0064323386 -0.0032891443 0.020872591 -0.0024561225
0002c0 76 01 e3 b9 bc ff 05 bc d6 fb 0a 38 8f c3 cd bb
       -0.00043297902 -0.008178648 3.3136304e-05 -0.006279416
0002d0 76 c7 2c bc 16 4f 21 3c 82 9b d8 bb 43 dd a7 3c
       -0.010545602 0.009845516 -0.006610335 0.020491248
0002e0 d3 d0 f4 3a 9e cc c1 bb 65 2b 10 3b 48 13 11 3c
       0.0018677957 -0.005914285 0.0021998521 0.008854695
0002f0 87 64 da bb a5 27 60 bc 33 76 7f bb 6f 57 4d ba
       -0.006664816 -0.013681327 -0.0038980364 -0.0007833158
000300 61 e8 b7 3b c8 16 57 bb a0 29 92 bc 3b 49 bf 3b
       0.0056124185 -0.0032819975 -0.017842114 0.005837587
000310 0e 92 52 3c 4c d4 fe 3b 81 c3 ea bb a2 bb f3 39
       0.012852205 0.0077767726 -0.007164419 0.0004648837
000320 4d 54 ef 3b cb cc 98 bb 20 43 69 bb 3c 57 49 3a
       0.0073037506 -0.004663085 -0.0035592988 0.00076805404
000330 f3 e6 29 3b f1 9e f3 ba c0 bf 31 bb 7a 64 a3 bb
       0.002592501 -0.0018586797 -0.0027122349 -0.004986343
000340 25 d5 cc 3b f9 c0 b8 3c cc 73 ec 3a 19 1b 4b 3c
       0.0062509947 0.022552954 0.0018039881 0.012396597
000350 01 b2 4c 3b 41 e7 63 bc 46 79 07 bc f6 ae 6e bb
       0.0031234028 -0.013910116 -0.00826866 -0.0036420203
000360 34 90 8b bc 5a 00 be bb 4b 1c 8c 3c 7a 22 41 bc
       -0.017036535 -0.0057983818 0.017103335 -0.011788005
000370 c0 db e3 bb 6f ff 86 3b a8 52 9a bc 33 4b d8 bb
       -0.0069536865 0.0041198055 -0.018838242 -0.0066007613
000380 42 bb f9 b8 d6 41 49 bc 7a 92 81 bc fd b6 dd 3b
       -0.00011908125 -0.012283763 -0.015816916 0.0067661987
000390 84 6e 39 bb a4 fd a4 3b d4 76 69 3b c9 87 19 ba
       -0.0028294632 0.005035119 0.0035623806 -0.00058567204
0003a0 2f 35 37 3b 13 2f 63 bb 47 da 11 3c c7 d7 a9 3a
       0.0027955284 -0.003466551 0.008902139 0.0012957983
0003b0 b1 78 4e 3a 2b 02 d9 3a 96 3f 8e 3c de ee b2 bb
       0.0007876261 0.0016556432 0.017364305 -0.005460604
0003c0 49 a9 b9 bb d5 a5 51 bc a1 c9 f3 bb 81 61 fc 3b
       -0.0056659323 -0.012795885 -0.0074398075 0.007702053
0003d0 df f1 67 3a 96 75 f2 3a 4c 68 f4 39 39 fe 2f 3b
       0.0008847992 0.0018498178 0.00046617014 0.002685441
0003e0 11 07 1e 3c 70 d2 af bb 39 78 d1 bc db 94 39 bc
       0.009645239 -0.0053656623 -0.025570022 -0.011326994
0003f0 ac 30 f0 3a 1e cc bd 3b 95 af 20 bc 37 16 20 3b
       0.0018325052 0.005792155 -0.009807487 0.0024427304

input_block.1.weight f4 [64, 398]
000000 c9 31 8f bc 21 4f ea bc dd 7b a1 3c 06 cc 3c ba
       -0.017479794 -0.028602185 0.019712383 -0.0007202033
000010 26 7c 64 3c c8 55 4d bc 60 f1 38 bc 6f b6 d0 3c
       0.013945615 -0.012532659 -0.011288017 0.025477616
000020 45 b3 10 bd b8 ca d1 bc 6a 65 49 3d d4 ad 1e bd
       -0.035327215 -0.02560936 0.04916898 -0.038739994
000030 63 26 80 3d 0a 63 7e bd 36 10 90 bc f2 d8 91 bc
       0.06257322 -0.06210617 -0.017585855 -0.017803643
000040 b3 4b 43 3c c8 f1 b5 bc 2c 4b 20 3d 59 51 fa 3b
       0.011919904 -0.022210017 0.03913419 0.007639092
000050 b9 82 2b 3d 28 c7 42 bd 25 9b bd 3d 88 ce 34 3c
       0.041872714 -0.04755321 0.09258107 0.011035569
000060 49 6f 27 3b 3d b9 0d bd b9 17 73 3d b2 f4 c6 bd
       0.002554851 -0.034600485 0.059348796 -0.09714641
000070 be 94 a2 bc a2 1c 3e bd c9 01 b3 3c 55 b3 a6 bc
       -0.019846316 -0.046414025 0.021851437 -0.020349184
000080 fe dc d6 3c 55 b5 34 bd 3d 7f f0 3c e6 7f e2 3c
       0.026228424 -0.044118244 0.029357547 0.027648877
000090 5d 76 90 bd e4 4e 95 bd a0 65 99 bd 7c 46 21 bd
       -0.07053826 -0.07290438 -0.074900866 -0.03937386
0000a0 98 46 27 3c 69 30 92 39 9c c3 91 3c ed 8e 82 bd
       0.010209702 0.00027883358 0.01779347 -0.06374917
0000b0 f0 1e dc 3c a1 0a a0 3c bb 95 03 3d a7 7f 09 bd
       0.02687022 0.019536318 0.032125216 -0.033569004
0000c0 eb f6 8c 3a 25 8a 6b bc 5e 35 75 3d 23 c4 d8 3c
       0.001075474 -0.014376198 0.059865348 0.026460713
0000d0 1d 46 f3 3c e5 8e 65 bd 69 3a f2 3c eb 44 b2 bd
       0.029696519 -0.056044478 0.029568868 -0.08704551
0000e0 a0 3d 23 bb 62 f0 6a bc 04 1b 73 3a 88 07 76 3a
       -0.0024908558 -0.014339538 0.000927374 0.00093852775
0000f0 5d ce 32 bd c1 aa 70 3d a2 55 c0 3c f0 e9 2a 3d
       -0.043653835 0.058756594 0.023478333 0.041727006
000100 22 a7 4d 3d ca ac 6d bd f3 d4 f1 bb 41 f5 71 bd
       0.05020822 -0.058026113 -0.007380122 -0.059071783
000110 8e 0c 15 bd 95 2b ae bd 76 cd fc bc 25 a4 3c 3c
       -0.036388926 -0.08504406 -0.03085969 0.0115137445
000120 59 b6 51 bd 97 27 42 3b b3 19 66 bc cf 10 12 bd
       -0.05119929 0.0029625648 -0.014044213 -0.03566056
000130 34 4b 31 3d 8c d1 01 bb 99 5d 90 3c af b6 2c 3d
       0.04328461 -0.0019808738 0.017622756 0.04216641
000140 08 bc be bc 24 7a d4 bc 88 38 a7 ba 64 e2 89 bc
       -0.02328302 -0.025937147 -0.0012757936 -0.016831584
000150 5d b0 8b bc d6 19 4b 3c 3f 30 08 bc 08 37 46 bd
       -0.01705187 0.0123962965 -0.008312284 -0.048392326
000160 f6 e5 8a 3b 27 00 e3 3c a1 89 0e 3d 29 07 1f 3c
       0.0042388393 0.027710034 0.034799222 0.009706297
000170 c3 e7 97 bd 9b 24 be bd d6 cf 01 3d f9 35 25 3d
       -0.07417252 -0.09284326 0.03169235 0.040334675
000180 2a f1 ad bc 04 f6 38 bd 78 b6 4e 3c 23 40 b4 bc
       -0.02123316 -0.045156494 0.012616746 -0.022003239
000190 c2 d1 6e 3d 58 5a 80 3a 24 70 80 bd b3 a5 78 3d
       0.05830551 0.000979255 -0.06271389 0.060704898
0001a0 a2 25 82 3c 93 f6 70 bc 27 c0 cb 3c 0b f6 1e 3d
       0.015887085 -0.014707225 0.024871899 0.038808864
0001b0 6d df 0b 3d 39 c2 c7 3b fe 99 7d bc 59 d0 74 3a
       0.034148622 0.006096151 -0.015478609 0.00093389075
0001c0 e5 4e 65 bc 4e 7c 22 bd 0a ce 21 bd b7 85 6c bd
       -0.013995861 -0.039669327 -0.039503135 -0.057744708
0001d0 9f f6 b6 3c ad 6f 55 b9 c4 b0 70 bd bb 75 58 3d
       0.022334395 -0.00020354865 -0.058762327 0.05284665
0001e0 af 75 2f bc 6a 45 32 bd d7 7b 04 bd 5a 1c d1 bc
       -0.01070921 -0.04352323 -0.032344665 -0.025526214
0001f0 95 1e c2 bc 4e 49 9e 3d 93 57 b2 3b 80 6c dd 3c
       -0.023696223 0.077288255 0.0054425686 0.027029276
000200 49 99 9c 3b b0 1a d6 bc 3a ad f7 bc a5 c9 7c 3c
       0.004779015 -0.026135772 -0.030233968 0.015428935
000210 98 08 13 bd e4 a7 2d bd 20 f7 01 3d c6 91 bc 3c
       -0.035896868 -0.04239644 0.031729817 0.023018729
000220 10 ef dd 3d 83 6a 62 3d 80 e6 c3 3c 86 c5 cb bc
       0.10836613 0.05527736 0.023913622 -0.02487446
000230 43 b5 13 bd d7 5c d1 bb ac 9e 73 bc bb 25 98 bc
       -0.036061537 -0.006389241 -0.014869373 -0.018572679
000240 9a 9c bf 3d 69 38 1e 3d 38 1c ed bc 05 33 d2 3c
       0.09356041 0.038628016 -0.02894412 0.025659094
000250 0a 49 51 3d f1 09 ad bc fe d5 14 3c dc 13 fc bc
       0.051095046 -0.021122904 0.009084223 -0.030771188
000260 29 1a 7c 3c 46 32 36 3b 95 89 7c bc 47 5e b2 3b
       0.015387096 0.0027800961 -0.0154136615 0.0054433676
000270 11 8d d5 3c c2 b1 2c bc cc 57 c6 bc 08 44 79 bd
       0.026068242 -0.010540428 -0.024211787 -0.060855895
000280 f6 83 de 3c 8a 7a 8f bd d3 da 93 bc 5f 83 05 3d
       0.027162533 -0.07005794 -0.01804868 0.03259599
000290 0f bd a1 3d 25 db 1a bc bf a3 1b 3d f9 51 17 3d
       0.07897388 -0.009451662 0.037997957 0.03694341
0002a0 b8 a7 c4 bc fe e9 00 bd c2 e1 95 3c 2e 22 54 3a
       -0.024005756 -0.031473152 0.018296126 0.00080922514
0002b0 8a 9b 7b 3b 82 d1 d3 bb d0 f8 f4 bc 1d 8d a6 3c
       0.003839227 -0.0064641843 -0.0299038 0.02033096
0002c0 d0 b1 0b bd 2f 76 80 3c 22 cd b6 bc fa 65 16 bc
       -0.034105122 0.015681354 -0.022314612 -0.009179587
0002d0 06 0b 25 3c dc fa 07 3d 03 61 75 bb 5b 16 e5 bb
       0.010073429 0.033198223 -0.0037441857 -0.0069911904
0002e0 ea f1 17 3d fb ce c6 bb d3 9b de bc cf c0 a3 bc
       0.03709594 -0.0060671545 -0.027173912 -0.0199894
0002f0 65 f4 ef 3c 92 58 13 3b fa cd a3 bd 5f 3d 56 3c
       0.029291341 0.0022483212 -0.07998271 0.013076155
000300 19 3d 77 ba e8 f3 cc bc 3d 17 21 3d 51 39 02 3d
       -0.00094314065 -0.025018647 0.039328802 0.031792942
000310 65 8f 8a bb 5f fc 1f bd 5f 0f 82 3d 42 50 ab bc
       -0.0042285197 -0.03905904 0.06350588 -0.020912293
000320 12 40 e9 3c 3f 6b 1f bb 46 c9 99 3c 34 8c e7 bc
       0.028472934 -0.0024325398 0.018772732 -0.028265096
000330 c9 3e c4 3b 45 34 91 bd 5f e4 01 bd 03 a9 84 3c
       0.00598893 -0.07090048 -0.031711932 0.016193872
000340 f4 c1 c1 3c 45 9a 70 bd 4f 96 a2 3b 7f c2 37 3c
       0.023652054 -0.058740873 0.004961766 0.011215805
000350 4f ec 6d bd 07 7d 02 bc 47 a6 94 bc 61 2a b2 bb
       -0.05808669 -0.007964379 -0.018145693 -0.005437181
000360 30 de 12 bc 6b 3d ee 3c 75 0e 9b 3b 4b 47 81 bd
       -0.008964106 0.02908202 0.004731948 -0.06312426
000370 c5 8d c7 3c 95 9f 47 bd a8 9d 4b bc 75 e5 af 3c
       0.024359593 -0.048736174 -0.012427725 0.021471718
000380 2b 8d 21 bc 67 33 be bc dc 90 e2 3c 4c cb 1a 3c
       -0.009860317 -0.02321787 0.027656965 0.009447884
000390 d8 d6 81 3c 0d b2 49 3c 21 18 14 3d d8 9e 84 3d
       0.015849516 0.012310517 0.036155824 0.064756095
0003a0 34 15 45 3d 9f d8 13 bc 22 99 4b 3c 9f 68 ed 3a
       0.048115924 -0.009023814 0.012426646 0.0018112845
0003b0 5a a6 a5 3c 8a 39 47 3d 9f 24 25 3d 9b 09 07 bd
       0.020220924 0.048638858 0.040318128 -0.032968145
0003c0 a9 dd 9b bc c4 a2 1b 3d 7a df ef 3c a4 7b 14 3d
       -0.019026594 0.037997022 0.029281367 0.036250725
0003d0 90 7f 05 3d 0d 88 6b 3d ad 3a 4d 3c 55 8a 01 bd
       0.032592356 0.057502795 0.012526196 -0.031626064
0003e0 6d 88 b7 bc 9b 8b 7f 3c 80 e3 90 bc e4 85 8a bc
       -0.02240392 0.015597249 -0.017686605 -0.016909547
0003f0 46 66 91 bd ab 72 04 bd eb 43 99 bc 54 60 c4 bc
       -0.07099585 -0.03233592 -0.018709144 -0.023971714

input_block.1.bias f4 [64]
000000 8b 0d d2 3c 18 3d bb bc 0b 7a 0a 3c 03 c1 6b bc
       0.025641223 -0.02285628 0.008451949 -0.014389279
000010 c4 85 3a bc 3a 25 cb 3c 5d 43 0f 3c 55 34 9b 39
       -0.011384431 0.024798024 0.008744088 0.00029602894
000020 08 f3 6a bb 54 37 be bc 24 fb db bc 7d eb f1 bb
       -0.0035850424 -0.023219742 -0.026853152 -0.0073828087
000030 d6 5f e1 3c 0e 42 09 bd 38 95 2e 3b 75 c8 2e bc
       0.027511518 -0.03351026 0.0026639234 -0.01066791
000040 5a 91 66 bd e9 50 11 bd 04 84 2b 3b cc aa 89 3c
       -0.05629096 -0.035477553 0.0026171217 0.016805075
000050 65 a1 06 bd 9e 79 db 3c db 71 01 3d bc 6c f9 bc
       -0.03286876 0.02679139 0.03160272 -0.030447356
000060 65 6c 3d bd 8a ca 6b bd 69 f3 1e 3d bd 0f 30 3c
       -0.04624595 -0.057566203 0.038806353 0.01074594
000070 2f 41 cc 3a 24 83 f6 bc 97 3c 48 3d e4 65 1a 3c
       0.0015583391 -0.03009183 0.048885908 0.009423707
000080 e2 f6 1a bc 37 a1 56 bd f2 9b 48 3c 7c 00 06 bd
       -0.0094582755 -0.05239984 0.0122442115 -0.032715306
000090 76 c2 b8 bc cf a4 18 bd ba 25 01 3d ca 19 55 3c
       -0.022553664 -0.03726655 0.03153012 0.013006637
0000a0 29 e9 4d 3d 07 7e 5f bd eb 25 2e bd f9 eb 51 bd
       0.050271187 -0.05456355 -0.04251663 -0.05125043
0000b0 0e fe bc 3c b9 46 5f 3b 50 26 15 bd a4 0b 67 bc
       0.023070361 0.0034069254 -0.03641349 -0.014101896
0000c0 9c 8e 83 bd 8a 33 0d bd 6f 9d c8 bb a7 82 3f 3d
       -0.06423685 -0.03447298 -0.006122283 0.04675546
0000d0 f9 09 a3 3c d9 24 21 3d 8f 76 9a bc de 20 5f 3c
       0.019902216 0.03934178 -0.018855361 0.013618676
0000e0 be ae f1 3c 8f 92 46 bc 59 8f 9a bb 14 bf 40 bd
       0.029502269 -0.012119903 -0.0047167954 -0.047057226
0000f0 9c 7a 57 bd 6f 5e 1b 3d cb b4 9a 3b 52 3b cc bc
       -0.052607164 0.037931856 0.004721259 -0.02493063

hidden_block.0.weight f4 [64]
000000 c0 a5 82 3f 95 47 85 3f cd 99 76 3f 6f fd 89 3f
       1.0206833 1.041247 0.9632843 1.0780467
000010 99 0d 83 3f 3b 1e 82 3f 0e a8 7b 3f e3 a9 72 3f
       1.0238525 1.0165476 0.98303306 0.94790477
000020 2b 7e 82 3f 52 08 82 3f 65 49 87 3f 7e 0e 80 3f
       1.0194753 1.0158789 1.0569273 1.0004423
000030 f5 35 78 3f b7 a9 7f 3f 23 60 83 3f 3b 63 81 3f
       0.9695733 0.9986834 1.0263714 1.0108408
000040 ca 5c 82 3f c7 83 7a 3f a3 e9 80 3f e3 83 87 3f
       1.0184567 0.97857326 1.00713 1.0587124
000050 15 40 7a 3f 71 66 7e 3f 1d d5 7a 3f e5 b6 7b 3f
       0.9775403 0.99375063 0.97981435 0.9832595
000060 e3 d3 8c 3f 2c 7b 84 3f d3 4e 7a 3f a9 64 70 3f
       1.1002163 1.0350089 0.97776526 0.93903595
000070 9e bf 81 3f 1b 21 82 3f 3e 34 6c 3f 7c 97 78 3f
       1.0136602 1.0166353 0.92267215 0.97106147
000080 65 da 7d 3f 38 04 83 3f c0 ba 7a 3f f8 0a 7c 3f
       0.9916137 1.0235662 0.9794121 0.98454237
000090 3a 4b 79 3f 69 2c 70 3f 99 5c 76 3f f2 37 82 3f
       0.9738041 0.93817765 0.9623504 1.0173323
0000a0 59 97 7c 3f 56 05 7d 3f 42 ee 85 3f 62 13 75 3f
       0.9866844 0.98836267 1.0463336 0.957327
0000b0 60 db 73 3f c5 f8 88 3f 72 a9 7e 3f 2b 11 7b 3f
       0.95256615 1.0700918 0.99477303 0.9807307
0000c0 a4 a9 85 3f 61 66 81 3f f7 89 7d 3f 7c 16 80 3f
       1.0442395 1.0109369 0.9903864 1.0006862
0000d0 7e 0b 89 3f 38 5b 70 3f 95 f8 85 3f 70 fa 83 3f
       1.0706632 0.9388919 1.0466486 1.0310802
0000e0 56 fa 81 3f 39 fd 75 3f 23 e4 73 3f 7b 92 7a 3f
       1.0154521 0.9608951 0.95269984 0.9787976
0000f0 39 94 81 3f 04 60 6f 3f cf 58 80 3f 7e 7f 7b 3f
       1.0123359 0.93505883 1.0027102 0.9824141

hidden_block.0.bias f4 [64]
000000 11 b3 41 3c 53 4c 61 bc ac 27 86 3c c4 78 a1 bd
       0.011822478 -0.013751107 0.016376339 -0.07884362
000010 12 db 99 bb e3 65 92 bc 48 f8 2c 3b da e6 31 3d
       -0.0046953047 -0.017870849 0.0026393104 0.043433048
000020 23 5c 22 bc 33 33 03 bc 7e 4b 84 bd 5e 1c 83 bc
       -0.009909662 -0.008007812 -0.064597115 -0.016004737
000030 9b ae de bc 69 8c 79 3b 35 3b 86 bc 41 17 4b 3c
       -0.027182868 0.0038078076 -0.016385654 0.012395681
000040 94 7a 68 bc 28 08 fd ba a1 2d 71 bc 58 91 08 bd
       -0.014189381 -0.0019304799 -0.014720351 -0.033341736
000050 41 41 dd bb 09 88 e8 39 02 17 ea 3c ca 9b bf bc
       -0.0067521636 0.00044351842 0.028575424 -0.023389716
000060 7c 1b d3 bd 3b d8 98 bc 58 cb 9b bc f7 db 6b 3c
       -0.103079766 -0.018657794 -0.01901786 0.014395705
000070 50 7d 83 bc a3 5f c6 3b 16 37 f9 39 67 af 35 bc
       -0.016050965 0.0060538813 0.00047534023 -0.011089182
000080 cc 2f 3b 3c 62 b4 2a bd 33 de 4d 3c 20 69 07 bc
       0.01142497 -0.041675933 0.012565183 -0.00826481
000090 19 80 a3 bb 74 44 04 3c 26 54 3d 3c bf 0a 89 bd
       -0.0049896357 0.008072961 0.011555707 -0.06691503
0000a0 0e d9 a6 3c b0 f1 91 bc a3 8f 15 bd 1e 77 48 bc
       0.020367172 -0.01781544 -0.036513936 -0.012235431
0000b0 09 c4 75 3d 03 5a 72 bd 0c 48 5c bb 59 c9 75 bb
       0.060001407 -0.059167873 -0.003361228 -0.0037504046
0000c0 f5 58 6d bd c0 fc b0 3c c3 08 e2 bc 90 5f e5 bb
       -0.057946164 0.021604896 -0.027592069 -0.0069999173
0000d0 6d 64 9b bd 4a 12 0a 3c 28 e7 04 bd d2 02 ff bb
       -0.07587514 0.008427212 -0.03244701 -0.0077823186
0000e0 f1 ee 94 3c 99 72 7f 3d 15 70 ed 3c 60 37 05 3c
       0.018180342 0.06236515 0.028984109 0.008130878
0000f0 c7 a6 5c ba 55 e1 22 bc b3 83 c3 bc 27 8b c6 bc
       -0.0008417186 -0.009941419 -0.02386651 -0.024236275

hidden_block.2.weight f4 [64, 64]
000000 d1 8e 34 be 1d ca 4a 3e 55 46 12 3e fb 1a b3 bd
       -0.17632605 0.19803663 0.14284642 -0.087453805
000010 db 2d 84 3d c6 b0 ed 3c 2e 23 90 3c cc 70 04 be
       0.06454059 0.029014956 0.0175949 -0.12933654
000020 80 85 e1 ba 19 06 cf bd f0 73 e3 bc f2 47 d0 3b
       -0.0017205924 -0.10108585 -0.027765244 0.006356233
000030 53 a1 e5 3b be b7 9c bc 57 6b 8e bd c9 77 46 be
       0.0070077567 -0.019130584 -0.06954067 -0.19381632
000040 d7 b5 21 be 07 6d 17 3c 46 af d1 bc f2 0c 21 be
       -0.15792023 0.009242303 -0.025596272 -0.15727594
000050 f9 00 08 3e 1d ff 4b bd 7a 99 8d bc 87 25 f3 3c
       0.13281621 -0.04980384 -0.017285097 0.02968098
000060 7e b8 1a be 3a 70 8b bc 58 83 f1 3d 01 49 d5 3d
       -0.1510944 -0.017021287 0.1179263 0.10414315
000070 41 ac d4 bc 4a a7 f8 bd e7 07 cb 3d 8a 3f dd 3d
       -0.025961043 -0.12141283 0.099136166 0.10803135
000080 d8 79 89 3d 2c 43 fb bd 2e 18 45 be b3 5a 23 3e
       0.06712693 -0.122686714 -0.19247505 0.15952568
000090 7b fd b6 bd 2b 94 0d 3c 45 4b 9b bd 87 11 25 be
       -0.08935066 0.008641283 -0.07582716 -0.16119967
0000a0 32 33 0c 3d c4 9d 20 bd 12 dc 4e be ec ed 34 be
       0.03422851 -0.039212957 -0.20201138 -0.17668885
0000b0 d3 b8 d0 3b 82 b2 44 be 05 f7 31 3e d7 77 80 bd
       0.006369689 -0.1920872 0.17379387 -0.06272858
0000c0 99 99 e4 bd 1e 46 a6 bd 0a 1f bd 3d 78 9f d9 bd
       -0.11162109 -0.081188425 0.09234436 -0.106261194
0000d0 41 d8 5a bd d6 ef e8 3d 6a 23 73 bd 28 3e 45 be
       -0.053428892 0.1137387 -0.059359945 -0.19261992
0000e0 ea 20 7f bd 98 f5 f4 bd 3f 0b d7 bc 08 45 26 3d
       -0.06228725 -0.11960906 -0.02625048 0.040593177
0000f0 bc 03 9c 3a 16 55 20 bd c5 24 a5 bd 23 c5 91 bd
       0.0011902968 -0.039143644 -0.08063654 -0.07117679
000100 3e c4 c2 3d d5 8a 90 3c 51 61 36 3d 87 85 8f 3d
       0.095100865 0.017644325 0.044526402 0.0700789
000110 b7 07 44 bd 33 0d af 3d 4c 1e 95 bd 00 1d 46 bd
       -0.04785892 0.085474394 -0.07281169 -0.0483675
000120 d5 54 d2 bc ec 69 c6 3d 96 87 36 3d 02 24 89 bc
       -0.025675217 0.09688172 0.0445629 -0.016740803
000130 bc 1d d1 3c 32 1c cb bc 7f f7 91 bc 25 88 ee 3d
       0.025526874 -0.024793718 -0.01781821 0.11647061
000140 95 e1 e5 bc 3f d2 79 3d fe e1 13 be be 34 58 bd
       -0.028061667 0.060991522 -0.14441678 -0.052784674
000150 1a ec 09 3d 8a 92 7c bd a8 ac 92 bc 43 d2 ab 3c
       0.03367243 -0.061663188 -0.017904595 0.020974284
000160 8f 48 e7 3d 24 d7 50 3b 73 b1 7c bd 24 4f 92 3d
       0.11293136 0.0031866515 -0.061692666 0.07144001
000170 9a 79 10 3c 3d c9 d8 bc 3f 01 e7 bd 87 2a 00 3d
       0.008818055 -0.026463145 -0.112795345 0.031290557
000180 08 82 90 bd 92 c4 99 bc 42 19 5c 3c b7 b9 e1 bd
       -0.070560515 -0.01877049 0.013433756 -0.110217504
000190 59 a6 b2 3d 19 df 81 3c 0c 58 2c 3d df 66 24 3c
       0.087231345 0.015853452 0.042076156 0.010034292
0001a0 a9 d1 43 3c 30 a4 18 3c 8a 41 99 bd b7 aa f3 bd
       0.011951842 0.009316489 -0.07483204 -0.11897796
0001b0 cf 4f 2f 3d b6 aa 8d 3c 34 4d 8d bc 6e b1 30 bd
       0.04280072 0.017293315 -0.017248727 -0.04313796
0001c0 2f 6a 9b 3b da a2 ae 3d b5 72 6d bd 63 bf d3 bc
       0.0047428827 0.08527155 -0.05797072 -0.025848096
0001d0 7c 72 42 bd 72 7b c8 bd 4f e7 84 bd ba cd a3 bd
       -0.047472462 -0.0978917 -0.06489431 -0.079982236
0001e0 e8 40 04 3d 83 ea 81 3d 2d 93 02 3d a3 f6 dd bb
       0.032288462 0.06343558 0.03187864 -0.006773786
0001f0 33 a7 15 3e b9 e2 fe bb 8e f1 ca bd 5b ec 36 bd
       0.14614563 -0.0077784923 -0.09909354 -0.044659
000200 3d dd 11 be 5a 87 e3 bd 0b 42 ae 3d 6b 91 95 bd
       -0.14244552 -0.11109801 0.085086904 -0.07303127
000210 3a c9 aa bc 8b f8 3a be bb 31 93 3d bc 48 61 bd
       -0.020847905 -0.18258874 0.0718722 -0.055001006
000220 c2 db 84 bd c9 22 e0 bd ec 3f ba bd 03 af bc bd
       -0.06487228 -0.10944135 -0.090942234 -0.09213068
000230 12 1b 0a 3e 26 91 ad 3c d5 5e a7 bd 87 a2 1c be
       0.13486889 0.021187376 -0.08172385 -0.15296374
000240 9b 7f d6 3c 1f a7 b5 bd 6d 2d a5 3d b7 0c 6c 3c
       0.026183894 -0.088697664 0.08065305 0.014407328
000250 c4 f1 72 3b a1 db 72 3d 77 85 25 be a5 87 fe 3d
       0.0037070373 0.059291486 -0.16164194 0.12428216
000260 9a b5 e2 bd cc 9e 20 be 48 47 b1 bc 1c bf 12 be
       -0.11069794 -0.15685576 -0.021640435 -0.14330715
000270 2d f5 0d 3e 5c 94 0d bb 51 f9 b4 3d a7 84 05 3d
       0.13863058 -0.0021603322 0.08836616 0.03259721
000280 8b c5 83 bd f6 83 3f be 58 12 15 3d 5f c4 b4 bc
       -0.06434163 -0.18702683 0.036394447 -0.022066293
000290 b1 06 50 3d c3 94 98 3d 62 5d 9c bd 8a b1 84 bd
       0.05078763 0.07450249 -0.07634999 -0.064791754
0002a0 00 44 84 bb cf 1d 00 be 87 63 bf bd a6 cb 9c 3c
       -0.0040364265 -0.12511371 -0.09345155 0.019140076
0002b0 6b bb 05 be d9 98 2d be f5 c2 ff 3c 13 63 d7 bc
       -0.13059776 -0.16952838 0.031220892 -0.02629236
0002c0 fc 2e 08 3e 8b a1 f2 3d 94 19 60 bb 98 a0 e1 bd
       0.13299173 0.11847218 -0.0034194933 -0.11016959
0002d0 f0 2e 49 3b b3 a0 9a 3d 8c 0a a5 bc 58 3f 9e bd
       0.0030698143 0.07550182 -0.02014663 -0.077269256
0002e0 2b bb a3 bc 88 14 01 be a8 e9 00 be bc 33 ea bd
       -0.01998671 -0.12605488 -0.12589133 -0.11435649
0002f0 5d 8b 82 bd 89 78 95 3d 07 9e b3 bd 87 44 ac bd
       -0.06374238 0.07298381 -0.08770376 -0.08411508
000300 5f a1 14 bd 15 a5 6c bd 5d 07 16 be 4c 21 4c bd
       -0.036286708 -0.057774622 -0.14651246 -0.049836442
000310 8a 96 85 3a 73 c0 0d be e7 96 b9 bd 69 3d 03 3d
       0.0010191959 -0.13842945 -0.090619855 0.032040987
000320 f5 a7 e2 bb 76 11 64 ba d3 23 d5 3d a2 8f d1 bc
       -0.0069169947 -0.00087001116 0.104072236 -0.025581185
000330 b9 8f a8 3d 08 0d c2 bd 57 b9 0e 3e 9b 31 fa bd
       0.08230538 -0.09475142 0.13937889 -0.12216493
000340 65 18 0e be d0 88 3c 3d b4 f0 76 3c 39 e9 de bd
       -0.13876493 0.046028912 0.015072037 -0.108843274
000350 d1 d2 3e 3e 8c 53 08 be 00 7c da bd 90 a5 9e 3d
       0.18635108 -0.1331312 -0.106681824 0.07746422
000360 6c ab 96 3d 12 9c ca bc eb 29 27 3d b2 53 89 3d
       0.07356915 -0.024732623 0.04081146 0.06705417
000370 85 57 c7 bd 31 0e 66 3d 1d de df bd c1 4f 02 3e
       -0.0973349 0.056165878 -0.109310366 0.12725736
000380 a5 7b 79 3d 0d bf 40 3d 02 2b 56 bd 1b 7e 6b bd
       0.060908932 0.0470572 -0.05228711 -0.05749331
000390 12 25 61 bd a6 2f 28 3d 68 40 55 bd 80 34 9b 3d
       -0.054966994 0.041061066 -0.052063376 0.07578373
0003a0 32 ab 99 3d 44 64 55 bd d1 60 8a bd 5a 32 38 3e
       0.07503356 -0.052097574 -0.067567475 0.17987958
0003b0 98 cf 1c bc 9e 65 ba 3d c3 33 e7 3d 59 00 7d 3c
       -0.009570979 0.09101413 0.1128917 0.015441977
0003c0 3c e5 04 3e e6 dd c8 3d 44 10 5f bd 4c f3 07 3e
       0.12978071 0.09807949 -0.05445887 0.13276404
0003d0 be 1d 43 bc 94 3d ee bd e9 f1 df bd 23 41 76 3d
       -0.011908947 -0.11632839 -0.109348126 0.060120713
0003e0 1f 55 8f 3d 33 d1 37 3d af 8c b5 bd 18 06 d1 3d
       0.069986574 0.044877242 -0.08864724 0.102062404
0003f0 e7 68 0c be 96 3b df 3d 98 27 78 bd c4 f8 47 bd
       -0.13711892 0.10900037 -0.060584635 -0.048821226

hidden_block.2.bias f4 [64]
000000 e3 a7 87 3d eb 1f ac 3d 96 f2 fe 3b d8 d2 e4 3d
       0.06623819 0.08404525 0.0077803833 0.11173028
000010 15 98 aa bd 09 8e 46 3d 55 61 c6 bd 02 a6 f7 3d
       -0.083297886 0.0484753 -0.09686533 0.1209221
000020 10 04 4a bd 17 fd 0c 3d ab 29 d4 3d 2e 69 8e 3d
       -0.04932028 0.034421053 0.1035951 0.06953655
000030 92 0c 4e bd 4b d6 fc 3c ae c5 4c bd bf 96 b5 bc
       -0.050304957 0.030863902 -0.04999321 -0.022166608
000040 c8 6c 23 3d f3 cc 02 3e b8 b6 18 3d ce 1b f1 bd
       0.039898664 0.12773494 0.03728363 -0.117728814
000050 5e b9 23 3d 41 88 dd bb cb 33 d3 3c 9c 84 a3 bc
       0.0399717 -0.0067606275 0.025781533 -0.019960694
000060 93 7b 0e be 22 23 3a 3c cf 62 6c 3c f8 04 02 be
       -0.13914327 0.011360915 0.014427855 -0.12697208
000070 e5 79 93 bd b0 b2 c1 bc e2 95 3a bd 16 4f 26 be
       -0.07200984 -0.023644775 -0.045553096 -0.16241106
000080 b7 3a 8d bd a3 a4 e9 3d 1f 36 49 3d 76 cb c5 3c
       -0.068959646 0.11408355 0.04912388 0.02414487
000090 fb b4 24 be e6 e5 94 3c 10 7a e1 bd 27 19 9b bc
       -0.16084664 0.01817603 -0.1100961 -0.018932892
0000a0 aa 1d d5 ba 3b 37 54 bd b9 d6 ce 3d 56 85 23 bd
       -0.0016259451 -0.051810484 0.10099549 -0.03992208
0000b0 b2 9b 83 bd ea 5e 0c 3c 64 fc 64 3d d3 a9 c9 bd
       -0.06426181 0.008567551 0.05590476 -0.098468445
0000c0 02 1b 46 bc 21 c7 a8 bd 08 5f d9 bc 15 d7 8e 3d
       -0.0120914 -0.08241106 -0.026534572 0.069746174
0000d0 4a 37 b4 3d 60 8b fe bc e3 0c 6f 3c 93 c6 11 bd
       0.08799608 -0.031072319 0.014590475 -0.035589766
0000e0 93 2a 18 3c 82 68 16 be f8 9a 56 be cb ef 70 bd
       0.009287494 -0.14688304 -0.20957553 -0.058822434
0000f0 5b 2c 00 3c 96 90 41 3d 09 11 09 be ee 9e ea bd
       0.007823075 0.04725703 -0.13385405 -0.11456095

hidden_block.4.weight f4 [64]
000000 70 66 6c 3f fa 90 7b 3f 79 29 71 3f c5 9b 80 3f
       0.9234381 0.9826809 0.9420391 1.0047537
000010 51 9b 8b 3f f5 0b 75 3f d0 c4 81 3f 31 bb 81 3f
       1.0906774 0.9572137 1.0138187 1.0135251
000020 9f 98 84 3f be 1f 7e 3f 4f 38 63 3f 62 6f 7b 3f
       1.0359076 0.99267185 0.88757795 0.9821683
000030 81 d7 87 3f 8d bc 86 3f 36 f0 79 3f 9c 57 85 3f
       1.0612642 1.0526291 0.9763216 1.0417361
000040 47 5d 6e 3f 0c 96 79 3f ed 2e 74 3f 39 b7 6d 3f
       0.9311108 0.9749458 0.95384103 0.928577
000050 15 ce 6f 3f 99 57 78 3f 0a b1 6c 3f b1 5c 72 3f
       0.9367383 0.97008663 0.9245764 0.94672686
000060 fa 8f 83 3f 09 39 68 3f 2b c4 75 3f a2 51 6b 3f
       1.0278313 0.9071203 0.96002454 0.91921437
000070 6d 15 74 3f 40 a9 6e 3f 35 c6 74 3f 98 f9 67 3f
       0.95345193 0.93227005 0.9561494 0.90615225
000080 ca 07 71 3f 79 77 77 3f b2 f8 82 3f a2 8c 80 3f
       0.9415251 0.96666676 1.0232146 1.0042918
000090 6a 0e 77 3f f4 75 72 3f b2 18 78 3f 7c 99 7a 3f
       0.9650637 0.9471123 0.9691268 0.9789045
0000a0 70 d6 76 3f 15 27 79 3f 35 73 6d 3f 33 86 73 3f
       0.96420956 0.9732526 0.92753917 0.95126647
0000b0 f4 28 76 3f 76 5d 7e 3f d2 67 66 3f 71 1c 69 3f
       0.9615624 0.9936136 0.9000217 0.91059023
0000c0 fa f5 57 3f b4 0c 6a 3f 2e 4a 71 3f 38 2b 72 3f
       0.84359705 0.91425633 0.94253814 0.94597197
0000d0 3f 4f 79 3f fb 78 7e 3f 57 01 75 3f 4d a6 61 3f
       0.97386545 0.9940335 0.9570517 0.8814438
0000e0 38 4b 65 3f 33 f5 7d 3f 5c a4 72 3f be 1a 7b 3f
       0.895679 0.9920227 0.9478204 0.9808768
0000f0 31 9a 5d 3f 2a aa 77 3f 06 1c 68 3f 0f 89 66 3f
       0.865634 0.96744025 0.9066776 0.90052885

hidden_block.4.bias f4 [64]
000000 44 72 9c bd 16 03 0a bd b1 1b ae bd c6 44 22 3c
       -0.07638982 -0.03369435 -0.085013755 0.009904092
000010 c5 9b e8 bc d7 b7 e8 bc 78 c7 fc bc 85 d9 2e bd
       -0.02839459 -0.028407974 -0.030856833 -0.04268791
000020 cd 33 d1 bc ae 30 24 bd 47 14 d2 bd ac 02 fb bc
       -0.025537396 -0.040085487 -0.10257774 -0.030640922
000030 cc 85 04 bd ee f7 d7 3c 2d 31 89 3c 5c a9 f2 bc
       -0.03235416 0.02636334 0.016747082 -0.029621772
000040 94 52 f7 3c 4c cc b3 3b 31 86 a6 bb d0 1a b2 3c
       0.030190744 0.0054870006 -0.005081915 0.0217413
000050 7f 71 81 3c ad ab 13 3c ac 8f 6d bc a4 8f 1a 3c
       0.01580119 0.009013099 -0.014499586 0.009433661
000060 21 fa ea bc 83 41 88 3c 34 15 3d bc 46 1f 35 3c
       -0.028683724 0.0166328 -0.0115407 0.011054819
000070 c0 6a d8 bc a5 59 1b bd ae f7 21 bd ee 42 32 3d
       -0.02641809 -0.03792729 -0.039542846 0.04352086
000080 61 cf ae ba a9 c5 ac 3c 2d 11 23 3d 75 15 d6 bc
       -0.001333695 0.021090345 0.039811302 -0.026133278
000090 cc 38 d5 bc 4e c7 5e 3a a4 fe 23 bc dd 68 21 bc
       -0.02602806 0.00084983266 -0.0100094415 -0.0098516615
0000a0 7f e1 d7 bb c9 41 d5 bb da 2c ea ba 6c f8 de b8
       -0.0065881605 -0.0065080863 -0.001786615 -0.00010632057
0000b0 1a 16 58 bb b6 e8 d4 bd 5a 90 d3 3c da 98 d4 3b
       -0.0032972158 -0.103959486 0.025825668 0.006487948
0000c0 c6 4c 85 3c 24 48 f7 3c d5 9e 88 bc 99 3a ff bb
       0.01627196 0.030185767 -0.0166773 -0.007788968
0000d0 45 f2 cf 3c bc 07 e1 bc 93 1f 88 bb c6 4b af bc
       0.025384078 -0.027469508 -0.0041541546 -0.021398436
0000e0 f6 27 aa 3c e0 83 34 bd 34 37 bd bc 0d cb 86 bc
       0.020771008 -0.04407108 -0.023097612 -0.016454244
0000f0 c8 c6 e5 3c 7d 63 e4 bc da e8 1f 3c 64 30 cd 3b
       0.028048888 -0.027879471 0.009760106 0.006261872

layers.0.ln.weight f4 [64]
000000 53 d5 37 3f cd ff 67 3f b1 b0 5b 3f 8e ee 53 3f
       0.7180988 0.90624696 0.85816485 0.8278588
000010 ba 16 80 3f be 4e 50 3f c5 71 7d 3f da 8d 67 3f
       1.0006936 0.8137015 0.99001724 0.90450823
000020 4f 88 79 3f 22 b5 3d 3f 92 1f 2d 3f 32 e9 25 3f
       0.97473615 0.7410451 0.676263 0.6480895
000030 c7 2a 76 3f ec 92 62 3f 69 2c 70 3f c4 a6 66 3f
       0.96159023 0.88505435 0.93817765 0.90098214
000040 7e 1d 79 3f 69 07 77 3f 5f 65 84 3f 19 48 81 3f
       0.97310627 0.9649568 1.0343436 1.0100127
000050 56 28 4b 3f 2f 84 65 3f 9d 5e 80 3f 36 23 6f 3f
       0.7935842 0.8965482 1.0028874 0.934131
000060 df a3 81 3f 93 33 6a 3f 55 bb 79 3f 5b 18 52 3f
       1.0128134 0.91484946 0.9755147 0.82068413
000070 97 fc 5d 3f ec d5 55 3f d2 23 46 3f 96 98 5f 3f
       0.86713547 0.83529544 0.7739841 0.873422
000080 21 7c 70 3f 96 29 76 3f e4 bb 8d 3f 3d 36 7e 3f
       0.93939406 0.96157205 1.1072965 0.9930151
000090 5b a8 47 3f 36 07 64 3f f5 71 62 3f 18 57 6c 3f
       0.77991265 0.89073503 0.88455135 0.92320395
0000a0 ca c8 76 3f d1 c8 6f 3f 68 2e 82 3f b6 bc 89 3f
       0.9640013 0.93665797 1.0170412 1.0760715
0000b0 e5 79 63 3f e9 b7 42 3f 55 73 81 3f 35 8d 47 3f
       0.8885787 0.76061875 1.0113322 0.7794984
0000c0 94 d3 6b 3f 6b 57 87 3f d6 d0 66 3f 1b be 86 3f
       0.9211972 1.0573553 0.9016241 1.0526766
0000d0 44 b9 7c 3f e2 91 75 3f f0 2c 88 3f c2 9c 4f 3f
       0.9872019 0.95925725 1.0638714 0.8109857
0000e0 d0 c5 83 3f 88 57 56 3f 86 d4 5b 3f 53 cf 73 3f
       1.0294743 0.8372731 0.8587116 0.95238227
0000f0 65 7e 7e 3f 13 c5 67 3f 32 1e 80 3f 0f 71 7c 3f
       0.9941161 0.90535086 1.0009215 0.98610014

layers.0.ln.bias f4 [64]
000000 58 9f 01 be 3e de d3 3c fb 1e 5e be a9 b6 7e 3c
       -0.12658441 0.02586281 -0.21691506 0.015546479
000010 bb 64 a3 ba a3 86 a8 bd 4b 18 50 bb 10 91 8c 3c
       -0.0012465933 -0.08228805 -0.003175276 0.017159015
000020 86 da 85 3b 84 2b 31 bd 81 4e 93 be 62 4e 81 bd
       0.004084888 -0.04325439 -0.2877083 -0.063137785
000030 6f ee 83 3c 6f d2 f7 3d ec 30 14 3a 33 59 45 bc
       0.016104905 0.12100684 0.0005653042 -0.0120451925
000040 eb c7 56 3c e0 b8 04 bd 7c 25 42 3c 8b fe 03 3c
       0.013109188 -0.032402873 0.011849757 0.008056293
000050 e7 37 28 be eb 27 8c bc 08 24 41 3c 13 14 cb bc
       -0.16427575 -0.017108878 0.011788376 -0.024789846
000060 df 6f 09 bc 20 32 3c 3d 63 c2 7e 3c 43 5b 14 3e
       -0.008388489 0.04594624 0.015549275 0.14487939
000070 b1 46 8b 3d 97 3b cf 3d 59 22 49 3e 0b 96 d1 3d
       0.06800593 0.10118788 0.19642009 0.102336966
000080 89 fe 5c 3d 97 13 30 bc 8c 99 e2 3c f8 7c c6 ba
       0.05395368 -0.010746858 0.027661107 -0.0015143445
000090 70 3a 2e 3e c6 59 8a 3d 97 e8 9e 3d 3c f0 49 3d
       0.1701448 0.06755404 0.07759207 0.04930137
0000a0 f7 5a e8 3c f7 a7 15 3d 2d 24 6b 3c da 2f 30 3c
       0.028363688 0.036537137 0.014351887 0.010753596
0000b0 2c 63 b2 3d ce 8a 51 3e 5a 4f e9 3c 68 b4 26 3e
       0.08710322 0.20463106 0.02848022 0.16279757
0000c0 ab 2d e8 3c 9f da ff 3c 35 38 2f 3d c6 cf 1a bc
       0.028342089 0.031232176 0.042778213 -0.009448951
0000d0 96 e4 eb bc 42 c6 9f 3c 3d 86 08 bc 49 d3 34 3d
       -0.028795522 0.019503716 -0.008332786 0.04414681
0000e0 54 f3 b2 3c 80 a5 eb 3d b0 65 eb 3d 6c f6 cc 3c
       0.021844544 0.11506176 0.11494005 0.025019847
0000f0 c5 fe e4 3c 56 5f 21 3d 95 41 32 3c 49 51 02 3c
       0.027953515 0.03939756 0.010879894 0.00795395

layers.1.ln.weight f4 [64]
000000 e8 cc 86 3f 44 6e 80 3f 0a 82 80 3f ad 13 7d 3f
       1.0531282 1.003365 1.0039685 0.9885815
000010 36 83 82 3f 3f 25 85 3f 6a 02 84 3f f4 19 76 3f
       1.0196292 1.0401992 1.0313237 0.9613335
000020 34 b0 83 3f ab 7c 80 3f 67 b9 85 3f 30 2f 81 3f
       1.0288148 1.0038046 1.0447205 1.0092525
000030 35 a7 83 3f 5a 53 7d 3f 54 c8 86 3f f3 37 73 3f
       1.0285403 0.9895531 1.0529885 0.95007247
000040 00 1d 90 3f fa b7 8c 3f 3e 71 96 3f c0 2f 91 3f
       1.125885 1.0993645 1.1753309 1.1342697
000050 62 36 82 3f 79 c7 8b 3f d1 02 8c 3f 1b 63 8b 3f
       1.0172846 1.0920249 1.093836 1.088962
000060 1f cb 85 3f d8 8b 84 3f 10 0c 87 3f a5 09 71 3f
       1.0452613 1.0355177 1.0550556 0.9415534
000070 01 4d 82 3f 56 a7 80 3f 17 b9 6c 3f 69 55 72 3f
       1.017975 1.0051067 0.92469925 0.94661576
000080 ec d5 80 3f a3 27 97 3f a2 84 91 3f f8 39 85 3f
       1.0065284 1.1808971 1.1368601 1.0408316
000090 f1 18 65 3f d9 91 84 3f cf 52 74 3f a6 17 84 3f
       0.8949118 1.0357009 0.95438856 1.0319717
0000a0 79 d7 89 3f 2b dd 84 3f 9f cf 92 3f 16 35 9d 3f
       1.0768882 1.0379995 1.1469611 1.2281826
0000b0 5d ab 80 3f 24 4b 57 3f 3c a7 9d 3f 11 5a 6a 3f
       1.0052296 0.8409903 1.2316661 0.9154368
0000c0 65 24 92 3f 78 2f a1 3f c8 a7 7a 3f 3b 20 96 3f
       1.1417357 1.2592611 0.97912264 1.1728586
0000d0 66 22 6d 3f 13 b6 84 3f 97 e8 9d 3f 0a 5d 73 3f
       0.9263061 1.0368065 1.2336606 0.9506384
0000e0 8c 50 9c 3f 4f 35 7e 3f 74 9b 72 3f 04 94 84 3f
       1.2212081 0.9930009 0.9476845 1.0357671
0000f0 24 08 9a 3f b4 b5 79 3f 84 d3 96 3f 7e ee 93 3f
       1.2033734 0.9754288 1.17833 1.1557157

layers.1.ln.bias f4 [64]
000000 b7 35 08 3d 32 8d 03 bd 87 6b 03 3d 8d 8e 04 3d
       0.03325435 -0.032117076 0.032084968 0.03236251
000010 f8 8b 07 bd 9a 4d 05 3d 35 79 04 bd 00 8c 00 bd
       -0.03309247 0.03254471 -0.032342155 -0.031383514
000020 7c 2c 06 bd 30 69 02 3d eb 02 06 3d c7 f0 02 3d
       -0.032757267 0.031838596 0.032717627 0.031967904
000030 4a d6 06 bd a6 95 f7 3c 38 e0 07 3d cf 88 02 bd
       -0.032919206 0.030222725 0.033172816 -0.031868752
000040 ad 58 06 3d ef 5b 07 3d a8 29 13 bd 6e 59 08 3d
       0.03279941 0.03304666 -0.0359284 0.03328841
000050 37 a7 02 3d 5d 7f 0a 3d 5f b0 08 bd 8e 86 07 3d
       0.03189775 0.03381287 -0.033371326 0.033087306
000060 c3 b0 05 bd 68 88 62 bc c8 f2 06 bd 77 d5 ff 3c
       -0.032639276 -0.013826467 -0.032946378 0.031229718
000070 3e 2e 0b bd 5c 3a 0f bd aa 24 1c bc a7 84 00 3d
       -0.033979647 -0.034967765 -0.009530226 0.031376507
000080 ec d5 07 3d 4f 9a 08 3d 5a c5 0a bd e0 14 05 bd
       0.033162996 0.033350285 -0.033879615 -0.03249061
000090 19 d3 5f bb ee b8 14 bd a5 5b 00 3d 6d 35 08 bd
       -0.0034152924 -0.036309175 0.0313374 -0.033254076
0000a0 18 2d 0c 3d ea 8a 05 bd 6a 7d 10 3d 03 b3 0d 3d
       0.034222692 -0.032603182 0.035275854 0.034594547
0000b0 b9 2d 93 bc 1c 7e c3 3c 5e e9 0a bd 2d 00 f8 3c
       -0.017966138 0.023863845 -0.033913963 0.030273521
0000c0 4f 2c e5 bc 88 66 0c bd 98 2c 08 3d 57 7c 0b 3d
       -0.02797523 -0.03427747 0.033245653 0.034054127
0000d0 ab e1 07 bc 64 ff 06 bd 1e 20 0f 3d af 22 fc 3c
       -0.0082935495 -0.032958403 0.03494274 0.030778257
0000e0 2f ee 0b bd 5e e8 f7 bc 5e 15 0a 3d c0 b1 05 bd
       -0.034162696 -0.030262168 0.033711784 -0.03264022
0000f0 ec 4e 0c bd 04 22 04 3d 35 b1 0f 3d b9 f4 0b 3d
       -0.034254953 0.032259002 0.035081107 0.034168933

logit.weight f4 [1, 64]
000000 4a 58 fe bd 70 d4 80 3d 8c d4 1b bd 9a 31 60 bd
       -0.124191836 0.06290519 -0.038044497 -0.054734804
000010 03 72 ae 3d 58 12 0a be b7 fe 09 3e 7b 00 fe 3c
       0.0851784 -0.1348356 0.13476072 0.031006088
000020 65 af e2 3d a0 04 99 bd b0 5a f5 bd 8d f1 c0 bd
       0.1106861 -0.07471585 -0.11980188 -0.09421072
000030 0e 53 ad 3d ea de 62 bd 1b cc 0d be b1 59 30 3d
       0.08463107 -0.05538837 -0.13847391 0.043054286
000040 cd 24 74 be e1 8a 5d be a0 0b 44 3e 00 d9 83 be
       -0.23842163 -0.2163501 0.1914506 -0.25751495
000050 59 7c eb bd 10 c3 17 be 42 13 1c 3e 0a d2 48 be
       -0.11498327 -0.14820504 0.15241721 -0.19611374
000060 fe f8 21 3e d9 8c c0 3d 32 b5 fa 3d 98 0f b4 bc
       0.15817639 0.094018646 0.122415915 -0.021980092
000070 24 f5 4e 3d 89 0d 2b 3d 2f 5f d7 3c e9 97 1a bd
       0.050526753 0.041760955 0.026290504 -0.03774253
000080 11 03 9a bd b3 80 92 be 62 d3 84 3e 95 bb 19 3e
       -0.07520116 -0.28613815 0.25942522 0.15012963
000090 4d 3a c2 3c 5f 03 7c 3d c0 44 d6 bc 33 ed 8e 3d
       0.02370944 0.061526652 -0.02615583 0.06978836
0000a0 5a c6 22 be 4f 9b ac 3d 53 e2 4c be 06 32 a3 be
       -0.15895978 0.0842806 -0.20008211 -0.31874102
0000b0 5d a7 3f 3d 43 76 e0 3b 95 ec ac 3e 12 4d 39 bc
       0.04679047 0.0068500354 0.33774248 -0.011309879
0000c0 f1 02 24 3e 1e f8 a6 3e 52 d5 01 bd d1 98 80 be
       0.16016747 0.32611173 -0.03169758 -0.2511659
0000d0 58 84 da 3b d1 91 b4 3d 74 e4 9e be 1a 24 e4 bc
       0.0066686086 0.08816875 -0.3103367 -0.027849246
0000e0 2d 09 9e 3e 7d 2a 20 3d 7a 7e 28 bc 05 e9 b4 3d
       0.30866376 0.03910302 -0.010284061 0.088335074
0000f0 b5 e2 81 3e bf 63 2b bd 53 f7 6d be 43 64 61 be
       0.25368276 -0.041843172 -0.23238878 -0.22010903
