Model/evo/fold0.ckpt (torch, 39231 bytes, 15 tensors)

input_block.0.weight f4 [54]
00000000: a46f 833f 3120 813f b5b0 7a3f 451d 893f
00000010: f64e 7f3f 40d7 863f 35fa 893f 4bce 833f
00000020: a023 673f e3e4 593f 51be 7f3f bf7b 833f
00000030: dabd 713f 2bfc 7d3f af82 8b3f a905 823f
00000040: 771d 7e3f d7f0 7b3f 366f 773f 2400 813f
00000050: b68e 8f3f 4e05 833f 6f2a 893f 094b 953f
00000060: 30f7 703f 7100 833f 0db1 703f 5efc 723f
00000070: 6b85 853f e037 883f 8d3c 7c3f 6d55 863f
00000080: 2108 833f cdef 823f 605d 893f cb63 883f
00000090: 163d 873f 021e 763f ffcf 803f 4a0a 7c3f
000000a0: e43e 633f 3dba 633f c412 603f 881f 6a3f
000000b0: 0429 9c3f 5bd7 6d3f 1994 763f 8c8f 743f
000000c0: 8218 663f 448a 773f 2926 623f 7af1 673f
000000d0: 02af 6a3f 4df2 7f3f
1.0268445 1.0087949 0.97925884 1.0712057 0.9972986 1.0534439 1.0779482 1.0297331
0.90288734 0.8511488 0.99899775 1.0272139 0.94430315 0.992129 1.0899256 1.0157977
0.9926371 0.9841437 0.9665407 1.0078168 1.1215427 1.0235994 1.0716075 1.1663524
0.9412718 1.023451 0.9402016 0.9491633 1.0431341 1.0642052 0.98529893 1.049482
1.0236856 1.0229431 1.0731621 1.0655454 1.0565517 0.9613954 1.0063475 0.984532
0.8876784 0.8895605 0.87528634 0.9145436 1.2200017 0.9290673 0.9631973 0.95531535
0.89881146 0.9669535 0.8833948 0.9060284 0.9167329 0.99979097

input_block.0.bias f4 [54]
00000000: c92a 9dba 4b9b f23c afdc 90bc 7672 1b3b
00000010: 58b2 1abd bf52 71bb cf46 39bb e62e 08bb
00000020: b2a1 90bc 9e08 fdbc 32bd 2dbb e14c 08bd
00000030: edd4 2fbd 1492 223c bc5d 243c 9d08 53bb
00000040: 7463 c83b 9f18 fd3b 31e3 103d 2b02 8fbc
00000050: 4275 593c f4d1 bf3b 9950 8ebc 026a 9c3b
00000060: 6588 94bc 185f c23b 0f11 05bb 9bcb dc3c
00000070: 122c 203c 2bd8 183a f9cd c63c 7eea 4c3c
00000080: 8e58 02bc bd18 a93b 08cf 233c a12e 91bc
00000090: 053a ddbb aa9f 8dbb 19a0 813b d432 46bc
000000a0: 7caa b13c 479f ed3c f9e7 5a3d 6ed9 b2b9
000000b0: a36f b7ba 3b4e 6fbc 1bff be3c febb 1fbd
000000c0: 1a06 263d 0841 1a3d 9fd8 fb3a 6fb0 16bc
000000d0: 4545 ef3c 11bb 48bc
-0.00119909 0.029615065 -0.017683355 0.0023719347 -0.037767738 -0.0036823002 -0.0028270965 -0.0020779907
-0.017655227 -0.030887898 -0.0026510474 -0.033276442 -0.04292767 0.009922523 0.010032114 -0.003220118
0.0061153714 0.0077238823 0.035372917 -0.017457088 0.013272585 0.005853886 -0.017372416 0.0047733793
-0.018131444 0.005931746 -0.0020304357 0.026952555 0.009776132 0.00058305514 0.024268137 0.012507079
-0.007955683 0.0051604197 0.009998091 -0.01772243 -0.006751301 -0.004322012 0.0039558527 -0.012097079
0.021687739 0.029006613 0.053443883 -0.00034112803 -0.0013995062 -0.014606054 0.023315003 -0.038997643
0.040533163 0.037659675 0.0019214338 -0.0091973385 0.029207835 -0.012251631

input_block.1.weight f4 [64, 54]
00000000: cf2e 74bd 3305 8dbd a50a 843d f4fd c63d
00000010: e54c 073d 3bb8 78bd ef66 22be f618 1f3e
00000020: b3dc 81bd 4919 99bd cbcb 6a3d 35bb 0ebe
00000030: 0c94 9e3d 732e 27be 50ba 8d3d f76c f0bd
00000040: 1e99 32bd 4a58 e1bd e097 5e3c 4d74 043d
00000050: 8930 fcbc c826 3dbd b05b d63d 731b 2dbd
00000060: 1cb3 ee3b 77c3 cabd 39f9 b13d d049 05be
00000070: e0d8 dfbd 007f 64bd f1da c93d f762 bb3d
00000080: 8709 27b8 4551 67bc f593 a43d 7ef7 113e
00000090: 18bf e3bd b851 1dbe fad8 9dbd 1942 e3bd
000000a0: cd2c 923d a857 1f3e c61f 863d 25d2 c5bd
000000b0: de64 183d 5283 e83d dc26 233e 3ea0 d6bd
000000c0: 5ede 0aba 8273 5bbd 2f8e 0a3e 28a2 73bb
000000d0: f6e4 883c 3e4d d03c 027e b93d dee6 3bbd
000000e0: 5c76 ce3c c003 9dbd fb05 723d 3895 893d
000000f0: 12a3 b5bd 1fca 2fbc f1e5 153d 3e59 1d3d
00000100: de2b 073e a0a5 b6bd 104a 403a 4e48 8cbd
00000110: 6532 a8bd 0787 1ebe 3d04 47bd 5b70 3a3c
00000120: 171e 14be 92ef 8bbd bbab 853d e6df c7bd
00000130: 7008 db3d 7e75 f5bb ede1 a8bc 7fc4 3f3e
00000140: 0a7a 74bc 0db6 56bd e9ab e8bb d38e 2cbe
00000150: 3343 a1bb a1b4 28bc fa0d 573c 17fe 1ebd
00000160: fa8d 413d 1c7d 623e dcd3 18bc 7e76 c1bc
00000170: 9ebd 18be f27b babd f650 243d 5940 403b
00000180: 66ea cdbd f4ba 993d 54cd 0ebe dbf9 6fbd
00000190: ad90 ff3d 1fed 4b3a 21dd c8bd 754c e03d
000001a0: 20e4 f93c 3a2b acbd 94cb 82bd db6d c93d
000001b0: e1f7 0d3e 70aa 0b3e df26 7a3d 5318 02bc
000001c0: dc9e 6abc b64b ffbd 0196 92bd 5826 43be
000001d0: 56fa 413d e7b9 a03c f0db b5bd db80 3d3e
000001e0: 74d7 1abc e810 d8bc 3213 35be 8ec8 9f3d
000001f0: f152 37be 4867 533d f3ae 193e 9228 403e
00000200: 3a55 c0bd 9d6a e7bd a9d6 5d3d 00c0 213e
00000210: 2b2e 95bd c869 8fbc 204e 933d 1168 143c
00000220: a01f 993d 2f44 5fbc d386 4fbd 7231 2ebe
00000230: c7bb 233c e8df c83c 89d4 09be 7833 b4bd
00000240: 20db af3d 39e3 563d d127 c9bd 1116 e9bd
00000250: f14a ac3d f84d c23d 92db 10bd 2715 8bbd
00000260: 761e a73d 7e84 cbbb 3c18 b7bd 028c 14bd
00000270: c9eb d33d 34f0 34bd 52b8 a3bb af0a 4dbd
00000280: c05d 84bd a729 babd 382b 243c b824 e53d
00000290: 634f 313e 88e8 993d 64d3 9e3d 2e9b 873d
000002a0: 7acf d8bc 2351 35bd 16e1 99bd 96d8 dc3d
000002b0: 10e0 733d c38c 323c 06d9 ce3c a849 823d
000002c0: b1de 1dbc da32 173e 60c7 aabd 31a7 af3c
000002d0: 610d 083d 3305 ef3d 08c8 ccb9 82fb 8ebc
000002e0: e244 f13d c7cc a9bd 54a6 0abe d2f7 06be
000002f0: 6cf9 d53d d998 8abd 9a5b e9bd 91b2 f0bb
00000300: 25ce 01be 8bdb a53d 7582 c93d b1a9 b93d
00000310: 305b babd ba02 10be 0278 bc3d f910 bebd
00000320: 6c47 083d 0090 eabc 9b76 d53d eb98 a83d
00000330: 7c45 1c3e c6dd bcbd cbb0 01be f08e 86bd
00000340: 2d9f d43d 1a45 eabd 8fd8 053e a85e 973a
00000350: 3284 00be 368e a4bd e97d 53bd d62f e1ba
00000360: 12ca 4d3c 76d7 1b3e ef3e 043e d874 34be
00000370: 26f1 1d3e 6eba a8bd ac58 94bd e985 0c3e
00000380: 144b aabd 7e21 0ebd 084a 8f3d ed3b f1ba
00000390: 14c9 a43d 45b1 2d3d 12f8 cf3d cbac ec3d
000003a0: f8a4 4c3d 657b d23d c915 533d 3b0d 3abd
000003b0: 9097 ae3d c290 e73d 774a b53d 5ea1 1fbb
000003c0: 99e6 f4bc 433a 943d 2d45 713d 0faa 473d
000003d0: a550 cb3d cee2 323e dac8 9bbd fd3d 36be
000003e0: a379 84bc b9f7 213d d132 22be 7c87 29be
000003f0: 1974 25be 3892 e43b 0c1c 11bd 8c8e d0bd
-0.059614953 -0.06885757 0.06447343 0.097164065 0.033032317 -0.06072257 -0.15859579 0.15536866
-0.06340923 -0.07475526 0.05732326 -0.13938601 0.077430815 -0.16326313 0.06920302 -0.117395334
-0.043603055 -0.11003168 0.0135860145 0.032337476 -0.030784862 -0.046179563 0.10466707 -0.042262506
0.007284535 -0.09900563 0.086901136 -0.13016438 -0.109300375 -0.05578518 0.09856213 0.091497354
-3.9824776e-05 -0.014118497 0.08036033 0.14254567 -0.111204326 -0.15363204 -0.077074006 -0.110965915
0.07137451 0.15560782 0.06549029 -0.096592225 0.03720557 0.11353172 0.15932792 -0.104797825
-0.00052974175 -0.053576954 0.13530801 -0.003717551 0.01671074 0.025427457 0.09057237 -0.04587447
0.025202923 -0.07666731 0.059087735 0.06717914 -0.08868994 -0.010729342 0.036596242 0.038415186
0.13200328 -0.08918309 0.0007335255 -0.068497285 -0.08212737 -0.15481196 -0.048588026 0.011379327
-0.14464603 -0.06832804 0.065268956 -0.09759502 0.10694969 -0.007490813 -0.020615542 0.18727301
-0.0149216745 -0.05241971 -0.0071005714 -0.16851358 -0.004921341 -0.010296972 0.013125891 -0.038816538
0.04725454 0.22118038 -0.009327855 -0.023616072 -0.14916083 -0.09105672 0.040116273 0.002933523
-0.100544736 0.075063616 -0.13945514 -0.05858789 0.124787666 0.0007779169 -0.09807802 0.10952083
0.030504286 -0.08406682 -0.06386486 0.098354064 0.1386409 0.13639235 0.061072227 -0.00794037
-0.014320102 -0.124656126 -0.07157517 -0.19057596 0.04735788 0.019619895 -0.088798404 0.18506186
-0.009450782 -0.026375249 -0.17683104 0.07801925 -0.17902733 0.05161217 0.15008144 0.18765476
-0.09391256 -0.11299632 0.054159794 0.15795898 -0.072841965 -0.017506495 0.071926355 0.0090580145
0.07476735 -0.013627096 -0.050665688 -0.1701105 0.0099935 0.02452083 -0.13459982 -0.087988794
0.08586717 0.05246279 -0.098220475 -0.11381162 0.084127314 0.094875276 -0.03536565 -0.06791144
0.08160107 -0.0062108627 -0.08940169 -0.036266334 0.10347707 -0.044174388 -0.004996338 -0.050059017
-0.06463194 -0.09089976 0.01002007 0.11188644 0.1731544 0.07515055 0.07755163 0.06621395
-0.02646612 -0.04426683 -0.07513635 0.10783498 0.059539855 0.010897818 0.02524997 0.06361705
-0.009635613 0.14765492 -0.08338809 0.021442028 0.033215884 0.116709135 -0.00039058947 -0.017453913
0.117807165 -0.08291011 -0.13540012 -0.13180473 0.10447964 -0.067674346 -0.11394425 -0.0073455055
-0.12676294 0.08098515 0.09839336 0.09065569 -0.09099424 -0.1406354 0.09202577 -0.09280581
0.03327124 -0.028633118 0.10423013 0.08232292 0.15260881 -0.092219874 -0.12665097 -0.06570232
0.10381923 -0.11438961 0.13070892 0.0011548596 -0.12550429 -0.08034937 -0.05163375 -0.0017180394
0.012560384 0.1521891 0.12914632 -0.17622697 0.15424022 -0.08238684 -0.07243475 0.13722958
-0.08315101 -0.03469991 0.06996542 -0.00184047 0.08046165 0.042405386 0.101547375 0.11556395
0.049962014 0.10277442 0.051534448 -0.045422774 0.08525002 0.11306907 0.08852094 -0.0024357657
-0.029895114 0.07237675 0.05890386 0.048746165 0.09927491 0.17469332 -0.07606669 -0.17797084
-0.016171282 0.039542887 -0.15839697 -0.1655559 -0.16157569 0.0069754384 -0.03542714 -0.10183439

input_block.1.bias f4 [64]
00000000: 1e33 14be 1ecb e53d 36ca 00bc 5a49 bbbd
00000010: 8520 91bd 1a2c 3dbd 46e4 6ebd 24fc b1bc
00000020: 9ae3 1cbd df81 eb3c f9bc 2bbd 748b 93bc
00000030: b7d7 74bd c9ed fabb f133 bf3d b13d 81bd
00000040: d5a1 97bd c4e6 293c 968b a33d b092 083d
00000050: 9179 b13d 7097 2fbb e211 7b3d 77dc 9f3d
00000060: 4980 a33d c917 093e af37 4a3d 644b dcbd
00000070: 199f 3d3d 889a adbd 0d21 f0bd a1bc 9dbc
00000080: fcbd 10be a7de 42bd b9e0 51bc b93c cb3d
00000090: 6f42 11bd a497 8d3c 2760 c43d 59df 883c
000000a0: 2112 b6bd 324c 92bd e286 dbbb 593f d9bd
000000b0: 914e b4bc e827 ad3d a985 0dbe aa60 64bd
000000c0: c8f9 febd d100 abbd 392e 96bd ce67 9abd
000000d0: 02a3 d63d 1af6 a5bd ed97 b2bc 1113 04be
000000e0: 7490 e8bc a70a f63d 59b2 d93d 5634 5b3c
000000f0: bfd9 fb3d c8af 193d 3740 cb3b 7055 92bd
-0.14472625 0.11220382 -0.007860711 -0.0914485 -0.07086281 -0.046184637 -0.058323167 -0.021726675
-0.038302995 0.02874845 -0.041928265 -0.018010832 -0.059776034 -0.0076577407 0.09336079 -0.06310595
-0.07403914 0.01036996 0.07985608 0.033343017 0.08665765 -0.0026793145 0.06129635 0.07805722
0.07983453 0.1338798 0.04936951 -0.10756567 0.046294305 -0.0847674 -0.11725054 -0.019254984
-0.14134973 -0.04757562 -0.012809926 0.09923691 -0.035463747 0.017284222 0.09588652 0.016708063
-0.088901766 -0.07143439 -0.006699429 -0.10607786 -0.02201012 0.08454877 -0.13820519 -0.05575625
-0.12449986 -0.08349765 -0.07333035 -0.075393304 0.1048031 -0.08103581 -0.02180096 -0.12897898
-0.028389193 0.120137505 0.1062972 0.013379177 0.12297391 0.037521154 0.0062027234 -0.07145202

hidden_block.0.weight f4 [64]
00000000: 392d 843f b01c 843f b4a7 7d3f 2335 7f3f
00000010: a4ef 803f 87b1 763f 925d 7b3f 9529 833f
00000020: 7c87 873f 5b40 7a3f 64ae 7b3f 9847 793f
00000030: 48e1 7e3f 8e50 843f d561 6b3f 39a0 7c3f
00000040: 48a7 7e3f c339 8c3f d2e2 863f cb7a 813f
00000050: 0957 8a3f db0d 7b3f 727e 7d3f 0eff 6e3f
00000060: 4252 813f 12bb 723f 29a1 743f 9be8 793f
00000070: 1609 7e3f c36d 783f f2a7 7f3f b3c3 703f
00000080: c822 863f 1454 8c3f 2403 8d3f c54c 6f3f
00000090: 7cfe 783f 4193 7c3f e1ad 7b3f c9a5 6a3f
000000a0: b20e 813f 4f51 713f 356c 793f e8a0 6c3f
000000b0: 2be6 703f 69a9 7e3f 463d 833f 684a 833f
000000c0: 4176 803f 0ebb 6e3f e8f1 6d3f b1b1 833f
000000d0: 32b3 813f 2cbd 793f 3ab4 753f 01a9 863f
000000e0: 442d 7c3f dece 823f 0431 763f 9f93 783f
000000f0: 70da 793f f6a6 7e3f e321 823f f67e 7d3f
1.0326301 1.0321255 0.9908402 0.99690455 1.0073133 0.96364635 0.9818965 1.0247065
1.0588222 0.9775445 0.98312974 0.9737487 0.995625 1.0337083 0.91946155 0.9868198
0.99474 1.0955127 1.053797 1.0115598 1.0807811 0.98068017 0.99021065 0.9335793
1.0103228 0.94816697 0.9555841 0.9762055 0.99232614 0.97042483 0.9986564 0.94048613
1.0479364 1.0963159 1.1016583 0.93476516 0.9726331 0.9866219 0.98312193 0.9165922
1.008261 0.9426469 0.97430736 0.92433023 0.9410121 0.9947725 1.0253074 1.0257082
1.0036088 0.9325417 0.92947245 1.0288602 1.0132811 0.9755428 0.9597813 1.0520326
0.9850657 1.0219381 0.9616854 0.9710025 0.97598934 0.9947351 1.0166591 0.9902185

hidden_block.0.bias f4 [64]
00000000: bdbe 0ebd 19df 21bd 621c ea3c 287b e23c
00000010: 55d9 5e3c 29ae b63c ff7a e73c 5dd6 d8bc
00000020: f3c7 86bd 88bf bf3d 3639 27bd cd5a 1d3d
00000030: 9e26 0b3c e5d5 f7bc f058 a83c a24e 68bc
00000040: 260f 36bc ad42 67bd ccb0 8fbd a06e 57bd
00000050: 176a c2bc 51a4 5cba 946c 053d a2b6 45bc
00000060: 5c9e 73bc 1c24 a73d 6db5 423c c35b 8fbc
00000070: 40a2 043c 8925 92b9 849e 493a 05cb 593b
00000080: 95a6 2dbd 63db ddbd 1397 aabd 114b 523c
00000090: 1767 17bd 8ac2 423d 477e acbc 46af 69bc
000000a0: 899d 473d 9162 ef3c f435 ccbc de46 7a3c
000000b0: e3ce d43c 3d56 a63c 5e8c 2bbd 15d5 b2bc
000000c0: ae6e 683d 23dc e5bc 2a63 9a3d cd32 5fbc
000000d0: fc75 5bbc 28f5 2a3d 28e3 733d 3532 57bd
000000e0: e9ba 793d 369f fabc 4f81 fb3c b9fb 0d3d
000000f0: 9c30 053d 4e69 30bc a433 103c c8d9 02bd
-0.03484987 -0.039519403 0.028577987 0.027646616 0.013601621 0.022299843 0.028256891 -0.026469404
-0.06581106 0.093627036 -0.040826045 0.038416672 0.008493094 -0.03025336 0.020550221 -0.014178904
-0.01111201 -0.05646007 -0.07016143 -0.052595735 -0.023732228 -0.0008416819 0.03257425 -0.012067469
-0.014869299 0.08161184 0.011884076 -0.01749981 0.008095324 -0.00027875256 0.0007691162 0.0033232581
-0.042395193 -0.1083286 -0.08329596 0.01283528 -0.03696355 0.04754881 -0.021056307 -0.01426298
0.04873422 0.029221805 -0.02492807 0.015275685 0.025977558 0.020304793 -0.04188191 -0.021830121
0.056746177 -0.02805907 0.07538445 -0.013622952 -0.013394829 0.041737705 0.059542805 -0.052538116
0.060969267 -0.030593496 0.030701308 0.03466389 0.03251706 -0.010767294 0.008801375 -0.031945974

hidden_block.2.weight f4 [64, 64]
00000000: c9d5 b93d d2f2 503d b87f c9bc 0603 78bd
00000010: 04db 27bd 7a00 15bc 140e 863d eca7 913c
00000020: ed4a 163e 2068 c33d bb92 b8ba 354c 85bd
00000030: 5dd4 d1bd 8c74 31bc 35ec a0bd f667 733d
00000040: 9408 973d 1eff c43b 6b4a 02bd daa1 fcbd
00000050: 6d6a 063d 5f71 723d 9c75 ee3b 178e 4b3d
00000060: bc63 5e3c a1c1 0f3d 5560 05bd 8a7b a63c
00000070: 7f42 523b da3f a2bd 66c2 753d fb5a a13d
00000080: 0107 cfbc 07d0 993d 199f 70bd f21f 3bbd
00000090: 2d09 6dbd 4e33 7dbc a325 043d 20c3 073d
000000a0: b197 a13d d5c6 fdbd 4443 babd 66b8 c4bc
000000b0: 218d 01bc 13e7 c23d 9130 9c3c 0361 50bd
000000c0: 6094 5fbd 069d 93bd a098 0c3b f041 e3bd
000000d0: 0b89 21bc 85f4 8ebc 639c 083d 6fc0 b1bb
000000e0: a41c 80bd 3b89 42bd 6be5 aebd efdc 7f3c
000000f0: 2754 013d 0dca 353d 26c3 10be dee4 7cbc
00000100: 9072 87bd fc9c 92bc 3d7c 81bc 8afe f5bd
00000110: 6d2a df3b 46fe 153a bbd7 41bc f6c1 11be
00000120: 2ec2 60be b1b7 e3bc 2e5a 5c3d 176d a83d
00000130: a23c 823d 7945 d4bc 3369 c73d aa7b 8f3d
00000140: cc60 a6bd 9647 153d ce99 49bd b0e6 803d
00000150: 13dc 873c 1ca3 2fbd 6228 373d 100a bd3d
00000160: e030 dfbd 7931 cb3d 0055 d63d fddd 6bbd
00000170: 146e d4bd 24ad f73d 48fa 393d c07e 94bc
00000180: 8416 ebbd 0478 0ebe a8a5 e03c b8a6 b0bd
00000190: 8eb2 d83c 05a1 783d 96b3 08be 391d 9c3d
000001a0: 8594 24bd 4620 9c3c 4d8c 3c3d b1da 8e3d
000001b0: e6ce 173b b1cd 99ba 34ff c5bd 525b d5ba
000001c0: 5a9b 173e efd4 62bd 3175 85bd 5719 243d
000001d0: e5dd 43bd 70dd b7bc df20 013d 0227 f7bd
000001e0: dc93 cc3b f89e 54bd ef74 803d c5bd 943d
000001f0: c1ae b3bc a32b 4a3d 19c8 9e3d 6caf 4b3d
00000200: a548 87bd 3bb1 323d af4a ddb9 6ba8 3c3b
00000210: 113e 5d3d ff60 1dbe efc2 a3bd 0c8e 4f3e
00000220: d41d 80bd 3736 c43d e5aa a4bd 0dda 253d
00000230: 8b96 9abd cfa2 c03d 80d7 5bbe a9c6 e73c
00000240: c7f1 b2bd 9a78 4cbb 3088 81bd 46ee ebbd
00000250: 53b9 b03d ee52 01bd 3a7a a43c 8019 223d
00000260: 8d24 e2bd e71a 383c 9053 51bd c30c 6abd
00000270: fc2b 7a3d f11d 2cbd 8920 083c 2842 79bd
00000280: e553 853d c7f1 d83d 6aec ea3d 73e6 1bbd
00000290: fb9f fabb 2018 e7bd 94c3 f03c c110 edbc
000002a0: b9dc c5bb fce8 903d b3b8 243d a06c bbbc
000002b0: fa25 15bd 2da3 ac3d 2cb9 2fbd 1623 bfbc
000002c0: 00c9 a33d db79 cfbd 33b5 28bc 10e3 cf3c
000002d0: 048d 5a3d fe93 ac3d 35bb b33b 1783 d13b
000002e0: ed74 9e3c 597d 663d b2bb 15bd 8db9 1ebc
000002f0: 78e2 803d 752d 82bd 503c c73c e2e3 b93d
00000300: 54cb 43bd a199 16bb 96c6 173d 837d 9a3b
00000310: 2d1d 89ba a865 253d 291d 1cbe c853 263c
00000320: 2b72 183e 8819 e6bd ebc8 bf3c 6632 c7bd
00000330: 0cf7 e5bc e090 7bba d52f 78bd 8885 50bd
00000340: 10e1 bc3d ba42 7a3d a30d 643d 3aa8 f1bc
00000350: 2959 473d 6241 f43b c764 79bd a032 453b
00000360: 1b66 adbd fc58 18be 0f49 69bd 4fa9 18bd
00000370: 60f5 82bc 00bb aebd a9a7 bf3c 86f2 293d
00000380: dcbe 2c3c 52e3 c13d 21c1 af3d 1da6 15bd
00000390: 6e9b f6bb f775 68bd 91bd b83d 52ba 03be
000003a0: d5da c43c 64a5 06bd d04a 08be 1b6b 0dbd
000003b0: dd4a b03c e10e 2abd 9bce 3f3d 2a0f 333e
000003c0: 6cb0 fbbd c821 333d 0938 debc c4ea 983d
000003d0: 0d2e b93d 6fa7 0039 e2b5 0d3d e77c a9bd
000003e0: 3101 2b3c b36e 47bd 4e9f 8a3c 5206 7d3c
000003f0: 5b1d cc3d f880 53bd 870b 89bd 6f80 943d
0.090739794 0.05101282 -0.024597034 -0.06054976 -0.040980354 -0.009094352 0.06545654 0.017780267
0.1467702 0.09541345 -0.0014081815 -0.06508676 -0.10245583 -0.01083101 -0.07857553 0.059425317
0.07374683 0.0060118577 -0.03180925 -0.12335558 0.03281634 0.05919015 0.0072772037 0.049696054
0.013573583 0.03509677 -0.032562573 0.02032258 0.0032083092 -0.07922335 0.059999846 0.07878681
-0.025271894 0.07510381 -0.058745477 -0.045684762 -0.05787008 -0.0154541265 0.032262456 0.03314507
0.07890261 -0.1239144 -0.09094861 -0.02401371 -0.007907183 0.0951673 0.019066127 -0.050873768
-0.05458486 -0.07207684 0.0021453276 -0.11096561 -0.009859334 -0.01745058 0.033352267 -0.005424551
-0.06255463 -0.047494154 -0.08539852 0.0156166395 0.031574395 0.044382144 -0.14136943 -0.015435426
-0.06613648 -0.017897122 -0.015806312 -0.1201144 0.0068104775 0.00057217886 -0.011831219 -0.14234146
-0.21949074 -0.027797552 0.05379694 0.08223932 0.06359221 -0.025912033 0.09736862 0.07006009
-0.08123931 0.036445223 -0.049218945 0.06294 0.016584432 -0.042880163 0.044716246 0.09230435
-0.10897994 0.099215455 0.10465431 -0.05758475 -0.10372558 0.12093571 0.045404702 -0.018126845
-0.11478904 -0.1391297 0.027422741 -0.08625549 0.026452329 0.060700435 -0.13349757 0.07622761
-0.0401807 0.019058358 0.04603224 0.06975306 0.0023164093 -0.0011734274 -0.09667817 -0.0016277826
0.14805356 -0.05537885 -0.06516493 0.04006323 -0.047819037 -0.022444457 0.03152549 -0.12067987
0.006243212 -0.051909417 0.06272303 0.07262758 -0.021933915 0.04935802 0.07753009 0.049727842
-0.06605653 0.04362605 -0.00042208048 0.0028786908 0.05401427 -0.15369032 -0.07996165 0.2026903
-0.06255689 0.09580653 -0.08040408 0.040491153 -0.07548245 0.09406053 -0.21468925 0.02829297
-0.087375216 -0.0031199814 -0.06324804 -0.115200564 0.08629098 -0.03157323 0.020077813 0.0395751
-0.11042128 0.011236883 -0.051105082 -0.057141077 0.061077103 -0.04202074 0.008308538 -0.060854107
0.06510142 0.1059299 0.11470874 -0.03806157 -0.0076484657 -0.11283898 0.029390134 -0.028938653
-0.006038275 0.07075688 0.040215205 -0.022878945 -0.03641317 0.08429561 -0.042901203 -0.02333216
0.07997322 -0.10130664 -0.0102971075 0.025376827 0.05335714 0.08426665 0.0054849633 0.006393801
0.019342864 0.056271885 -0.036555953 -0.009687793 0.062931955 -0.063563265 0.024320751 0.09076668
-0.04780133 -0.0022979754 0.03705462 0.004714669 -0.0010460966 0.04038015 -0.15245499 0.010151811
0.14887302 -0.112353384 0.023411235 -0.097264096 -0.028071903 -0.0009596478 -0.06059249 -0.050908595
0.09222615 0.06109879 0.055677067 -0.029499162 0.048669014 0.0074540833 -0.060887124 0.003008999
-0.08466741 -0.14877695 -0.05695444 -0.03727084 -0.015986145 -0.08531761 0.023395376 0.041491054
0.010543551 0.09467186 0.08581758 -0.03653537 -0.007525853 -0.056753125 0.09020532 -0.12864044
0.024030128 -0.032872573 -0.13309789 -0.03452597 0.021520073 -0.041518096 0.046827894 0.17486253
-0.12289509 0.04373339 -0.027126329 0.07466653 0.090419866 0.00012269405 0.034597285 -0.08275776
0.010437296 -0.048689555 0.016921666 0.015443401 0.099665366 -0.051636666 -0.06691652 0.07251059

hidden_block.2.bias f4 [64]
00000000: 5b58 2f3d 1c9a fb3d cbb8 06be 8443 95bd
00000010: 8f35 2bbe 4213 f3bd 986d bfbd 93ed d5bd
00000020: e19f 833d c934 dcbd e840 be3d 7dd5 833b
00000030: 6a56 a0bd 040a 073c 351e e8bd b9ac 1f3e
00000040: c14f 0e3e 97e4 8bbc 54e3 943d 86c8 98bd
00000050: 694f a23d ffb7 7e3d 84ef 993d c05b 973d
00000060: af69 8b3d 3608 553d c1de 4abd 0bb7 00bd
00000070: f83a 5c3c fbd3 4a3d 7bdc 843d de9d 84bc
00000080: 3dd4 07be df76 2e3c d879 a0bd 9604 993d
00000090: eb88 a73c 6856 f0bd cfda ca3d a0ea 413d
000000a0: 66fe 73bd b8bd a03c d0b0 4b3c a750 03be
000000b0: 11de fbbd bbf0 033d b9ae 37be b0a4 d1bd
000000c0: 7d92 0c3d be12 4f3d 1b40 ce39 538f 6dbd
000000d0: 2941 df3d 6682 e13d bc85 a83d 09a3 27be
000000e0: 52c1 153e 959c 25be e0f0 a6bd ed6a 913e
000000f0: 8b3f 1abe cf75 45bd ad1d 8ebd 4d58 bcbd
0.04280887 0.122852534 -0.1315643 -0.07288268 -0.1671965 -0.118689075 -0.09347075 -0.10445704
0.06426979 -0.107522555 0.09289724 0.0040232525 -0.07828982 0.008242134 -0.113338865 0.15593232
0.13897611 -0.017076774 0.07269922 -0.07460122 0.079253025 0.06218719 0.07516387 0.07390547
0.06807267 0.052009784 -0.04952884 -0.031424563 0.013441794 0.049518567 0.06487366 -0.016188558
-0.13264556 0.010648458 -0.0783574 0.07471578 0.02045103 -0.11735231 0.09905016 0.047342896
-0.059568785 0.019621715 0.012432292 -0.12823735 -0.12298215 0.032212 -0.17937745 -0.1023649
0.03431939 0.050554983 0.00039339144 -0.057998013 0.109011 0.110112 0.08228633 -0.16370787
0.14624527 -0.16173013 -0.08151412 0.2840189 -0.15063302 -0.048208054 -0.06939254 -0.091965295

hidden_block.4.weight f4 [64]
00000000: 3979 6c3f d0d1 5f3f 6a5d 803f 115d 7d3f
00000010: 9021 703f 3090 813f 0a9f 773f ceef 6c3f
00000020: e39d 6f3f 242c 643f 649a 683f 9df7 633f
00000030: a2e3 843f 28bc 6e3f e698 733f fd96 7f3f
00000040: e40e 623f 311b 6c3f bb15 603f 0ead 733f
00000050: 47e2 803f 362a 6e3f 39c5 763f 9afe 803f
00000060: a46a 523f 7dc3 633f c9ce 683f 5b91 843f
00000070: 7ce2 6e3f 10d2 733f e4d8 733f 0cf8 773f
00000080: c42b 803f 996d 7d3f 9844 4b3f e645 583f
00000090: 7a0e 5a3f 2cdf 783f 1b41 703f 4432 563f
000000a0: 6e43 683f a296 7f3f c850 783f b8bc 7e3f
000000b0: 60b4 5e3f ac68 803f ad12 6c3f f056 7b3f
000000c0: acac 733f 79f1 843f 2e25 6d3f 67ac 773f
000000d0: 1950 5b3f df19 703f 79b6 613f 1dbf 863f
000000e0: b825 6d3f 1a5c 703f d410 573f d0cd 5d3f
000000f0: 6c0f 8a3f ea27 773f d8ab 6d3f 175e 853f
0.9237247 0.87429523 1.0028508 0.98970133 0.9380121 1.0122128 0.9672705 0.9255341
0.9360029 0.89129853 0.9086058 0.890497 1.0381968 0.93255854 0.9515518 0.99839765
0.8830397 0.9222899 0.8753316 0.95185935 1.0069054 0.9303316 0.9639469 1.0077698
0.8219397 0.88970166 0.9094053 1.0356859 0.9331434 0.95242405 0.95252824 0.96862864
1.0013356 0.9899536 0.7940154 0.84481657 0.8517834 0.97215533 0.93849343 0.8367045
0.9072789 0.9983922 0.9699826 0.9950671 0.8699398 1.0031943 0.92215997 0.9817953
0.9518535 1.0386192 0.92634857 0.9674744 0.85669094 0.93789476 0.88169056 1.0527073
0.9263568 0.93890536 0.8401005 0.8664217 1.0785956 0.9654528 0.9284034 1.0419339

hidden_block.4.bias f4 [64]
00000000: 40e4 99bb b4ec 8abb 296e c4bb c558 ccb9
00000010: e205 4f3a 349e e6bb 2712 593b 6726 d2bc
00000020: 8e19 14bc b8b6 1a3d 8ea4 a4ba 1aa3 83bc
00000030: 56ec d1bd 1e78 7f3a 7301 313c 37a0 0f3d
00000040: 737c 193d 36ae d7bc d483 0fbb 2286 8cbc
00000050: a8e0 103b 0653 2c3b e9f3 e4bd fe79 ebbb
00000060: 4423 cfbd a328 2bbc b861 283c 953b d2bd
00000070: d6e2 813c 0c90 59bc efaa 9f3c e814 f03c
00000080: a9b5 16bc 96b2 d4bb 0f47 0b3d e5ce 3a3c
00000090: 1159 053d c1c1 b0bb 734e 48bc fa75 fd3c
000000a0: 5b52 863c 8b86 f23c d72c 05bd 0223 093b
000000b0: 65c6 22bc 4d66 06bd 1a38 793c da9e a2bb
000000c0: ec17 67bc d1d1 08bd 59fb 503d 35d3 98bd
000000d0: 5329 ec3b c520 0e3d 5bef d33c b9ac 43bc
000000e0: ba35 ceba 5ac2 c13b da7d 103d 42e4 bc3c
000000f0: e02f 4fbe 6db9 99bc f82b 30bd 52f3 81bd
-0.004696399 -0.004239643 -0.0059945774 -0.0003897605 0.00078973 -0.0070379023 0.0033122392 -0.025653077
-0.009039296 0.03777191 -0.0012561248 -0.016068984 -0.10250156 0.0009745377 0.010803568 0.035064902
0.0374722 -0.026328187 -0.0021898644 -0.017153803 0.0022106562 0.0026294603 -0.11179335 -0.0071861735
-0.10114148 -0.0104467 0.010277204 -0.102652706 0.015855234 -0.013278972 0.019490687 0.029306844
-0.009198585 -0.0064910157 0.034003314 0.011401867 0.032555643 -0.005394191 -0.012225735 0.030940045
0.016396692 0.02960517 -0.032513466 0.0020925407 -0.009934996 -0.032812405 0.01521113 -0.0049627842
-0.0141048245 -0.03340322 0.051020954 -0.074621595 0.0072070747 0.03469922 0.02587097 -0.011943036
-0.0015732564 0.005913061 0.03527627 0.02305806 -0.20233107 -0.018765176 -0.043010682 -0.06345238

layers.0.ln.weight f4 [64]
00000000: ff75 583f 1397 333f 0b24 7b3f 0891 753f
00000010: e290 543f 8445 7d3f f5ae 6b3f 5fe9 633f
00000020: 7f07 923f b60e 8d3f b211 6c3f 527f 8b3f
00000030: b23f 683f 2065 573f d31b 653f 0f60 743f
00000040: 8ea5 613f 81c2 6e3f 4d4e 3d3f 4425 5d3f
00000050: 51f3 743f 2754 6e3f f5e7 393f 64da 813f
00000060: 87c7 4f3f 6472 343f 7bcf 503f bb60 4c3f
00000070: 8482 673f 1c48 6e3f a86b 573f 9ce3 543f
00000080: cde4 813f 93c7 723f a711 6d3f c49f 583f
00000090: 2fd6 803f d007 653f 57bc 873f 6e11 7e3f
000000a0: 71ed 3f3f 72d9 863f 2847 763f f877 7a3f
000000b0: f077 3e3f 5fa6 6d3f 4d20 483f 98d7 763f
000000c0: 03b6 7d3f b602 813f d983 863f b491 5d3f
000000d0: 1276 473f 099d 7d3f a627 203f c912 6d3f
000000e0: 58a3 513f 30ce 563f fd52 7c3f a083 fd3e
000000f0: 2633 193f 0b42 543f 4af5 623f 89a7 513f
0.8455505 0.70152396 0.9810187 0.95924425 0.83033574 0.989342 0.9206384 0.8902797
1.1408538 1.1020114 0.922145 1.089823 0.9072219 0.8413868 0.8949558 0.95459074
0.8814324 0.9326554 0.739476 0.8638499 0.9568377 0.93097156 0.72619563 1.0144773
0.8116383 0.70487046 0.8156659 0.798351 0.90433526 0.9307878 0.84148645 0.83159804
1.014795 0.94835776 0.9260506 0.84618783 1.0065364 0.89465046 1.0604352 0.99245346
0.7497168 1.0535109 0.96202326 0.9783931 0.7440176 0.9283199 0.7817429 0.9642272
0.9910585 1.0078952 1.0508987 0.8655045 0.77914536 0.9906774 0.625605 0.9260679
0.8188987 0.8390837 0.9856413 0.49514484 0.5984367 0.82913274 0.8865553 0.81896263

layers.0.ln.bias f4 [64]
00000000: a1db c03d d330 50be e181 ed3c 63c6 2e3d
00000010: 6ece 083e 74db 553d ce04 7e3d cd18 513d
00000020: 08bb 51bc 41cc fe3c bdc1 423d f222 3fbc
00000030: 0b1d adba 4a34 f53d 86b5 af3d 7374 b3bd
00000040: 77ff 9c3c 38cb 1c3c 81fe 53bd 0012 aa3d
00000050: 71a8 413d 8291 383d df87 c9bd 5ad6 b3bc
00000060: 83d4 1dbe 416b 86bb a2e0 e9bb 2c4e bdbd
00000070: db31 96bc 2fe6 c33c 1681 85bb 02b6 d33d
00000080: bd5d fc3c 3990 ea3c b89b f23c 555f 6d3c
00000090: c2df fb3c 534e af3d 4f81 9dbc 6f46 d23c
000000a0: 3d24 573e d7ad 01bc 117f 343c bbf7 013d
000000b0: 4b1f 1b3e 1bb8 6c3d 7fe4 3c3e 2933 e63c
000000c0: 053b 873c 2e59 be3b c496 db3c 588a 033e
000000d0: 361f fdbd 8c2d 0c3c a0ed 8cbe ee77 763d
000000e0: e41d 10be 6211 e03d c23e a93c d4f3 c6be
000000f0: 1f9c 993e 625f 533d 2871 473d 3bf1 013e
0.09416891 -0.20331125 0.028992595 0.042669665 0.13359997 0.05221124 0.0620163 0.051049042
-0.012800939 0.031103255 0.047548044 -0.011666046 -0.0013207508 0.11972864 0.08579545 -0.08762445
0.019164784 0.0095699355 -0.051756386 0.083042145 0.04727978 0.045060642 -0.098403685 -0.021952797
-0.15413098 -0.004102141 -0.007137374 -0.09243426 -0.01833432 0.023913471 -0.004074226 0.103374496
0.030806417 0.028633224 0.029615268 0.014488061 0.030746344 0.08559861 -0.019226698 0.025668351
0.21009918 -0.007914982 0.011016623 0.031730395 0.15148656 0.057792764 0.1844654 0.028100567
0.016507635 0.005808971 0.02680529 0.12845743 -0.12359469 0.008555781 -0.27525043 0.060172968
-0.14073902 0.109408155 0.020659808 -0.388579 0.30001923 0.051604636 0.0486919 0.12689678

layers.1.ln.weight f4 [64]
00000000: 98bd 833f 555c 833f 8385 863f 7bfe 853f
00000010: 6253 833f d81e 873f 016e 843f 23ed 7d3f
00000020: 97db bc3f 6c69 ac3f b2f4 823f fe32 a63f
00000030: e57a 7c3f 9157 803f c93e 853f 084d 823f
00000040: e76f 903f bd7a 863f 70f0 853f f522 823f
00000050: 7835 873f 284a 8a3f f756 623f 6fa7 833f
00000060: 912c 753f 343a 783f 53cc 893f 5185 5e3f
00000070: 726f 8d3f 7242 863f b34e 8e3f e396 833f
00000080: c47f 893f b82a 843f b6ac 9a3f 6e99 8b3f
00000090: 0ea0 963f 6b9c 863f c2b4 ad3f b258 a13f
000000a0: a3a1 733f f0d1 8f3f 32d1 853f dfb6 863f
000000b0: da07 703f 8027 843f 7618 793f 945d 853f
000000c0: 95b5 873f c3bb 853f c5e9 973f f03b 793f
000000d0: 6812 893f 0a61 953f 7971 853f 72c4 813f
000000e0: 97dc 853f 4e56 7b3f ef4e 963f 8c23 823f
000000f0: e6a9 673f bbdc 7c3f 35fe 7f3f 0b44 823f
1.0292234 1.0262552 1.0509495 1.0468286 1.0259821 1.0556288 1.034607 0.99189967
1.4754514 1.3469672 1.0230925 1.2984312 0.9862502 1.0026723 1.0409786 1.0179758
1.128415 1.0506207 1.0464001 1.0166918 1.0563192 1.0803881 0.8841395 1.0285472
0.9577113 0.9696381 1.076548 0.86922175 1.1049635 1.0489028 1.1117767 1.0280422
1.0742116 1.0325537 1.2083957 1.0906198 1.1767595 1.0516485 1.3570788 1.2605193
0.95168513 1.1235943 1.0454466 1.0524558 0.9376198 1.0324554 0.9730295 1.0419183
1.060229 1.0447925 1.1868216 0.9735708 1.0708742 1.1670239 1.0425254 1.0138075
1.0457944 0.98178566 1.1742839 1.0167098 0.9049362 0.9877431 0.99997264 1.0177015

layers.1.ln.bias f4 [64]
00000000: e81f b5bc a0e2 b53c 25ac b8bc b2e3 b7bc
00000010: 4cd2 b9bc d9d5 b8bc 791a b2bc 29d9 c73c
00000020: 3d34 c13c 5d84 c5bc 82f5 c53c 944e bd3c
00000030: b0b6 c13c b371 9ebc c91f babc 8664 cdbc
00000040: 74e9 b53c 0d7a b6bc f0b4 b43c 2855 a5bc
00000050: 8900 b3bc d2b5 babc 9f64 ea3c 6a33 ddbc
00000060: ec60 dcbc 479b b43c dfe3 bd3c c2a0 d23c
00000070: cee8 b43c 6eee b7bc 3eff c03c bf5b b4bc
00000080: 449e b8bc 821b b3bc 200f d13c 057e d53c
00000090: c9b5 ba3c 276b c0bc 96ff c23c d42f bdbc
000000a0: 7ac3 723b 4a4f c6bc 5d72 cd3c 9bbb b7bc
000000b0: e3fc c83b 7616 b6bc 9bfa 423b 54bd b6bc
000000c0: 62a7 b2bc 5844 b7bc 5a39 b73c 2f39 5a3c
000000d0: 6697 c83c 7239 b43c f944 a83c d047 c1bc
000000e0: 195b b73c b05e c33c 1c26 bd3c 7e0f b43c
000000f0: 971c a6bc d586 b0bc 0e08 b4bc 5c64 b4bc
-0.02210994 0.02220279 -0.022543022 -0.02244744 -0.022683285 -0.022562908 -0.021741139 0.024395542
0.02358448 -0.024110967 0.024164919 0.023108758 0.023646683 -0.019341325 -0.022720234 -0.025072347
0.022206046 -0.022274995 0.022058934 -0.020182207 -0.021850841 -0.022791777 0.028612433 -0.027002055
-0.026901685 0.022046698 0.023179946 0.02571142 0.022083666 -0.02245256 0.023559209 -0.022016404
-0.022536404 -0.021863703 0.025519907 0.026061067 0.02279176 -0.023488594 0.023803513 -0.023094095
0.0037042783 -0.02420773 0.025078947 -0.022428324 0.006133662 -0.022227507 0.0029751423 -0.022307076
-0.02180833 -0.022371456 0.022366215 0.013319298 0.024486255 0.022000048 0.020540701 -0.023593813
0.022382306 0.023848861 0.023089461 0.021980044 -0.020277305 -0.021548668 -0.021976497 -0.022020511

logit.weight f4 [1, 64]
00000000: ddfe a23d 33a1 adbd 0152 1f3e c197 053e
00000010: fc62 8c3d f64d f33d 2391 d53d ef14 56bd
00000020: c208 0fbf 54a8 d13e 109c e4bd cc17 bcbe
00000030: c654 2fbd f9e4 883d 0341 b33d 9203 2c3d
00000040: 0af3 76be 7ecc 143e d416 16be 8a57 863d
00000050: 207b 163e 5d94 243e 208a 7dbc 9b56 843d
00000060: 5047 e83c 1a3a 99bd f3ae 2cbe 974c 39bc
00000070: e53d 64be 732f 1f3e f053 57be 1794 a73d
00000080: a55d 2f3e f85d 1a3e 17bb 84be 1dec 07be
00000090: a3e4 89be db4f b33d f096 e0be 35ef b83e
000000a0: f577 4f3d 27a1 693e 5ff8 efbd bcfd 2a3e
000000b0: dbae 143d a199 b33d b7de 663d 8d9c 1f3e
000000c0: f3b0 233e ea0f 1c3e 3ad8 9ebe 598c 9b3d
000000d0: 24a4 babd bf7b 89be 84cf c0bd 58ab 683d
000000e0: c2b8 24be 3483 6fbd 10b3 7cbe 3843 b4bd
000000f0: c720 9e3c 7759 823d 499c 943d 741a 8a3d
0.079587676 -0.08478012 0.15558626 0.13046171 0.06854817 0.11880104 0.10428073 -0.052266058
-0.5587274 0.40948737 -0.11162579 -0.36736906 -0.042805456 0.06684298 0.087526344 0.041995592
-0.2411615 0.14531133 -0.14657146 0.065596655 0.14695406 0.16072221 -0.015474826 0.06461831
0.028354317 -0.07481785 -0.16863613 -0.011309764 -0.22289236 0.15545444 -0.21028113 0.08182543
0.17125566 0.15074909 -0.25923988 -0.13273664 -0.26932248 0.087554656 -0.43865156 0.3612
0.05065151 0.22815381 -0.11717295 0.16698354 0.036299568 0.08769537 0.05636474 0.15587063
0.1598547 0.15240446 -0.31024343 0.075951286 -0.091133386 -0.26852223 -0.094145805 0.05680403
-0.16086105 -0.058474734 -0.24677682 -0.088018835 0.019302739 0.0636472 0.072563715 0.06743327
