Model/evo/fold1.ckpt (torch, 39231 bytes, 15 tensors)

input_block.0.weight f4 [54]
0	0x3f7c7ba8	0.98626184
1	0x3f7d030d	0.9883278
2	0x3f799e64	0.9750731
3	0x3f870fca	1.0551693
4	0x3f89929e	1.0747869
5	0x3f7bb5b6	0.98324144
6	0x3f88ef80	1.069809
7	0x3f85e24b	1.0459684
8	0x3f6a17ed	0.9144276
9	0x3f7cdc03	0.9877321
10	0x3f8374f4	1.0270066
11	0x3f712ae7	0.9420609
12	0x3f874fd2	1.0571234
13	0x3f80f229	1.0073901
14	0x3f82deaa	1.0224202
15	0x3f7aaee0	0.9792309
16	0x3f725168	0.94655466
17	0x3f762826	0.9615501
18	0x3f818e9c	1.0121646
19	0x3f6e3665	0.9305175
20	0x3f88b278	1.0679464
21	0x3f80e73c	1.0070567
22	0x3f874296	1.0567195
23	0x3f931653	1.1491188
24	0x3f7e1f7a	0.9926678
25	0x3f7ec469	0.9951845
26	0x3f7a4d91	0.97774607
27	0x3f80d910	1.0066242
28	0x3f87ede5	1.0619475
29	0x3f8cdb5b	1.1004442
30	0x3f6d9227	0.92801136
31	0x3f796ec1	0.9743462
32	0x3f7dbf72	0.9912025
33	0x3f883fbc	1.064445
34	0x3f824032	1.0175841
35	0x3f8cd3d5	1.1002146
36	0x3f8c3d8a	1.095628
37	0x3f7aa3bf	0.97906107
38	0x3f7f97b3	0.9984085
39	0x3f7a2b92	0.97722733
40	0x3f63ec34	0.8903229
41	0x3f6901c2	0.9101831
42	0x3f501f1f	0.8129749
43	0x3f678d2b	0.9044978
44	0x3fa0a2ec	1.254972
45	0x3f722519	0.94587857
46	0x3f6d3981	0.9266587
47	0x3f65fa03	0.8983461
48	0x3f7d34ff	0.9890899
49	0x3f7e3609	0.993012
50	0x3f5c1b51	0.8597918
51	0x3f6952c3	0.9114191
52	0x3f73fbbc	0.9530599
53	0x3f7e5e2b	0.9936244

input_block.0.bias f4 [54]
0	0x3b939984	0.0045043845
1	0xbc55d64a	-0.013051579
2	0xbbeaa07a	-0.0071602436
3	0x3b87e10f	0.004146702
4	0xbb49db01	-0.0030800703
5	0xbba22e35	-0.004949356
6	0x3b65767f	0.0035013256
7	0xbd2712e7	-0.04078951
8	0xbce83379	-0.028344857
9	0x3d05de93	0.032682966
10	0x3c749a7e	0.014929412
11	0xbcef6a39	-0.029225456
12	0x3d698c55	0.057018597
13	0xbc124248	-0.0089269355
14	0x3b07c6cb	0.0020717855
15	0x3ae9d6f7	0.0017840554
16	0xbd069cea	-0.03286449
17	0x3cb52e05	0.02211667
18	0xbc2d0d82	-0.010562303
19	0xbc9084b9	-0.017641412
20	0xbc77cf2f	-0.01512508
21	0xbbe857fb	-0.007090566
22	0x3cb2d1d8	0.021828577
23	0xbbfa0abf	-0.0076306756
24	0xbaeb4678	-0.0017950078
25	0x3c027f58	0.007964931
26	0xbce8ea13	-0.028431928
27	0x3b0c1d0c	0.0021379618
28	0xbc6222f3	-0.013802278
29	0x3ac8e022	0.0015325586
30	0xbd047b09	-0.032343898
31	0x3d4296f6	0.04750725
32	0xbc30326f	-0.010754212
33	0xbcf86125	-0.03031976
34	0xbbe21144	-0.006899031
35	0xbc378dc1	-0.01120323
36	0x3cc21808	0.0236931
37	0xbcafc50f	-0.02145627
38	0xbb992136	-0.0046731485
39	0x3b38e589	0.0028212985
40	0x3d366695	0.044531424
41	0x3c894b63	0.01675958
42	0xbb913f6d	-0.00443261
43	0x3a472008	0.00075960206
44	0xbc102d81	-0.0087999115
45	0x3bf3110c	0.0074178036
46	0x3d24d70d	0.04024415
47	0x3cc11601	0.023570063
48	0xbc9f45e8	-0.019442514
49	0x3bf958fd	0.007609485
50	0x3c0a58a5	0.008443986
51	0xbc89bba4	-0.016813107
52	0x3ca52625	0.02015979
53	0xbacd1ecf	-0.001564944

input_block.1.weight f4 [64, 54]
0	0x3d1f7275	0.038927514
1	0x399c27ee	0.0002978439
2	0x3dcc5367	0.09976845
3	0xbe6c0e8a	-0.23052421
4	0xbc063e49	-0.008193561
5	0xbda2afc7	-0.07943683
6	0xbd9c835b	-0.076422416
7	0xbda74905	-0.08168224
8	0xbdf65f99	-0.120299526
9	0xbd84f59d	-0.064921595
10	0xbe41a87f	-0.18911932
11	0xbd635e70	-0.055509984
12	0x3cdbf558	0.026850387
13	0xbc21041b	-0.009827639
14	0xbd0036a0	-0.031302094
15	0x3d236e12	0.039899893
16	0x3df92ad6	0.121663734
17	0xbd8a8be3	-0.067649625
18	0x3d8b84bf	0.06812429
19	0xbc95b806	-0.018276226
20	0x3d525d05	0.05135824
21	0x3d57893e	0.05262112
22	0xbc083a9c	-0.008314755
23	0x3d75cd4d	0.060010243
24	0x3dbc9ec1	0.092099674
25	0xbc257eae	-0.010101004
26	0xbd301b6a	-0.042994894
27	0xbdc2890e	-0.09498797
28	0xbdc3507a	-0.09536834
29	0x3dccc15a	0.099978164
30	0xbdad6647	-0.084667735
31	0x3cf9aa6f	0.030476777
32	0xbdd5c185	-0.104373015
33	0xbdcbb7a0	-0.09947133
34	0x3debeb9c	0.11519548
35	0x3cd742f9	0.026277052
36	0xbd7a6714	-0.06113346
37	0xbd42f336	-0.047595225
38	0xbd03d7b3	-0.03218813
39	0x3d500e49	0.050794873
40	0xbbcc2ccc	-0.006230926
41	0xbdebc349	-0.11511857
42	0x3d05ce95	0.032667715
43	0x3dbb8b86	0.09157471
44	0x3d124546	0.035710596
45	0xbcec3a8a	-0.028836507
46	0xbd35d304	-0.044390693
47	0x3c5e9b58	0.0135868415
48	0xbcd9b663	-0.026576227
49	0x3d949d6d	0.07256589
50	0xbd1782b8	-0.036989897
51	0x3da6f199	0.0815155
52	0xbdeb0def	-0.11477267
53	0x3d8877f3	0.066635035
54	0xbd9373cd	-0.071998216
55	0xbdf4f200	-0.1196022
56	0xbcec9363	-0.028878873
57	0xbdbb0a37	-0.09132808
58	0x3ce21348	0.027597085
59	0x3b4dcfee	0.0031404453
60	0xbd9cba19	-0.07652683
61	0xbd18ace1	-0.037274245
62	0x3d28d9c0	0.041223288
63	0xbca0e1c5	-0.019638905
64	0xbe1b9127	-0.1519209
65	0xbdca253e	-0.09870385
66	0xbd858a87	-0.065205626
67	0x3d8cc4b2	0.06873454
68	0xbd189110	-0.037247717
69	0xbd945ef2	-0.07244672
70	0xbd644032	-0.055725284
71	0xbd96c7ab	-0.073623024
72	0xbdc9933a	-0.09842534
73	0x3dc52d2f	0.09627759
74	0x3d9ba39d	0.07599566
75	0x3d91a3a5	0.07111291
76	0xbcb4ba52	-0.0220615
77	0x3e35fac0	0.17771435
78	0xbe0a1ce9	-0.13487591
79	0x3dbbc496	0.09168355
80	0xbd1144ea	-0.035466112
81	0x3df17a92	0.117909566
82	0xbd88a1a5	-0.06671456
83	0xbc30a4dd	-0.010781494
84	0xbdd88fac	-0.10574278
85	0xbdf44039	-0.11926312
86	0xbceb60f1	-0.028732749
87	0xbdff876c	-0.124770015
88	0xbc0e154d	-0.008672071
89	0xbe158c74	-0.1460436
90	0x3d09c397	0.033633795
91	0x3dba9692	0.0911075
92	0x3daaf4cb	0.08347472
93	0xbdc8f779	-0.09812827
94	0xbd924dc4	-0.07143739
95	0xbd436ef2	-0.047713228
96	0xbd744ab5	-0.05964156
97	0xbddadf40	-0.10687113
98	0x3d7f7c82	0.0623746
99	0x3d25a8ab	0.040444057
100	0xbdd9429e	-0.10608409
101	0xbdb6ced7	-0.0892617
102	0xbdcd7c82	-0.100335136
103	0xbc8f5a39	-0.017499076
104	0x3de79cad	0.113091804
105	0x3d671297	0.056414213
106	0xbd145a0b	-0.036218684
107	0x3d69b7fe	0.057060234
108	0xbda6318e	-0.081149206
109	0x3cdf779d	0.027278716
110	0x3a801810	0.0009772796
111	0xba806072	-0.0009794368
112	0x3dde9560	0.10868335
113	0xbde6b5bb	-0.11265131
114	0x3e3f769b	0.18697588
115	0xbd299801	-0.041404728
116	0x3d5d698b	0.05405573
117	0xbd885497	-0.06656759
118	0xbd323e9c	-0.04351674
119	0xbd23b6b4	-0.03996916
120	0x3e02467a	0.12722197
121	0x3c9bf843	0.019039279
122	0x3e0f6e75	0.1400698
123	0x3d3b4ea1	0.045729283
124	0x3d5ce518	0.05392942
125	0xbd456a70	-0.04819721
126	0xbe1a709f	-0.15082024
127	0x3d88b037	0.06674235
128	0x3d1ba900	0.038002968
129	0xbc90cbb4	-0.017675258
130	0xbd34643c	-0.044040903
131	0x3de359a6	0.111010835
132	0xbcb66d36	-0.022268873
133	0x3dda9de9	0.1067465
134	0x3cfb369a	0.030665684
135	0x3d340a9a	0.043955423
136	0xba11fe26	-0.0005569182
137	0xbdcbb24f	-0.09946119
138	0x3e106279	0.14100064
139	0x3d9aa3b0	0.07550752
140	0xbda08a48	-0.07838875
141	0x3ca2599b	0.019818118
142	0xbd0532a1	-0.032518987
143	0x3db590b7	0.08865493
144	0x3db34d57	0.08754986
145	0x3e0d596d	0.13803644
146	0x3d5f3c09	0.054500613
147	0x3dcecfc6	0.100982234
148	0x3df4a149	0.11944825
149	0x3d24ac08	0.040203124
150	0xbdc7b217	-0.09750765
151	0x3d6cad59	0.057782505
152	0xbe4bb7bf	-0.19894312
153	0xbddf9c1c	-0.109184474
154	0x3cb58485	0.022157917
155	0xbde60c80	-0.11232853
156	0xba249a64	-0.00062791095
157	0xbdb4e9b1	-0.088336356
158	0xbd755a87	-0.059900787
159	0x3cb68972	0.022282336
160	0x3ba083b5	0.004898513
161	0x3b20db3f	0.0024544743
162	0xbe2f28b6	-0.17105374
163	0x3e02aa2a	0.12760225
164	0xbd1b03fb	-0.037845593
165	0xbd64d736	-0.055869304
166	0x3e044c52	0.12919739
167	0xbe30950c	-0.17244357
168	0xbc97302f	-0.018455593
169	0x3cc52a4e	0.024068024
170	0x3e0553f5	0.13020308
171	0xbd0cbb9d	-0.03435861
172	0x3d1ff12a	0.03904835
173	0x3ddc783a	0.10765119
174	0x3c7ee96f	0.015558585
175	0x3bc1caf1	0.005914085
176	0x3b22c8b7	0.0024838874
177	0x3d3063d5	0.043063957
178	0x3c05b7b0	0.00816147
179	0x3cbf2f33	0.023337936
180	0x3e0bcd23	0.13652472
181	0x3db340b9	0.08752579
182	0xbc8b5fcf	-0.017013459
183	0xbd5e250a	-0.054234542
184	0x3dabeff7	0.08395379
185	0x3dc97888	0.09837443
186	0xbe5f1c4d	-0.2178814
187	0xbdbcbc4f	-0.092156045
188	0xbd7bda07	-0.061487224
189	0x3c5ff050	0.013668135
190	0x3cdd2da9	0.026999312
191	0x3db78bdb	0.08962222
192	0xbdcac4b3	-0.09900799
193	0x3dbe6949	0.09297425
194	0x3c6e26e7	0.014535642
195	0x3d99a333	0.07501831
196	0xbdad0d8e	-0.08449851
197	0x3e05ab12	0.1305354
198	0x3df38076	0.11889736
199	0xbd2450be	-0.040116064
200	0x3bbf04e9	0.0058294428
201	0xbaab6cc2	-0.0013078677
202	0x3e0cacc0	0.13737774
203	0x3bf90646	0.007599625
204	0x3c4d05f3	0.012513625
205	0xbcf44fad	-0.029823149
206	0xbd99b14a	-0.07504518
207	0x3ca98c3f	0.020696757
208	0xbdb2ac6c	-0.08724293
209	0xbd9c40b7	-0.07629531
210	0x3cfbf24d	0.030755186
211	0x3dceb53a	0.1009316
212	0xbcc0f4c4	-0.023554213
213	0xbde8a705	-0.113599814
214	0xbce8f7a8	-0.028438404
215	0x3d0a5857	0.033775654
216	0xbe0fd5e2	-0.14046434
217	0x3de3d0af	0.111237876
218	0x3cfd0211	0.030884774
219	0x3d52799c	0.051385507
220	0x3c79d5dd	0.015248743
221	0xbd5b0119	-0.053467844
222	0xbc9240f9	-0.017853247
223	0xbd86a82c	-0.06575045
224	0x3d533be3	0.051570784
225	0x3cfdadd7	0.030966682
226	0x3e0615b2	0.13094214
227	0x3e0f35d1	0.13985373
228	0x3de323cf	0.11090814
229	0xbde49bda	-0.11162539
230	0x3d6d69c5	0.057962198
231	0xbd799bf6	-0.06093975
232	0x3d2517f2	0.04030604
233	0x3d614d9c	0.055005655
234	0x3d9eb24d	0.07748852
235	0xbe03e1d7	-0.1287912
236	0x3d8a1339	0.06741948
237	0xbcdb947d	-0.026804203
238	0xbc697eb1	-0.014251397
239	0xbe52ac29	-0.20573486
240	0xbdd67b36	-0.10472719
241	0xbdd23ae0	-0.10265136
242	0xbe065e99	-0.13122024
243	0xbd92343b	-0.071388684
244	0xbd0fa9ec	-0.03507416
245	0xbbd04170	-0.006355457
246	0x3d62288c	0.05521445
247	0xbe64e43d	-0.22352691
248	0x3dbff51d	0.093729235
249	0xbcfa92fd	-0.030587668
250	0xbdcb7e41	-0.099361904
251	0xbe19b6a3	-0.15011077
252	0xbd842a1c	-0.06453344
253	0xbd53ceda	-0.05171094
254	0x3cc1bb15	0.023648778
255	0xbe35810c	-0.17725009

input_block.1.bias f4 [64]
0	0xbd60a162	-0.054841407
1	0x3df0f1fa	0.11764903
2	0x3d203418	0.03911218
3	0x3d4fa974	0.050698712
4	0xbddfa274	-0.10919657
5	0xbc3996f2	-0.011327492
6	0x3d37964c	0.04482107
7	0xbdb897e5	-0.090133466
8	0x3c8c46b6	0.017123561
9	0x3dc5478e	0.096327886
10	0x3d57dd21	0.05270112
11	0x3dd321ec	0.103092045
12	0x3d31c7a1	0.04340327
13	0x3cf448d4	0.029819883
14	0xbc0b2cec	-0.008494597
15	0x3e0b1045	0.13580425
16	0xbdc79a1d	-0.09746192
17	0x3cd40a43	0.0258838
18	0xbcc831c6	-0.024437796
19	0x3d7c849d	0.061649907
20	0xbdd0117f	-0.10159587
21	0xbe014307	-0.12623225
22	0xbd01d2b9	-0.0316951
23	0xbe0011be	-0.12506768
24	0xbe110109	-0.14160551
25	0xbd99d129	-0.07510597
26	0xbde72643	-0.11286595
27	0x3d01e33f	0.03171086
28	0x3d06f0d1	0.032944504
29	0xbd446320	-0.047946095
30	0x3cbcdd20	0.02305466
31	0xbde584ee	-0.11206995
32	0xbdac5385	-0.084143676
33	0xbd8fb78d	-0.070174314
34	0x3c67c57e	0.014146207
35	0x3d26edcf	0.040754136
36	0xbcd33adc	-0.025784902
37	0x3d8504a4	0.06495026
38	0xbdf0ca5d	-0.11757348
39	0xbd1d2f8c	-0.038375422
40	0x3dbfb42b	0.09360536
41	0xbd18fc34	-0.037349895
42	0x3c06be1c	0.008224037
43	0x3d7a807a	0.06115768
44	0xbdba5bb2	-0.09099521
45	0xbdf0d3e0	-0.11759162
46	0x3d9198dc	0.07109234
47	0x3c05964f	0.008153512
48	0x3dc6aa35	0.09700433
49	0xbe01ed2e	-0.12688133
50	0xbc8fe93a	-0.017567266
51	0xbdb08d52	-0.08620705
52	0xbde49102	-0.111604705
53	0xbd56dfd5	-0.052459557
54	0xbb4b5a16	-0.0031029037
55	0xbbcd0efb	-0.0062578893
56	0xbd2b3ced	-0.04180615
57	0xbd9ce470	-0.076607585
58	0xbd4db5c9	-0.050222192
59	0x3cabb28f	0.020959167
60	0xbd830c4e	-0.06398831
61	0x3c84e1ef	0.016221015
62	0xbd6e222b	-0.058138054
63	0x3daf6682	0.08564474

hidden_block.0.weight f4 [64]
0	0x3f8421a2	1.0322764
1	0x3f800ecf	1.0004519
2	0x3f7153ed	0.94268686
3	0x3f816a59	1.011058
4	0x3f88b7b4	1.0681062
5	0x3f6ee3ce	0.9331635
6	0x3f75984f	0.9593553
7	0x3f7ae1f9	0.98001057
8	0x3f76ea7f	0.9645156
9	0x3f8891de	1.0669515
10	0x3f7e0095	0.9921964
11	0x3f6e4fee	0.93090713
12	0x3f6d8c3b	0.927921
13	0x3f75b29d	0.9597567
14	0x3f5cffa4	0.86327577
15	0x3f7efaeb	0.9960162
16	0x3f857f47	1.0429467
17	0x3f75fbd8	0.9608741
18	0x3f7a7009	0.978272
19	0x3f797fc6	0.9746059
20	0x3f8fadc2	1.1224902
21	0x3f7f6fd2	0.9978
22	0x3f8cd964	1.1003842
23	0x3f77aded	0.96749765
24	0x3f8967f4	1.0734849
25	0x3f6b4829	0.9190698
26	0x3f7cf36b	0.98808926
27	0x3f7512c0	0.95731735
28	0x3f6b1d13	0.9184124
29	0x3f6e410e	0.93068016
30	0x3f737a8b	0.9510886
31	0x3f8671ae	1.0503442
32	0x3f854c73	1.0413955
33	0x3f83d4b7	1.029929
34	0x3f85e9c5	1.0461966
35	0x3f77d627	0.96811146
36	0x3f5b145b	0.85577935
37	0x3f7c1d78	0.98482466
38	0x3f8a0ce2	1.0785182
39	0x3f7b2c34	0.98114324
40	0x3f7dc8c6	0.9913448
41	0x3f77ff62	0.9687406
42	0x3f707720	0.9393177
43	0x3f806d95	1.0033442
44	0x3f87ca14	1.0608544
45	0x3f7c1324	0.98466706
46	0x3f6c0d17	0.92207474
47	0x3f887e94	1.0663629
48	0x3f7eaa1e	0.9947833
49	0x3f7e0dc4	0.99239755
50	0x3f718a11	0.943513
51	0x3f81ea47	1.0149621
52	0x3f8902b1	1.0703946
53	0x3f8446ec	1.0334144
54	0x3f71ebbe	0.9450034
55	0x3f83bd60	1.0292168
56	0x3f6d7975	0.92763454
57	0x3f8502e6	1.039151
58	0x3f784112	0.9697429
59	0x3f7b8a13	0.9825756
60	0x3f85ce2c	1.0453544
61	0x3f7be33c	0.9839361
62	0x3f75a46b	0.95954007
63	0x3f836257	1.0264386

hidden_block.0.bias f4 [64]
0	0xbbd33c1c	-0.0064463746
1	0xbcd89141	-0.02643645
2	0x3c97367d	0.0184586
3	0x3c0ee26a	0.0087209735
4	0xbd57b67d	-0.05266427
5	0x3dbec6e7	0.09315281
6	0x3c42bd67	0.011885977
7	0x3d9f9e4c	0.077938646
8	0x3ced6537	0.028978927
9	0xbd335cdb	-0.043789726
10	0x3d334798	0.04376945
11	0x3da75696	0.08170812
12	0x3c4f90d0	0.012668803
13	0xbc411877	-0.011785618
14	0x3c5f008a	0.013610968
15	0xbc959939	-0.018261539
16	0xbd01a2eb	-0.03164951
17	0xbcaf2d6b	-0.021383962
18	0x3d7db4f0	0.061940134
19	0x3d3dba09	0.046319995
20	0xbd0f9094	-0.03504999
21	0x3ce315fd	0.027720446
22	0xbdc25d49	-0.09490449
23	0x3c9752f8	0.01847218
24	0x3b564523	0.0032695017
25	0x3ca16fa9	0.019706564
26	0x3ca6b022	0.020347659
27	0x3c4b0e60	0.012393564
28	0x3d4c4431	0.04986972
29	0x3d64d470	0.05586666
30	0x3d81d34c	0.0633913
31	0xbd5949fa	-0.053049065
32	0x3d65fc31	0.05614871
33	0xbbb5cdca	-0.0055482136
34	0xbd6f7d1e	-0.05846893
35	0x3dc27379	0.09494681
36	0x3c080ef5	0.008304347
37	0xbc25595c	-0.010092106
38	0xbd2b70c3	-0.041855585
39	0xbbb23b71	-0.005439215
40	0x3c33e9e8	0.010981061
41	0xbab307d1	-0.0013658946
42	0x3cf8a3ea	0.030351598
43	0xbc0b179b	-0.008489515
44	0xbd2c32be	-0.04204058
45	0x39b62f28	0.0003474888
46	0x3d182633	0.037145805
47	0xbcecc61a	-0.028903056
48	0x3c45d1d4	0.012073953
49	0x3c73f7b3	0.014890599
50	0x3d2b0ad5	0.041758377
51	0xbc43f825	-0.011961018
52	0xbd48b8dd	-0.049004424
53	0xbd33ff74	-0.04394479
54	0xbd4fa723	-0.050696503
55	0x3cae37da	0.021266866
56	0x3d82c9b9	0.06386132
57	0xbca085e2	-0.01959509
58	0xbbe52110	-0.0069924667
59	0x3ba64a84	0.005074801
60	0xb931957e	-0.00016935726
61	0xbb19269c	-0.002336896
62	0x3d335f7a	0.043792225
63	0x3d177069	0.036972437

hidden_block.2.weight f4 [64, 64]
0	0xbd7f6371	-0.062350694
1	0xbd90a881	-0.070633896
2	0x3d05e8b5	0.03269263
3	0xbe1f3145	-0.15546139
4	0x3d9278c6	0.07151942
5	0xbc8013c9	-0.015634434
6	0x3d04f0ba	0.032456137
7	0x3e11cf6b	0.1423928
8	0xbabc9383	-0.0014387224
9	0xbdad09ab	-0.0844911
10	0x3d2be053	0.04196198
11	0xbca9104c	-0.020637654
12	0x3d72aa35	0.059244353
13	0x3c9bcbaa	0.019018013
14	0x3cb47b0f	0.022031335
15	0xbdd386c9	-0.103284426
16	0xba6e1850	-0.00090826023
17	0x3d97c18d	0.07409964
18	0x3dfc3718	0.12315196
19	0x3cda0b57	0.026616735
20	0xbe07e21c	-0.13269848
21	0xbe0e788e	-0.13913175
22	0xbd0733e0	-0.033008456
23	0xbe161d2a	-0.14659563
24	0xbda3af87	-0.079924636
25	0x3d927d26	0.071527764
26	0xbe07eb0c	-0.13273257
27	0x3d190d27	0.03736606
28	0xbc75e34d	-0.015007806
29	0x3ddccff7	0.10781854
30	0x3d8375dc	0.06418964
31	0xbd3b48a3	-0.04572357
32	0xbbb75b28	-0.0055955835
33	0xbcb494d2	-0.02204362
34	0x3d8e815e	0.069582686
35	0x3d1d8ed0	0.038466275
36	0x3c43364f	0.011914804
37	0xbdb58d2a	-0.088648155
38	0x3da04ee3	0.078275464
39	0x3dc85d79	0.097834535
40	0x3b68e8f6	0.0035539246
41	0x3e099b97	0.13438259
42	0x3d7d7b13	0.06188495
43	0x3d867ecd	0.06567154
44	0x3ccc2c49	0.02492346
45	0xbd835673	-0.06412973
46	0xbce50e46	-0.027960908
47	0x3ddf1457	0.108925514
48	0x3bafef9c	0.00536914
49	0xbcab6d40	-0.020926118
50	0x3c776617	0.015100024
51	0xbd41d909	-0.04732612
52	0x3d5cd29d	0.053911794
53	0xbd970938	-0.07374805
54	0xbe1e5060	-0.15460348
55	0x3cca27c8	0.024677172
56	0xbdf7dbfc	-0.121025056
57	0x3dcab59b	0.0989792
58	0x3d9992d6	0.0749871
59	0x3d7db852	0.06194336
60	0x3d37b336	0.044848643
61	0xbda0d401	-0.078529365
62	0x3d81607d	0.06317232
63	0x3d0f5e71	0.035002176
64	0xbdd9d499	-0.10636253
65	0xbd88c0bf	-0.066773884
66	0x3d96c8cf	0.0736252
67	0x3d43c694	0.0477968
68	0x3d7e12d2	0.062029667
69	0xbdce0d16	-0.1006109
70	0xbc8ee634	-0.017443754
71	0x3ce77cdd	0.028257782
72	0x3d956df8	0.072963655
73	0x3daa6762	0.083205
74	0xbe39f120	-0.18158388
75	0x3d971402	0.07376863
76	0xbdc1c1a2	-0.09460761
77	0xbd561024	-0.052261487
78	0xbdb57d26	-0.08861761
79	0x3c7f545f	0.0155840805
80	0xbc284184	-0.010269526
81	0x3ace3474	0.0015732185
82	0x3d84ecf5	0.064905085
83	0xbda62619	-0.08112735
84	0x3e9bb423	0.3041087
85	0xbd95326f	-0.0728501
86	0xbd446a4a	-0.047952928
87	0x3d2f6aa5	0.042826314
88	0x3cb45150	0.02201143
89	0xbbada9bb	-0.0052997745
90	0x3dd30d8f	0.103053205
91	0xbd16af1c	-0.03678809
92	0x3ddfde6d	0.10931096
93	0x3d7889d9	0.060678337
94	0xbd9533de	-0.072852835
95	0x3db71780	0.08940029
96	0x3da808ab	0.08204778
97	0xbd8a1282	-0.06741811
98	0xbc5da100	-0.013527155
99	0xbdb15ff1	-0.086608775
100	0xbd74f98a	-0.05980829
101	0xbd951a0b	-0.07280358
102	0xbccb8abf	-0.024846433
103	0x3d97bdbd	0.074092366
104	0x3d460ca3	0.048351895
105	0xbdf289c0	-0.1184268
106	0x3dc291dc	0.09500477
107	0xbd880bac	-0.06642851
108	0xbde8428a	-0.11340816
109	0xbd8c64c7	-0.06855159
110	0x3d0ec3d6	0.034854732
111	0xbdbcf885	-0.09227089
112	0xbdc9f4fd	-0.09861181
113	0x3c5b04a8	0.013367809
114	0xbd6c37e0	-0.057670474
115	0x3dc5ede2	0.09664513
116	0x3d8dbd01	0.06920815
117	0x3d2cd884	0.042198673
118	0xbda01e84	-0.078183204
119	0x3d82db7a	0.06389518
120	0xbd126f79	-0.03575084
121	0x3d9f9923	0.077928804
122	0xbe074a4c	-0.13211936
123	0xbd0872b4	-0.033312514
124	0x3e5da72b	0.21645801
125	0x3d8344ad	0.06409583
126	0xbd0cc359	-0.034365986
127	0x3e5f4c85	0.21806534
128	0xbdb406ed	-0.087903835
129	0xbd0a2dcf	-0.033735093
130	0x3ca02e21	0.019553246
131	0x3e2797e5	0.16366537
132	0x3e0c0ad0	0.13676
133	0xbdb8e23c	-0.09027526
134	0xbdd4e41d	-0.10395072
135	0xbd827f65	-0.06371955
136	0xbdc85ddf	-0.097835295
137	0x3d366f59	0.044539783
138	0x3d85748e	0.06516372
139	0x3cc339e4	0.023831315
140	0xbdaa3477	-0.08310788
141	0xbe198194	-0.14990836
142	0xbd16f9d1	-0.036859337
143	0x3e0f92cf	0.14020847
144	0x3dab77b8	0.08372444
145	0xbd05b661	-0.032644633
146	0x3b983493	0.004644939
147	0xba9256ad	-0.0011164747
148	0x3e3a1b4c	0.18174475
149	0xbdc645d8	-0.096812904
150	0x3d785009	0.060623202
151	0xbcb34560	-0.021883667
152	0xbbf1089c	-0.0073557626
153	0x3ccce720	0.025012553
154	0x3d6279f7	0.055292096
155	0x3cc9709c	0.02458983
156	0xbabb1eb4	-0.0014276118
157	0x3db92d04	0.09041789
158	0x3d898833	0.06715431
159	0xbdc76320	-0.097357035
160	0xbca4a99a	-0.020100404
161	0xbd9f0630	-0.07764852
162	0xbbad4521	-0.005287782
163	0x3d8e2600	0.06940842
164	0xbd82cb77	-0.06386464
165	0x3da70b85	0.08156494
166	0xbd7b81aa	-0.061402954
167	0x3db34c80	0.087548256
168	0x3d3a0730	0.04541701
169	0x3d4323ae	0.04764145
170	0xbd6ee6cd	-0.058325578
171	0xbcdbf27b	-0.026849022
172	0x3dec3b7c	0.11534783
173	0x3d01e756	0.03171476
174	0x3da67d85	0.0812941
175	0xbdd920d0	-0.106019616
176	0x3cb79747	0.022411002
177	0xbbc724cb	-0.006077384
178	0xbd43c502	-0.047795303
179	0xbd989416	-0.0745012
180	0xbd8f76a5	-0.070050515
181	0x3d14f2b4	0.036364272
182	0xbd2e5419	-0.04256067
183	0xbd26a540	-0.04068494
184	0x3c5f4996	0.013628384
185	0x3d8305c0	0.06397581
186	0x3cc0429d	0.023469264
187	0x3dd996b4	0.106244475
188	0x3d782a6d	0.060587335
189	0xbbabc642	-0.00524214
190	0x3d639dee	0.055570535
191	0xbdb1caee	-0.08681284
192	0x3db449ce	0.088031396
193	0xbdd9e79d	-0.1063988
194	0xbd373fa4	-0.044738427
195	0x3cb81f7b	0.022475949
196	0x3e13aaaf	0.1442058
197	0x3dc3f5f6	0.09568398
198	0xbd8066c5	-0.06269602
199	0xbde3315c	-0.11093399
200	0xbdf32b42	-0.11873485
201	0xbd912690	-0.07087433
202	0x3b9c5262	0.004770563
203	0xbd7b903f	-0.06141686
204	0xbc40bd73	-0.011763918
205	0xbe30076d	-0.17190333
206	0xbd19ec52	-0.03757889
207	0x3ce057d3	0.027385628
208	0x3e03bae4	0.12864262
209	0x3de1484e	0.11000119
210	0xbe018661	-0.12648918
211	0x3be475a5	0.006972032
212	0xbcf48573	-0.02984879
213	0x3e2e0e30	0.169976
214	0x3d6f0cca	0.058361806
215	0xbae7ed8c	-0.0017694696
216	0xbdd52699	-0.104077525
217	0xbd260eea	-0.040541567
218	0x3cf47d79	0.029844986
219	0xbe0495a9	-0.12947716
220	0x3c87362a	0.01650532
221	0xbc4579e8	-0.0120529905
222	0x3d900294	0.07031742
223	0xbd0e9751	-0.034812275
224	0x3e087981	0.133276
225	0xbdae9ef4	-0.08526412
226	0x3d7d561a	0.06184969
227	0x3bcce079	0.006252345
228	0x3d61f340	0.055163622
229	0xbba560e1	-0.0050469493
230	0x3e21b56d	0.15791865
231	0xbd3cf1a2	-0.046128877
232	0xbd1bcaf0	-0.038035333
233	0x3e23f38b	0.16010873
234	0x3d130e34	0.035902217
235	0x3e193c33	0.1496437
236	0xbc0073ae	-0.00784008
237	0xbd771136	-0.060319148
238	0xbdba67a7	-0.09101801
239	0xbd405b03	-0.046961796
240	0x3d11feda	0.035643436
241	0xbce9f28c	-0.028558038
242	0xbdcc743f	-0.0998311
243	0x3c556145	0.013023679
244	0x3d89267e	0.06696795
245	0x3d2214a4	0.039570466
246	0xbddda85e	-0.10823129
247	0x3dd7970d	0.105268575
248	0xbc8036da	-0.015651155
249	0x3df08893	0.117447995
250	0xbe1ad903	-0.15121846
251	0x3e01f956	0.1269277
252	0xbd0f222e	-0.034944706
253	0x3d2ffe05	0.04296686
254	0xbd607fbc	-0.054809317
255	0x3cb22889	0.021747844

hidden_block.2.bias f4 [64]
0	0xbd16fd97	-0.036862936
1	0x3d146533	0.036229324
2	0xbd84c951	-0.064837106
3	0x3cd1d141	0.025612475
4	0x3dfb2aee	0.122640476
5	0x3e8c76f8	0.27434516
6	0x3d8bf475	0.06833736
7	0xbd1bfb49	-0.03808144
8	0xbc6782c3	-0.014130297
9	0xbc82678d	-0.015918517
10	0x3d65282f	0.055946525
11	0xbadc1839	-0.0016791887
12	0x3d7f3da3	0.06231464
13	0x3d50aed8	0.050947994
14	0xbc0cd287	-0.0085951155
15	0xbd5f147a	-0.054462887
16	0xbc4c2268	-0.012459375
17	0xbd113040	-0.035446405
18	0xbd2ba556	-0.041905724
19	0x3d0edf4d	0.034880925
20	0x3d45cd92	0.04829175
21	0xbddfbb6a	-0.10924418
22	0x3ca589ad	0.02020725
23	0x3e32c7f0	0.17459083
24	0x3c0e8ffc	0.008701321
25	0xbd5ef1c5	-0.05442979
26	0xbd25707a	-0.04039047
27	0x3d556364	0.05209674
28	0x3cae669d	0.021289164
29	0xbe414a8c	-0.18876094
30	0xbc4b82ca	-0.012421319
31	0xbdd55c7d	-0.10418031
32	0x3e398bf5	0.18119796
33	0x3c837071	0.016044827
34	0xbdafab0e	-0.08577548
35	0xbde14189	-0.10998828
36	0x3ea88a15	0.32917848
37	0xbdd2241a	-0.10260792
38	0xbdfe5132	-0.124178305
39	0x3c2834d8	0.010266505
40	0xbe049816	-0.12948641
41	0x3deb9e43	0.115047954
42	0x3d4b8cde	0.04969489
43	0x3de73d01	0.112909324
44	0x3cccb473	0.024988389
45	0xbe195b0a	-0.14976135
46	0xbddbd5e3	-0.10734155
47	0xbdacb3fb	-0.08432766
48	0xbcdf0138	-0.02722226
49	0xbd942743	-0.07234051
50	0xbe26219b	-0.16223757
51	0xbe0651f3	-0.13117199
52	0x3d0cf911	0.034417216
53	0x3dae1288	0.08499628
54	0x3d4d3121	0.05009568
55	0x3daa5c82	0.08318426
56	0xbda4161c	-0.080120295
57	0xbcb05929	-0.02152689
58	0xbd774aff	-0.060374256
59	0x3cf6b40f	0.030115156
60	0x3dcb687a	0.09932037
61	0x3bfc74d6	0.0077043576
62	0xbd8a3f8c	-0.06750402
63	0xbe6d296c	-0.23160332

hidden_block.4.weight f4 [64]
0	0x3f6d96a2	0.9280797
1	0x3f7e2a46	0.99283254
2	0x3f8854bb	1.0650858
3	0x3f73bcf9	0.95210224
4	0x3f62c64e	0.8858384
5	0x3f67920f	0.9045724
6	0x3f7755cc	0.9661529
7	0x3f7dd99d	0.99160177
8	0x3f8078a4	1.0036817
9	0x3f7faa8c	0.9986961
10	0x3f6a68f7	0.91566414
11	0x3f5bded0	0.8588686
12	0x3f836635	1.0265566
13	0x3f4ea54f	0.8072099
14	0x3f838fc0	1.0278244
15	0x3f6af875	0.91785365
16	0x3f7dc31f	0.99125856
17	0x3f80ed12	1.0072348
18	0x3f865983	1.0496067
19	0x3f5bcee3	0.8586256
20	0x3f8482ef	1.0352458
21	0x3f6704f5	0.9024194
22	0x3f7d5eb6	0.9897264
23	0x3f71266e	0.94199264
24	0x3f72ccc7	0.94843715
25	0x3f81666f	1.0109385
26	0x3f6d0131	0.9257994
27	0x3f70529d	0.9387606
28	0x3f7dec6d	0.9918888
29	0x3f812d6f	1.009199
30	0x3f7cee1b	0.9880082
31	0x3f79042f	0.9727201
32	0x3f6f37c6	0.9344448
33	0x3f5e3534	0.8679993
34	0x3f5913cf	0.8479585
35	0x3f7abc84	0.979439
36	0x3f68ceb5	0.9094041
37	0x3f5e375e	0.86803234
38	0x3f63a586	0.88924444
39	0x3f7de63e	0.99179447
40	0x3f672456	0.9028982
41	0x3f63c7e0	0.8897686
42	0x3f5adec5	0.8549617
43	0x3f7684e9	0.96296555
44	0x3f6c16f3	0.9222252
45	0x3f781d21	0.9691945
46	0x3f6aabb9	0.9166828
47	0x3f745661	0.95444304
48	0x3f7f6ab5	0.99772197
49	0x3f7520d6	0.9575323
50	0x3f737e32	0.95114434
51	0x3f7801d2	0.9687778
52	0x3f6d8be1	0.92791563
53	0x3f63f62d	0.8904751
54	0x3f5185ec	0.81844974
55	0x3f7529d5	0.95766956
56	0x3f785fc8	0.9702115
57	0x3f678ed3	0.9045231
58	0x3f6350ea	0.8879534
59	0x3f625948	0.8841748
60	0x3f85beff	1.0448912
61	0x3f77bac0	0.9676933
62	0x3f7659f1	0.9623099
63	0x3f76eb74	0.9645302

hidden_block.4.bias f4 [64]
0	0x3cb09e69	0.02155991
1	0xba17a84f	-0.0005785273
2	0xbd502766	-0.050818823
3	0xbdb5d47e	-0.0887842
4	0xbb443577	-0.0029939094
5	0xbb789eee	-0.0037936526
6	0x3af67546	0.0018803261
7	0xbc503a4f	-0.012709214
8	0xbb513a80	-0.0031925738
9	0xbcc24f0c	-0.023719333
10	0x3c0a0706	0.008424526
11	0x3c70fb0f	0.0147082945
12	0xbd173f9c	-0.036925897
13	0xbcc325b1	-0.023821684
14	0xbc713d90	-0.01472415
15	0xbb5dab28	-0.003382394
16	0xbd1bb260	-0.03801191
17	0xbe2c0671	-0.16799332
18	0x3dd1d703	0.10246088
19	0x3ca5631c	0.02018886
20	0xbe196aa2	-0.14982083
21	0x3bf64f22	0.0075167576
22	0xbdcd19e5	-0.100147046
23	0xbca52c06	-0.020162594
24	0x3cc2248f	0.023699073
25	0xbc305ece	-0.010764791
26	0xbd000792	-0.03125722
27	0xbd35e974	-0.04441209
28	0xbcb1849f	-0.021669684
29	0xbc85841d	-0.016298348
30	0xbc88b2b6	-0.016686779
31	0xbb20542b	-0.002446423
32	0x3d86d415	0.0658342
33	0xba8f2955	-0.0010922352
34	0x3cbaedb7	0.02281843
35	0xbcf86743	-0.030322677
36	0x3bae2577	0.0053145248
37	0xbbf5f471	-0.0075059463
38	0x3cbd72ea	0.023126084
39	0xbdd21d11	-0.1025945
40	0x3b46bb0e	0.0030323896
41	0xbb0864a1	-0.0020811933
42	0xbbeafebf	-0.0071714814
43	0x3d55d52d	0.052205253
44	0x3c97e97f	0.018543957
45	0xbe080a6d	-0.13285227
46	0xbb9a8a77	-0.0047162133
47	0x3c88c7f2	0.016696904
48	0xbc49874c	-0.012300324
49	0xbc3c8f25	-0.011508738
50	0xbc920823	-0.017826146
51	0xbc94f247	-0.018181933
52	0x3cc7ab1c	0.024373583
53	0xba28f23d	-0.0006444788
54	0xbe38a0f8	-0.18030155
55	0x3d426647	0.04746082
56	0xbc310c02	-0.010806086
57	0xbcdaea18	-0.026722953
58	0x3cf45902	0.029827598
59	0x3c04e00b	0.008110057
60	0x3d4deb2a	0.050273098
61	0xbcd96493	-0.026537215
62	0xbb229458	-0.0024807658
63	0xbd192c9f	-0.03739607

layers.0.ln.weight f4 [64]
0	0x3f876b29	1.0579578
1	0x3f65a4fe	0.89704883
2	0x3f7e4a1e	0.99331844
3	0x3f3789a2	0.71694386
4	0x3f6e8a20	0.9317951
5	0x3f211b0b	0.6293189
6	0x3f88c9a4	1.0686536
7	0x3f717e05	0.94332916
8	0x3f74955d	0.9554041
9	0x3f6653a4	0.89971375
10	0x3f83aee9	1.0287753
11	0x3f5bb0b1	0.85816485
12	0x3f6e5936	0.93104875
13	0x3f4b0a98	0.7931304
14	0x3f5be1bc	0.8589132
15	0x3f89fc90	1.0780201
16	0x3f4ddc3f	0.80414194
17	0x3f3117ce	0.6917695
18	0x3f833095	1.0249201
19	0x3f809cd6	1.0047863
20	0x3f3989f9	0.72476155
21	0x3f7a2007	0.9770512
22	0x3f13f606	0.57797277
23	0x3f5a87b7	0.85363334
24	0x3f8aa0f8	1.0830374
25	0x3f6bc678	0.92099714
26	0x3f4e2138	0.8051944
27	0x3f70ee61	0.9411374
28	0x3f70d50d	0.9407509
29	0x3f75bbfa	0.95989954
30	0x3f68b5d5	0.90902454
31	0x3f788d2a	0.970904
32	0x3f758f38	0.9592166
33	0x3f6cf177	0.92555946
34	0x3f86a9c9	1.0520564
35	0x3f419222	0.75613606
36	0x3f137845	0.5760539
37	0x3f672e91	0.9030543
38	0x3f7ae71a	0.98008883
39	0x3f1b1873	0.6058418
40	0x3f74c358	0.9561057
41	0x3f66bbe0	0.90130424
42	0x3f5fe425	0.87457496
43	0x3f7bf0b4	0.9841416
44	0x3f83d1d3	1.0298408
45	0x3f20af6c	0.6276767
46	0x3f847920	1.0349464
47	0x3f902977	1.1262654
48	0x3f754b95	0.95818454
49	0x3f6334b4	0.88752294
50	0x3f5c4614	0.8604443
51	0x3f6ac822	0.9171163
52	0x3f873b2a	1.056493
53	0x3f88ab15	1.067721
54	0x3f1bece8	0.60908365
55	0x3f800ecc	1.0004516
56	0x3f71cf0e	0.94456565
57	0x3f3b681d	0.7320574
58	0x3f8e6fdf	1.112789
59	0x3f7c03d9	0.9844337
60	0x3f89c663	1.0763668
61	0x3f5e4299	0.8682037
62	0x3f741b87	0.95354503
63	0x3f48f1b2	0.784938

layers.0.ln.bias f4 [64]
0	0x3c67c23c	0.01414543
1	0xbc2db91b	-0.010603215
2	0x3cbc3db3	0.02297864
3	0x3e4054a7	0.18782292
4	0x3c2e117b	0.010624285
5	0xbed16cab	-0.4090322
6	0xbc5d559e	-0.013509182
7	0x3d0d5a70	0.034510076
8	0x3d27c9ee	0.04096406
9	0x3d974055	0.07385317
10	0x3c7ac5b2	0.015305923
11	0x3dab2501	0.08356667
12	0x3d381904	0.04494573
13	0x3cbf7b59	0.023374246
14	0xbd220be9	-0.03956214
15	0x3c3c0dc0	0.011477888
16	0x3e2a95e2	0.16658738
17	0xbb4755de	-0.003041617
18	0x3d27f353	0.041003536
19	0x3bc8a074	0.006122643
20	0xbd513218	-0.051073164
21	0xbccbf344	-0.024896272
22	0xbdc7b440	-0.09751177
23	0xbdf77f57	-0.12084835
24	0x3ae4a7a8	0.0017444985
25	0x3d8ec9b8	0.069720685
26	0xbd000120	-0.031251073
27	0x3c347c97	0.011016033
28	0x3ce12b26	0.027486395
29	0x3cebde3a	0.02879249
30	0x3d6ba153	0.057526898
31	0x3ced12e0	0.028939664
32	0xbd008442	-0.03137613
33	0xbc819eb0	-0.015822738
34	0x3c946264	0.018113323
35	0x3e435df3	0.19078808
36	0xbed025db	-0.4065388
37	0xbbd13e22	-0.0063855806
38	0x3cfb23f8	0.0306568
39	0x3e940631	0.28910974
40	0x3c6b9fa9	0.014381328
41	0xbcf67345	-0.030084262
42	0x3d70abb7	0.05875751
43	0x3c8623ca	0.016374487
44	0x3cd0ece7	0.025503589
45	0x3e83b2ac	0.25722253
46	0x3c754cbd	0.014971909
47	0x3cb61646	0.022227418
48	0x3d070246	0.032961152
49	0x3d7ee332	0.06222839
50	0x3dbc69f5	0.09199897
51	0x3d1cc132	0.038270183
52	0x3d25e4bd	0.040501345
53	0xbc299681	-0.010350824
54	0x3da8ae8b	0.082364164
55	0x3c1cfc5e	0.009581653
56	0x3cfc677a	0.03081106
57	0x3e2ce10c	0.16882724
58	0x3d0fafdd	0.035079826
59	0xbc6edf33	-0.014579582
60	0x3cc7601b	0.024337819
61	0x3d9a1442	0.07523395
62	0x3d036d36	0.032086574
63	0x3e16f5ea	0.14742246

layers.1.ln.weight f4 [64]
0	0x3f9d001a	1.2265656
1	0x3f8fb80d	1.1228043
2	0x3f861758	1.0475874
3	0x3f720a8c	0.94547343
4	0x3f7a7e9e	0.9784945
5	0x3f813220	1.0093422
6	0x3fa2ff32	1.273413
7	0x3f81bb61	1.0135309
8	0x3f832b92	1.0247672
9	0x3f81378f	1.009508
10	0x3f9aa597	1.2081784
11	0x3f7c717f	0.9861068
12	0x3f8132e9	1.0093662
13	0x3f7c8d28	0.9865289
14	0x3f8de118	1.1084318
15	0x3fa087c1	1.2541429
16	0x3f8016b5	1.000693
17	0x3f7b1cc8	0.9809079
18	0x3f4fe9af	0.8121595
19	0x3f9a6548	1.2062159
20	0x3f66dfc6	0.901852
21	0x3f970eb3	1.1801361
22	0x3f7b1c4f	0.9809007
23	0x3f86af69	1.0522281
24	0x3f9bf59a	1.2184327
25	0x3f83361e	1.025089
26	0x3f84c32c	1.0372062
27	0x3f899631	1.074896
28	0x3f81a85d	1.0129505
29	0x3f8283cc	1.0196471
30	0x3f7ef71d	0.99595815
31	0x3f87d7ee	1.0612772
32	0x3f76d80c	0.9642341
33	0x3f8e3ab7	1.1111668
34	0x3fa3e623	1.2804607
35	0x3f7cd466	0.98761594
36	0x3f824d4b	1.0179838
37	0x3f93ed20	1.155674
38	0x3f92949c	1.1451602
39	0x3f409d84	0.7524035
40	0x3f8bd3a7	1.0923966
41	0x3f923d36	1.142493
42	0x3f77a40e	0.967347
43	0x3f76ef20	0.96458626
44	0x3f971066	1.180188
45	0x3f66b70d	0.90123063
46	0x3f945e2d	1.159124
47	0x3fae646b	1.3624395
48	0x3f84bcb6	1.037009
49	0x3f8033d2	1.0015814
50	0x3f82713b	1.0190805
51	0x3f86d4ea	1.0533726
52	0x3fa36a76	1.2766864
53	0x3fa4d7fc	1.2878413
54	0x3f6dc654	0.9288075
55	0x3f840ea1	1.0316964
56	0x3f84c9b6	1.0374057
57	0x3f779427	0.9671044
58	0x3fb01a00	1.3757935
59	0x3faf1109	1.3677074
60	0x3f8db787	1.1071633
61	0x3f8153bf	1.0103682
62	0x3f8ab45e	1.0836294
63	0x3f7df0e4	0.99195695

layers.1.ln.bias f4 [64]
0	0x3ccbe82e	0.024890985
1	0x3ccb5124	0.024818964
2	0xbcc6602c	-0.02421578
3	0xbca48bdb	-0.02008622
4	0xbcf4cdfc	-0.029883377
5	0x3cbe7ee8	0.023253873
6	0x3cd88c87	0.026434196
7	0xbcc5db7a	-0.024152506
8	0xbcc6e584	-0.024279363
9	0xbcc2f779	-0.023799645
10	0x3ccf6b97	0.025319858
11	0x3cd2c781	0.025729897
12	0xbcc2aa4f	-0.02376285
13	0x3cd3a3bb	0.025834909
14	0x3cc8390a	0.02444126
15	0xbce10a22	-0.027470652
16	0xbcc0036c	-0.023439132
17	0xbcbfad14	-0.02339796
18	0xbcfafdd2	-0.03063861
19	0x3ccd31c8	0.025048152
20	0xbc987add	-0.018613273
21	0x3ccebc96	0.02523641
22	0x3cd684a0	0.026186287
23	0x3cc93629	0.024561958
24	0x3cc9c2aa	0.024628956
25	0xbcc501d0	-0.024048716
26	0x3ccf4feb	0.025306663
27	0xbcd5f6bb	-0.026118627
28	0xbcc4f959	-0.02404468
29	0xbcc74198	-0.02432327
30	0xbcbee97d	-0.023304695
31	0xbcc97388	-0.024591222
32	0xbc655fb1	-0.013999865
33	0x3cc9f52f	0.024653045
34	0x3cd2cbd7	0.025731964
35	0xbcd09db2	-0.02546582
36	0x3cc3b8ec	0.023891889
37	0x3cd6b650	0.02620998
38	0xbcd4216a	-0.02589484
39	0x3c5f65dc	0.013635125
40	0x3cdb55e2	0.02677435
41	0x3cca845c	0.024721317
42	0x3cd4e84b	0.025989672
43	0xbcd6ae2c	-0.026206098
44	0xbcd04de2	-0.025427762
45	0xbc91f029	-0.017814713
46	0xbcc85b8b	-0.024457714
47	0xbcd2f8b3	-0.025753355
48	0xbcc7c37a	-0.024385203
49	0xbcbf1324	-0.023324557
50	0xbcbb1f13	-0.022841966
51	0xbcc88d9b	-0.024481585
52	0xbcd29381	-0.025705101
53	0x3cd23a33	0.025662517
54	0x3c8727fd	0.01649856
55	0xbcd26998	-0.025685117
56	0xbcc77d78	-0.02435182
57	0xbcad39d3	-0.021145737
58	0xbcd23406	-0.025659572
59	0x3cd22025	0.025650093
60	0xbce29298	-0.027657792
61	0xbcc256af	-0.023722975
62	0xbccaa396	-0.024736207
63	0xbccbe38a	-0.024888773

logit.weight f4 [1, 64]
0	0xbea820de	-0.32837576
1	0xbe7ca551	-0.24672438
2	0x3de042bf	0.10950231
3	0x3cfc8705	0.030826101
4	0x3d189ec1	0.037260775
5	0xbd7a7af5	-0.061152417
6	0xbeae4d48	-0.34043336
7	0x3df91257	0.12161701
8	0x3e059c9f	0.13048027
9	0x3da2edad	0.07955489
10	0xbe832acb	-0.25618586
11	0xbdc2ada0	-0.095057726
12	0x3daceb4b	0.08443316
13	0xbda2794e	-0.07933293
14	0xbe60e45b	-0.2196211
15	0x3e8e1dd6	0.27757138
16	0x3d5aa70b	0.05338196
17	0x3d30f37d	0.04320096
18	0x3a2ad914	0.00065173325
19	0xbea89fac	-0.3293432
20	0x3ccb5b82	0.024823908
21	0xbe93e961	-0.2888899
22	0xbd9a228c	-0.075261205
23	0xbe32ae1d	-0.17449231
24	0xbea51518	-0.32242656
25	0x3dc1bfda	0.09460421
26	0xbde24033	-0.11047401
27	0x3df7ad2a	0.12093575
28	0x3e089a9a	0.13340226
29	0x3e0dbbb7	0.13841139
30	0x3dbfa641	0.09357882
31	0x3e1a7948	0.15085328
32	0x3c6fba89	0.014631876
33	0xbe5d5a38	-0.21616447
34	0xbeb9c279	-0.36281183
35	0x3d47830f	0.04870897
36	0xbdd05926	-0.10173254
37	0xbe7c8144	-0.24658686
38	0x3e6314ac	0.22175854
39	0x3c84561e	0.016154345
40	0xbe264515	-0.1623729
41	0xbe678ea6	-0.2261301
42	0xbd834811	-0.0641023
43	0x3d02dcda	0.0319489
44	0x3e961ae4	0.2931739
45	0x3cd67c56	0.026182335
46	0x3e68dd72	0.22740725
47	0x3ef248fd	0.4732131
48	0x3e1d2c54	0.15348941
49	0x3dc75c56	0.097344086
50	0x3da65d08	0.08123213
51	0x3e110f6c	0.14166039
52	0x3eb044a4	0.3442737
53	0xbed06cd6	-0.40708035
54	0xbcdb9056	-0.026802223
55	0x3deffd6d	0.11718259
56	0x3e242b67	0.16032182
57	0x3d577845	0.052604932
58	0x3ef63a7d	0.48091498
59	0xbeef02b2	-0.46681744
60	0x3e0fe9c2	0.14054015
61	0x3da0060d	0.07813654
62	0x3e4c3b6c	0.19944543
63	0x3d440db0	0.047864616
