Model/evo/fold4.ckpt (torch, 39231 bytes, 15 tensors)

input_block.0.weight f4 [54]
0	0x3f852592	1.040209
1	0x3f8226fc	1.0168147
2	0x3f808461	1.0040399
3	0x3f8311c3	1.0239795
4	0x3f839b7b	1.0281824
5	0x3f7b835d	0.9824732
6	0x3f87bc82	1.0604403
7	0x3f841c62	1.0321162
8	0x3f83703c	1.0268626
9	0x3f809e26	1.0048263
10	0x3f7f7b59	0.9979759
11	0x3f7bad5b	0.98311394
12	0x3f854590	1.0411854
13	0x3f81c1bc	1.0137248
14	0x3f8033c9	1.0015804
15	0x3f7aea4e	0.9801377
16	0x3f6f0b34	0.9337647
17	0x3f79355f	0.9734706
18	0x3f77544c	0.96613
19	0x3f7e243a	0.9927403
20	0x3f887a87	1.0662392
21	0x3f7ea8b8	0.99476194
22	0x3f81c36e	1.0137765
23	0x3f931159	1.1489669
24	0x3f7665a6	0.96248853
25	0x3f86db2e	1.0535638
26	0x3f69ca04	0.91323876
27	0x3f78ad8b	0.97139806
28	0x3f84ab93	1.036486
29	0x3f884a36	1.0647647
30	0x3f815832	1.010504
31	0x3f80adc7	1.0053033
32	0x3f81a98a	1.0129864
33	0x3f83145e	1.024059
34	0x3f8b6cbe	1.089256
35	0x3f8893ae	1.0670068
36	0x3f86d243	1.0532917
37	0x3f808d35	1.0043093
38	0x3f8068da	1.0031998
39	0x3f732061	0.9497128
40	0x3f6a1b49	0.91447884
41	0x3f6318b4	0.8870957
42	0x3f5183b4	0.8184159
43	0x3f5e7d8c	0.8691032
44	0x3f9db36f	1.2320384
45	0x3f746e75	0.95481044
46	0x3f7e5f82	0.99364483
47	0x3f60f6c5	0.8787654
48	0x3f7d23ba	0.9888264
49	0x3f7fad88	0.9987416
50	0x3f696784	0.9117358
51	0x3f657cce	0.8964356
52	0x3f74741f	0.95489687
53	0x3f7e8e04	0.9943545

input_block.0.bias f4 [54]
0	0xbc2e5d96	-0.01064243
1	0xbc0b5ec9	-0.008506485
2	0xbbd936fd	-0.0066288696
3	0xbc6a5dc8	-0.014304586
4	0xbc5f27c0	-0.013620317
5	0xbd257346	-0.040393136
6	0xbbf63cfb	-0.0075145937
7	0xbc81111f	-0.015755234
8	0xbc8ca0e5	-0.017166564
9	0xbd03cf28	-0.03217998
10	0x3bb8a030	0.00563433
11	0x3a876a82	0.0010331424
12	0x3a8ea001	0.0010881425
13	0xbd4e0617	-0.050298776
14	0xbc7a685a	-0.015283668
15	0x3aeff744	0.0018307944
16	0xbd9159a2	-0.07097174
17	0x3c9dd07a	0.019264448
18	0xbaed3e19	-0.0018100172
19	0x3bc6d805	0.006068232
20	0x3bb8c089	0.0056381864
21	0xbb03e722	-0.002012678
22	0x3bf8394c	0.0075751897
23	0xbb3d2073	-0.0028858453
24	0xbcd08133	-0.025452232
25	0x3bc9ba77	0.0061562615
26	0xbcb9c678	-0.022677645
27	0x3ca95f09	0.0206752
28	0xbafaefdf	-0.0019144973
29	0xbae280d1	-0.0017280822
30	0x3c413d9b	0.011794473
31	0x3c6539e5	0.013990854
32	0xbd0e6096	-0.03476008
33	0x3b54f489	0.0032494387
34	0xbc00445b	-0.007828797
35	0x3aba5c1f	0.0014218128
36	0x3bef314a	0.007299577
37	0xbc43d0e1	-0.011951656
38	0x3bdf5220	0.00681521
39	0xbc7a7a99	-0.015288019
40	0x3d234711	0.039862696
41	0xbc10f8dc	-0.008848395
42	0xbb307cb0	-0.0026929788
43	0x3c4407fe	0.011964796
44	0xbc222c98	-0.009898327
45	0xbc4e279c	-0.012582686
46	0xbc337ddd	-0.010955301
47	0x3ba793f6	0.005114074
48	0xba670bec	-0.0008813727
49	0x3b56adbf	0.003275737
50	0xbcd6fa09	-0.026242273
51	0x3b324759	0.002720317
52	0xbc925ee8	-0.01786752
53	0xbad05a61	-0.0015896076

input_block.1.weight f4 [64, 54]
0	0xbd8c3683	-0.06846335
1	0x3e3c4b80	0.18388176
2	0xbd447197	-0.04795989
3	0x3d3adfbe	0.045623533
4	0xbcbe0e88	-0.023200288
5	0x3cb573b6	0.022149902
6	0x3dcbf041	0.09957934
7	0xbca4bf53	-0.020110762
8	0xbd891074	-0.06692591
9	0xbe3b8526	-0.18312511
10	0xbd464dfb	-0.04841421
11	0x3b920ec1	0.004457325
12	0x3d856293	0.06512942
13	0x3dae7d28	0.085199654
14	0x3e05cde9	0.1306683
15	0xbdc1a100	-0.094545364
16	0x3cd23400	0.025659561
17	0x3c9f76b9	0.019465791
18	0x3c14e5ec	0.009088021
19	0x3d8f8318	0.07007426
20	0x3da846f0	0.08216655
21	0x3d31e460	0.043430686
22	0x3e026cca	0.12736812
23	0x3dfd1a13	0.12358489
24	0xbb0e70ce	-0.0021734717
25	0xbd846bfb	-0.06465908
26	0xbd6de456	-0.058079086
27	0x3de2588c	0.11052045
28	0x3c3995dd	0.011327234
29	0x3d9fbbd9	0.07799501
30	0xbd50d314	-0.05098255
31	0x3d2281a7	0.039674427
32	0x3cae8b75	0.021306733
33	0x3d5518c8	0.052025586
34	0xbda84000	-0.08215332
35	0xbbd503ef	-0.006500713
36	0xbd16f8c1	-0.036858324
37	0xbdeebe5d	-0.11657403
38	0xbdec0734	-0.115248114
39	0x3d889fa5	0.06671075
40	0xbd05ae7a	-0.032637097
41	0x3d6b3b6a	0.05742971
42	0x3d510f1a	0.051039793
43	0x3c26555d	0.010152188
44	0xbe73e167	-0.23816453
45	0x3ded2134	0.115785986
46	0x3d0ef85a	0.034904815
47	0x3bc35f06	0.0059622554
48	0xbbc6c104	-0.0060654897
49	0x3d6481c2	0.05578781
50	0xbdae368f	-0.085065
51	0x3dbe6895	0.09297291
52	0x3d87c574	0.06629458
53	0xbcdb00fd	-0.02673387
54	0x3c3460fa	0.011009449
55	0x3dd8c158	0.105837524
56	0x3dde4c39	0.10854382
57	0xbe03ec60	-0.12883139
58	0x3db36416	0.08759324
59	0x3dbd7034	0.09249917
60	0xbe4ead15	-0.20183213
61	0x3e044028	0.12915099
62	0xbdea7d2c	-0.11449656
63	0x3db5afc7	0.088714175
64	0xbdc291b5	-0.09500448
65	0x3d4ddc6e	0.050259046
66	0x3d9fa59c	0.07795259
67	0x3e1036d0	0.1408341
68	0x3d6121b7	0.054963794
69	0x3d6cddc3	0.057828676
70	0x3c79be1c	0.0152430795
71	0x3d2557bc	0.040366873
72	0x3d6d5402	0.057941444
73	0xbdb0f4e7	-0.086404614
74	0x3d5a33af	0.053271946
75	0x3de16960	0.11006427
76	0x3e241050	0.16021848
77	0x3e1ce3ff	0.15321349
78	0x3d81a4ce	0.06330262
79	0xbd352b35	-0.04423066
80	0xbc1725b0	-0.009225294
81	0xbd856f4f	-0.06515371
82	0x3d263f81	0.040587906
83	0x3e1232a9	0.14277138
84	0xbe17df29	-0.14831223
85	0xbdff7280	-0.12473011
86	0xbc93200c	-0.017959617
87	0xbd854815	-0.06507889
88	0xbe0b157c	-0.13582414
89	0xbd9e31b6	-0.07724325
90	0xbd7e2354	-0.06204541
91	0xbd4119d0	-0.047143757
92	0x3d825ca5	0.06365327
93	0x3d39b5c7	0.045339372
94	0xbd719ce1	-0.058987502
95	0x3d60d79d	0.054893125
96	0x3d1ed376	0.038775884
97	0xbdb9f617	-0.09080141
98	0x3d3f024c	0.04663305
99	0x3deeb248	0.11655098
100	0xbb0455ae	-0.002019267
101	0xbdabfe40	-0.08398104
102	0x3e0c7bb9	0.13719071
103	0xbe04f8e4	-0.12985569
104	0x3dddf009	0.10836799
105	0xbd90dad2	-0.07072987
106	0x3d5877de	0.05284869
107	0x3e001df5	0.12511428
108	0xbd9d6ca8	-0.0768674
109	0x3c21fe1d	0.0098872455
110	0x3d9fc2d0	0.078008294
111	0xbe28bf05	-0.16479118
112	0xbd8b1e4b	-0.06792887
113	0x3d2add55	0.041714985
114	0xbe534553	-0.20631914
115	0x3e00433f	0.12525652
116	0x3d7aabe1	0.061199073
117	0xbc3374b6	-0.010953119
118	0xbdbea26f	-0.093083255
119	0x3caa1af7	0.020764811
120	0x3dbffeb3	0.09374752
121	0xbc65aaf2	-0.014017807
122	0x3c7a820a	0.015289793
123	0xbc27e7dc	-0.010248151
124	0x3dca10a7	0.098664574
125	0x3aa9461d	0.0012914572
126	0xbdeae510	-0.114694715
127	0x3dd15720	0.10221696
128	0x3c362bbb	0.011118825
129	0xbbe0b880	-0.0068579316
130	0x3dd0a662	0.10187985
131	0x3d3592f2	0.04432959
132	0xbcfd8413	-0.030946767
133	0xbd100df5	-0.03516956
134	0xbbcfc457	-0.006340544
135	0x3d47540f	0.04866415
136	0xbd8e70b9	-0.06955094
137	0x3c7b9b7b	0.015356894
138	0x3d73aa86	0.059488796
139	0x3d16cb43	0.03681494
140	0x3baa929f	0.005205467
141	0x3b689075	0.0035486494
142	0xbdd004ff	-0.10157203
143	0xbdf709e8	-0.12062436
144	0xbbd31c3d	-0.0064425752
145	0x3dd9b349	0.10629899
146	0xbdfc1cdb	-0.12310191
147	0xbcf1c5e0	-0.0295133
148	0xbe0aeb64	-0.13566357
149	0x3de431d5	0.11142317
150	0x3cae0aa0	0.0212453
151	0x3d1b7b8e	0.037959628
152	0x3de8ac88	0.11361033
153	0x3dc73c58	0.097283065
154	0x3db50e18	0.08840579
155	0x3d4106f3	0.047125768
156	0xbc98ef67	-0.018668843
157	0x3d4e0e66	0.0503067
158	0xbc917c39	-0.01775943
159	0xbac6a07c	-0.0015154029
160	0x3c7cbec6	0.015426343
161	0x3d72e92b	0.059304398
162	0xbe3bb2eb	-0.1832997
163	0x3dcf3e81	0.101193435
164	0xbe11fdca	-0.14256969
165	0x3d871527	0.06595831
166	0xbc63ab41	-0.013895811
167	0x3c807e7f	0.015685318
168	0xbcc26a14	-0.023732223
169	0x3c9e9fff	0.019363401
170	0x3d6b0e67	0.057386782
171	0xbda07b22	-0.07835986
172	0xbdc2820d	-0.094974615
173	0x3dfbbf11	0.122923024
174	0xbce341dd	-0.027741367
175	0xbe29b11f	-0.16571473
176	0xbd919337	-0.07108157
177	0xbda2cb84	-0.07948974
178	0x3d24585d	0.040123332
179	0xbd22fd54	-0.039792374
180	0x3d821a91	0.063527234
181	0xbca2aee4	-0.019858785
182	0xbcf575ac	-0.029963337
183	0xbd4bf7d3	-0.04979689
184	0x3d6d45b5	0.057927806
185	0x3e04812b	0.12939899
186	0xbcdd67fd	-0.027027125
187	0xbd9192ed	-0.07108102
188	0xbd83a03b	-0.06427046
189	0x3d9dc9ed	0.0770453
190	0xbcd54cf4	-0.02603767
191	0x3e13763a	0.14400569
192	0xbbc28485	-0.0059362077
193	0xbd1f196b	-0.0388426
194	0xbddf04f2	-0.10889615
195	0x3dab10e4	0.08352831
196	0xbd88a86f	-0.06672751
197	0xbcd79b99	-0.026319312
198	0x3b482e15	0.0030545045
199	0x3c68c186	0.014206296
200	0x3c4d4445	0.012528484
201	0xbcc435f8	-0.023951516
202	0xbde27fbc	-0.1105952
203	0xbdb316ae	-0.0874456
204	0x3e246069	0.16052403
205	0xbe17bdb9	-0.14818467
206	0xbbb6bb88	-0.0055765547
207	0x3d85dffa	0.06536861
208	0x3dffef17	0.12496775
209	0xbda320f1	-0.079652674
210	0x3d69ee2a	0.057111897
211	0x3dcae6a3	0.09907272
212	0xbbc998e0	-0.0061522573
213	0xbdf14ae2	-0.11781861
214	0xbdaa66c3	-0.083203815
215	0x3dd79556	0.105265304
216	0xbddb7a5a	-0.10716696
217	0x3cfa68ef	0.030567614
218	0x3e07c237	0.13257681
219	0xbd26f089	-0.040756736
220	0x3d99980d	0.074997045
221	0x3c80d4fb	0.015726557
222	0xbdca4a69	-0.09877474
223	0x3d0224b3	0.03177328
224	0xbdf314e5	-0.1186922
225	0x3caf84aa	0.021425564
226	0x3e0d26eb	0.13784377
227	0x3df39f31	0.11895598
228	0x3cbb97e6	0.02289958
229	0x3d8b8dc9	0.06814153
230	0x3e0b088b	0.13577478
231	0x3cfa82be	0.03057992
232	0xbdd88294	-0.10571781
233	0x3e09fadf	0.13474606
234	0xbdb9f182	-0.09079267
235	0x3ccde393	0.02513293
236	0xbbd161a1	-0.006389812
237	0xbc09b677	-0.008405319
238	0xbced2a85	-0.028950939
239	0x3c9b364b	0.018946787
240	0xbe7d2817	-0.24722324
241	0x3c5e97a3	0.013585958
242	0x3be08146	0.006851348
243	0xbd86f5f4	-0.065898806
244	0x3cfd06ce	0.030887034
245	0x3cf493e7	0.029855682
246	0xbdf56790	-0.119826436
247	0xbd704f22	-0.058669217
248	0x3dd1ceba	0.10244508
249	0x3d27e998	0.040994257
250	0x3d5de22f	0.054170784
251	0xb7e08fb4	-2.6769798e-05
252	0x3c7e658d	0.015527141
253	0xbe72e8f0	-0.23721671
254	0xbcfbbded	-0.030730212
255	0xbd886788	-0.06660372

input_block.1.bias f4 [64]
0	0x3ded7920	0.115953684
1	0xbdddc117	-0.108278446
2	0xbd232662	-0.039831527
3	0xbe0ad8e3	-0.13559298
4	0xbdca1f8f	-0.098693006
5	0x3dd8adad	0.10580001
6	0x3cfa6703	0.030566698
7	0x3dfa626f	0.12225806
8	0xbe03e66c	-0.12880868
9	0xbd255c37	-0.040371146
10	0xbde0e873	-0.10981836
11	0xbdead217	-0.11465853
12	0xbce8d60d	-0.02842238
13	0xba6a57ad	-0.00089394563
14	0xbe0b90ac	-0.13629407
15	0xbd7c4c91	-0.061596457
16	0x3ba42e32	0.0050103897
17	0xbc325c89	-0.01088632
18	0x3d9e3526	0.07724981
19	0xbc39d6e4	-0.011342738
20	0x3d0f6d0b	0.0350161
21	0x3d008f0b	0.031386416
22	0x3d0476fa	0.032340027
23	0xbe1bbbad	-0.15208311
24	0xbdc68e42	-0.09695102
25	0x3d861a38	0.065479696
26	0xbd10dc04	-0.035366073
27	0xbd4f0040	-0.050537348
28	0x3d9ac8eb	0.07557853
29	0xbdd9cd85	-0.10634903
30	0x3e04f547	0.12984191
31	0x3e0cf26e	0.13764355
32	0xbdff3b99	-0.12462539
33	0x3d502c88	0.05082372
34	0xbddddedd	-0.108335234
35	0xbbd2d247	-0.0064337584
36	0x3cdea951	0.027180346
37	0x3db8ac76	0.09017269
38	0xbd0fa9ee	-0.035074167
39	0x3de6e2f0	0.11273754
40	0xbc77164a	-0.015080998
41	0x3d581161	0.05275095
42	0x3dc99af5	0.09844009
43	0xbdd03f7b	-0.10168358
44	0x3c4dc719	0.012559676
45	0x3d9d9afb	0.07695576
46	0x3dabad03	0.08382609
47	0x3de21f29	0.110410996
48	0x3dcdc8d7	0.10048073
49	0xbdf53e51	-0.119747765
50	0xbe0daf25	-0.13836344
51	0xbdb9b185	-0.09067062
52	0xbdce6363	-0.1007755
53	0x3da34abe	0.0797324
54	0x3d4862cc	0.048922345
55	0xbdc2dd4d	-0.09514866
56	0x3cd37c74	0.02581618
57	0xbd46a40a	-0.048496284
58	0x3d87a98f	0.066241376
59	0x3d23ba6b	0.039972704
60	0x3da62fac	0.081145614
61	0xbda99518	-0.082803905
62	0xbd008a1c	-0.03138171
63	0x3dcd0a60	0.100117445

hidden_block.0.weight f4 [64]
0	0x3f82450c	1.0177321
1	0x3f79895c	0.9747522
2	0x3f77658b	0.9663932
3	0x3f704d78	0.9386821
4	0x3f7ac5e0	0.97958183
5	0x3f764dc3	0.96212405
6	0x3f7737c8	0.9656949
7	0x3f800dcc	1.000421
8	0x3f8104c9	1.0079585
9	0x3f81eb70	1.0149975
10	0x3f80c452	1.0059912
11	0x3f8fe644	1.1242146
12	0x3f6e201a	0.93017733
13	0x3f6ede3a	0.9330784
14	0x3f85d630	1.045599
15	0x3f7e5e78	0.993629
16	0x3f74db71	0.9564734
17	0x3f83f9ba	1.0310585
18	0x3f785de0	0.9701824
19	0x3f922f6a	1.142072
20	0x3f70d72d	0.9407833
21	0x3f6f044b	0.93365926
22	0x3f743754	0.95396924
23	0x3f852fc0	1.0405197
24	0x3f716179	0.94289356
25	0x3f680edd	0.9064768
26	0x3f7dc8b9	0.99134403
27	0x3f87a976	1.059859
28	0x3f78da45	0.9720805
29	0x3f783a1b	0.9696366
30	0x3f82ae62	1.0209467
31	0x3f6f1b22	0.93400776
32	0x3f807d2b	1.0038198
33	0x3f6c8807	0.9239506
34	0x3f795c92	0.97406876
35	0x3f800457	1.0001324
36	0x3f855fa5	1.0419813
37	0x3f85a2ae	1.0440271
38	0x3f767d3d	0.9628485
39	0x3f823be8	1.0174532
40	0x3f827593	1.0192131
41	0x3f76b308	0.9636693
42	0x3f80668f	1.0031298
43	0x3f7b3cfd	0.98139936
44	0x3f77f750	0.96861744
45	0x3f6ede7e	0.93308246
46	0x3f87b916	1.0603359
47	0x3f6e0028	0.9296899
48	0x3f7a4415	0.97760135
49	0x3f78bf63	0.9716703
50	0x3f86f6c5	1.0544058
51	0x3f7c65d8	0.985929
52	0x3f7f686a	0.997687
53	0x3f802130	1.0010128
54	0x3f8cd493	1.1002373
55	0x3f7f8d47	0.9982495
56	0x3f85174b	1.0397733
57	0x3f7523f4	0.95757985
58	0x3f7aa83a	0.97912943
59	0x3f80b193	1.0054191
60	0x3f86e9eb	1.0540136
61	0x3f82a005	1.0205084
62	0x3f7f1b4b	0.9965102
63	0x3f80fbdd	1.0076863

hidden_block.0.bias f4 [64]
0	0x3d0e47b8	0.034736365
1	0x3cc686ab	0.024234137
2	0xbcca10dc	-0.024666242
3	0x3ba8ac1b	0.0051474697
4	0x3cda4325	0.026643345
5	0xbcc25ae4	-0.02372498
6	0x3d4623d4	0.048374012
7	0xba93b462	-0.0011268968
8	0xbc310fb0	-0.010806963
9	0x3cd6bbe5	0.026212642
10	0xbd51dda1	-0.051236752
11	0xbdb5b19d	-0.08871768
12	0x3d233f1c	0.039855108
13	0x3d2013ff	0.03908157
14	0xbc0d34c4	-0.008618537
15	0x3cbf3e10	0.023345023
16	0x3d0d0b82	0.034434803
17	0xbc8a74cf	-0.016901402
18	0xbd03ea90	-0.032206118
19	0xbdbba502	-0.09162332
20	0xbd00c103	-0.03143407
21	0x3cf2c639	0.029635536
22	0x3c558984	0.013033275
23	0xbcb57977	-0.022152646
24	0xbd109505	-0.035298366
25	0x3d63c0cf	0.0556038
26	0x3c337ae1	0.01095459
27	0x3c05b9ae	0.008161945
28	0x3d8856db	0.06657191
29	0x3d12b0e8	0.035813242
30	0xbada0bad	-0.001663556
31	0x3d931bc0	0.07183027
32	0xbbec26ec	-0.0072067883
33	0x3c389f55	0.0112684565
34	0x3d812c8e	0.06307326
35	0xbc218c50	-0.009860113
36	0xbd6855bf	-0.0567224
37	0x39e96ce8	0.00044522365
38	0x3c260a60	0.0101343095
39	0x3bb5756d	0.00553768
40	0xbccabd34	-0.024748422
41	0xbbf58291	-0.0074923714
42	0x3c2c4add	0.010515896
43	0xbb02f71f	-0.0019983721
44	0x3d2045d8	0.03912911
45	0x3cde3d40	0.027128816
46	0xbdb2a9df	-0.087238066
47	0x3ce9c6a4	0.028537102
48	0x3ced07e7	0.028934432
49	0x3adc03b1	0.0016785768
50	0xbd9d727c	-0.07687852
51	0x3bb64b06	0.0055631427
52	0x3cdebe35	0.027190307
53	0x39904950	0.00027520442
54	0xbc941159	-0.018074678
55	0x3ca95a5f	0.020672975
56	0x3d2f2f68	0.04276982
57	0x3d43cac7	0.047800805
58	0x3c4694d2	0.012120442
59	0xbc67f18e	-0.014156712
60	0xbbc725d5	-0.006077508
61	0x3cf01256	0.029305618
62	0xbb4a3111	-0.0030852
63	0x3cd69c28	0.026197508

hidden_block.2.weight f4 [64, 64]
0	0x3c9526f4	0.01820705
1	0x3d38e954	0.045144394
2	0x3d1eb583	0.03874732
3	0x3c3a8959	0.011385285
4	0x3bc5faff	0.006041884
5	0xbc716474	-0.014733423
6	0x3d81776e	0.063216075
7	0xbd940091	-0.072266705
8	0x3d635a1a	0.05550585
9	0xbdd26142	-0.10272457
10	0xbe08f245	-0.13373668
11	0xbdfc03ea	-0.12305434
12	0x3d99c339	0.07507939
13	0x3d335c85	0.043789405
14	0xbdea50db	-0.11441203
15	0x3e16021a	0.14649239
16	0xbe03315d	-0.128118
17	0xbe08d305	-0.13361748
18	0x3d3c4b14	0.045970038
19	0xbd9b54b3	-0.075845145
20	0xbdc49421	-0.09598566
21	0x3da084b3	0.0783781
22	0x3d0475a1	0.032338742
23	0x3c1e370c	0.009656679
24	0x3cb52894	0.022114076
25	0xbd67377c	-0.0564494
26	0xbc263727	-0.010144985
27	0x3e2b1385	0.16706665
28	0xbb27e93a	-0.0025621192
29	0xbb91813b	-0.0044404543
30	0xbe0b581b	-0.13607828
31	0x3dc495e9	0.095989056
32	0xbcb5302f	-0.022117702
33	0x3d8e901e	0.06961082
34	0x3dd967ec	0.10615525
35	0xbd8d0146	-0.068850085
36	0x3d63615d	0.055512775
37	0x3e03875b	0.12844603
38	0x3ce24c45	0.027624259
39	0x3d8e3d9d	0.069453456
40	0x3b566e26	0.0032719462
41	0x3d88cb92	0.06679453
42	0x3d4afae0	0.04955566
43	0x3bba5545	0.0056864345
44	0xbbf0de92	-0.007350751
45	0xbd18ec7d	-0.037334908
46	0xbd010127	-0.03149524
47	0x3ddb8205	0.10718159
48	0x3dbcc049	0.09216363
49	0x3e3b9154	0.18317157
50	0x3c3f9b49	0.011694738
51	0x3d430d69	0.04762021
52	0x39e73eaf	0.00044106456
53	0x3dcdf67e	0.1005678
54	0xbc937a75	-0.018002728
55	0xbe375343	-0.17902856
56	0xbe17a62a	-0.1480948
57	0x3d8f7a61	0.07005764
58	0xbd446832	-0.04795093
59	0xbe230e60	-0.15923452
60	0xbcf6d477	-0.030130608
61	0xbdd0e31d	-0.101995684
62	0x3d026e99	0.031843755
63	0xbe32bdf2	-0.17455271
64	0x3de41e66	0.111386105
65	0x3c3689fa	0.011141295
66	0x3dede9aa	0.116168335
67	0xbda6a42e	-0.081367835
68	0xbd1bdab3	-0.038050365
69	0xbdd10e65	-0.10207824
70	0xbc54a0f0	-0.012977824
71	0x3dd4d0ce	0.10391389
72	0xbd57837c	-0.052615628
73	0xbd36c94b	-0.04462556
74	0x3dccbf81	0.09997464
75	0x3d93f078	0.072236
76	0xbd571157	-0.05250677
77	0xbd8b5ad2	-0.06804432
78	0x3d52ffef	0.05151361
79	0xbc3594a9	-0.011082807
80	0x3d5535e8	0.052053362
81	0x3c99efaf	0.018791048
82	0x3d54c93e	0.051949732
83	0xbdf856f8	-0.12125963
84	0xbe2c02b9	-0.16797914
85	0x3dc36ba3	0.095420144
86	0x3d9c41cf	0.076297395
87	0xbe1adc56	-0.15123114
88	0xbd6a52fa	-0.05720804
89	0x3dad9c90	0.084771276
90	0x3cda1c13	0.026624715
91	0x3dc7d2b1	0.09756983
92	0xbd9fe8d2	-0.07808079
93	0x3d35a83f	0.044349905
94	0xbda463b0	-0.080268264
95	0xbe2f59c2	-0.17124084
96	0x3dc4ecec	0.09615502
97	0x3dfda496	0.12384908
98	0xbcedcaa8	-0.029027298
99	0x3db153d6	0.086585686
100	0xbdd2ab7e	-0.10286616
101	0xbd162d8b	-0.036664527
102	0xbdce5f02	-0.10076715
103	0xbd94c0ab	-0.07263311
104	0xbdec2ebf	-0.115323536
105	0x3c2d7f61	0.0105894515
106	0xbdb346c2	-0.0875373
107	0x3d4d88f2	0.05017943
108	0x3cd5911d	0.026070172
109	0xbd8a3058	-0.06747502
110	0xbc17f598	-0.009274863
111	0xbb47c1dc	-0.003048054
112	0x3c76ce42	0.015063824
113	0xbd958318	-0.07300395
114	0xbd7b7e96	-0.06140002
115	0xbd0f7008	-0.03501895
116	0xb80b662d	-3.323534e-05
117	0xbdf26f38	-0.118376195
118	0xbc6ce411	-0.014458672
119	0xbd814369	-0.063116856
120	0x3db885ea	0.09009917
121	0x3da38d5c	0.079859465
122	0xbc27efb2	-0.010250019
123	0xbdaa2900	-0.083086014
124	0x3e51c5fb	0.2048568
125	0x3dc10cf0	0.09426296
126	0xbd8e99d9	-0.06962938
127	0x3d5f07fa	0.054450966
128	0xbcbf9112	-0.023384605
129	0x3d66c786	0.056342624
130	0xbd823a36	-0.06358759
131	0xbd23992c	-0.039940998
132	0xbdf6f69f	-0.12058758
133	0xbce4eb47	-0.02794422
134	0x3da979d1	0.08275188
135	0x3dac865c	0.084240645
136	0xbc99596e	-0.018719401
137	0x3df8a518	0.12140864
138	0xbd6e30bf	-0.058151957
139	0xbd7b06a0	-0.061285615
140	0xbdbe3d27	-0.09289008
141	0xbbe73532	-0.007055902
142	0xbd62c25f	-0.055361148
143	0xbdaacbc0	-0.083396435
144	0x3dfc61d3	0.12323346
145	0x3c866fe7	0.016410781
146	0x3c640a4c	0.013918471
147	0xbd7bec15	-0.061504442
148	0xbc1119ea	-0.008856276
149	0x3dafe9de	0.085895285
150	0x3da194e0	0.07889724
151	0xbc80c907	-0.015720857
152	0xbc6af39d	-0.0143403085
153	0x3deefb9f	0.11669087
154	0x3d0acd55	0.033887226
155	0xbd9956bf	-0.07487249
156	0x3d493d16	0.04913052
157	0xbdae2d8d	-0.08504782
158	0xbd43e0a3	-0.047821652
159	0xbd563096	-0.05229243
160	0xbdbf6aca	-0.0934654
161	0xbdcabb44	-0.09898999
162	0x3d5248d9	0.051339004
163	0xbd6a4bef	-0.057201322
164	0x3d775634	0.060384944
165	0xbd921f14	-0.07134834
166	0x3b8a6fb6	0.0042247428
167	0x3c1ea39e	0.009682564
168	0xbdd17412	-0.10227217
169	0xbd0a5be5	-0.033779044
170	0xbccf2c77	-0.025289757
171	0x3dc4cf44	0.09609845
172	0xbc24f118	-0.010067247
173	0xbdf6a210	-0.1204263
174	0xbddb589c	-0.1071026
175	0x3d900ebb	0.070340596
176	0x3cc75db5	0.024336675
177	0xbd29c948	-0.041451722
178	0xbd39b726	-0.04534068
179	0x3d2aa4ad	0.041660953
180	0x3d8b4bbd	0.06801555
181	0x3d4b6200	0.049654007
182	0x3cc6c627	0.024264408
183	0x3d1a9312	0.037737913
184	0x3d47314b	0.048630994
185	0x3d35d4e8	0.044392496
186	0xbe0b051b	-0.13576166
187	0x3d6c5bfc	0.05770491
188	0x3d1ec3e8	0.03876105
189	0x3cc42266	0.023942184
190	0xbd37d602	-0.044881828
191	0xbdf6da98	-0.12053412
192	0x3e02762f	0.12740396
193	0x3dcc6d2d	0.09981761
194	0xbc861dfe	-0.016371723
195	0xbd1b15ca	-0.037862577
196	0x3e31a1a5	0.17346819
197	0xbdd9336e	-0.106055126
198	0x3d90f15c	0.07077286
199	0xbcbf2132	-0.023331258
200	0x3cdaa90c	0.026691936
201	0x3e10e2ca	0.14149013
202	0x3c99d47d	0.01877808
203	0xbd3e17da	-0.046409465
204	0x3c1a687a	0.009424323
205	0xbd1e1307	-0.038592365
206	0x3d5349ca	0.051584043
207	0xbe031df4	-0.12804395
208	0x3b94694c	0.004529154
209	0x3dcfda7a	0.10149093
210	0xbe42daef	-0.19028829
211	0x3e044099	0.12915267
212	0xbcdfb833	-0.027309513
213	0xbd641947	-0.05568817
214	0xbcd6e091	-0.026230128
215	0x3e02c9ea	0.12772337
216	0x3cb4d6a4	0.022075005
217	0xbc5b7362	-0.013394209
218	0xbd0bff50	-0.03417903
219	0xbd68f538	-0.056874484
220	0x3e000e27	0.12505399
221	0xbcddb2fa	-0.027062882
222	0xbc7318ce	-0.014837457
223	0xbcf27f9a	-0.02960186
224	0x3c5fc2df	0.013657301
225	0x3d822084	0.06353858
226	0x3dfa6a70	0.122273326
227	0xbbd009ad	-0.0063488097
228	0xbd2f1c02	-0.04275132
229	0xbda9deca	-0.08294447
230	0xbe16cb11	-0.14725901
231	0xbd86f79d	-0.06590197
232	0x3dcc3117	0.09970301
233	0x3d7c9996	0.06166991
234	0x3d46aa78	0.048502415
235	0x3d1f4660	0.038885474
236	0x3dd2d121	0.102937944
237	0xbd04d109	-0.032425914
238	0x3df08e20	0.11745858
239	0x3d3dec34	0.04636784
240	0x3d232b99	0.0398365
241	0xbd815855	-0.06315676
242	0x3d542731	0.05179519
243	0x3cf9644f	0.030443339
244	0xbdad838b	-0.084723555
245	0x3bc561f5	0.0060236403
246	0x3d688d3c	0.056775317
247	0x3d2c570a	0.042075194
248	0xbd35cb43	-0.0443833
249	0xbd22289f	-0.03958952
250	0x3cbb1d18	0.022841021
251	0x3ccb8796	0.024844926
252	0x3dfbf235	0.12302057
253	0xbd977a5a	-0.073963836
254	0x3dcac7c4	0.099013835
255	0x39042fd9	0.00012606326

hidden_block.2.bias f4 [64]
0	0xbd9bd2dc	-0.076085776
1	0x3c678fd3	0.014133411
2	0x3d967c79	0.0734796
3	0xbbed6f29	-0.0072459173
4	0x3d0e2dbc	0.034711584
5	0xbca971b4	-0.0206841
6	0x3b500398	0.0031740423
7	0xbdb2f511	-0.08738149
8	0x3d81f5ab	0.063456856
9	0x3e3b19bf	0.1827154
10	0xbd5e7d8d	-0.054318953
11	0x3d12f64c	0.03587942
12	0xbdc92574	-0.09821597
13	0x3dfc5aa2	0.12321974
14	0x3d8c284e	0.06843625
15	0xbdd1100a	-0.10208137
16	0x3cd503cb	0.026002785
17	0xbe27a4d8	-0.16371477
18	0x3c919a00	0.017773628
19	0xbdf25cda	-0.11834116
20	0x3db7d2db	0.08975764
21	0x3ce2844e	0.027650978
22	0x3e78252b	0.24232928
23	0x3eda2a01	0.4261017
24	0xbda5b4b0	-0.08091104
25	0x3e86467d	0.26225653
26	0x3d0b2f58	0.033980697
27	0x3c9a14f2	0.018808816
28	0x3bf07457	0.0073380875
29	0xbdf5a092	-0.11993517
30	0xbd6e1da5	-0.05813374
31	0xbd0ee71c	-0.03488837
32	0x3dab58fb	0.08366581
33	0xbd9406df	-0.07227873
34	0xbd36a450	-0.044590294
35	0xbdbc90df	-0.092073195
36	0x3d35b93b	0.044366103
37	0xbd5134eb	-0.051075857
38	0xbe0a1e9d	-0.1348824
39	0x3d59b2a0	0.053148866
40	0xbddfa8b2	-0.10920848
41	0x3dc47356	0.09592311
42	0xbdaa127a	-0.083043054
43	0x3dcd0b7c	0.10011956
44	0xbdfdd44c	-0.12394008
45	0xbd92f36f	-0.071753375
46	0x3cf60adf	0.03003448
47	0xbc8255b5	-0.015910009
48	0x3cebe3b3	0.028795099
49	0xbdee4395	-0.11633984
50	0xbdd4bfcd	-0.103881456
51	0x3d57b65d	0.05266415
52	0x3cb29cab	0.02180322
53	0xbe0a0e88	-0.13482106
54	0x3c637112	0.0138819385
55	0xbdf99263	-0.12186124
56	0x3bd6f127	0.0065595093
57	0x3d9da773	0.07697954
58	0xbe11ecd6	-0.14250502
59	0x3e64c196	0.22339472
60	0xbdfaea2b	-0.12251695
61	0xbd3927e2	-0.04520405
62	0xbe2a08be	-0.16604897
63	0xbe0dbf54	-0.13842517

hidden_block.4.weight f4 [64]
0	0x3f7aa8fe	0.9791411
1	0x3f623f12	0.8837749
2	0x3f5a4338	0.8525882
3	0x3f84d139	1.037635
4	0x3f74bcf8	0.95600843
5	0x3f7d9c87	0.99066967
6	0x3f82c9cc	1.0217834
7	0x3f80a3ad	1.004995
8	0x3f54c8e5	0.8311904
9	0x3f6398fb	0.88905305
10	0x3f8284f0	1.0196819
11	0x3f61a1d4	0.88137555
12	0x3f7d2a47	0.98892635
13	0x3f67a27f	0.90482324
14	0x3f69bcb8	0.91303587
15	0x3f850efe	1.03952
16	0x3f71f4b9	0.9451404
17	0x3f85c7f1	1.0451642
18	0x3f68577b	0.90758485
19	0x3f80786d	1.0036751
20	0x3f7c4112	0.9853679
21	0x3f831ede	1.0243795
22	0x3f516fee	0.81811416
23	0x3f59b5fe	0.85043323
24	0x3f73a0ff	0.95167536
25	0x3f68fff7	0.9101557
26	0x3f800710	1.0002155
27	0x3f72bb28	0.9481683
28	0x3f6b2acf	0.91862196
29	0x3f6dfc14	0.92962766
30	0x3f8241ac	1.0176291
31	0x3f73ac35	0.9518464
32	0x3f71e0be	0.94483554
33	0x3f8e01fd	1.1094357
34	0x3f7f6707	0.9976658
35	0x3f6fa35b	0.93608636
36	0x3f945bb7	1.1590489
37	0x3f5870b3	0.84546965
38	0x3f76bba3	0.9638006
39	0x3f8b411e	1.0879247
40	0x3f84b3bd	1.0367352
41	0x3f73a2c7	0.95170254
42	0x3f76f95e	0.96474254
43	0x3f4261eb	0.7593066
44	0x3f6287eb	0.88488644
45	0x3f82833f	1.0196303
46	0x3f65ec6e	0.8981389
47	0x3f73a059	0.95166546
48	0x3f67be0f	0.9052438
49	0x3f7e1a2e	0.992587
50	0x3f64dd9b	0.89400643
51	0x3f36c316	0.7139143
52	0x3f81ce55	1.0141093
53	0x3f81c773	1.0138992
54	0x3f658a1e	0.89663875
55	0x3f83c771	1.029524
56	0x3f6d5774	0.9271157
57	0x3f76493b	0.9620549
58	0x3f7da750	0.99083424
59	0x3f826e52	1.0189917
60	0x3f579e38	0.842258
61	0x3f7ff6ce	0.9998597
62	0x3f8db3dc	1.1070514
63	0x3f6a1703	0.91441363

hidden_block.4.bias f4 [64]
0	0xbc9e78fd	-0.019344801
1	0x3d2196db	0.039450508
2	0xbacb0773	-0.0015489891
3	0xbd5fbed8	-0.054625362
4	0xbd8f6ab1	-0.07002772
5	0xbd51324a	-0.05107335
6	0xbcda3840	-0.02663815
7	0xbcdf913e	-0.027290937
8	0xbcbb2645	-0.022845397
9	0x3c68e5ef	0.014214977
10	0xbd00c284	-0.031435505
11	0x3cf1cbe3	0.029516166
12	0xbd077ff2	-0.033081003
13	0x3cf20ab9	0.029546129
14	0x3c938d4d	0.018011713
15	0xbcd994e7	-0.02656026
16	0x3d14ae4b	0.03629903
17	0xbdd6a9dc	-0.10481617
18	0x3d22353a	0.039601542
19	0xbe307b2d	-0.17234488
20	0x3db0ab01	0.086263664
21	0xbd03e653	-0.032202076
22	0x3d86040b	0.0654374
23	0xbc032f62	-0.008006902
24	0xbd22f543	-0.03978468
25	0x3bc02793	0.0058640926
26	0x3c8b58c0	0.017010093
27	0xbd2ff725	-0.042960305
28	0x3c65b45c	0.014020052
29	0xbcd9733b	-0.026544204
30	0xbd026c91	-0.03184182
31	0xbda0b073	-0.07846155
32	0xbcb953cf	-0.02262297
33	0xbe362d89	-0.17790808
34	0xbd1d0a65	-0.03833999
35	0x3d0cfd29	0.03442112
36	0xbe15c3cd	-0.14625473
37	0x3cdb3233	0.026757335
38	0xbe07904d	-0.1323864
39	0xbe9b4eee	-0.30333656
40	0xbd40be34	-0.04705639
41	0x3cbfa80e	0.023395564
42	0xbbb2a931	-0.005452298
43	0xbd6bccb9	-0.057568286
44	0x3c9c8e03	0.019110685
45	0xbd82ffe3	-0.06396463
46	0x3c4215f3	0.011846053
47	0xbcc7f7a4	-0.024410076
48	0x3ca11486	0.019663107
49	0xbcee6926	-0.029102873
50	0x3c099678	0.008397691
51	0x3d4482d1	0.04797632
52	0xbd8a68dd	-0.06758282
53	0xbcec8733	-0.028873062
54	0x38589a33	5.1642022e-05
55	0xbd1ada31	-0.03780574
56	0x3c137a2f	0.009001299
57	0x3d278e0a	0.040906943
58	0xbd845f58	-0.06463498
59	0x3d7765dc	0.060399875
60	0x3cd56572	0.02604935
61	0xbd5de0fe	-0.054169647
62	0xbe2972d9	-0.16547717
63	0xbc67da93	-0.014151233

layers.0.ln.weight f4 [64]
0	0x3f6d6724	0.92735505
1	0x3f68a4b0	0.90876293
2	0x3f5bb09c	0.8581636
3	0x3f7aceee	0.97972
4	0x3f63f53a	0.8904606
5	0x3f662761	0.8990384
6	0x3f79ee5f	0.9762935
7	0x3f5e04d9	0.86726147
8	0x3f419c4f	0.75629133
9	0x3f3a925b	0.7287957
10	0x3f7eaa18	0.9947829
11	0x3f721ea1	0.94577986
12	0x3f72302d	0.9460476
13	0x3f75d694	0.96030545
14	0x3f4b6545	0.794514
15	0x3f804f6a	1.0024235
16	0x3f801a36	1.0007999
17	0x3f4736ab	0.7781779
18	0x3f7fafec	0.9987781
19	0x3f2f6d8c	0.6852653
20	0x3f68468a	0.90732634
21	0x3f711bf2	0.94183266
22	0x3f000b51	0.5001727
23	0x3f0250c0	0.50904465
24	0x3f650a95	0.8946927
25	0x3f3b7070	0.7321844
26	0x3f7a5fd5	0.9780248
27	0x3f68f305	0.9099582
28	0x3f60796a	0.87685263
29	0x3f7bdb3f	0.9838142
30	0x3f774256	0.96585596
31	0x3f3f8a76	0.7482065
32	0x3f70a9e2	0.9400922
33	0x3f338287	0.70121044
34	0x3f73d043	0.9523966
35	0x3f906313	1.1280235
36	0x3f772dd9	0.9655433
37	0x3f675b9e	0.9037417
38	0x3f1fe3ec	0.62457156
39	0x3f5f9a01	0.87344366
40	0x3f6b4ce9	0.9191423
41	0x3f82ffaa	1.0234272
42	0x3f7c04b4	0.98444676
43	0x3f14b508	0.5808873
44	0x3f79b90e	0.97547996
45	0x3f6f86b4	0.93564916
46	0x3f8f6829	1.1203662
47	0x3f6acdea	0.9172045
48	0x3f8bf32b	1.0933584
49	0x3f74bd10	0.95600986
50	0x3f4e8769	0.8067537
51	0x3f814cd7	1.0101575
52	0x3f5f3f4d	0.87205964
53	0x3f78e3ab	0.97222394
54	0x3f748880	0.9552078
55	0x3f7e759e	0.9939822
56	0x3f7263a5	0.94683295
57	0x3f8dca91	1.1077443
58	0x3f627969	0.8846651
59	0x3f8391a1	1.0278817
60	0x3f80dec1	1.0067979
61	0x3f6b22f6	0.9185022
62	0x3f4b3365	0.79375297
63	0x3f76282a	0.96155035

layers.0.ln.bias f4 [64]
0	0xbdaf4fa4	-0.08560112
1	0x3c1c796e	0.0095504355
2	0xbd54ecbb	-0.051983576
3	0x3c9a2b8a	0.01881959
4	0x3c427b5a	0.01187023
5	0x3d12e55b	0.03586326
6	0x3cadf277	0.02123378
7	0x3e11fa9d	0.14255758
8	0x3d4eef31	0.05052108
9	0xbdec3ea5	-0.11535386
10	0x3b3e743e	0.0029060985
11	0x3ccff819	0.025386857
12	0x3cccf925	0.025021145
13	0x3bb0ab10	0.005391486
14	0xbdabb507	-0.083841376
15	0x3c00b286	0.007855063
16	0x3d04d41f	0.032428857
17	0x3e30cff2	0.17266825
18	0x3cea43a7	0.028596712
19	0x3e7d7251	0.2475064
20	0x3e058ff7	0.130432
21	0x3d33a85e	0.04386174
22	0xbe961ad9	-0.29317358
23	0xbef76b67	-0.4832413
24	0x3d767d5f	0.060178157
25	0xbe438141	-0.19092275
26	0x3cd1a9f4	0.025593735
27	0xbc09b1d7	-0.008404217
28	0xbd008446	-0.031376146
29	0xbc181c35	-0.009284069
30	0x3cbd7f75	0.023132065
31	0x3e6ce402	0.23133853
32	0x3ca049f9	0.019566523
33	0x3e85e65d	0.26152316
34	0x3c9028b3	0.017597532
35	0x3cf78990	0.030216962
36	0x3b8d15d1	0.0043055792
37	0x3d2423c4	0.04007317
38	0x3e572d35	0.21013339
39	0x3b61ee04	0.0034474144
40	0x3d8094df	0.06278395
41	0x3b725142	0.0036974703
42	0x3c8fcc00	0.01755333
43	0x3d575b7f	0.05257749
44	0x3c01755c	0.007901516
45	0xbc583b60	-0.01319775
46	0x3c609503	0.013707402
47	0x3b8c310a	0.004278307
48	0x3c903a71	0.017605992
49	0x3ca23d7e	0.019804712
50	0x3da052c2	0.07828285
51	0x3d28d5ee	0.041219644
52	0x3dafa519	0.08576412
53	0x3cb776ac	0.022395454
54	0x39bfd2c8	0.00036587403
55	0x3c2b3c8f	0.01045145
56	0x3d29d3c8	0.041461736
57	0x3ccfdf37	0.025374992
58	0x3d7954ef	0.060872015
59	0x3bffeb6d	0.0078100474
60	0x3c8ec1df	0.01742643
61	0x3c28ebf6	0.010310164
62	0x3e14e7c2	0.14541534
63	0x3c13435e	0.00898823

layers.1.ln.weight f4 [64]
0	0x3f51fff7	0.82031196
1	0x3f952f22	1.1655009
2	0x3f8bd653	1.0924782
3	0x3f850308	1.039155
4	0x3f7ca6d5	0.98692065
5	0x3f7df90d	0.99208146
6	0x3f8434ea	1.0328648
7	0x3f82bb1a	1.0213349
8	0x3f86d40b	1.053346
9	0x3f866508	1.0499582
10	0x3f847133	1.0347046
11	0x3f909239	1.1294624
12	0x3f837614	1.027041
13	0x3f9c5a06	1.2214973
14	0x3f87925b	1.0591539
15	0x3f852556	1.0402019
16	0x3f913634	1.1344666
17	0x3f7fd29f	0.9993076
18	0x3f936f9e	1.1518438
19	0x3f6f8cab	0.9357402
20	0x3f7c473e	0.98546207
21	0x3f826b7a	1.0189049
22	0x3f82417a	1.0176232
23	0x3f80d7bf	1.006584
24	0x3f801e64	1.0009274
25	0x3f84e5ba	1.0382607
26	0x3f46cb5c	0.7765405
27	0x3f82c8ad	1.0217491
28	0x3f86e015	1.0537134
29	0x3f889c1f	1.0672644
30	0x3f82b9f5	1.0213
31	0x3f39a1eb	0.7251269
32	0x3f833521	1.0250589
33	0x3f7d7f9a	0.9902283
34	0x3f8295e0	1.0201988
35	0x3fb16038	1.3857489
36	0x3f83d706	1.0299995
37	0x3f8a0d34	1.0785279
38	0x3f661680	0.8987808
39	0x3f7e72f8	0.9939418
40	0x3f839956	1.028117
41	0x3f8ce871	1.1008435
42	0x3f8b5b93	1.0887321
43	0x3f271b12	0.6527568
44	0x3f960619	1.1720611
45	0x3f806c40	1.0033035
46	0x3fb5ca21	1.420231
47	0x3f8a57ad	1.0808007
48	0x3fb026be	1.3761823
49	0x3f81f682	1.0153353
50	0x3f365a66	0.7123169
51	0x3fa0f718	1.2575407
52	0x3f7fb71c	0.9988878
53	0x3f844cf7	1.0335988
54	0x3f8bd629	1.0924731
55	0x3f854ec9	1.0414668
56	0x3f8bb167	1.0913514
57	0x3f9b3bea	1.2127659
58	0x3f6dc761	0.92882353
59	0x3f89651c	1.0733981
60	0x3fa10c08	1.2581797
61	0x3f800c51	1.0003759
62	0x3f7f315f	0.9968471
63	0x3f8bc6d9	1.0920058

layers.1.ln.bias f4 [64]
0	0xbd331fdf	-0.043731567
1	0x3d059d24	0.032620564
2	0x3d0d5d15	0.034512598
3	0xbd002b08	-0.031291038
4	0xbcf2ec38	-0.029653654
5	0xbcefa1b3	-0.029251909
6	0xbcfffe5a	-0.031249214
7	0xbd01d165	-0.031693835
8	0xbd108b61	-0.035289172
9	0x3d056622	0.032568105
10	0xbd000b7b	-0.03126095
11	0x3cf74774	0.030185439
12	0xbcfd863b	-0.030947795
13	0x3d09e2b1	0.033663455
14	0x3d03f1d3	0.032213043
15	0xbd002feb	-0.031295698
16	0x3d0472d8	0.032336086
17	0xbd044864	-0.0322956
18	0x3d010e62	0.031507857
19	0xbcf2fd17	-0.029661698
20	0xbc61d541	-0.013783754
21	0xbcff2312	-0.031144653
22	0x3cffcfc8	0.031227008
23	0x3ce8c43b	0.028413882
24	0xbd00a0a6	-0.031403206
25	0x3d026e0d	0.031843234
26	0xbd16d88f	-0.03682762
27	0xbd009a46	-0.031397127
28	0x3cfdf68a	0.031001348
29	0xbcf54d66	-0.029944133
30	0xbcff0ea5	-0.031134913
31	0x3c4c1c49	0.012457916
32	0x3d053df8	0.0325298
33	0xbd09eb27	-0.033671524
34	0xbcfa7a85	-0.030576
35	0xbd0e4ecb	-0.03474311
36	0xbd000b65	-0.031260867
37	0x3d021f8e	0.031768374
38	0xbac69092	-0.0015149286
39	0xbce5315d	-0.02797764
40	0xbd00e826	-0.031471394
41	0xbd0d6309	-0.034518275
42	0xbd033c0f	-0.0320397
43	0x3d3c1668	0.045919806
44	0xbd0b224d	-0.03396826
45	0x3d00edf4	0.03147693
46	0x3d06b407	0.03288653
47	0x3d0e6565	0.034764666
48	0x3d04cdcc	0.032422826
49	0xbcf6f9cf	-0.030148415
50	0x3d0c4176	0.034242116
51	0xbd0e346c	-0.034717962
52	0xbcec111b	-0.02881675
53	0xbd00047f	-0.031254288
54	0x3d0b2165	0.033967394
55	0xbd004e22	-0.031324513
56	0x3d07cb79	0.03315303
57	0xbd0801e4	-0.033204928
58	0x3d069e3f	0.03286576
59	0xbd23ef46	-0.04002311
60	0xbd0489d2	-0.032358
61	0x3d07b3c0	0.033130407
62	0xbcfe11a0	-0.031014264
63	0x3d09b5fb	0.033620816

logit.weight f4 [1, 64]
0	0xbada3bcb	-0.00166499
1	0xbe8314a7	-0.25601694
2	0xbdfc379e	-0.12315296
3	0x3deba045	0.11505178
4	0x3d9539b5	0.07286397
5	0x3da66aa9	0.081258126
6	0x3e08fafd	0.13376994
7	0x3d91609d	0.07098506
8	0x3de0ab2d	0.10970149
9	0xbda48794	-0.08033672
10	0x3e273823	0.16330008
11	0xbe8544c0	-0.26029015
12	0x3df6d013	0.12051406
13	0xbe9c473a	-0.30523092
14	0xbdcefde1	-0.10107017
15	0x3e2b5d6b	0.16734855
16	0xbe57c5f8	-0.21071613
17	0x3d536bd7	0.051616516
18	0xbe6b47ef	-0.22976659
19	0x3cdf0111	0.027222188
20	0xbd5caca2	-0.053875573
21	0x3dbce990	0.09224236
22	0xbd8d5080	-0.0690012
23	0xbd44552e	-0.047932796
24	0x3d98e38e	0.074652776
25	0xbdd019e5	-0.10161189
26	0x3c6a7120	0.014309198
27	0x3df495eb	0.11942657
28	0xbe320662	-0.17385247
29	0x3e1febab	0.15617244
30	0x3deaf5e5	0.11472682
31	0x3afb7ec4	0.0019187559
32	0xbde2798e	-0.11058341
33	0x3d34d475	0.044147927
34	0x3e0a9603	0.13533787
35	0x3ed709e0	0.41999722
36	0x3dbe5fdb	0.09295627
37	0xbe3e293b	-0.18570416
38	0x3d030eac	0.031996414
39	0x3d47b4ac	0.048756287
40	0x3db9c2c5	0.090703525
41	0x3e1be66e	0.1522462
42	0x3e3149f3	0.17313366
43	0xbbb72332	-0.0055889124
44	0x3e81d0bf	0.25354573
45	0xbda075c4	-0.07834962
46	0xbf0b3661	-0.5437985
47	0xbe177f7a	-0.14794722
48	0xbf002e2d	-0.5007046
49	0x3e08c33b	0.13355725
50	0x3c129c04	0.00894833
51	0x3e9a6fa2	0.30163294
52	0x3d94137d	0.072302796
53	0x3e055979	0.13022412
54	0xbe200e5a	-0.15630475
55	0x3e1da964	0.15396649
56	0xbe22af76	-0.15887246
57	0x3eab0827	0.33404657
58	0xbcb358ea	-0.021892983
59	0x3db204de	0.086923346
60	0x3ec81471	0.39078096
61	0xbd5cca17	-0.053903665
62	0x3d4b1341	0.04957891
63	0xbe2ff44e	-0.17183039
