Model/evo/fold3.ckpt (torch, 39231 bytes, 15 tensors)

input_block.0.weight f4 [54]
00000000: 00eb 7f3f 9a59 7b3f 90f8 793f a1c5 853f
00000010: f848 783f 3b16 743f fa82 883f 0aaf 823f
00000020: 5df3 813f 6c65 7e3f 73b4 783f 10ee 843f
00000030: f5f7 843f f6de 7c3f bd9e 813f 0f0d 813f
00000040: 3d9c 6a3f 3554 833f aff4 743f 3aa8 733f
00000050: 5cde 8a3f ce93 823f 3dca 813f fd5f 8f3f
00000060: a7bd 7b3f 8808 843f 1d8b 7a3f 1c4d 793f
00000070: 80cc 893f 63bb 893f afb3 743f fa34 853f
00000080: 957e 833f 1da4 833f 595c 883f e69f 883f
00000090: d22c 823f f872 813f a34a 823f 5ff1 7d3f
000000a0: f007 573f 7a25 6e3f 1dba 663f 2a90 683f
000000b0: 21f0 9c3f 350f 783f 3dac 773f 94c0 5d3f
000000c0: 21ba 693f a893 793f cb84 6f3f b401 743f
000000d0: 4833 633f 1c69 793f
0.99967957 0.98183596 0.976449 1.0450937 0.9698634 0.9534642 1.0664971 1.0209668
1.0152394 0.9937351 0.97150344 1.0385151 1.038817 0.9877771 1.0126568 1.008211
0.9164465 1.0260073 0.9568586 0.9517857 1.0849109 1.0201356 1.0139843 1.1201168
0.9833626 1.0315104 0.9786852 0.97383285 1.0765533 1.0760311 0.95586675 1.0406792
1.0273005 1.0284458 1.0653182 1.0673797 1.0169928 1.0113211 1.0179027 0.9919643
0.83996487 0.93025935 0.90127736 0.90844977 1.2260782 0.96898204 0.9674719 0.86621976
0.91299635 0.9749093 0.93562 0.953151 0.88750124 0.9742601

input_block.0.bias f4 [54]
00000000: 6007 93b9 e413 1f3c 0e91 04bc c5c8 d73b
00000010: 3561 15bc 90ec 063b 8333 0e3c f4e4 b5bc
00000020: 4e00 98bc c139 c93c 030b a1bc 6849 06bc
00000030: c2eb 853c a1bc be3b 2358 e83c f1c6 09bc
00000040: 71c8 ecbc c2f7 73ba 576a 0aba 1b44 08bd
00000050: e0d4 31bc ead9 4a3c aa26 3c3c 6b9c ae3b
00000060: b6a6 a4bc 4246 213c 5b34 f33c f131 8f3b
00000070: 8d4c 953c c62a cc39 1952 dfbc 348f 983c
00000080: 8530 b8bc ebeb 0d3d dc31 05bc b369 4d3c
00000090: 913e da3b 3e43 d8bc f2cd 0f3c 56ef 073b
000000a0: 05d6 7c3d e173 303c 8b31 9dbc bd99 9d3c
000000b0: 41e3 00bc e06c 5fbc cdc1 4b3b 9729 e4bc
000000c0: e0df 39bc 09d7 553c 50ca 51bc cadc 62bc
000000d0: 4e2d 4b3c 7b56 113d
-0.0002804352 0.009709332 -0.008091224 0.006585213 -0.009117414 0.002058778 0.008679274 -0.0222039
-0.018554833 0.024563672 -0.019658571 -0.008196212 0.01634777 0.005820826 0.02836234 -0.008409248
-0.028904172 -0.0009306633 -0.0005280128 -0.033268075 -0.010853976 0.012381056 0.011483828 0.005328705
-0.020099025 0.009843411 0.029688051 0.004369967 0.018224979 0.0003894178 -0.027260827 0.018622972
-0.022484073 0.034648817 -0.008129563 0.012537408 0.0066602905 -0.026399251 0.0087771285 0.002074202
0.061727542 0.010769815 -0.019188663 0.019238347 -0.007866682 -0.013636798 0.0031090856 -0.027851863
-0.01134488 0.013051757 -0.012804583 -0.0138465855 0.012400938 0.035482865

input_block.1.weight f4 [64, 54]
00000000: fe6a dc3d 2072 7e3c 2474 e3bc ca7e 043e
00000010: a13e 9a3d f1d9 19bd 8954 0f3e caf5 533d
00000020: 8ef6 56bd e16b 2abc 6da8 af3d 26df 2f3d
00000030: 82b8 bebd f6f7 91bd 26d9 f03a 4835 07bd
00000040: c226 50bd d5f9 b8bd 8800 ab3c d431 3c3d
00000050: 66bc 19be 109d b8bd 4ab6 a5bd 3660 d8bd
00000060: 8194 ae3d e5cf 5bbe ff31 3a3d e9da edbc
00000070: 7dc4 e03b d278 2fbe a210 c43d f39a d9bc
00000080: 554e d7bd 7d43 c03d 36ac 40bd 032f 9d3d
00000090: 2aa3 4e3b 06a3 1d3e 48c8 123e 5e96 e13d
000000a0: ea12 293d 999e d5bd b5a4 bd3c aed8 e2bc
000000b0: 9c15 22be 42e1 dfbd a087 25bd faa4 543d
000000c0: 74ae 8d3c e111 11bd e00d 35bd 560b efbb
000000d0: cb93 80bd 80e6 8e3d 0e54 ac3d aab0 143b
000000e0: 7eff 573d bad1 183e 6872 27bc 3be9 f6bb
000000f0: 06a5 f23d f79a 123c 6c0b 2ebd a4a7 c23d
00000100: 8fdf 913d 578a dbbc eba8 df3c 8267 05be
00000110: 6864 cbbc 2d84 ea3d fa7f 543d 0047 093e
00000120: eec5 743d e47d a93c 9e4f 943d 5dff 00bc
00000130: 5f58 953c b00c 24be 7a93 9fbd e269 c53d
00000140: 2d1c d7bc feaf 513d e973 69bd d7a7 2fbe
00000150: 6941 613c 6b4d 1dbd 75dc ccbd f8c2 58bd
00000160: 21db cf3d d634 263e 0626 1ebd e29a 0cbe
00000170: 67cb 9d3d 5d32 9cbd 935d 42bc 99b4 0d3d
00000180: ba3d 94bd 32e4 90ba b952 9bbd a2fa 913d
00000190: eda4 1cbc ca7a 6d3c aebd 813d 7d27 51bd
000001a0: a1be f03c 9146 4cbd 54a4 4c3d 394a 03bd
000001b0: 77f1 aa3d 857c 87bd f946 b53d 29b4 e13d
000001c0: dee2 37bc 37ca c8bd 6fa4 0e3d 808f 03be
000001d0: c6ab d13d 570e 573d 1faf 893d 650d 023d
000001e0: 0951 c83d c06c 7b3d f165 393e e74f fe3c
000001f0: 0673 83bb b54c 493e fc3e 623b 2205 a13b
00000200: 60f1 133e 69be 9f3c 438b d43d e149 d83d
00000210: b586 41bd 5369 c3bd c20e dabb 01dc b8bc
00000220: 7a02 f5bd c908 c33c 9630 143e 41b3 253d
00000230: 85ee 96bd 0a8d ed3c c572 b33d 6753 82bd
00000240: 13b4 0bbd 6070 f03d 536e 7a3d 06e3 79bc
00000250: 2f2c 8c3d d287 bfbb 6221 af3d ebd1 09bd
00000260: d663 b1be 8893 b0bd 041b 523d 839f aeba
00000270: 461c 953d 1b19 dd3b 27ae 2fbd 4aef f83d
00000280: 601f 663d eb85 8b3d 5da0 0dbc defc a1bd
00000290: b663 b1bc 089f 59be a44a 2a3e 0f95 96bc
000002a0: 5357 dabd 7e9a 32be dcee 0cbe 1cf5 c63d
000002b0: 3e03 eb3d fc55 293c 7927 e0bb 545f bcbd
000002c0: 2f72 f8bc 050d 82be 2f76 56bc f502 25be
000002d0: ad1b 57bd a17a d83c b6f0 8a3d ec8f d2bc
000002e0: d12f bfbc 9319 5dbd 47a1 b33d 2dc9 373e
000002f0: 0709 bf3d 0051 0f3e 1e4f 1e3e 2b23 3ebd
00000300: 1d12 7fbc f790 e83b cede 58bd ddc3 fbbc
00000310: 482c 85bd 54d9 2d3e 9399 0abd 94a9 bbbd
00000320: 968e 0cbd 1db2 5cbd cc98 9bbd 0574 5a3c
00000330: aff6 913d 3193 29bc 76aa f13c 3008 e53b
00000340: b740 b13d 1f2d 5f3c c89b 883d 981f 833d
00000350: fb47 123d 4a90 9b3c c696 87bc ab40 c83d
00000360: 4089 3cbd a9dd bb3d dedd 8abd 7d70 0b3c
00000370: eb71 93bc bea4 a4bd 8570 1d3e 69ce be3c
00000380: be46 e53d 263e d9bd 59a6 3ebd f064 60bd
00000390: 0470 a93d 9218 c63d 98ea 103e fc5d c7bc
000003a0: 86a2 d73d 1649 28be d9ac ba3d efd1 0ebd
000003b0: 1b44 a6bd 2444 433d 5a56 babd 076f 0abe
000003c0: 73e7 2fbd 4c84 4b3d 5e36 eb3c a616 cb3b
000003d0: 54bd c1bd d3f5 d03c 7528 5b3d 18e4 3abe
000003e0: 9b66 9cbd 1f62 8dbe d207 403d 24b9 99bb
000003f0: 3f9c 373d dd8d 023d 0f70 8d3d 50e0 f43d
0.10762595 0.015530139 -0.027765341 0.12938991 0.07531477 -0.03756136 0.13997091 0.051748075
-0.052481227 -0.010401697 0.085770465 0.04293742 -0.09312536 -0.07127373 0.0018375262 -0.033009797
-0.050818212 -0.09032027 0.020874277 0.045945957 -0.15013275 -0.09014332 -0.080914095 -0.10565226
0.085244186 -0.21466024 0.045457836 -0.029035049 0.0068593607 -0.17135933 0.09573485 -0.026563143
-0.105129875 0.09387872 -0.047039233 0.076749824 0.0031530359 0.1539422 0.14334214 0.110150084
0.041277803 -0.10430641 0.023149827 -0.027691212 -0.15828556 -0.109316364 -0.040412545 0.051915146
0.0172951 -0.03541744 -0.044202685 -0.0072950525 -0.06278189 0.06977558 0.0841447 0.0022688308
0.05273389 0.14923754 -0.010220148 -0.0075351275 0.11847882 0.008948079 -0.04249136 0.09504631
0.071227185 -0.026799364 0.027302226 -0.13027766 -0.02482815 0.11450992 0.05187986 0.1340599
0.059759073 0.020689912 0.07241748 -0.007873383 0.018230615 -0.16020465 -0.07791801 0.09639336
-0.026258552 0.05119323 -0.056995306 -0.1715387 0.013748505 -0.03840391 -0.10002986 -0.05292031
0.101492174 0.16231093 -0.03861048 -0.13730958 0.077048115 -0.076267935 -0.01186313 0.03459606
-0.07238336 -0.0011054336 -0.075841375 0.071278825 -0.009560806 0.014494607 0.06335007 -0.05106305
0.029387774 -0.049871985 0.049961403 -0.032053206 0.08346837 -0.06615547 0.088514276 0.11020691
-0.011223523 -0.098041944 0.034824785 -0.1284771 0.10237841 0.05250391 0.06722855 0.031751055
0.09781081 0.06138301 0.18105294 0.03104396 -0.0040115146 0.19658168 0.0034522405 0.004913942
0.14447546 0.019499974 0.103781246 0.10560966 -0.047247607 -0.095415734 -0.0066545913 -0.022565844
-0.11963363 0.0238079 0.14471659 0.040454153 -0.07369713 0.028997917 0.08762125 -0.06363564
-0.03410728 0.11740184 0.06114037 -0.0152518805 0.06844365 -0.0058450485 0.08551289 -0.03364746
-0.3464648 -0.08621889 0.051295295 -0.0013322685 0.07280783 0.0067473776 -0.042890694 0.12155016
0.056182265 0.06812652 -0.008644191 -0.07909559 -0.021653991 -0.21252072 0.16630036 -0.018381624
-0.10661187 -0.17441747 -0.13762993 0.0971472 0.11475228 0.010335442 -0.006840643 -0.0919787
-0.030327884 -0.25400558 -0.013089701 -0.1611441 -0.052516628 0.026425662 0.06784193 -0.025703393
-0.02333823 -0.053979468 0.087709956 0.17947836 0.09327894 0.13995743 0.15459868 -0.046420258
-0.015568283 0.0070973593 -0.052946858 -0.030733043 -0.065025866 0.16977435 -0.033837866 -0.09163204
-0.034315668 -0.0538808 -0.07597503 0.013333325 0.07127129 -0.010350035 0.029500227 0.0069895014
0.086549215 0.013621598 0.06670338 0.064025104 0.035713177 0.0189897 -0.016551387 0.097779594
-0.04602933 0.09173138 -0.06780599 0.008510706 -0.017998656 -0.080392346 0.15374954 0.023291783
0.111951336 -0.10607557 -0.04654536 -0.05478376 0.082733184 0.09672655 0.1415199 -0.024336807
0.10529046 -0.1643413 0.09114999 -0.034868177 -0.08118459 0.047672406 -0.090985015 -0.13518916
-0.042945337 0.049686715 0.028712448 0.0061977683 -0.094599396 0.025507843 0.05350538 -0.18251073
-0.07636758 -0.27613923 0.046882458 -0.00469126 0.044826742 0.031873573 0.06906139 0.11956847

input_block.1.bias f4 [64]
00000000: 02e7 04be bc39 88bd d194 e9bd 5518 1d3a
00000010: dbc6 b7bd 9367 443d 6c5f 9f3d 1f67 e33d
00000020: d6a0 e5bd 3490 843d d03d 35bc c08f 663d
00000030: 8c66 71bd 822e c43c 204e 9f3d d5f9 c6bd
00000040: 1740 67bb 1eb8 14be 09e2 19be e440 db3c
00000050: 40bb 9ebd 539d e63c e49d ac3d ea3f 16be
00000060: 32e2 953d 9fc4 a53d 96dd 153e 7ff4 443d
00000070: 8caa 983d 4d1b fbbd 9339 3d3d fbf9 b2bd
00000080: f9ab 403d a43b e9ba 07b2 d5bc 515f 253d
00000090: 5d9f c2bd 6a68 f4bd 82f0 d5bc 96d4 373d
000000a0: faf8 c3bd 0b2d ecbd 1ba8 bf3d c2f1 aabd
000000b0: 7f37 e2bd ec0e 313d eb7a 58bd 4ddc ab3c
000000c0: 3cbc e6bd 4b18 e6bd fc9b e4bd 4ba6 ed3b
000000d0: e8a7 94bd 8785 f3bd 5f1d db3d 624b 813d
000000e0: 1e3a d1bd d65c aebc d0b5 c4bd 16b3 cb3d
000000f0: 1f2c e83c f708 eebd 325e 403d 2488 1bbe
-0.12978747 -0.06651637 -0.114053376 0.00059927005 -0.089734755 0.04795034 0.07781872 0.11103653
-0.11212318 0.06472817 -0.0110621005 0.056289434 -0.058935687 0.023947958 0.07778573 -0.097156204
-0.0035286003 -0.1452336 -0.15027632 0.02676434 -0.07750559 0.02815119 0.08428553 -0.14672819
0.07318534 0.08094143 0.1463531 0.048084732 0.07454404 -0.122610666 0.046197485 -0.08739086
0.047039006 -0.0017794264 -0.026085867 0.040374104 -0.095030524 -0.11933978 -0.02611566 0.044880472
-0.09568973 -0.11532029 0.093582354 -0.08346893 -0.11045741 0.04322712 -0.0528516 0.020979071
-0.112663716 -0.11235102 -0.11162564 0.0072524897 -0.07258588 -0.11890703 0.106989615 0.06313206
-0.10216163 -0.021284502 -0.096049905 0.09946267 0.028341351 -0.11622804 0.04696483 -0.15188652

hidden_block.0.weight f4 [64]
00000000: 6a0d 803f b23d 733f ddf7 863f d739 7b3f
00000010: ee34 743f 1e2e 833f 7798 6e3f 1e5e 7b3f
00000020: 33b0 793f fd43 673f 6ec6 853f 4c60 6f3f
00000030: 7708 773f 6300 743f 942b 803f 3140 613f
00000040: c43e 7b3f b694 8a3f e846 873f ac87 823f
00000050: a71c 7c3f ac7d 903f b265 693f 28f5 813f
00000060: 543c 7b3f 1376 813f 0105 7a3f 0b12 6d3f
00000070: 0ac7 7c3f b728 703f 1b10 8c3f 43b9 773f
00000080: 033e 7f3f 8923 793f 92a5 793f e4a6 783f
00000090: dda3 823f 2dfa 833f 99ab 7b3f a0e0 7a3f
000000a0: f702 833f 054e 7e3f 365a 7b3f 503b 8f3f
000000b0: ff15 903f b698 823f afb6 893f eebd 873f
000000c0: 15b5 6a3f 56ae 7d3f 62a7 7b3f cf9b 823f
000000d0: 1f00 853f 147b 743f eea0 6b3f c16f 6b3f
000000e0: 2e46 823f 8faa 793f 4fb7 723f 646b 833f
000000f0: dbbc 7e3f 99b9 723f 5513 7b3f 8047 8b3f
1.0004094 0.95016015 1.0544392 0.9813513 0.95393264 1.0248449 0.9320139 0.98190486
0.97534484 0.90338117 1.0451181 0.9350631 0.9649729 0.9531309 1.0013299 0.87988573
0.9814265 1.0826633 1.0568514 1.0197654 0.9848122 1.1288352 0.911708 1.0152941
0.9813893 1.0114158 0.97663885 0.92605656 0.9874121 0.93812126 1.0942415 0.9676706
0.99704 0.9731985 0.97518265 0.97129655 1.0206257 1.0310723 0.9830871 0.97999
1.023528 0.993378 0.98184526 1.1189976 1.1256713 1.0202854 1.0758876 1.0604837
0.9168256 0.9909414 0.9830228 1.0203799 1.0390662 0.955003 0.92042434 0.919674
1.0177667 0.97525877 0.94810957 1.0267148 0.9950692 0.9481445 0.98076373 1.0881195

hidden_block.0.bias f4 [64]
00000000: 9abf adbc f5d5 4abd 5360 c9bc f132 853c
00000010: e6d9 02bc 3190 c83b 5aa7 fbbc 4115 6bb9
00000020: faa5 653a ead2 2e3a 043e 11ba 1ff4 363d
00000030: 7e08 e43c b5d6 433b b895 45bc 82b6 293d
00000040: 27c3 8b3d b8e6 87bd 0dad 5fbd 9a97 c73b
00000050: bff3 63bb c0a0 72bd 79cb bb3d b44c f23b
00000060: 4393 0fbc 154d 2cba f8f5 903d 4fbf ce3d
00000070: 8bd1 603c 8133 82bc 9040 66bd 3c9e 14bb
00000080: db27 143d d856 253d cd84 343c 19e9 ae3b
00000090: 69c8 07bc 358f 2b3b 89e9 a33c 4e0d 9dbc
000000a0: 4442 cfbc e9a7 12bc 8b44 5339 a059 93bd
000000b0: 729b 9bbd f588 f2ba b6e9 79bd d45e 1dbc
000000c0: 3847 483b 3e0a 153c a811 8c3b 3db3 393d
000000d0: f6cc 3abc 1a97 1cbc 9bf7 8a3c 50be 66bc
000000e0: 66ff 14bd 2936 55ba 7a8c ed3d 7faf 9d3b
000000f0: e267 ef3b 2676 033d 56cf 5d3b 200e 80bd
-0.021209527 -0.04952045 -0.024582064 0.016259642 -0.007986521 0.0061207046 -0.030719448 -0.00022419264
0.0008760389 0.0006669002 -0.0005540552 0.044666406 0.02783608 0.0029882614 -0.0120596215 0.04143382
0.06824332 -0.06635803 -0.054608393 0.0060910704 -0.0034782735 -0.059235334 0.09169669 0.0073943976
-0.008763137 -0.00065727654 0.07078165 0.10095083 0.013721834 -0.0158937 -0.056213915 -0.0022677323
0.03617082 0.040366024 0.01101799 0.005337846 -0.008287528 0.0026177887 0.02000882 -0.019171383
-0.025300153 -0.008951166 0.00020148062 -0.07194829 -0.07598008 -0.0018503951 -0.0610139 -0.009605128
0.0030560028 0.00909668 0.0042745657 0.04533695 -0.011401406 -0.00955751 0.01696377 -0.01408346
-0.03637638 -0.00081333757 0.115990594 0.0048121805 0.007306085 0.032095097 0.0033845506 -0.06252694

hidden_block.2.weight f4 [64, 64]
00000000: 02da 653d f0d4 de3d 71ca 2cbc 6557 1dbd
00000010: 3f2d 01bd f0d9 53bd fcf6 03bd 507d 56bd
00000020: a617 ac3c 410d 6f3d b42b 963d 3016 5ebd
00000030: 1ba1 d939 d9b4 06be acd2 aabd b055 79bd
00000040: 6bb3 31bc 8873 a63c 5f61 e03d 4c4f 103e
00000050: 91ed 713c ab5b 1e3e efff 923c 017e 5ebd
00000060: 7245 6ebd fa4b 30bc a332 8abd 9d56 44bd
00000070: 6902 c0bd cb03 77bd 1d04 8c3d f667 d1bd
00000080: 509f e23c 3079 61bd a938 55bd 5cc1 4fbd
00000090: 941c 0a3d dd5b 8dbc 5188 0c3e f3cb 28bb
000000a0: ad52 2dbc a6d0 a7bc 0a91 433d b357 c1bb
000000b0: 7d2d 8ebb f5b3 e5bc 4234 d23d 41d6 bcbd
000000c0: 9c37 963c 63ae cebd a5dc 01bc aa55 733b
000000d0: 2d70 5fbd ca26 ab3d bc3a 0bbd 7524 fcbd
000000e0: b228 aa3c 4e54 a13d bf67 0a3d dd5f e63d
000000f0: 965e eebd fca8 1d3b f9e3 043d 9d18 44bc
00000100: c913 e6bc 8ddd 7e3d 33e7 713d 615a 033e
00000110: 516e cb3d b686 9cbd eefd a6bd 27a7 e6bc
00000120: ec86 5f3d 320f 2cbc 17a9 783d 24d0 d2bd
00000130: 1bbf dfbc f2f1 aa3d c10b edbd 8a4c 873d
00000140: 1ef2 2d3d 5f9b 2bbd 3f45 88bd dc00 98bd
00000150: 14fe c5bd 9cc9 c53d c167 aa3d 13b2 b1bd
00000160: acc6 35bd a498 73bd e706 28bd 5a2d 803d
00000170: 6d65 7c3c 1ac5 ac3d 4afc 633d b6b0 d8bb
00000180: a61c 613d 77d2 cf3d 3a8c 1d3d 63cb 103d
00000190: 7b6b 353d 1fdc 333d bee4 68bd 2878 a1bd
000001a0: 8776 3dbd 2e5e 873d 9de4 f63b 9385 9c3d
000001b0: 0256 dfbb c24a 1b3e 8d05 bcbd 5bac 083d
000001c0: fab2 d9bc 809e 0ebd 43cf 493d db98 443c
000001d0: 14c2 953d 1eae c2bd b515 983c 3317 72bd
000001e0: 34f5 693d e5c2 87bd 37c5 43bc f24e 89bc
000001f0: 6977 9c3d aa3f 533d 4570 043d 1aea 5e3d
00000200: edd1 c9bd 553a d7bb 2638 e03d 3fb6 b73d
00000210: 6e11 50bd 933f 93bc 40fa 293d 570f 0e3d
00000220: cae0 f83c 19f4 d2bd dd13 943c 4290 6abd
00000230: 513a f63d 2cd7 8fbd ca11 acbd e7da 453c
00000240: 7ad9 3c3d 5b43 883d 49c4 f73c af32 04bd
00000250: 69e5 273d ef1a 02bc ebdf 883d 552a ad3d
00000260: 128a 1f3c 7b93 913d c8f7 8dbc e449 193c
00000270: 9a80 bfbd ef87 6ebc 80c6 ab3c 076e 3cbd
00000280: b986 ae3d 1ab2 f03c 2f09 e4bc a516 d53c
00000290: 47e9 a43d 3219 0ebe b6ba 543d f5b0 c73d
000002a0: 4910 203d 6c5f 6abd 49d5 b73d fd49 843d
000002b0: 7100 083c 77ac fd3b e137 b83d dec4 023e
000002c0: a4eb 523d 72e5 e4bd 7f33 7fbd 4c95 8ebd
000002d0: dc78 fbbc d92a 31bd 0d9e 1bbc 9ee1 423c
000002e0: a947 f63c f763 873d 1835 0b3c ee88 513b
000002f0: 0755 053e 8784 90bc 3b37 ab3d f454 2a3e
00000300: 6eab 383d 2838 ff3c d673 eb3d 3f55 ae3d
00000310: 4a1c 1abc ca9b c93d 7fee eb3d 438e a43d
00000320: b1d9 823d 9a4c 0eba a5fe 78bd 2a8c 04be
00000330: 525e ab3d cf7b 97bd 460e 64bc d6aa 55bc
00000340: 9eed b7bd 90dd 763c f603 3bba 6b25 a1bc
00000350: 63d9 0abc e38e 6a3d f749 abbb a28a dc3c
00000360: 43a7 1ebd 4277 f33d 27c9 50bd 986f c23d
00000370: ff94 953b 4046 1cbe bccf 3a3d f302 1c3d
00000380: acef 8d3d 5ac6 863d 707d 343c b32a c73c
00000390: 11f9 413d bf25 b43b b971 cfbb e5d4 b83c
000003a0: 9276 453d 6275 aa3b 33b6 dcbc 89cf 4c3d
000003b0: 6c77 2a3d 73d1 68bd ae79 2c3d 30a1 b83d
000003c0: dab4 853d 21fc d1bd 833a 1bbd 68bd 03bd
000003d0: d4a0 c4bc 7d7b 3dbc 7176 c93c 6934 d0bd
000003e0: 7d18 2c3c 5401 9cbc 777f 723c a118 c63d
000003f0: b0eb 0abd abd8 df3c 14f7 cd3d 2bf1 773d
0.05611611 0.10880458 -0.010546313 -0.038413424 -0.03153729 -0.051721513 -0.032217965 -0.0523656
0.02100737 0.05836225 0.073325545 -0.05422038 0.00041509498 -0.13154925 -0.08340964 -0.060872734
-0.010845999 0.020318761 0.10956072 0.1409275 0.014766113 0.15464656 0.017944304 -0.054319385
-0.058171697 -0.010760302 -0.067479394 -0.047934163 -0.0937546 -0.06030635 0.06836722 -0.10224907
0.027663857 -0.055047214 -0.05205599 -0.05072151 0.03371866 -0.017255718 0.13723876 -0.0025756329
-0.0105787935 -0.020485234 0.047745742 -0.005900347 -0.0043389187 -0.028039912 0.10263874 -0.09220553
0.018337063 -0.100918554 -0.007926141 0.0037129917 -0.05455034 0.08357008 -0.03399156 -0.12311641
0.020771358 0.07877408 0.033790346 0.11248753 -0.116391346 0.0024057021 0.032443974 -0.011968759
-0.028085606 0.062223006 0.05905838 0.12827446 0.099331506 -0.076428816 -0.08153902 -0.028155876
0.05457203 -0.01050167 0.06070813 -0.10293606 -0.027312806 0.08346929 -0.115745075 0.066063955
0.04246723 -0.04189622 -0.06653833 -0.07422039 -0.09667602 0.096575946 0.08320571 -0.08676543
-0.04437892 -0.05947174 -0.041022208 0.0625865 0.015405041 0.08436032 0.055660523 -0.0066128625
0.054958962 0.10147565 0.03846381 0.035350215 0.044291954 0.043911096 -0.05685877 -0.07884246
-0.046255615 0.0660976 0.007534577 0.07642665 -0.006815673 0.15165237 -0.09180746 0.033367496
-0.0265746 -0.034819126 0.049269926 0.011999334 0.07312408 -0.095058665 0.018565038 -0.059104156
0.05711861 -0.0662897 -0.011948875 -0.016761277 0.07639963 0.051574387 0.03233363 0.054422475
-0.09854493 -0.006568233 0.109482095 0.089703076 -0.050797872 -0.01797465 0.041498423 0.034682598
0.030380625 -0.10300464 0.018075878 -0.05726648 0.12022842 -0.07023463 -0.084018305 0.012076116
0.04610584 0.06653472 0.030244963 -0.0322749 0.040990267 -0.007940992 0.06683334 0.0845534
0.009737508 0.07108208 -0.017330065 0.009355996 -0.09350701 -0.014558776 0.020968676 -0.046003368
0.0852179 0.0293818 -0.02783641 0.026011774 0.080523066 -0.13876799 0.051935874 0.09750549
0.03907803 -0.057219908 0.08976228 0.06459425 0.0083008865 0.0077415067 0.08995033 0.12770411
0.051494256 -0.11176576 -0.06230497 -0.0696207 -0.030697279 -0.043253753 -0.009498131 0.011894612
0.030063467 0.06610864 0.008496545 0.0031972486 0.13020717 -0.017641319 0.08360144 0.1663397
0.045085363 0.031154707 0.11496703 0.08512353 -0.009406159 0.098441675 0.11520099 0.08034947
0.063891776 -0.00054282846 -0.060789723 -0.12944093 0.083675995 -0.073966615 -0.013919419 -0.013041219
-0.08980869 0.015067473 -0.0007134074 -0.019671163 -0.008474681 0.057265174 -0.005227323 0.026921574
-0.038733732 0.11887981 -0.050973084 0.09493941 0.004564881 -0.15261173 0.045608267 0.03808875
0.069304794 0.06580801 0.011016235 0.024312353 0.04735667 0.0054976637 -0.0063306955 0.022562454
0.04820878 0.0052019814 -0.026942348 0.05000261 0.041617796 -0.05684037 0.04210823 0.09015119
0.06528635 -0.10253168 -0.037897598 -0.032163054 -0.02400247 -0.011565086 0.02459261 -0.101662464
0.010503885 -0.019043602 0.014800898 0.09672666 -0.033916175 0.027324995 0.10056892 0.06053273

hidden_block.2.bias f4 [64]
00000000: 7f88 7ebd 3c34 9b3d f27c 2a3d 3e6c 66bd
00000010: 2d8b 0dbe 2c3d a03d 0920 98bd 81a7 49be
00000020: 2029 6abc 7ec0 77bd 498a a4bd a730 27be
00000030: feae 193d c11d 273d 6ca9 a03c c0aa 3b3c
00000040: 54c2 383b 097e 883b 38da 78bc f14e 43be
00000050: 52cd 7f3d 3b19 dc3d fba1 f1bd 1ed7 2b3d
00000060: 15e8 bebc 1079 e83c 9dc7 bbbd 01ad 01be
00000070: 6d38 bdbc 11f1 713d dd94 053b e097 c0bd
00000080: da43 21bd 53a7 28be b230 493d 028c 81bd
00000090: f1e1 aa3d 339f d93c 7e91 08bd 931c 3dbd
000000a0: adee f9bd 2814 98bd 236c 94bd f7c0 1ebe
000000b0: c6e6 febd 765f b7bc 61f2 fbbd f0ac edbc
000000c0: 07b3 323e d9dc 2a3e ac3a 36be d463 6f3d
000000d0: 30aa acbc b8fb 5c3b 6c77 9d3e 9c9b 02be
000000e0: 896c 7c3d 70a0 1cbe a596 1f3e f111 fbbd
000000f0: c435 263d 0c4d b63d 945f d73e 3c7d 643d
-0.06214189 0.07578322 0.041623063 -0.05625557 -0.13822623 0.078241676 -0.07427985 -0.19692804
-0.0142920315 -0.06048631 -0.08034188 -0.16327153 0.0375204 0.04079986 0.019612037 0.011454284
0.0028192 0.004165415 -0.015188746 -0.19073083 0.062451668 0.10747 -0.117984734 0.0419532
-0.023304025 0.02837804 -0.091689326 -0.12663652 -0.023098195 0.05906779 0.002038292 -0.09403968
-0.03937135 -0.16470079 0.049118705 -0.063255325 0.08343876 0.02656517 -0.033341877 -0.04616983
-0.12203727 -0.074257195 -0.07247188 -0.15503298 -0.1244636 -0.022384387 -0.123020895 -0.029013127
0.17451106 0.16685809 -0.17795819 0.058444813 -0.021077245 0.0033719372 0.30755174 -0.12754673
0.061626945 -0.15295577 0.1558481 -0.122592814 0.04057862 0.08901414 0.42065108 0.055783495

hidden_block.4.weight f4 [64]
00000000: 76d6 813f 2faf 5e3f 02f4 803f 3e89 823f
00000010: 5780 7c3f 12a0 7f3f 8c1c 763f dfea 803f
00000020: c41e 803f 9d1a 673f 00f7 773f f66f 843f
00000030: 2070 873f c7fd 833f f79a 763f 29d5 843f
00000040: 9692 753f cd32 7d3f 3e31 653f 484f 843f
00000050: f092 7a3f 9196 693f a169 7b3f 31d3 7c3f
00000060: 3359 6b3f 49be 823f 8cc1 893f efdb 6f3f
00000070: d4df 5e3f 691d 7f3f 6416 7d3f 3709 6d3f
00000080: c2fb 5d3f 8ea5 723f 59a2 583f 035a 733f
00000090: 1bfd 6e3f 2816 6f3f 913e 5f3f 4e04 943f
000000a0: e47c 803f 6254 833f c509 6e3f f5e5 8c3f
000000b0: 0080 823f 0cee 753f 4436 863f c1d3 603f
000000c0: 47c2 533f 71fa 5e3f 02f3 813f 2e23 743f
000000d0: fc92 833f 53b9 713f 4253 733f 56c5 7b3f
000000e0: 7666 673f b526 8e3f 01c3 6b3f ed8c 823f
000000f0: 56c9 823f 3c5d 753f fb5c 603f 6355 7d3f
1.0143573 0.8698606 1.0074465 1.0198133 0.9863333 0.9985362 0.9613731 1.0071677
1.0009389 0.90274984 0.9686127 1.0346668 1.0581093 1.0311822 0.9633021 1.0377551
0.959268 0.9890564 0.8952826 1.0336695 0.9788046 0.9124537 0.9820805 0.9875975
0.9193298 1.021432 1.0762191 0.9369497 0.87060285 0.9965425 0.9886229 0.92592186
0.86712277 0.94783866 0.8462272 0.9505922 0.9335496 0.9339318 0.87204844 1.1563814
1.0038114 1.0260127 0.9298366 1.1007677 1.0195312 0.96066356 1.048531 0.8782311
0.8271832 0.87100893 1.0152285 0.9536618 1.0279231 0.9442341 0.95048916 0.98347986
0.9039072 1.1105562 0.9209443 1.0199257 1.0217693 0.9584539 0.87641877 0.98958415

hidden_block.4.bias f4 [64]
00000000: 8570 29bd 06de 4c3c 2179 1fbd b8f7 18bd
00000010: de68 49bd 82c5 8c3c 7979 f13c 28d5 14bd
00000020: 016f 08bd 3bec 293d f762 e13c dc4a 14be
00000030: 4cb2 53be c4d3 febc 9869 c2ba a3c3 21bd
00000040: e90d 13bc 47e3 8f3d 5998 2ebd c03a 40bd
00000050: ec1b 38bd 6953 bd3c 5ed3 0cbd b3cf 1bbd
00000060: fa07 7c3c 8306 4ebd bd50 17be 69cb 75ba
00000070: d90a 983b 7c5b 1dbd ec55 0abd 0882 693c
00000080: 69c7 d33c bff4 42bc 8c53 343d cf7c 5f3d
00000090: ea40 8e3b 09eb 77bc 7384 ad3c 17e2 a3be
000000a0: 3fde 29bd 9726 47bd 998e b93c d30b 08be
000000b0: 54da f0bc 883a cf3c 6548 93bd 7a0f 293d
000000c0: 0b01 69bc dbef 6fbd c89c 93bd 5c7d 39bc
000000d0: cd78 213d 2ef7 6f3d 35d9 8fbc baf8 39bd
000000e0: 107d beb9 a437 08bd 292f c1bc c1db e93b
000000f0: 0c98 f3bc d703 42bd 931d e5bc 4840 d5bb
-0.041367073 0.012504106 -0.038933877 -0.037345618 -0.049172275 0.017184023 0.029476868 -0.036336094
-0.033308987 0.041485053 0.02751301 -0.14481682 -0.20673484 -0.031106837 -0.0014832495 -0.039493214
-0.008975484 0.070257716 -0.04262576 -0.04693103 -0.044948503 0.023111062 -0.034381263 -0.038039874
0.015382761 -0.05029918 -0.14776893 -0.0009376319 0.004639965 -0.038417324 -0.033773348 0.014252193
0.025851922 -0.011899172 0.04402499 0.054562386 0.0043412345 -0.01513172 0.02118132 -0.3200843
-0.041471716 -0.048620787 0.022651004 -0.1328576 -0.029400982 0.025296465 -0.071915425 0.041274525
-0.01422144 -0.058578353 -0.07207638 -0.011321392 0.039421845 0.05858534 -0.017559627 -0.04540322
-0.00036332803 -0.033256188 -0.023582058 0.0071367924 -0.029735588 -0.047366943 -0.027968204 -0.006507907

layers.0.ln.weight f4 [64]
00000000: 0c60 783f b3f0 823f 7f56 753f b38d 703f
00000010: 9571 633f 9869 843f 9ef5 7c3f 5e7d 643f
00000020: 025d 783f 4e6a 773f 88cb 953f 30d2 583f
00000030: 0a21 653f 7c24 783f bac2 7e3f a312 813f
00000040: 4b89 7c3f a0cd 7c3f a360 4f3f d767 7a3f
00000050: f90c 5d3f 0ff8 803f fb4b 483f c7dd 6e3f
00000060: 9f61 7e3f 6dbb 5f3f e739 5d3f 37d1 6c3f
00000070: f5cc 883f db32 773f 53df 6c3f 07d5 7b3f
00000080: 61e1 8a3f 2b87 743f 92a6 593f 4ddf 813f
00000090: 4acc 843f cdd5 6b3f ea46 8c3f 528d 853f
000000a0: 8e72 753f 025b 793f 01e7 813f 25c8 803f
000000b0: 753e 7f3f e61b 8a3f 10af 793f a076 7a3f
000000c0: 9e7f 543f 9e36 3e3f 9c0d 563f dfc7 643f
000000d0: 8f97 563f 3ec7 6e3f adb1 0e3f a6da 753f
000000e0: 0fb1 573f 95fa 853f 1ccb 5a3f aabe 593f
000000f0: e79c 733f 2911 753f 4d4a d73e 98fe 3c3f
0.97021556 1.0229706 0.9583511 0.93966216 0.8884519 1.0344725 0.9881228 0.89253795
0.9701692 0.96646583 1.1702738 0.8469572 0.8950354 0.9693067 0.9951588 1.0083812
0.9864699 0.9875126 0.8100683 0.978147 0.8634792 1.0075701 0.78240937 0.93307155
0.9936771 0.87395364 0.86416477 0.92506737 1.0687548 0.96561974 0.92528266 0.9837193
1.085003 0.9551875 0.8501979 1.0146271 1.0374844 0.9212311 1.0959141 1.0433753
0.9587792 0.9740449 1.0148622 1.0061079 0.99704677 1.0789764 0.9753275 0.9783726
0.8300723 0.7430209 0.83614516 0.8936748 0.8382501 0.9327277 0.5573986 0.96036756
0.84254545 1.0467097 0.8546617 0.85056555 0.9516129 0.9572931 0.42048874 0.7382598

layers.0.ln.bias f4 [64]
00000000: 883a d63b ee82 ca3b 7773 473c 0b9f 383d
00000010: 5c86 a23d 23a5 853a bc8a 58ba 898f a83d
00000020: 74e9 0b3b b0b3 233d da86 a43c dd47 c13d
00000030: 1cb6 13bd 957e 483d a23c 263c 883d 1abc
00000040: c8c3 573c e5d5 2a3c 9f44 163c 9aaa 653a
00000050: f573 b53d 251d a03b 4526 353e d764 293c
00000060: 88f5 793c 0f5d f43b 4df3 bb3d 110f 013d
00000070: 6e6d 60bb ce1c 763b 544b fc3c 6cfc d63c
00000080: 9605 af3c b6d0 bb3c 396d 9f3d e660 033d
00000090: c6d7 bc3b ee1b 653d 1307 b13c 1d84 b9bd
000000a0: f24b 553d 5716 af3c ebfc 6a3c e252 c6bc
000000b0: a25b 4ebb da59 6b3c bfd3 163c 1067 303d
000000c0: 49c6 83bd 3ad7 3ebe 1bbb 173e b37a 443d
000000d0: 1b22 afbc c520 5a3d 71c8 c6be 5906 243c
000000e0: ec79 38bd 3b68 72bc 24f7 a7bd 9573 da3d
000000f0: 6c58 e83c 347d 45bc 0b9d f6be e7a7 6cbd
0.006537739 0.006180159 0.012173525 0.04507355 0.07935783 0.0010196309 -0.0008260419 0.08230502
0.0021348866 0.039966285 0.020083833 0.09437535 -0.036062345 0.048948843 0.010146292 -0.009414084
0.0131692365 0.010426973 0.009171634 0.00087610784 0.08860008 0.004886287 0.1769038 0.0103389835
0.015256293 0.0074573825 0.09177265 0.03150851 -0.0034244913 0.003755379 0.030797638 0.026243411
0.021364968 0.02292667 0.077845044 0.03207483 0.005763027 0.05593484 0.021609819 -0.09058402
0.05207438 0.021372957 0.014342527 -0.024209443 -0.0031487723 0.014364684 0.009205758 0.043067038
-0.06434304 -0.1863679 0.14817469 0.047968578 -0.021378567 0.053253908 -0.388248 0.010011279
-0.04503815 -0.014795358 -0.08201435 0.10666577 0.028362475 -0.0120537765 -0.4816669 -0.05777731

layers.1.ln.weight f4 [64]
00000000: dcae 813f 7ce0 a33f 3862 823f b835 833f
00000010: f39b 703f 86ad 8a3f ede6 863f 8c38 823f
00000020: 191c 823f 3a13 973f 2852 b83f 5859 743f
00000030: 3a6c 563f 87fb 853f a26a 883f 14b6 843f
00000040: 880d 8e3f 6540 813f d3b9 803f 2b3b 853f
00000050: 6237 763f 8005 8e3f fea1 6a3f 5772 803f
00000060: 58d8 ab3f e4c1 7e3f a456 7c3f c796 8d3f
00000070: 1607 a23f ada4 823f 54d3 813f e04b 8e3f
00000080: a536 bc3f 7af5 7a3f 7823 803f ed45 873f
00000090: 2b8e 983f 2b95 7f3f 3333 b03f c8ce 783f
000000a0: 472c 883f 1665 863f 2361 8e3f cff4 823f
000000b0: 2011 853f 2f61 953f 1750 823f 1cad 973f
000000c0: 6dd2 863f 1ddc 843f 0d30 763f 6939 733f
000000d0: 055e 823f 1e7f 823f e305 873f c00c 833f
000000e0: dead 803f fbdb 843f 6dc7 863f a3fb 733f
000000f0: ab3f 833f e09b 823f ec3e 873f e097 893f
1.0131488 1.2802882 1.0186224 1.0250769 0.9398796 1.0834205 1.0539223 1.0173507
1.0164825 1.1802742 1.4400072 0.9544883 0.8375889 1.0467385 1.0657542 1.0368066
1.109788 1.0097777 1.0056709 1.0408682 0.9617826 1.1095428 0.9165343 1.0034894
1.3425398 0.99514604 0.98569703 1.1061639 1.2658412 1.0206505 1.0142617 1.1116905
1.4704176 0.9803082 1.0010824 1.0568215 1.1918386 0.9983699 1.3765625 0.97190523
1.0638512 1.0499599 1.1123394 1.023096 1.0395851 1.1670283 1.0180691 1.1849704
1.0532967 1.0379673 0.9616707 0.95009476 1.0184942 1.0195043 1.0548671 1.0238266
1.005306 1.0379633 1.052961 0.9530584 1.0253805 1.0203819 1.0566077 1.0749474

layers.1.ln.bias f4 [64]
00000000: 7b4e 11bd 7b74 1c3d 8bed 11bd e9e3 13bd
00000010: 0059 193d e6c2 20bd aee9 21bd 9a99 14bd
00000020: aba5 12bd 7f84 183d 4408 1c3d 79ac 1f3d
00000030: fbf2 a93c 25a0 15bd 6345 1b3d 9889 15bd
00000040: 94b7 1c3d ed4c b6bc 6c22 1d3d 7f4c 15bd
00000050: 5c35 5ebc 7cdb 1abd d697 12bc 2ff7 0fbd
00000060: 2146 1e3d 4c2e 1d3d 6d07 05bd 2bb4 1bbd
00000070: 5d43 1dbd 54d2 11bd 3aaf 0fbd 69c2 1b3d
00000080: 958a 1f3d e7fd 1a3d 003a 1a3d 8235 21bd
00000090: a0f0 1abd 6e42 213d e36a 1a3d 6cf4 efbc
000000a0: 9d12 25bd 1b1b 16bd 0151 1dbd 4861 13bd
000000b0: a435 15bd d3f1 1ebd 8130 10bd 808d 1c3d
000000c0: e43d 163d e1ce 153d 872a 13bd 1c5e 153d
000000d0: 682e 143d ed3b 123d 5224 173d c66f 14bd
000000e0: 5d4d 123d 3a54 18bd d985 153d fcf4 aebc
000000f0: e7f7 12bd 67f5 12bd 38c9 1e3d 17f6 1d3d
-0.035475235 0.038197022 -0.03562693 -0.036106024 0.037438393 -0.03924837 -0.039529495 -0.0362793
-0.035802525 0.037235733 0.03809382 0.038982842 0.020745745 -0.03652968 0.03790797 -0.036508173
0.03826101 -0.022253478 0.038362905 -0.036449905 -0.013562527 -0.037806973 -0.008947333 -0.035147842
0.0386411 0.03837423 -0.032477785 -0.03801362 -0.03839432 -0.035600975 -0.03507922 0.0380272
0.03895052 0.037839796 0.03765297 -0.03935767 -0.037827134 0.039369993 0.03769959 -0.029291354
-0.040300954 -0.036646944 -0.03840733 -0.035981447 -0.03642811 -0.03880484 -0.035202507 0.038220882
0.036680117 0.03657425 -0.03592923 0.036466703 0.03617707 0.03570168 0.036899872 -0.036239408
0.03571831 -0.0371897 0.0365046 -0.021357052 -0.03588095 -0.035878565 0.038766116 0.038564768

logit.weight f4 [1, 64]
00000000: 013b e83d 4ef8 cabe 75e4 d13d 0337 a33d
00000010: 3af3 4bbd 8a2d 163e 1f30 c33d 26d7 803d
00000020: d410 063e c3d0 9abe 24bb 0abf d20f d4bc
00000030: 2233 9d3c ada2 ca3d 8803 22be 73a3 2b3e
00000040: 5539 53be b0b5 273d 948a 9fbd 9094 0c3e
00000050: f4e7 1a3d 3a19 623e c08e 2c3d 509d e83d
00000060: 5165 e1be 9992 98bd a8c0 483d 56f5 183e
00000070: 31fe af3e aef6 fc3d 3bce ba3d 2edf 7dbe
00000080: 248e 05bf a5a9 5dbd a2f0 bfbd 8c87 b83d
00000090: bedc 833e 3152 77bd fc9f f4be 007c 003d
000000a0: 6e92 ab3d 92bc ce3d 50e5 573e 0b8a 9f3d
000000b0: 0976 2d3e 2102 763e 8cb9 b53d ba39 9dbe
000000c0: 3f0a 3abe fd0a e4bd 0a14 233d 1495 13bd
000000d0: 8852 0ebe 2710 b5bd 392a eebd e68f c13d
000000e0: f551 e7bd d272 f63d 2702 28be 5e66 223d
000000f0: 84d2 b73d 6579 133e f725 98bd ea6e d8bd
0.11339379 -0.39642566 0.10248653 0.07969477 -0.049792506 0.1466581 0.09530663 0.06291036
0.13092357 -0.30237398 -0.54191804 -0.02588645 0.019189421 0.09894309 -0.1582166 0.1676157
-0.20627339 0.040944755 -0.077901036 0.13728547 0.037818864 0.22079936 0.042128325 0.1135813
-0.4402261 -0.07449836 0.049011856 0.14937338 0.3437362 0.12351738 0.091213666 -0.24792168
-0.52170014 -0.054116864 -0.09372069 0.090102285 0.2575435 -0.06038112 -0.47778308 0.031368256
0.083775386 0.10094561 0.2108357 0.077900015 0.16939558 0.2402425 0.08873281 -0.30708104
-0.18167971 -0.11134908 0.039814033 -0.036030844 -0.1389867 -0.088409714 -0.11629147 0.094512746
-0.11294929 0.12033619 -0.16407071 0.039648406 0.089756995 0.14401777 -0.07429116 -0.1056803
