Model/evo/fold2.ckpt (torch, 39231 bytes, 15 tensors)

input_block.0.weight f4 [54]
1.0229597 0.98173624 0.9306178 1.023438 1.0687952 1.0491399 1.0732344 0.9974475
0.96097773 1.0111027 0.9793758 0.9992187 0.99175256 0.9298706 1.0221698 0.99889714
0.975355 0.97861683 0.88680226 0.972685 1.0373768 0.990894 1.07565 1.1185262
0.9870657 0.9926936 1.0174795 0.95321846 1.0254421 1.0618612 0.9688244 1.0047425
1.0543199 0.9662278 1.010433 1.089539 1.0124412 1.0974703 1.0118119 1.008884
0.9159522 0.9130244 0.8966315 0.90321404 1.2677519 0.9100143 0.96061593 0.9140176
0.9537441 1.0020716 0.88210094 0.8763862 0.89101815 0.9984317
00000000: 58f0 823f 1153 7b3f f83c 6e3f 0400 833f
00000010: 48ce 883f 374a 863f bf5f 893f b858 7f3f
00000020: a302 763f d06b 813f 5fb8 7a3f cccc 7f3f
00000030: 7fe3 7d3f 000c 6e3f 76d6 823f b9b7 7f3f
00000040: deb0 793f a286 7a3f 7905 633f e201 793f
00000050: c3c8 843f 3bab 7d3f e6ae 893f de2b 8f3f
00000060: 56b0 7c3f 2b21 7e3f c53c 823f 2006 743f
00000070: b041 833f 11eb 873f e004 783f 679b 803f
00000080: f4f3 863f b55a 773f de55 813f 0476 8b3f
00000090: ac97 813f e879 8c3f 0d83 813f 1c23 813f
000000a0: d87b 6a3f f8bb 693f a489 653f 0939 673f
000000b0: b245 a23f b2f6 683f edea 753f 0ffd 693f
000000c0: 9328 743f e243 803f 5ed1 613f d95a 603f
000000d0: c419 643f 3899 7f3f

input_block.0.bias f4 [54]
0.0039858688 0.01433415 -0.00904729 -0.0125677185 0.0063050566 -0.018290719 0.0069493093 0.0064267074
0.006448202 0.03284064 -0.014241619 -0.0066201338 0.02241432 0.0015373597 0.008537749 -0.0020692619
-0.014200382 -0.006533346 -0.004431562 -0.018942129 0.0096277045 -0.0024808268 -0.010315976 -0.010635193
-0.0054663923 -0.026257297 0.011130038 -0.027820177 -0.0097045945 -0.011317814 -0.0123261465 -0.0036558
0.04551214 0.0015780564 -0.01194125 0.0060374932 -0.007333452 -0.02842167 0.007422647 0.007859927
0.046067186 0.04370264 0.016327178 -0.024720065 -0.0017207678 0.0038335894 0.0074327723 -0.008160843
-0.002858159 0.003064919 0.0007552352 0.0063883667 0.054366197 0.017915564
00000000: e49b 823b c8d9 6a3c 163b 14bc d5e8 4dbc
00000010: a69a ce3b 6bd6 95bc 08b7 e33b 2197 d23b
00000020: 704b d33b e883 063d ae55 69bc b5ed d8bb
00000030: 3c9e b73c 3b81 c93a eae1 0b3c 749c 07bb
00000040: b8a8 68bc ae15 d6bb a336 91bb 862c 9bbc
00000050: 85bd 1d3c 5e95 22bb 5704 29bc 3c3f 2ebc
00000060: 6c1f b3bb 8b19 d7bc c35a 363c 24e7 e3bc
00000070: 0500 1fbc 5a6e 39bc 9bf3 49bc 2596 6fbb
00000080: f06a 3a3d c9d6 ce3a 3ca5 43bc 2ad6 c53b
00000090: 744d f0bb 90d4 e8bc ad39 f33b ecc6 003c
000000a0: f2b0 3c3d 8a01 333d 93c0 853c bc81 cabc
000000b0: 638b e1ba f53c 7b3b 9d8e f33b 0eb5 05bc
000000c0: f34f 3bbb cfdc 483b fafa 453a 8155 d13b
000000d0: 17af 5e3d a9c3 923c

input_block.1.weight f4 [64, 54]
-0.16438772 -0.04087073 0.08023676 -0.07594882 0.102896914 0.032170378 -0.21390739 -0.061299723
0.0372796 0.0102016125 0.09496524 0.08504325 -0.091842346 0.106843084 -0.0027150442 0.11202756
-0.069325045 0.014192517 -0.13803582 -0.17664455 -0.049032666 0.02768487 0.035378274 -0.05405779
-0.0074942447 0.009668672 0.0077818492 0.1267546 -0.1352075 0.011103505 0.009560492 0.058166496
-0.037026107 0.03884261 -0.086516194 -0.022618694 0.028622434 0.031077428 -0.024324669 -0.01883234
-0.0135337515 -0.023403732 -0.101308994 -0.035679236 0.14525564 0.04634692 0.09306414 0.050048266
0.05225298 0.045804836 0.15240206 0.054504275 -0.11743726 0.034033395 -0.0012944099 0.12801589
0.053443093 -0.042566482 -0.005819144 0.08305975 0.075157814 -0.1545531 0.09005958 -0.055373773
0.11512363 -0.066122726 -0.07119927 0.028389728 0.1024249 -0.020142892 0.12794593 0.020908592
0.07463406 0.029917136 0.15305063 -0.052982446 0.0022511552 -0.17675017 -0.05202187 0.04653667
0.08205866 0.077483475 0.09935254 -0.25771973 0.08691475 0.0914391 0.04402391 0.022618102
-0.07529351 -0.08331982 0.07648864 -0.010881586 0.14541821 0.14043796 -0.054720696 0.08480911
0.11233112 0.04312785 -0.099995084 0.042052317 -0.066900834 0.04725054 0.07523383 0.039369017
0.01027824 0.033351205 -0.058970165 0.1281661 -0.0771012 -0.10708168 -0.020325035 0.045102153
-0.020715572 0.05758982 -0.20468779 -0.018951975 -0.09020676 -0.107642345 -0.0333022 -0.0581021
-0.13249652 0.16906555 0.018818831 -0.043398403 -0.1421934 0.09974292 0.08987715 -0.07244445
0.013179627 -0.026283856 0.03486363 0.09060411 -0.0099792145 -0.06885491 0.054266877 0.0024289119
-0.058609437 0.019434603 0.05765438 -0.088354304 -0.030193375 -0.09670446 0.027608488 -0.096509196
-0.045491982 -0.02081446 -0.04697992 -0.13211413 -0.05922739 -0.101387255 0.11833983 -0.10873819
0.11083386 0.06250449 0.014724529 -0.0061295554 -0.03686706 0.016179968 0.06090239 -0.047670607
-0.100649364 -0.09860784 -0.13180839 -0.002480089 0.023668488 0.11970116 -0.00022942647 0.018354084
0.0046859807 -0.041647308 -0.10200895 -0.010177123 0.0056574615 -0.13302313 0.027709622 -0.1831484
0.02224646 -0.13550851 0.06872953 0.054661162 -0.0820462 -0.118297905 -0.02195306 -0.0463018
0.109577686 0.09939847 -0.08485761 0.09013151 -0.044243656 0.111773275 -0.027076876 -0.14600946
-0.078028426 0.05074477 0.054518256 -0.12710708 0.091421254 0.067726314 -0.03548713 -0.12530418
0.0039960034 0.066362016 -0.09746277 -0.0071782307 -0.04443411 -0.024197768 0.18096282 -0.055339202
-0.03539702 -0.033223975 -0.11143639 -0.14333317 0.028663298 0.045987785 -0.020420877 0.004109346
-0.08875115 -0.034966733 0.03568219 0.049303137 0.08496361 0.08936068 0.17118905 0.118419304
-0.07201837 -0.011965965 0.05396493 0.045130894 0.042583395 -0.0008464161 0.020114321 0.03804599
0.13886155 0.12033237 -0.069282666 -0.15341532 0.09980378 -0.047094807 -0.32299778 -0.29002252
0.046587892 0.017456418 -0.10008315 -0.13203266 -0.072149955 0.11923898 0.064008206 -0.10711136
-0.10480127 -0.1558513 0.124800235 0.012647642 -0.041518584 0.12634356 0.13204253 0.07919573
00000000: 4155 28be 1168 27bd 2c53 a43d 0e8b 9bbd
00000010: 9ebb d23d 16c5 033d 8a0a 5bbe 6b15 7bbd
00000020: 7eb2 183d aa24 273c 237d c23d 282b ae3d
00000030: d717 bcbd 8cd0 da3d e2ee 31bb b56e e53d
00000040: 4afa 8dbd bb87 683c 4359 0dbe 4fe2 34be
00000050: 7ad6 48bd 61cb e23c cfe8 103d b46b 5dbd
00000060: 4892 f5bb 5a69 1e3c e2fe fe3b f5cb 013e
00000070: d673 0abe 7aeb 353c 9ca3 1c3c fe3f 6e3d
00000080: b0a8 17bd 6e19 1f3d 672f b1bd d74a b9bc
00000090: 9879 ea3c 1796 fe3c 8744 c7bc 4846 9abc
000000a0: abbc 5dbc 2fb9 bfbc 177b cfbd 6424 12bd
000000b0: e5bd 143e 45d6 3d3d 6998 be3d 69ff 4c3d
000000c0: 3907 563d da9d 3b3d 490f 1c3e e03f 5f3d
000000d0: f282 f0bd 9a66 0b3d 30a9 a9ba 9916 033e
000000e0: 25e7 5a3d 315a 2ebd 85ae bebb 3b1b aa3d
000000f0: 57ec 993d 2b43 1ebe 2871 b83d 9ccf 62bd
00000100: f0c5 eb3d 5a6b 87bd ecd0 91bd 9391 e83c
00000110: 25c4 d13d b502 a5bc 4204 033e 7f48 ab3c
00000120: bed9 983d c814 f53c 4eb9 1c3e 1f04 59bd
00000130: 1e88 133b fffd 34be e214 55bd 3c9d 3e3d
00000140: 5f0e a83d a8af 9e3d 5879 cb3d d7f3 83be
00000150: 5c00 b23d 6c44 bb3d 6a52 343d 9949 b93c
00000160: 7c33 9abd 95a3 aabd 13a6 9c3d ae48 32bc
00000170: 83e8 143e f8ce 0f3e cf22 60bd 66b0 ad3d
00000180: dc0d e63d d4a6 303d 39ca ccbd 0d3f 2c3d
00000190: 4e03 89bd c889 413d 3214 9a3d 6841 213d
000001a0: 1066 283c 469b 083d b38a 71bd f93d 033e
000001b0: 3ce7 9dbd a44d dbbd b080 a6bc 09bd 383d
000001c0: b4b3 a9bc 4ee3 6b3d ad99 51be 2c41 9bbc
000001d0: 52be b8bd 9773 dcbd e367 08bd 78fc 6dbd
000001e0: 2bad 07be 851f 2d3e f329 9a3c 86c2 31bd
000001f0: 269b 11be 0446 cc3d 8311 b83d c15d 94bd
00000200: 5def 573c 3e51 d7bc 2acd 0e3d a68e b93d
00000210: dc7f 23bc ce03 8dbd f246 5e3d 612e 1f3b
00000220: 7310 70bd 5135 9f3c 0027 6c3d 1af3 b4bd
00000230: 1958 f7bc fd0c c6bd 322b e23c 9da6 c5bd
00000240: cd55 3abd 1683 aabc 046e 40bd ed48 07be
00000250: 6b98 72bd 1fa4 cfbd 275c f23d 21b2 debd
00000260: ddfc e23d 5b02 803d 273f 713c 70da c8bb
00000270: ea01 17bd da8b 843c c974 793d 4142 43bd
00000280: 4121 cebd e8f2 c9bd c7f8 06be fd88 22bb
00000290: 6be4 c13c e225 f53d 3392 70b9 4e5b 963c
000002a0: db8c 993b 5e96 2abd 12ea d0bd f3bd 26bc
000002b0: 3a62 b93b 3737 08be 4aff e23c 418b 3bbe
000002c0: 353e b63c bec2 0abe 11c2 8c3d 62e4 5f3d
000002d0: d707 a8bd 2c46 f2bd e7d6 b3bc f5a6 3dbd
000002e0: 446a e03d 6d91 cb3d d4c9 adbd de96 b83d
000002f0: d638 35bd 63e9 e43d 53d0 ddbc 8183 15be
00000300: 5ecd 9fbd bfd9 4f3d 894e 5f3d 5c28 02be
00000310: 113b bb3d 18b4 8a3d f45a 11bd bd4f 00be
00000320: e8f0 823b cfe8 873d 909a c7bd 5d37 ebbb
00000330: 8b00 36bd 663a c6bc 514e 393e 5cab 62bd
00000340: 77fc 10bd dd15 08bd c338 e4bd eec5 12be
00000350: 4bcf ea3c b05d 3c3d af49 a7bc b1a7 863b
00000360: 2ac3 b5bd 4739 0fbd 7d27 123d 16f2 493d
00000370: 6701 ae3d bb02 b73d 2f4c 2f3e d285 f23d
00000380: 5e7e 93bd e50c 44bc 550a 5d3d 2cdb 383d
00000390: ed6b 2e3d 06e2 5dba cac6 a43c 1dd6 1b3d
000003a0: b931 0e3e d170 f63d 12e4 8dbd e818 1dbe
000003b0: ed65 cc3d 7ce6 40bd f75f a5be d57d 94be
000003c0: f2d2 3e3d c300 8f3c 65f8 ccbd 9233 07be
000003d0: 5bc3 93bd 9133 f43d bc16 833d 335d dbbd
000003e0: 0ca2 d6bd 7c97 1fbe 4497 ff3d 0e38 4f3c
000003f0: 640f 2abd 3560 013e 2836 073e 5f31 a23d

input_block.1.bias f4 [64]
-0.036590464 -0.051522706 -0.0121090785 0.08588893 -0.1358497 0.015046763 -0.016935064 -0.12109194
-0.11057771 -0.072005205 0.08630967 -0.07129844 -0.1067569 -0.004598649 -0.021969456 0.03940434
-0.092407174 0.07119707 -0.025686495 -0.124164216 0.118165836 -0.08228553 0.06192289 -0.012350413
0.080944344 -0.009678169 0.11861879 -0.0063716345 0.08021783 -0.047573987 -0.110658854 -0.041923147
-0.015233247 -0.03305341 0.017058956 -0.14181581 -0.08800055 -0.027860742 0.06938414 0.11537093
-0.119357646 -0.033116948 -0.06770138 -0.02058711 -0.104741216 0.110228546 -0.076438986 -0.049027894
-0.107223175 0.115483515 -0.094473004 0.011648255 -0.042959742 -0.05646603 0.0148656005 -0.14195162
-0.0486804 -0.0444301 0.025169732 -0.12306601 -0.04065342 -0.04174219 -0.06153783 0.010054298
00000000: e2df 15bd 7909 53bd 2865 46bc 89e6 af3d
00000010: 2f1c 0bbe b386 763c 67bb 8abc 0dff f7bd
00000020: 9176 e2bd 7777 93bd 20c3 b03d eb04 92bd
00000030: 5da3 dabd 44b0 96bb 4af9 b3bc 7266 213d
00000040: f93f bdbd c5cf 913d 7c6c d2bc cf49 febd
00000050: ee00 f23d 5185 a8bd dba2 7d3d 6359 4abc
00000060: 26c6 a53d 2f91 1ebc 68ee f23d 25c9 d0bb
00000070: 3f49 a43d f1dc 42bd 1ca1 e2bd 9bb7 2bbd
00000080: de94 79bc 0363 07bd 39bf 8b3c 2a38 11be
00000090: a239 b4bd 363c e4bc 4619 8e3d 9847 ec3d
000000a0: c871 f4bd a3a5 07bd 05a7 8abd 4da6 a8bc
000000b0: 9082 d6bd 81bf e13d 0b8c 9cbd 79d1 48bd
000000c0: d397 dbbd 9f82 ec3d 107b c1bd 53d8 3e3c
000000d0: 8ef6 2fbd ed48 67bd d98e 733c c45b 11be
000000e0: 1965 47bd 56fc 35bd c130 ce3c 080a fcbd
000000f0: 3384 26bd dcf9 2abd 170f 7cbd c8ba 243c

hidden_block.0.weight f4 [64]
1.02727 0.95794237 0.9392455 0.9747693 0.9824759 1.0271044 0.95924634 1.0181602
1.0101858 1.1351027 0.9500264 1.034166 1.0406277 0.94835836 0.9962354 0.92600346
1.0708493 0.9916469 0.91960096 1.0332886 0.98738486 0.9784725 0.92765987 0.9388215
1.0007004 0.98387957 0.9591277 1.0254732 1.0080811 1.0487285 1.005053 1.0657218
0.9434741 1.0110657 0.95191854 0.96753776 0.94575685 1.0185643 0.94781065 0.98455983
0.94986516 0.94592005 0.99645203 0.99450403 1.031477 0.96239066 1.0818787 0.96260375
1.0372533 0.9187905 1.0056291 0.96681666 1.0502235 0.93449616 1.0111539 1.0339558
0.99054444 0.993196 0.9690256 1.0508418 0.99073744 0.97727925 1.0047052 1.1038095
00000000: 957d 833f b63b 753f 6572 703f 7b8a 793f
00000010: 8a83 7b3f 2878 833f 2b91 753f 1353 823f
00000020: c54d 813f 0c4b 913f ee34 733f 8d5f 843f
00000030: 4a33 853f 9dc7 723f 4809 7f3f 900e 6d3f
00000040: 9711 893f 92dc 7d3f f86a 6b3f cd42 843f
00000050: 41c5 7c3f 2c7d 7a3f 1e7b 6d3f 9b56 703f
00000060: f316 803f 88df 7b3f 6589 753f b542 833f
00000070: cd08 813f bc3c 863f 94a5 803f 9269 883f
00000080: 8587 713f 9a6a 813f efb0 733f 8eb0 773f
00000090: 1f1d 723f 5160 823f b8a3 723f 1d0c 7c3f
000000a0: 5d2a 733f d127 723f 7b17 7f3f d197 7e3f
000000b0: 7007 843f 3c5f 763f 007b 8a3f 336d 763f
000000c0: b7c4 843f db35 6b3f 74b8 803f 4c81 773f
000000d0: b96d 863f 243b 6f3f 7e6d 813f aa58 843f
000000e0: 5294 7d3f 1842 7e3f 1012 783f fc81 863f
000000f0: f8a0 7d3f f92e 7a3f 2e9a 803f a149 8d3f

hidden_block.0.bias f4 [64]
0.006975057 0.023567412 -0.006209041 -0.0019623772 0.011907694 0.002600553 -0.004703504 -0.011959517
0.017339854 -0.0759025 0.010644367 -0.054583028 -0.009905151 0.00655712 0.020951761 -0.009965604
0.023391308 -0.022743668 -0.002087629 -0.040849537 0.048187196 0.024950434 0.012241114 -0.009459025
0.00016006677 0.016505532 0.041877024 0.040347528 0.018854257 -0.045381892 0.003451514 -0.092356525
0.028198067 0.025655223 -0.0062761595 0.011584469 0.0062855002 0.0029362773 0.052331183 -0.0077978703
0.025682664 0.011560942 -0.013527301 0.035097253 -0.0060008136 -0.034969945 -0.007360658 0.04413133
-0.047435503 0.0041171294 0.055325195 0.0069749393 -0.008024384 0.020137893 -0.011412763 -0.042521227
-0.008810806 -0.023802606 0.028108468 -0.04579306 0.0045938827 0.08273384 -0.058384523 -0.09472471
00000000: 058f e43b 7210 c13c 3675 cbbb 3a9b 00bb
00000010: 7d18 433c 0a6e 2a3b da1f 9abb daf1 43bc
00000020: 4f0c 8e3c c572 9bbd b665 2e3c 7492 5fbd
00000030: 3749 22bc 1cdd d63b 07a3 ab3c c646 23bc
00000040: 219f bf3c ee50 babc 9ad0 08bb d851 27bd
00000050: f05f 453d da64 cc3c f48e 483c 07fa 1abc
00000060: 99d7 2739 9c36 873c 3e87 2b3d 7343 253d
00000070: 3e74 9a3c 5de2 39bd cc32 623b 6b25 bdbd
00000080: a2ff e63c e72a d23c 3ea8 cdbb c9cc 3d3c
00000090: 99f6 cd3b 8f6e 403b 3959 563d 4785 ffbb
000000a0: 7364 d23c 1b6a 3d3c 9da1 5dbc 23c2 0f3d
000000b0: 79a2 c4bb a53c 0fbd ad31 f1bb 0ec3 343d
000000c0: bb4b 42bd fce8 863b ac9c 623d 088e e43b
000000d0: b578 03bc 39f8 a43c 99fc 3abc bd2a 2ebd
000000e0: 335b 10bc affd c2bc bb43 e63c 8191 3bbd
000000f0: 4888 963b 5c70 a93d 9c24 6fbd 07ff c1bd

hidden_block.2.weight f4 [64, 64]
0.060146693 0.014690073 0.005038796 0.137519 0.030652933 -0.017950982 -0.075471565 -0.107797235
-0.06617607 -0.0449763 -0.06772524 0.106925495 0.054822113 -0.08492123 0.020151941 -0.019980492
0.12631376 0.015221975 -0.020321313 -0.012917825 -0.06646147 -0.12655076 -0.06948649 -0.039421637
-0.0071948976 -0.13866219 0.10127582 0.094057 0.068525925 -0.11504961 0.09928141 0.023010062
-0.03748173 -0.021296505 0.10400537 -0.06946946 -0.045500353 -0.025643619 -0.11385752 -0.03945386
-0.01550875 -0.07793603 -0.10562288 -0.0951258 -0.12707256 0.021327125 0.16166677 0.009624025
-0.021238348 -0.010802408 -0.109618716 -0.15275098 -0.03567594 -0.09905454 0.09768225 -0.051063683
0.009094842 -0.02373749 -0.035234127 -0.047001027 -0.04320535 -0.052340113 -0.12077801 0.09780722
0.054200906 -0.10246765 0.022229122 -0.018924728 0.038613796 0.008052816 0.06545126 -0.08748325
-0.027648652 0.0631551 -0.03463474 -0.066172555 -0.09912568 0.061741248 -0.0047127013 -0.09791532
0.033001535 -0.13057964 -0.060944792 0.08636984 0.028997276 -0.04139634 -0.11240583 0.12146414
-0.07144576 0.021391544 0.00919686 0.07670935 0.032285742 0.046287056 0.03746632 0.08989601
0.035023116 0.074518636 -0.045131467 -0.015003162 -0.02164559 0.07236962 0.04537505 0.054835454
-0.005441187 -0.041185085 0.10311312 0.12575433 -0.016839366 -0.08468169 -0.005192826 -0.043249764
-0.0033195491 0.09723863 0.04290215 -0.015362875 0.013015886 -0.09157165 0.085549854 0.11663936
-0.030377794 -0.09617443 -0.0040994105 0.051621124 0.07893893 0.09116125 -0.012382741 0.002049729
0.08483683 0.11953323 -0.05271525 -0.09308716 0.09802379 -0.111594684 -0.033821035 0.06369671
0.05123214 0.070673466 -0.002842831 -0.045507133 0.13165073 0.05587864 -0.024511125 -0.0547472
0.025527395 0.03781397 -0.025520472 0.010520843 -0.11342292 0.12970048 -0.076154105 0.14013882
-0.08612589 -0.0010120022 -0.09079063 0.04360159 -0.08720774 0.030686207 0.04940229 0.03425137
-0.1409309 0.105228804 -0.01829465 -0.12900993 -0.15729165 0.038642045 -0.08897893 0.15589125
0.015052088 0.07586215 -0.012639839 0.05071533 -0.094324514 0.07032191 0.031221539 -0.027764443
-0.06825075 0.008883115 0.08950126 -0.033277232 0.05543101 0.042138766 0.03632245 0.10504853
0.081712194 0.05080368 -0.0015673023 -0.14911458 0.0445495 0.0034339842 -0.036099575 0.034554992
0.023150912 -0.0015449896 -0.04750388 -0.02400755 0.07310754 -0.012251487 0.18780766 0.13205826
-0.04878214 0.041261643 0.099093564 -0.045869555 0.005584227 -0.035371117 -0.017837806 0.06629962
-0.054618772 -0.029724667 0.0023216067 -0.042240884 0.1619851 -0.02510625 0.035919838 0.07433714
-0.003112281 -0.055804048 0.064530835 -0.069836065 0.016261602 0.02608697 0.05596786 0.110188134
-0.021188626 -0.05532521 -0.08458434 -0.063366376 0.006108775 -0.13352798 0.019379722 -0.016880432
-0.019528262 0.007053102 0.11820221 0.04997437 0.08155441 0.037009034 -0.047392063 -0.065532066
-0.00026227176 0.059320055 0.07815365 -0.013469229 0.14633985 0.062287062 -0.049458507 0.035381738
-0.09309039 0.009708764 -0.0055475966 0.053584054 0.003739732 -0.043916646 -0.08099936 0.03853693
00000000: 615c 763d a2ae 703c 7c1c a53b c8d1 0c3e
00000010: dc1b fb3c f00d 93bc d690 9abd ccc4 dcbd
00000020: 5287 87bd 1239 38bd 88b3 8abd c1fb da3d
00000030: 278d 603d 2feb adbd af15 a53c 21ae a3bc
00000040: 6558 013e 9765 793c e278 a6bc 49a5 53bc
00000050: f41c 88bd 8696 01be ef4e 8ebd 9578 21bd
00000060: 2dc3 ebbb 76fd 0dbe b269 cf3d f5a0 c03d
00000070: 5257 8c3d 219f ebbd 0d54 cb3d 997f bc3c
00000080: 7186 19bd 0276 aebc c400 d53d 0146 8ebd
00000090: 945e 3abd 9112 d2bc 222e e9bd 5f9a 21bd
000000a0: 6a18 7ebc ed9c 9fbd cf50 d8bd 51d1 c2bd
000000b0: 4f1f 02be 39b6 ae3c f98b 253e 16ae 1d3c
000000c0: 0bfc adbc 95fc 30bc c77f e0bd c16a 1cbe
000000d0: ef20 12bd 1bdd cabd a20d c83d 2728 51bd
000000e0: 8802 153c 2075 c2bc a951 10bd 2684 40bd
000000f0: 18f8 30bd 9662 56bd 765a f7bd 274f c83d
00000100: c501 5e3d 8fda d1bd d919 b63c 0808 9bbc
00000110: 8029 1e3d f5ef 033c 4f0b 863d 6b2a b3bd
00000120: 6d7f e2bc 7657 813d 28dd 0dbd 7a85 87bd
00000130: 6802 cbbd 64e4 7c3d 016d 9abb d487 c8bd
00000140: 9e2c 073d abb6 05be 3fa1 79bd ace2 b03d
00000150: b28b ed3c 358f 29bd 0735 e6bd 31c2 f83d
00000160: 2852 92bd 523d af3c 6dae 163c cb19 9d3d
00000170: 0e3e 043d 7f97 3d3d 4976 193d 661b b83d
00000180: 6674 0f3d 3a9d 983d c6db 38bd d3cf 75bc
00000190: 1852 b1bc 8636 943d 30db 393d 249b 603d
000001a0: fc4b b2bb b1b1 28bd f92c d33d bec5 003e
000001b0: b6f2 89bc 986d adbd 9528 aabb aa26 31bd
000001c0: cb8c 59bb 0c25 c73d 2aba 2f3d 91b4 7bbc
000001d0: 9540 553c eb89 bbbd c334 af3d 9ee0 ee3d
000001e0: dada f8bc 19f7 c4bd 5954 86bb ac70 533d
000001f0: bcaa a13d c0b2 ba3d fbe0 4abc bf54 063b
00000200: efbe ad3d d7cd f43d f2eb 57bd 7ba4 bebd
00000210: b2c0 c83d c18b e4bd ed87 0abd 6c73 823d
00000220: cbd8 513d 40bd 903d ca4e 3abb b065 3abd
00000230: 73cf 063e 00e1 643d 8ecb c8bc 9a3e 60bd
00000240: d41e d13c d2e2 1a3d 4f10 d1bc 9d5f 2c3c
00000250: 474a e8bd 34d0 043e aff6 9bbd 8d80 0f3e
00000260: c562 b0bd 29a5 84ba 70f0 b9bd 9597 323d
00000270: f999 b2bd a461 fb3c 0e5a 4a3d 2a4b 0c3d
00000280: 3150 10be 3382 d73d a9de 95bc 2e1b 04be
00000290: 1011 21be 1f47 1e3d 963a b6bd f5a1 1f3e
000002a0: 089d 763c 9d5d 9b3d 5417 4fbc e1ba 4f3d
000002b0: 362d c1bd ef04 903d 50c4 ff3c 4272 e3bc
000002c0: 0dc7 8bbd 7c8a 113c 704c b73d b54d 08bd
000002d0: a00b 633d b399 2c3d d9c6 143d af23 d73d
000002e0: b958 a73d 8517 503d f06d cdba 7eb1 18be
000002f0: 8979 363d b20c 613b 26dd 13bd 8989 0d3d
00000300: fba6 bd3c 4081 caba 6e93 42bd 7bab c4bc
00000310: 68b9 953d 76ba 48bc a750 403e 483a 073e
00000320: c8cf 47bd f801 293d 91f1 ca3d b7e1 3bbd
00000330: e4fb b63b 4ee1 10bd 9720 92bc 18c8 873d
00000340: efb7 5fbd 2581 f3bc 1926 183b c704 2dbd
00000350: 6cdf 253e 9fab cdbc ae20 133d 123e 983d
00000360: 69f7 4bbb c992 64bd be28 843d 3606 8fbd
00000370: 0d37 853c 57b4 d53c 8e3e 653d 51aa e13d
00000380: c593 adbc b09c 62bd 8e3a adbd 3bc6 81bd
00000390: 1e2c c83b 8fbb 08be 39c2 9e3c d548 8abc
000003a0: bcf9 9fbc b51d e73b 0014 f23d edb1 4c3d
000003b0: 0006 a73d c996 173d 2e1e 42bd ad35 86bd
000003c0: 8581 89b9 96f9 723d 050f a03d 0bae 5cbc
000003d0: 1dda 153e b820 7f3d 0195 4abd 71ec 103d
000003e0: 2da6 bebd 8211 1f3c 9dc8 b5bb f47a 5b3d
000003f0: 4b16 753b f1e1 33bd fee2 a5bd e6d8 1d3d

hidden_block.2.bias f4 [64]
-0.10412713 -0.13656487 0.07559732 -0.13722126 0.1604288 -0.118687846 -0.14506152 0.07733626
0.04846853 0.106502324 0.08404795 -0.003010861 0.039293047 0.38335866 0.03820737 -0.05915049
-0.010809136 0.009936761 -0.13854147 0.0061675534 -0.13369709 -0.024201859 -0.061436545 0.03270941
-0.10602371 0.11385923 -0.15741462 0.0005876847 0.008942356 0.11931204 0.07008507 0.032277234
-0.006045774 -0.08732633 -0.12000433 -0.009402907 -0.0031892473 0.09154847 0.07084979 -0.10668023
-0.17483576 0.02251884 0.00558061 -0.033206224 -0.19580469 -0.10964392 0.00266165 -0.1756873
-0.13000995 0.27615872 -0.026699392 0.06933174 -0.04488781 -0.04334781 -0.16944344 -0.08213698
-0.009369456 -0.055380996 0.3277566 -0.05904349 -0.051296536 -0.11096125 0.016780796 0.12779021
00000000: 9b40 d5bd a9d7 0bbe c5d2 9a3d bb83 0cbe
00000010: 7347 243e 9d12 f3bd 028b 14be 7962 9e3d
00000020: f086 463d e41d da3d 5521 ac3d de51 45bb
00000030: bff1 203d 9647 c43e 557f 1c3d c947 72bd
00000040: cd18 31bc cccd 223c d1dd 0dbe 3019 ca3b
00000050: e4e7 08be fa42 c6bc e3a4 7bbd 4dfa 053d
00000060: f522 d9bd 072f e93d 4c31 21be da0e 1a3a
00000070: f682 123c df59 f43d c388 8f3d 2235 043d
00000080: a11b c6bb 26d8 b2bd d5c4 f5bd a70e 1abc
00000090: b102 51bb c47d bb3d b219 913d 2a7b dabd
000000a0: 2508 33be 6e79 b83c 8ddd b63b 4003 08bd
000000b0: 0681 48be fe8c e0bd 146f 2e3b 5fe7 33be
000000c0: 5421 05be ad64 8d3e afb8 dabc cdfd 8d3d
000000d0: 48dc 37bd 798d 31bd 9582 2dbe 6f37 a8bd
000000e0: 5982 19bc 2fd7 62bd b7cf a73e 96d7 71bd
000000f0: 511c 52bd a73f e3bd e177 893c 70db 023e

hidden_block.4.weight f4 [64]
0.9527114 1.0028756 1.0062245 1.0102221 0.74723285 1.0065182 1.0087575 0.97475785
1.0214399 0.9009229 1.0419648 0.88039494 1.0156064 0.8837753 1.0010564 0.9149548
1.0004215 0.9670096 1.0559486 0.88387597 1.0176157 1.0134751 0.8614406 0.7768705
0.873595 1.00449 0.97835344 0.9188959 0.8365745 0.951168 0.7855261 0.93480533
0.9636421 0.9979241 0.9466012 0.9090902 0.9264694 1.001481 1.0002289 0.97173554
0.9848122 0.9364415 0.97025776 1.070513 0.99576813 0.88333875 0.952821 1.0715873
0.9699594 0.90555024 1.1231009 0.89640385 0.9033584 0.99055165 1.0160652 0.8923859
0.9490586 0.83304393 0.82248616 0.9588704 0.857456 1.0378721 0.8837207 0.85090107
00000000: e5e4 733f 3a5e 803f f7cb 803f f54e 813f
00000010: a74a 3f3f 97d5 803f f71e 813f bb89 793f
00000020: 8bbe 823f e2a2 663f 1a5f 853f 9061 613f
00000030: 64ff 813f 193f 623f 9e22 803f 7a3a 6a3f
00000040: d00d 803f f18d 773f 5329 873f b245 623f
00000050: 3b41 823f 8db9 813f 5f87 5c3f fce0 463f
00000060: eca3 5f3f 2193 803f 5f75 7a3f c33c 6b3f
00000070: bf29 563f bf7f 733f 3d18 493f 674f 6f3f
00000080: 40b1 763f f477 7f3f 7554 723f 23ba 683f
00000090: 192d 6d3f 8830 803f 8007 803f a9c3 783f
000000a0: a71c 7c3f a1ba 6f3f d062 783f 9206 893f
000000b0: a9ea 7e3f 7d22 623f 14ec 733f c629 893f
000000c0: 424f 783f 24d2 673f c5c1 8f3f b97a 653f
000000d0: 7f42 673f cb94 7d3f 6d0e 823f 6773 643f
000000e0: 81f5 723f 5e42 553f 748e 523f 8878 753f
000000f0: 3d82 5b3f fed8 843f 853b 623f a7d4 593f

hidden_block.4.bias f4 [64]
-0.0022725773 -0.018524375 -0.0236528 -0.054844264 -0.0714594 -0.01781808 -0.016146325 0.051439006
-0.019445479 0.005573488 -0.038573403 -0.0052633956 -0.017005615 -0.079390936 -0.07706169 -0.011208942
-0.026471777 -0.021187862 -0.10818655 0.034532726 -0.02530439 -0.118320145 0.028458327 0.047143687
0.0016796035 0.10394953 -0.07091795 0.03325413 0.050973494 0.020117462 -0.0050254744 0.008154659
-0.012032144 -0.020393236 -0.0053975754 -0.015431962 0.052884348 -0.019481411 0.056679882 -0.00054938457
0.0053574755 0.075782225 0.0013237518 -0.09829732 -0.013849749 -0.0383855 -0.0016537148 -0.14165232
0.022897089 -0.042833053 -0.10338861 0.021052029 0.030725561 -0.021314148 -0.023114521 -0.011331753
0.052322358 -0.10566915 -0.030280028 -0.02047804 -0.0049708933 -0.16387428 -0.05404048 -0.016325532
00000000: 85ef 14bb 6ec0 97bc 84c3 c1bc 61a4 60bd
00000010: 4e59 92bd 39f7 91bc 4c45 84bc b5b1 523d
00000020: 204c 9fbc cea1 b63b 25ff 1dbd 9078 acbb
00000030: 5c4f 8bbc b797 a2bd 85d2 9dbd b6a5 37bc
00000040: 57db d8bc 2b92 adbc e990 ddbd 3072 0d3d
00000050: 274b cfbc d551 f2bd 7021 e93c bd19 413d
00000060: 2426 dc3a 7ee3 d43d 6e3d 91bd 7c35 083d
00000070: 95c9 503d 60cd a43c bcac a4bb 1e9b 053c
00000080: 7822 45bc b70f a7bc 25de b0bb 57d6 7cbc
00000090: 429d 583d 7b97 9fbc 2a29 683d 9304 10ba
000000a0: c38d af3b b633 9b3d bd81 ad3a 1b50 c9bd
000000b0: 0fea 62bc 1d3a 1dbd 76c1 d8ba 4e0d 11be
000000c0: ad92 bb3c b671 2fbd 68bd d3bd 4e75 ac3c
000000d0: 2cb4 fb3c 029b aebc aa5a bdbc d1a8 39bc
000000e0: f84f 563d 1169 d8bd d20d f8bc 90c1 a7bc
000000f0: e0e2 a2bb a9ce 27be 8d59 5dbd 1fbd 85bc

layers.0.ln.weight f4 [64]
0.98943216 0.96459025 0.9570337 0.75296026 0.6331502 0.9237991 0.9028222 1.0114331
0.92869925 0.9784693 0.6410845 0.80673575 0.96541953 0.673514 0.7565933 0.9833883
0.93262184 0.98790926 0.77948225 1.0164754 0.99045444 0.67907584 0.9811868 0.87374854
0.8347768 0.8917348 0.7751959 0.98235196 0.9806418 1.0359718 0.9477515 0.8594664
0.9268978 0.9369905 0.94134104 1.1023655 1.0961982 0.9867638 1.0401297 0.9422694
0.94995004 1.107571 0.84841114 0.85274625 0.92791104 0.6357966 0.9118192 0.7769655
1.0691838 0.86071885 0.91741586 0.9682512 1.0254848 0.9142494 0.88580304 1.0077785
0.94723594 0.5971525 0.50458395 0.94526523 0.91403383 0.6235051 0.88571364 0.70875585
00000000: 6d4b 7d3f 63ef 763f 2900 753f 01c2 403f
00000010: 2216 223f 197e 6c3f 5b1f 673f a476 813f
00000020: 3cbf 6d3f f77c 7a3f 1d1e 243f 3c86 4e3f
00000030: bc25 773f 6a6b 2c3f 19b0 413f 56bf 7b3f
00000040: 4ec0 6e3f 9fe7 7c3f 268c 473f de1b 823f
00000050: 6c8e 7d3f ead7 2d3f 0f2f 7b3f fcad 5f3f
00000060: efb3 553f bb48 643f 3d73 463f 6b7b 7b3f
00000070: 570b 7b3f b99a 843f d89f 723f fd05 5c3f
00000080: 2d49 6d3f 9cde 6f3f bafb 703f 501a 8d3f
00000090: 3950 8c3f 8d9c 7c3f f822 853f 9138 713f
000000a0: ed2f 733f e3c4 8d3f 7931 593f 944d 5a3f
000000b0: 948b 6d3f 91c3 223f fc6c 693f 36e7 463f
000000c0: 04db 883f 1258 5c3f c4db 6a3f 50df 773f
000000d0: 1643 833f 400c 6a3f fdc3 623f e3fe 803f
000000e0: 0e7e 723f fcde 183f 6a2c 013f e7fc 713f
000000f0: 1ffe 693f 089e 1f3f 21be 623f 0671 353f

layers.0.ln.bias f4 [64]
-0.02592116 0.023081638 0.038651828 0.2225416 -0.104916215 0.066641286 0.0880148 0.05943343
0.067199215 0.0030211352 -0.07602793 -0.050346605 0.032076143 -0.36359718 0.19794652 -0.035834447
0.04211094 0.02328538 0.18505614 0.0137313455 0.012648285 0.26112598 0.010430891 0.0062972154
0.06298912 -0.13473664 0.10949777 -0.0048327195 0.044106714 -0.013867334 -0.038327813 -0.08520163
0.031960748 0.05400895 0.03946579 -0.0021193598 0.04491227 0.0111471005 0.008081513 0.040080976
0.04541246 0.06455766 0.12609595 0.077520795 0.053110257 0.25235543 0.06225214 0.1614023
0.030052999 -0.16317044 0.005117476 0.03695512 0.04505184 0.05351157 0.09633325 -0.013709968
-0.011921931 0.2467783 -0.40522146 -0.034762938 0.04506018 0.28369105 -0.06226154 -0.15785828
00000000: 9d58 d4bc b415 bd3c 6151 1e3d f2e1 633e
00000010: 50de d6bd 3a7b 883d 1a41 b43d 7870 733d
00000020: be9f 893d 3dfe 453b 88b4 9bbd 3e38 4ebd
00000030: 4662 033d 6929 babe 7eb2 4a3e 24c7 12bd
00000040: 857c 2c3d fbc0 be3c 5b7f 3d3e 70f9 603c
00000050: c13a 4f3c 4eb2 853e 54e6 2a3c df58 ce3b
00000060: 7100 813d 67f8 09be 5e40 e03d ca5b 9ebb
00000070: 3ea9 343d d133 63bc a0fd 1cbd 317e aebd
00000080: 46e9 023d 7d38 5d3d e1a6 213d f5e4 0abb
00000090: eef5 373d 54a2 363c 5368 043c f32b 243d
000000a0: 6a02 3a3d ce36 843d 4c1f 013e 39c3 9e3d
000000b0: 248a 593d bb34 813e 1afc 7e3d a546 253e
000000c0: b531 f63c 2716 27be 80b0 a73b 405e 173d
000000d0: 4788 383d f32e 5b3d 5e4a c53d c69f 60bc
000000e0: 3454 43bc 73b3 7c3e 3079 cfbe 9563 0ebd
000000f0: 0691 383d f43f 913e f505 7fbd 9aa5 21be

layers.1.ln.weight f4 [64]
1.2372061 1.0229967 1.0352596 0.9562901 1.0109922 1.0234357 1.0207365 1.0718491
1.0311375 1.1415315 1.0859134 1.1167477 1.0306287 1.006778 0.9864506 1.1940672
1.0122031 1.0724748 0.9736315 1.2417717 1.0359758 0.7580452 1.1546446 1.1246519
1.0114613 1.0136024 0.9431711 1.1755064 1.1648487 1.1846215 1.2575663 1.0623518
1.0283381 0.9928124 0.9996486 1.2096486 1.2518901 1.064622 1.1018933 1.0308914
1.0454088 1.2407296 1.0213386 0.9848147 1.0350114 0.7302734 1.0163199 0.98784995
1.1762809 0.99348545 1.01839 1.1582481 1.239303 1.000796 1.0103172 1.1568775
0.73321456 0.810031 1.0091524 1.117802 1.0538914 0.7438189 1.0877752 1.0131978
00000000: c55c 9e3f 8ef1 823f 6383 843f 6ecf 743f
00000010: 3168 813f f1ff 823f 7ea7 823f 5a32 893f
00000020: 50fc 833f b41d 923f 36ff 8a3f 97f1 8e3f
00000030: a4eb 833f 1ade 803f 0788 7c3f 32d7 983f
00000040: df8f 813f db46 893f ea3f 793f 60f2 9e3f
00000050: db9a 843f 400f 423f 65cb 933f 98f4 8f3f
00000060: 9077 813f b9bd 813f a973 713f fe76 963f
00000070: c319 953f ada1 973f eff7 a03f 25fb 873f
00000080: 95a0 833f f428 7e3f f8e8 7f3f c4d5 9a3f
00000090: ef3d a03f 8945 883f d70a 8d3f 40f4 833f
000000a0: f5cf 853f 3ad0 9e3f 39bb 823f d11c 7c3f
000000b0: 417b 843f 33f3 3a3f c516 823f bce3 7c3f
000000c0: 5f90 963f 1055 7e3f 9b5a 823f 7941 943f
000000d0: 7ba1 9e3f 151a 803f 1352 813f 9014 943f
000000e0: f3b3 3b3f 315e 4f3f e82b 813f 2314 8f3f
000000f0: eae5 863f ea6a 3e3f 383c 8b3f 77b0 813f

layers.1.ln.bias f4 [64]
0.025799675 -0.0251669 -0.025414892 -0.01810288 0.0245339 -0.025143694 -0.025064861 -0.018199038
-0.025203453 0.025856629 0.026278572 0.026826575 -0.025496988 0.024214454 -0.025516039 0.026009372
-0.024956938 -0.026023224 -0.024748677 0.026186833 -0.0255827 0.034458715 0.025908638 0.025266396
0.026841216 0.023323715 -0.020654911 0.026553143 0.025463171 0.025870351 0.027809277 0.025727484
-0.025328014 0.027555762 0.026598206 0.027145429 -0.027193962 0.026800577 -0.027983489 -0.025081959
-0.025687348 -0.027833266 -0.025466047 -0.023001151 -0.025516491 0.031704146 -0.024234869 -0.025734393
-0.027068924 0.023080286 -0.025030486 -0.025868475 -0.026786724 -0.024289886 -0.024824265 0.026295846
-0.0336894 0.031433437 0.023811728 0.027237488 -0.024775485 0.042117458 0.027871925 0.02470851
00000000: d759 d33c d12a cebc e432 d0bc 7e4c 94bc
00000010: 51fb c83c 26fa cdbc d354 cdbc 2616 95bc
00000020: 7977 cebc 48d1 d33c 2946 d73c 68c3 db3c
00000030: 0fdf d0bc 645d c63c 0307 d1bc 9b11 d53c
00000040: 7e72 ccbc a82e d5bc bdbd cabc c585 d63c
00000050: cf92 d1bc 9524 0d3d 5a3e d43c 79fb ce3c
00000060: 1ce2 db3c 6011 bf3c 7d34 a9bc fa85 d93c
00000070: 2498 d03c 0fee d33c 48d0 e33c 72c2 d23c
00000080: b27c cfbc 9fbc e13c 7be4 d93c 1760 de3c
00000090: dfc5 debc e28c db3c a13d e5bc ae78 cdbc
000000a0: 466e d2bc 9702 e4bc 2c9e d0bc e96c bcbc
000000b0: f607 d1bc 35dc 013d 3488 c6bc efd0 d2bc
000000c0: a6bf ddbc de12 bd3c bc0c cdbc 20ea d3bc
000000d0: d56f dbbc 95fb c6bc 425c cbbc 636a d73c
000000e0: e5fd 09bd 59c0 003d d010 c33c 2721 df3c
000000f0: f5f5 cabc 5b83 2c3d aa53 e43c 8069 ca3c

logit.weight f4 [1, 64]
-0.29745874 0.15011956 0.11525377 0.038368907 -0.06973721 0.086379595 0.073883876 0.09232487
0.08870179 -0.2267331 -0.14931566 -0.15509471 0.1294842 -0.04619088 0.040247522 -0.26497427
0.098602965 0.13392186 0.029387232 -0.31654933 0.16152169 0.007224657 -0.24946481 -0.19531387
-0.08408997 -0.08152897 0.02940488 -0.27459955 -0.27611586 -0.253261 -0.28050697 -0.17530273
0.13063934 -0.07556734 -0.12671432 -0.32615498 0.3736087 -0.19440122 0.16146089 0.13096467
0.12619156 0.31021062 0.065336674 0.061571267 0.09918597 0.009958902 0.09124683 0.03981101
0.2847911 -0.030516852 0.073319174 0.26270342 0.32186916 0.088049345 0.063966915 -0.26646933
0.0005267848 -0.0032980435 -0.07182341 -0.18626857 0.11559007 0.001500252 -0.13693538 -0.11427344
00000000: 834c 98be f1b8 193e 2b0a ec3d b728 1d3d
00000010: 62d2 8ebd c9e7 b03d 6e50 973d d214 bd3d
00000020: 49a9 b53d b92c 68be 34e6 18be 26d1 1ebe
00000030: 8297 043e a632 3dbd 96da 243d b5aa 87be
00000040: 5af0 c93d d022 093e 7ebd f03c c112 a2be
00000050: f165 253e d1bc ec3b b473 7fbe 5c00 48be
00000060: 5d37 acbd a9f8 a6bd 81e2 f03c 5098 8cbe
00000070: 0f5f 8dbe 6dab 81be 9c9e 8fbe 8f82 33be
00000080: 52c6 053e 0dc3 9abd 66c1 01be c9fd a6be
00000090: a449 bf3e 1d11 47be 0156 253e 9a1b 063e
000000a0: 5c38 013e edd3 9e3e 3ccf 853d 2732 7c3d
000000b0: 0422 cb3d aa2a 233c 9edf ba3d df10 233d
000000c0: 24d0 913e 7afe f9bc 5d28 963d 1081 863e
000000d0: 09cc a43e 3753 b43d 1601 833d ab6e 88be
000000e0: ee17 0a3a fd23 58bb 2718 93bd 30bd 3ebe
000000f0: 7dba ec3d 1ba4 c43a ca38 0cbe 3108 eabd
